figs2-3_rl/results/freeway-QRDQN/network.pth (torch_old, 684828 bytes, 6 tensors)

conv.weight f4 [16, 7, 3, 3]
0.034647066 -0.034790255 -0.1544198 0.22817817 0.8836983 0.49709842 0.41982254 0.06986447
0.25248024 -0.006085345 0.003341068 0.00040106816 -0.8286733 -0.17603086 -0.7280636 0.0045395787
0.0066372245 -0.0045384225 0.016142057 0.012022835 0.0031509146 -0.026111055 0.7865881 -0.031909816
0.0033727575 -0.006391499 -0.010298633 0.0065517933 0.010622278 0.010859016 -0.0069296486 0.7940834
0.052606944 0.015925484 -0.0014217932 -0.004210074 -0.0005414158 0.0010345394 -0.0033562428 -0.022150356
0.82091594 0.083632015 0.006687445 -0.014006169 -0.018353634 -0.0031587672 0.0024835654 0.0083359135
0.005239366 0.810524 0.098768115 -0.013960502 -0.0043158033 0.014745152 -0.00024149075 0.015912594
0.00053905934 -0.0025232488 0.84561974 0.14128692 0.0003447498 -0.011062273 -0.027419116 0.2528675
0.3497798 -0.26523638 -0.32313082 -0.27648178 0.07339556 -0.45413545 0.12059421 -0.40691075
-0.06355125 0.21533073 -0.04010773 -0.15166971 0.05532532 -0.08184431 -0.048207287 -0.10500633
0.023632236 -0.5729337 -0.5062272 -0.10688376 -0.0057386076 0.16295387 0.038420018 0.08079663
-0.013874055 0.099382915 -0.30530408 -0.5311902 -0.56707627 0.040314652 0.22690263 -0.04472196
0.09541338 0.21365859 0.21346019 -0.25748742 -0.03632955 -0.10375064 0.04369098 0.21471351
-0.0118444115 0.026210565 0.18059866 -0.033192907 -1.0234156 0.19173509 -0.21306679 0.03162413
-0.011328433 -0.06017646 0.0014070913 0.21255027 0.02331781 0.107683666 0.08294682 -0.020689456
0.106583275 0.089044794 0.02073921 -0.09814157 0.20142977 -0.010473111 0.20094082 0.13471855
-0.31208962 0.15221362 -0.39158908 0.07744433 0.17494704 -0.27630284 0.06463273 -0.013328784
-0.021970587 -0.010600604 0.3089794 0.16566154 0.20247582 0.007811251 -0.00927064 0.020025162
0.036605805 0.033454627 0.0064528263 -0.10840932 -0.5138238 -0.10534368 0.027041702 -0.013167375
-0.003028645 0.032843538 0.03495116 0.004740469 -0.0048968066 -0.27579513 -0.15564762 0.0558155
0.03405174 -0.0019351928 0.033352923 0.039759453 0.03817797 0.073147915 -0.31937066 -0.07386062
0.020947969 -0.009009803 -0.02939288 -0.0243976 0.033431824 -0.020606777 0.14230084 -0.49583054
-0.8340397 0.010057308 -0.014832694 0.028906666 0.01499126 0.027095806 0.029772278 0.13878593
-0.51835525 -0.03573206 -0.0029329446 0.010217066 0.032535985 0.35151306 0.18522084 -0.08698518
0.19955462 0.11382937 0.7365062 -0.4412722 -0.011795426 -0.11533548 -0.10611501 -0.19488235
-1.1063154 -0.008271427 -0.039285444 -0.017577864 0.016086565 0.0011356239 0.006525164 -0.12821485
0.52473843 0.10288288 0.009054455 -0.026251862 -0.051623512 -0.04413371 -0.09790569 0.055861436
-0.04865956 0.23991366 0.22577512 0.005769527 -0.025943361 -0.05820972 -0.024382325 -0.047969792
-0.005575359 0.03140104 0.047085386 0.23587282 0.018101832 0.03177652 -0.045507967 -0.004480694
-0.046471763 -0.0025534055 0.071612805 0.01201491 0.19101101 -0.0060144137 0.0259644 0.005642501
0.0014417322 0.008465965 0.034001596 0.13786684 0.07575671 0.18399614 0.015810024 0.02351971
0.045651786 0.023469582 -0.07078515 -0.0058969017 -0.51594305 0.27476144 0.101113185 -0.4352812
00000000: 15ea 0d3d 3a80 0ebd 3920 1ebe 8aa7 693e
00000010: 0d3a 623f af83 fe3e fbf2 d63e 1a15 8f3d
00000020: 1745 813e 9367 c7bb d2f5 5a3b 7546 d239
00000030: ef23 54bf 6f41 34be 6062 3abf bfc0 943b
00000040: 137d d93b 0cb7 94bb 593c 843c 6dfb 443c
00000050: 937f 4e3b dae6 d5bc d65d 493f deb3 02bd
00000060: 7b09 5d3b c86f d1bb 99bb 28bc 6db0 d63b
00000070: 1009 2e3c 04ea 313c 1b12 e3bb 0d49 4b3f
00000080: 617a 573d 2976 823c 775b baba a9f4 89bb
00000090: cded 0dba 6299 873a 69f4 5bbb aa74 b5bc
000000a0: 8c27 523f 4347 ab3d 5b22 db3b 217a 65bc
000000b0: 5c5a 96bc 5203 4fbb 50c3 223b 5b93 083c
000000c0: fdae ab3b 807e 4f3f f046 ca3d 97ba 64bc
000000d0: 956b 8dbb a695 713c ae38 7db9 215b 823c
000000e0: a94f 0d3a 175d 25bb 897a 583f 85ad 103e
000000f0: 89bf b439 893e 35bc 0e9e e0bc d977 813e
00000100: 5716 b33e 10cd 87be 6771 a5be 058f 8dbe
00000110: 6950 963d 7184 e8be 19fa f63d 9b56 d0be
00000120: 2827 82bd a97f 5c3e 0148 24bd 4e4f 1bbe
00000130: ce9c 623d fd9d a7bd 0175 45bd 8f0d d7bd
00000140: 6498 c13c c8ab 12bf 1b98 01bf dfe5 dabd
00000150: ee0a bcbb 61dd 263e 4f5e 1d3d b478 a53d
00000160: 0150 63bc 4589 cb3d d150 9cbe 15fc 07bf
00000170: e92b 11bf fa20 253d 2a59 683e 602e 37bd
00000180: 1768 c33d 51c9 5a3e 4f95 5a3e 64d5 83be
00000190: 4bce 14bd 377b d4bd 50f5 323d dcdd 5b3e
000001a0: 100f 42bc 8ab7 d63c dbee 383e 49f5 07bd
000001b0: 48ff 82bf 3456 443e 2e2e 5abe 4e88 013d
000001c0: e49a 39bc 977b 76bd 266e b83a c7a6 593e
000001d0: fe04 bf3c 4189 dc3d 06e0 a93d ef7c a9bc
000001e0: 5548 da3d 1e5d b63d 47e5 a93c 73fe c8bd
000001f0: 9b43 4e3e 6997 2bbc 6ec3 4d3e a9f3 093e
00000200: 36ca 9fbe e3dd 1b3e 5d7e c8be 229b 9e3d
00000210: 5125 333e 9177 8dbe 2a5e 843d f960 5abc
00000220: a9fb b3bc 28ae 2dbc 8c32 9e3e 2ea3 293e
00000230: d255 4f3e 86f5 ff3b e2e3 17bc cf0b a43c
00000240: f8ef 153d b807 093d 3b72 d33b b505 debd
00000250: f589 03bf 6dbe d7bd 8f86 dd3c f9bb 57bc
00000260: 3b7c 46bb f286 063d f328 0f3d f055 9b3b
00000270: 6475 a0bb 0535 8dbe 1762 1fbe cb9e 643d
00000280: d679 0b3d 4ca6 fdba 139d 083d cfda 223d
00000290: 8160 1c3d 93ce 953d 8d84 a3be 3d44 97bd
000002a0: 139b ab3c da9d 13bc 56c9 f0bc 7add c7bc
000002b0: cfef 083d 8bcf a8bc 50b7 113e 80dd fdbe
000002c0: a083 55bf 68c7 243c d404 73bc accd ec3c
000002d0: e79d 753c 06f8 dd3c fee4 f33c e61d 0e3e
000002e0: eeb2 04bf c85b 12bd a536 40bb 7b65 273c
000002f0: 7444 053d 85f9 b33e 88aa 3d3e 4925 b2bd
00000300: 0c58 4c3e 5f1f e93d ac8b 3c3f 6eee e1be
00000310: 9a41 41bc 0235 ecbd d452 d9bd 3d8f 47be
00000320: be9b 8dbf e184 07bc c6e9 20bd 74ff 8fbc
00000330: f9c7 833c 37d9 943a 0bd1 d53b c14a 03be
00000340: 4255 063f 42b4 d23d 2359 143c 250e d7bc
00000350: 2d73 53bd 8dc5 34bd c782 c8bd f6ce 643d
00000360: 3f4f 47bd edab 753e 9831 673e 4d0e bd3b
00000370: 2c87 d4bc 516d 6ebd 71bd c7bc f97b 44bd
00000380: 80b1 b6bb 609e 003d 9bdc 403d a588 713e
00000390: 4b4a 943c 1928 023d 9066 3abd c9d2 92bb
000003a0: 2d59 3ebd 0957 27bb bca9 923d 2fda 443c
000003b0: 6498 433e 8f14 c5bb 4bb3 d43c bbe4 b83b
000003c0: 81f8 bc3a d5b4 0a3c 4245 0b3d f72c 0d3e
000003d0: 5526 9b3d 7c69 3c3e 0684 813c 68ac c03c
000003e0: 5efd 3a3d 4843 c03c cef7 90bd cc3a c1bb
000003f0: d814 04bf 88ad 8c3e 6e14 cf3d 2ddd debe

conv.bias f4 [16]
-0.03237296 -0.25884482 -0.16461852 -0.19537896 -0.026077712 -0.14642756 0.1176835 -0.5408676
0.18333177 -0.18475033 -0.06268419 -0.0128755 -0.112020984 -0.065731 -0.15511598 -0.17591225
00000000: 8299 04bd 4f87 84be c291 28be 6c11 48be
00000010: eda0 d5bc 1bf1 15be 0c04 f13d 4d76 0abf
00000020: 53bb 3b3e 312f 3dbe 9260 80bd c3f3 52bc
00000030: 426b e5bd f99d 86bd b9d6 1ebe 5722 34be

fc_hidden.weight f4 [128, 1024]
0.05876243 0.21373919 0.015424235 -0.056303293 -0.12025088 0.038310166 -0.06880382 -0.109044634
-0.008136356 0.06361382 0.006024279 -0.07655217 0.2327291 -0.124681085 -0.055005502 0.00045645112
-0.13016187 -0.120191835 -0.043629933 0.016933033 0.0010715481 0.08396512 0.11217813 0.04921178
-0.03365167 0.014510354 -0.14641428 -0.028549409 -0.016743625 0.053165905 0.024961596 0.16969976
0.030855937 0.018357184 -0.16826542 -0.04809605 -0.020997193 -0.012523862 -0.14351076 0.051020656
-0.08306028 0.13797788 -0.05763548 -0.09019763 -0.25914615 -0.08922585 -0.16667747 -0.17218383
-0.019076467 -0.0083393045 -0.10626162 0.018694207 0.025026321 -0.08288171 0.052294634 -0.061283216
-0.093203254 -0.07159363 0.06789804 -0.040671304 -0.1331748 -0.049801793 0.12264787 -0.08580792
0.054520953 -0.062772475 0.025635596 -0.21164416 -0.0024816252 0.0031061564 -0.030213993 0.030959146
0.047100633 0.06539096 -0.023760296 -0.06511889 -0.106750555 -0.07252603 -0.13996434 0.02205046
0.116013065 -0.11771129 -0.10181822 -0.12632535 -0.0685453 0.017752383 0.03644118 0.21672343
-0.07285121 -0.18718778 -0.039245006 -0.07283905 0.15281688 -0.120863914 0.12438769 -0.022562008
-0.01917466 -0.012017118 -0.07767706 -0.12592316 -0.00910969 0.09264158 0.056572247 -0.07566793
0.025655797 0.06595984 -0.115162045 0.05128 -0.030539414 -0.10956966 -0.14170057 0.014684634
-0.018200211 0.0248626 -0.081628054 -0.08860935 -0.023925466 -0.16294967 0.009831547 0.026673788
-0.03170358 -0.0074865767 0.07074588 0.053748585 0.07432184 -0.12378832 -0.033816166 0.09095395
-0.09157232 0.013086609 -0.2154435 0.020205047 -0.26133743 -0.123515666 -0.22892761 -0.06042541
-0.03207046 -0.02899448 0.12664428 -0.021943511 0.05944765 -0.046194036 -0.017678462 0.11510516
0.10497626 -0.09145683 -0.014154217 0.15675561 0.023624808 0.06651897 -0.13299976 0.0070720576
0.17377768 0.005905523 -0.0011889567 -0.07861299 -0.033170454 0.12318601 0.08377386 -0.00041572447
-0.008198658 -0.19926447 -0.06941843 0.13232863 0.025449563 0.10440085 -0.134113 -0.026709054
-0.024070159 0.013744104 -0.0068395548 -0.0015430051 0.046909243 -0.22291501 -0.17154843 0.017468091
-0.14437658 -0.05148828 0.02471157 -0.028221121 -0.08705808 -0.08819477 -0.03613444 -0.15694572
-0.05119522 -0.0059245024 -4.2776894e-05 0.048727483 -0.060687177 -0.017736686 -0.14296615 -0.03344962
0.03662187 -0.056312423 -0.086959556 -0.052368414 0.03502786 -0.029239643 -0.1399094 0.091266274
-0.19365846 -0.058299765 -0.047120508 0.023836179 0.060990065 -0.14190958 -0.059906565 -0.037675504
-0.09063512 -0.094087616 -0.11112838 0.004783863 -0.079254314 -0.09436153 0.011477304 -0.20782436
0.07762201 -0.12715092 0.17170145 -0.12992556 -0.15350552 0.065863654 0.08566814 0.24653482
0.11691128 -0.08442983 -0.16913912 0.13549128 -0.004914717 -0.0009690255 0.22461954 0.017085949
-0.24296045 0.032210287 -0.13081804 -0.10040819 0.029130582 -0.1026185 0.19004619 -0.017309094
0.07620009 0.2768295 0.07649407 -0.12085305 -0.08107283 -0.04084743 -0.017634634 -0.08077759
-0.0075426754 -0.15162475 -0.0001708542 0.02789661 0.008050734 0.1069447 -0.06216612 0.06312134
00000000: e0b0 703d 72de 5a3e eeb5 7c3c 489e 66bd
00000010: 1846 f6bd 1feb 1c3d 04e9 8cbd cb52 dfbd
00000020: 5a4e 05bc f647 823d 5167 c53b 62c7 9cbd
00000030: 8a50 6e3e cc58 ffbd 734d 61bd d54f ef39
00000040: 2749 05be 2327 f6bd 4db5 32bd 25b7 8a3c
00000050: 3073 8c3a e8f5 ab3d a6bd e53d 4b92 493d
00000060: 55d6 09bd d6bc 6d3c a0ed 15be 73e0 e9bc
00000070: ed29 89bc 7ec4 593d 437c cc3c c6c5 2d3e
00000080: 97c5 fc3c ce61 963c c54d 2cbe 5d00 45bd
00000090: 4e02 acbc e230 4dbc 7cf4 12be 09fb 503d
000000a0: 821b aabd 134a 0d3e 2e13 6cbd 89b9 b8bd
000000b0: ceae 84be 0bbc b6bd 80ad 2abe f550 30be
000000c0: 4046 9cbc 94a1 08bc b19f d9bd 9824 993c
000000d0: 0004 cd3c e3bd a9bd e632 563d 1c04 7bbd
000000e0: 59e1 bebd ae9f 92bd 210e 8b3d f496 26bd
000000f0: fa5e 08be f7fc 4bbd ce2e fb3d 10bc afbd
00000100: 5d51 5f3d db8e 80bd be01 d23c 3fb9 58be
00000110: c3a2 22bb a890 4b3b 5683 f7bc 099e fd3c
00000120: 98ec 403d b2eb 853d f4a4 c2bc 0d5d 85bd
00000130: 09a0 dabd 8788 94bd d052 0fbe 2ba3 b43c
00000140: 4298 ed3d 9e12 f1bd 1286 d0bd 6f5b 01be
00000150: 7a61 8cbd 726d 913c 5943 153d bfec 5d3e
00000160: 0433 95bd 27ae 3fbe 5fbf 20bd a42c 95bd
00000170: 077c 1c3e 8087 f7bd f9be fe3d f6d3 b8bc
00000180: 2d14 9dbc 72e3 44bc 2715 9fbd 00f2 00be
00000190: cf40 15bc deba bd3d 4db8 673d caf7 9abd
000001a0: 1b2c d23c f415 873d 14da ebbd fa0a 523d
000001b0: cb2d fabc 0f66 e0bd f419 11be d297 703c
000001c0: 9c18 95bc a7ac cb3c 9c2c a7bd d278 b5bd
000001d0: 57ff c3bc 47dc 26be 7f14 213c fd82 da3c
000001e0: 9ddb 01bd f551 f5bb 37e3 903d 7a27 5c3d
000001f0: 0d36 983d bb84 fdbd d282 0abd 1146 ba3d
00000200: 458a bbbd 3769 563c 399d 5cbe 0e85 a53c
00000210: 05ce 85be c8f5 fcbd 006c 6abe a280 77bd
00000220: 515c 03bd d585 edbc 0aaf 013e e1c2 b3bc
00000230: 617f 733d f535 3dbd 6cd2 90bc 41bc eb3d
00000240: cbfd d63d b84d bbbd 17e7 67bc 8b84 203e
00000250: d088 c13c 193b 883d 1731 08be b8bc e73b
00000260: c7f2 313e 1e83 c13b c4d6 9bba d9ff a0bd
00000270: bedd 07bd f248 fc3d a191 ab3d 98f5 d9b9
00000280: aa53 06bc fc0b 4cbe 402b 8ebd 2881 073e
00000290: 9a7b d03c 1dd0 d53d eb54 09be f2cc dabc
000002a0: c82e c5bc f32e 613c 581e e0bb a93e caba
000002b0: e823 403d d543 64be 64aa 2fbe 3e19 8f3c
000002c0: 74d7 13be 60e5 52bd eb6f ca3c fb2f e7bc
000002d0: 824b b2bd 769f b4bd b501 14bd 61b6 20be
000002e0: 14b2 51bd 5422 c2bb 576b 33b8 7896 473d
000002f0: 1e93 78bd 874c 91bc b865 12be 7802 09bd
00000300: d000 163d dba7 66bd da17 b2bd 4380 56bd
00000310: 6079 0f3d fa87 efbc 6944 0fbe d0e9 ba3d
00000320: 674e 46be bccb 6ebd 6f01 41bd 1744 c33c
00000330: b8d0 793d bf50 11be 9660 75bd a151 1abd
00000340: e89e b9bd 02b1 c0bd 4797 e3bd f4c1 9c3b
00000350: 1650 a2bd 9e40 c1bd 4d0b 3c3c e9cf 54be
00000360: 4af8 9e3d da33 02be 81d2 2f3e 350b 05be
00000370: 8d30 1dbe 86e3 863d c772 af3d a073 7c3e
00000380: 2e6f ef3d 8ce9 acbd ce32 2dbe 3abe 0a3e
00000390: a20b a1bb 3306 7eba aa02 663e d5f7 8b3c
000003a0: a0ca 78be efee 033d 2af5 05be cfa2 cdbd
000003b0: 42a3 ee3c a629 d2bd 789b 423e cdcb 8dbc
000003c0: cb0e 9c3d 99bc 8d3e eca8 9c3d ce81 f7bd
000003d0: 8309 a6bd a24f 27bd 8276 90bc b96e a5bd
000003e0: 8c28 f7bb 8543 1bbe 5327 33b9 6e87 e43c
000003f0: 3ae7 033c d305 db3d e7a1 7ebd c345 813d

fc_hidden.bias f4 [128]
-0.038126316 0.14461227 -0.06257798 -0.038321 -0.038757443 0.18622735 -0.038986098 0.63521683
-0.03428887 -0.051840726 -0.043644313 -0.047134385 0.17013198 -0.03643539 -0.04454195 -0.06541739
-0.05458468 -0.040364962 -0.054298833 -0.04365685 -0.038135443 0.14234173 -0.03315875 -0.05645171
-0.04114412 -0.045367125 -0.04696974 -0.040938303 0.59580666 -0.20347483 -0.04643289 -0.0450039
0.36497676 -0.04739798 -0.031897467 -0.43173742 -0.33955675 -0.030831438 -0.05269685 -0.046144683
-0.043435484 -0.03806111 -0.03357697 -0.04860712 -0.04947463 -0.03635047 -0.04592974 -0.029160848
0.4584525 -0.046600077 -0.028335245 -0.047752466 -0.094892904 -0.046233807 -0.039994333 -0.037391387
-0.05284902 -0.036258943 0.15955289 -0.04026567 0.19559507 -0.037132144 -0.05483178 -0.04257668
-0.036077973 0.22043975 -0.050715003 0.027544046 -0.048283294 0.46892184 -0.048364546 -0.04314026
-0.05081344 -0.04778193 -0.037248626 -0.041155245 -0.043568153 -0.045152612 -0.040928725 -0.04456836
-0.038299203 -0.043511182 -0.03820323 -0.049659003 -0.054573867 -0.037089907 -0.03882999 0.10421505
-0.03601705 -0.063908875 -0.043157455 -0.0707853 -0.034959547 0.2433202 -0.051551916 -0.044997197
-0.31862926 -0.04543589 0.15933126 -0.03879172 0.109280534 -0.043434713 -0.041200195 -0.04618839
-0.036215566 -0.04302509 -0.043627456 -0.045245018 -0.042759787 -0.043114714 0.38275096 0.21448562
-0.04509582 -0.063081175 -0.055028107 -0.047949404 -0.04287556 -0.047338407 -0.041204847 -0.04959239
-0.031395603 -0.0379007 -0.047474083 0.5395739 -0.051716197 0.04628997 -0.16862074 0.018484797
00000000: 572a 1cbd 3d15 143e e228 80bd 7bf6 1cbd
00000010: 20c0 1ebd 62b2 3e3e e3af 1fbd 929d 223f
00000020: 7c72 0cbd f156 54bd 61c4 32bd fc0f 41bd
00000030: 1437 2e3e 473d 15bd 9f71 36bd 8df9 85bd
00000040: 2f94 5fbd bb55 25bd 7468 5ebd 86d1 32bd
00000050: e933 1cbd 08c2 113e 78d1 07bd e939 67bd
00000060: bd86 28bd e1d2 39bd 5863 40bd ecae 27bd
00000070: c986 183f b55b 50be 6a30 3ebd 0256 38bd
00000080: 3cde ba3e 6224 42bd eba6 02bd b00c ddbe
00000090: 62da adbe 3692 fcbc a7d8 57bd 3502 3dbd
000000a0: 68e9 31bd f7e5 1bbd 0188 09bd 4218 47bd
000000b0: e9a5 4abd 3be4 14bd d320 3cbd bbe2 eebc
000000c0: 49ba ea3e b9df 3ebd 511f e8bc 1798 43bd
000000d0: 3657 c2bd a95f 3dbd 19d1 23bd b627 19bd
000000e0: 3778 58bd 4284 14bd d561 233e 9ded 24bd
000000f0: 134a 483e e017 18bd 4a97 60bd e364 2ebd
00000100: 7fc6 13bd f5ba 613e 89ba 4fbd 0da4 e13c
00000110: b4c4 45bd 8616 f03e e719 46bd d7b3 30bd
00000120: c121 50bd fcb6 43bd 0492 18bd 6792 28bd
00000130: 8574 32bd f2f1 38bd e1a4 27bd 508d 36bd
00000140: a0df 1cbd c838 32bd fd7a 1cbd 3d67 4bbd
00000150: d988 5fbd 96eb 17bd 320c 1fbd b36e d53d
00000160: 9d86 13bd a8e2 82bd dfc5 30bd e2f7 90bd
00000170: be31 0fbd ee28 793e 1a28 53bd fb4e 38bd
00000180: 6023 a3be fc1a 3abd bc27 233e 11e4 1ebd
00000190: 79ce df3d 99e8 31bd 89c1 28bd 0a30 3dbd
000001a0: c656 14bd 143b 30bd b4b2 32bd d752 39bd
000001b0: e324 2fbd 0e99 30bd eff7 c33e 1ea2 5b3e
000001c0: 65b6 38bd b430 81bd 2765 61bd 9866 44bd
000001d0: 489e 2fbd ebe5 41bd 6ac6 28bd 6421 4bbd
000001e0: ad98 00bd c43d 1bbd 2f74 42bd 8421 0a3f
000001f0: 5dd4 53bd 8d9a 3d3d eaaa 2cbe 6e6d 973c

output.weight f4 [300, 128]
0.14027058 -0.029005663 0.037134074 0.07804677 -0.20381829 0.10592306 -0.3233405 0.13297017
-0.12918079 0.053345986 0.22112232 -0.022728307 0.003033376 0.1935143 0.060557544 -0.04422841
-0.08189709 0.3169728 0.421831 -0.15108955 0.2386344 0.25343272 -0.13610575 -0.21057804
0.14978108 -0.20766097 0.06862465 -0.10582082 0.019381966 1.0087574 -0.024945727 -0.12754343
0.14285749 0.012565689 0.06761001 0.78568864 0.9144404 0.0804265 -0.043098666 0.3025243
0.021091545 0.22018513 -0.044228893 0.07260062 0.008763549 0.11876939 0.040839758 -0.11319624
-0.18428905 0.14403196 -0.29840332 0.11731659 -0.06321675 0.1488129 0.05886297 0.07378428
-0.12392303 0.09707969 -0.02203876 -0.06293117 0.049384177 -0.29890016 0.040809255 0.046772096
-0.24940053 -0.11372364 0.11440369 -0.75010556 -0.0706738 -0.021477096 0.17769884 0.22142085
-0.29369736 -0.05140174 -0.15636829 -0.10242873 0.261785 0.37175915 -0.101899356 0.050419297
0.089732245 -0.25693333 0.035091802 -0.07710562 -0.03614344 -0.037817802 -0.2363353 0.29628468
-0.23029459 -0.22650078 -0.15045807 -0.030759308 -0.20202585 0.060140267 0.100106895 -0.3695259
1.0826361 0.23610584 0.29063445 -0.030999225 0.19347486 -0.11697556 -0.13500234 0.107188724
0.044740524 -0.10959116 0.24260749 0.0793906 -0.31606713 0.11289543 0.048578646 0.14101243
0.19769613 -0.03167867 0.11340238 0.037315737 -0.02396365 0.08471857 0.15983547 -0.17599203
-0.09332502 -0.09050517 0.0060883653 -0.06705967 -0.009142781 -0.96216583 -0.12034313 -0.8566853
0.011795059 -0.03403703 0.036012087 -0.096804015 0.112368815 0.103116766 0.11743845 0.14898096
-0.1002848 0.06486507 -0.25760907 -0.036981653 -0.18288858 -0.26722264 -0.09111236 0.19554928
0.07739017 0.13059475 0.26443648 0.40384212 0.12211885 0.23949778 0.0018819489 0.06387475
0.18125835 0.17606069 0.016180564 -0.028055307 0.06483296 1.0512611 -0.16290247 0.27135152
0.18887728 -0.34184098 -0.19286747 0.8186152 0.9636295 -0.06416747 0.006045539 0.34684402
-0.11230405 0.07895692 0.06379325 -0.14313494 0.16586356 -0.04706292 0.040569127 -0.16809775
-0.16069412 -0.16939944 0.034609493 0.00342429 -0.07207985 -0.05532156 0.26868454 -0.45762092
-0.06660416 0.2045176 -0.010934733 -0.1575837 0.010367052 0.24404907 -0.14348646 -0.11622805
-0.09228014 -0.08659861 -0.16269754 -0.9058723 0.32207534 -0.014532144 0.1354687 -0.1630144
-0.11641477 0.036951635 0.22406486 -0.16031283 0.032549884 -0.24209322 -0.14886999 -0.04107398
0.14602463 -0.12511447 0.002031823 0.06914948 -0.37142247 0.04559205 -0.13976875 0.28548265
0.04713468 -0.2477574 -0.012895139 0.02415366 -0.1095309 0.0503721 -0.16349807 0.0011250528
1.0800248 0.27197206 0.28595495 -0.009381632 0.20155022 0.35319072 -0.14131677 -0.3462715
0.39712223 0.21487008 -0.20017163 0.08352719 0.10382669 -0.04827566 0.10307436 0.14690922
-0.1062487 0.04585003 0.014454413 0.07542277 0.18468234 -0.03381998 -0.25059155 0.12500358
0.27482727 -0.009037619 0.08562656 -0.08005781 -0.07314872 -1.0753725 -0.13420214 -0.9715465
00000000: 17a3 0f3e 499d edbc e619 183d fcd6 9f3d
00000010: beb5 50be 30ee d83d e38c a5be 5529 083e
00000020: f847 04be 5281 5a3d e46d 623e b730 babc
00000030: 9bcb 463b 9d28 463e 300b 783d d928 35bd
00000040: a9b9 a7bd 424a a23e 3cfa d73e 38b7 1abe
00000050: 935c 743e efc1 813e 4e5f 0bbe c5a1 57be
00000060: 3660 193e 14a5 54be 158b 8c3d 96b8 d8bd
00000070: eec6 9e3c f61e 813f fb5a ccbc bf9a 02be
00000080: 3c49 123e 52e0 4d3c 1e77 8a3d e422 493f
00000090: c418 6a3f a6b6 a43d 3a88 30bd 77e4 9a3e
000000a0: 2dc8 ac3c 3678 613e 5b29 35bd a2af 943d
000000b0: fd94 0f3c 5e3d f33d 9747 273d 6ed3 e7bd
000000c0: 45b6 3cbe 1d7d 133e 52c8 98be ae43 f03d
000000d0: c977 81bd 6962 183e 4c1a 713d 361c 973d
000000e0: 5ccb fdbd b7d1 c63d a18a b4bc 0fe2 80bd
000000f0: 1047 4a3d 7109 99be 9b27 273d 1994 3f3d
00000100: da62 7fbe f1e7 e8bd 7b4c ea3d eb06 40bf
00000110: 6dbd 90bd bcf0 afbc aff6 353e 26bc 623e
00000120: 805f 96be a28a 52bd 021f 20be 27c6 d1bd
00000130: af08 863e 3757 be3e 9cb0 d0bd 7784 4e3d
00000140: 8ac5 b73d c48c 83be 6cbc 0f3d 8de9 9dbd
00000150: 250b 14bd d7e6 1abd e201 72be a0b2 973e
00000160: 58d2 6bbe d2ef 67be ae11 1abe f2fa fbbc
00000170: dddf 4ebe a455 763d d804 cd3d 8032 bdbe
00000180: d293 8a3f bbc5 713e 0ace 943e 16f2 fdbc
00000190: 461e 463e e290 efbd 0e3e 0abe c385 db3d
000001a0: d741 373d 5571 e0bd 196e 783e 8a97 a23d
000001b0: 8dd3 a1be b835 e73d 67fa 463d 9065 103e
000001c0: db70 4a3e 7ec1 01bd 823f e83d 63d8 183d
000001d0: 6b4f c4bc ee80 ad3d e9ab 233e 4137 34be
000001e0: 3021 bfbd c65a b9bd e980 c73b 9556 89bd
000001f0: 9acb 15bc 8050 76bf 7576 f6bd ba4f 5bbf
00000200: 1040 413c 6a6a 0bbd 6981 133d 2f41 c6bd
00000210: 9f21 e63d e22e d33d 9283 f03d 778e 183e
00000220: 1e62 cdbd fad7 843d 56e5 83be 137a 17bd
00000230: 2547 3bbe 68d1 88be 1e99 babd 123e 483e
00000240: bd7e 9e3d a1ba 053e 3864 873e 65c4 ce3e
00000250: 7319 fa3d e83e 753e baab f63a c4d0 823d
00000260: ca9b 393e 4149 343e 1a8d 843c 3ed4 e5bc
00000270: 25c7 843d b98f 863f e8cf 26be 96ee 8a3e
00000280: 0c69 413e c805 afbe 0d7f 45be c490 513f
00000290: 6cb0 763f 3c6a 83bd a819 c63b 8a95 b13e
000002a0: aaff e5bd 2ab4 a13d 09a6 823d f791 12be
000002b0: 23d8 293e 0cc5 40bd d02b 263d d121 2cbe
000002c0: 008d 24be 0c77 2dbe afc2 0d3d 0e6a 603b
000002d0: 9a9e 93bd dc98 62bd 0591 893e 4a4d eabe
000002e0: c367 88bd 106d 513e 9827 33bc 9f5d 21be
000002f0: 91da 293c 00e8 793e 1dee 12be f908 eebd
00000300: 5ffd bcbd 9d5a b1bd 2f9a 26be 3fe7 67bf
00000310: 0fe7 a43e 3b18 6ebc 4fb8 0a3e 3fed 26be
00000320: de6a eebd 995a 173d 4271 653e 0c29 24be
00000330: 0753 053d 49e7 77be 6071 18be 313d 28bd
00000340: 7b87 153e 021e 00be 5528 053b 3e9e 8d3d
00000350: 162b bebe bbbe 3a3d 8a1f 0fbe c82a 923e
00000360: 4b10 413d 1eb4 7dbe 2246 53bc e5dd c53c
00000370: bd51 e0bd fa52 4e3d 0a6c 27be 8276 933a
00000380: 413e 8a3f ec3f 8b3e b068 923e 6bb5 19bc
00000390: 2e63 4e3e 6ad5 b43e 58b5 10be 804a b1be
000003a0: 9b53 cb3e e706 5c3e cbf9 4cbe 4e10 ab3d
000003b0: 16a3 d43d b3bc 45bd a618 d33d 5f6f 163e
000003c0: eb98 d9bd 3ecd 3b3d 34d2 6c3c 4177 9a3d
000003d0: 5e1d 3d3e d286 0abd 894d 80be f000 003e
000003e0: 29b6 8c3e 8612 14bc fa5c af3d 59f5 a3bd
000003f0: ffce 95bd cea5 89bf 496c 09be 45b7 78bf

output.bias f4 [300]
-0.042137265 -0.082026646 -0.12015341 -0.07348711 -0.103680685 -0.101297714 -0.045491558 -0.010803
0.046380255 0.07564932 0.13506053 0.15016879 0.20036957 0.18019512 0.20494734 0.223094
0.23680979 0.25365928 0.26938644 0.25192565 0.26625025 0.28313076 0.30350688 0.3141874
0.33375096 0.35125753 0.34111598 0.37413216 0.37237865 0.37861624 0.3878329 0.4230092
0.44633165 0.44133326 0.46524456 0.48806065 0.50571305 0.5274422 0.5577727 0.58271027
0.57279307 0.60324216 0.5914932 0.6467474 0.6466292 0.697168 0.7079736 0.7336557
0.7687431 0.8090414 -0.03338921 -0.1054216 -0.09286133 -0.1322743 -0.06601268 -0.0760596
-0.036863554 -0.00023889965 0.034777965 0.10927138 0.16927719 0.15599202 0.20525411 0.24340707
0.24412051 0.2442185 0.26142797 0.28542984 0.2930633 0.29919595 0.29983896 0.3226414
0.33677942 0.35953274 0.35342625 0.35556802 0.38490197 0.39229044 0.43066975 0.40857923
0.44932887 0.46404898 0.4621526 0.4502433 0.4887338 0.5148863 0.53044605 0.560972
0.5935422 0.5754923 0.5872181 0.6469571 0.65181106 0.67104656 0.65971696 0.7350283
0.74172014 0.7570328 0.77120894 0.8502601 0.008275211 0.046234377 -0.01623304 -0.0055213072
0.026799953 0.04368865 0.10760965 0.14424887 0.19599259 0.23838857 0.2900658 0.3033385
0.33855596 0.3719055 0.38841116 0.41363326 0.4468183 0.45089078 0.46612275 0.49304745
0.51698697 0.5440982 0.56204677 0.5782148 0.5985912 0.601533 0.59830767 0.6279172
0.63937664 0.6575785 0.6942678 0.7083786 0.72806203 0.73410624 0.75491977 0.7830513
0.8215896 0.8316915 0.85263747 0.87134343 0.90515286 0.9296256 0.93505806 0.9808852
0.990556 1.0299101 1.0670401 1.0966059 1.1245931 1.2342694 -0.003900419 -0.061281867
-0.037841037 -0.057548985 -0.038808998 -0.028907822 0.02978895 0.037996054 0.0965557 0.13926858
0.19120698 0.21421154 0.25551245 0.25602534 0.22535998 0.29785475 0.29107156 0.3154541
0.2934398 0.33077335 0.31211257 0.34073952 0.35194764 0.37547225 0.36381537 0.3888313
0.37468415 0.38798144 0.42118216 0.43595648 0.4410125 0.44464207 0.45883733 0.46345514
0.48639098 0.49527523 0.54008275 0.5518542 0.558584 0.60704124 0.6091349 0.6195852
0.6490523 0.6754868 0.7065661 0.7358077 0.7615116 0.76747274 0.8198824 0.8802708
-0.15780084 -0.19331715 -0.19173495 -0.22440845 -0.26101965 -0.18611756 -0.13811126 -0.08860427
-0.018742723 0.021541175 -0.030712068 0.05600346 0.098807596 0.09472541 0.097780176 0.15415728
0.1520183 0.17228182 0.2141206 0.23645788 0.20069265 0.23104759 0.23001388 0.22234167
0.2337956 0.2707212 0.30563667 0.31856242 0.32499003 0.33772722 0.33143514 0.3320412
0.36386374 0.35723102 0.37700632 0.4033235 0.4003041 0.5080558 0.44681025 0.5148893
0.52590495 0.50627416 0.61445576 0.54627556 0.6464711 0.696598 0.6546032 0.67863095
0.72422993 0.7957677 -0.01798733 -0.08316154 -0.08059866 -0.09651485 -0.08813028 -0.0575169
00000000: 2098 2cbd 96fd a7bd fe12 f6bd 6980 96bd
00000010: 8a56 d4bd 2d75 cfbd 5b55 3abd 11ff 30bc
00000020: 39f9 3d3d 08ee 9a3d 4f4d 0a3e d9c5 193e
00000030: ae2d 4d3e 1285 383e b7dd 513e c172 643e
00000040: 447e 723e a1df 813e 05ed 893e 66fc 803e
00000050: f451 883e 84f6 903e 4165 9b3e 2cdd a03e
00000060: 68e1 aa3e 07d8 b33e c1a6 ae3e 408e bf3e
00000070: 6aa8 be3e fdd9 c13e 0992 c63e a994 d83e
00000080: 9585 e43e 6ff6 e13e 8934 ee3e 16e3 f93e
00000090: 6976 013f 7406 073f 31ca 0e3f 802c 153f
000000a0: 91a2 123f 146e 1a3f 196c 173f 3d91 253f
000000b0: 7e89 253f 9a79 323f c23d 353f dcd0 3b3f
000000c0: 59cc 443f 561d 4f3f 20c3 08bd 48e7 d7bd
000000d0: 152e bebd ea72 07be a831 87bd 23c5 9bbd
000000e0: 3dfe 16bd 2381 7ab9 5773 0e3d acc9 df3d
000000f0: 0057 2d3e 5fbc 1f3e 222e 523e b43f 793e
00000100: bafa 793e 6a14 7a3e e3d9 853e dc23 923e
00000110: 650c 963e 3630 993e 7e84 993e 4131 a53e
00000120: 5a6e ac3e ad14 b83e 49f4 b43e 030d b63e
00000130: df11 c53e 4bda c83e bf80 dc3e 4c31 d13e
00000140: 6f0e e63e d497 ed3e 449f ec3e 4a86 e63e
00000150: 513b fa3e 97cf 033f 50cb 073f dc9b 0f3f
00000160: 62f2 173f 7753 133f ed53 163f fb9e 253f
00000170: 17dd 263f b5c9 2b3f 36e3 283f d12a 3c3f
00000180: 5fe1 3d3f e7cc 413f f36d 453f a5aa 593f
00000190: c094 073c 4260 3d3d 27fb 84bc 15ec b4bb
000001a0: 938b db3c dff2 323d 7362 dc3d fab5 133e
000001b0: 48b2 483e 221c 743e 8183 943e 2f4f 9b3e
000001c0: 3557 ad3e 666a be3e d4dd c63e bdc7 d33e
000001d0: 5ec5 e43e 28db e63e a4a7 ee3e b770 fc3e
000001e0: 4259 043f 054a 0b3f 4ce2 0f3f e305 143f
000001f0: 463d 193f 11fe 193f b12a 193f 2ebf 203f
00000200: 30ae 233f 1157 283f 89bb 313f 4d58 353f
00000210: 4662 3a3f 63ee 3b3f 6c42 413f 0d76 483f
00000220: b253 523f bce9 543f 7346 5a3f 5d10 5f3f
00000230: 19b8 673f f1fb 6d3f f75f 6f3f 4b1b 7b3f
00000240: 1495 7d3f 18d4 833f c594 883f 955d 8c3f
00000250: abf2 8f3f 8afc 9d3f 2c9e 7fbb b202 7bbd
00000260: 34ff 1abd 7cb8 6bbd 2ff6 1ebd 19d0 ecbc
00000270: f507 f43c c0a1 1b3d ffbe c53d 6c9c 0e3e
00000280: c3cb 433e 455a 5b3e 87d2 823e c115 833e
00000290: c4c4 663e 6b80 983e 5507 953e 3383 a13e
000002a0: be3d 963e 205b a93e 38cd 9f3e 6975 ae3e
000002b0: 7b32 b43e e63d c03e 0246 ba3e e514 c73e
000002c0: 9ad6 bf3e 81a5 c63e 30a5 d73e b035 df3e
000002d0: 64cc e13e 20a8 e33e baec ea3e fe49 ed3e
000002e0: 3d08 f93e b794 fd3e dd42 0a3f 5146 0d3f
000002f0: 5cff 0e3f 0e67 1b3f 44f0 1b3f 239d 1e3f
00000300: 4b28 263f b4ec 2c3f 84e1 343f e55d 3c3f
00000310: 6df2 423f 1879 443f d0e3 513f 6d59 613f
00000320: 8b96 21be eef4 45be 2b56 44be 54cb 65be
00000330: 5ea4 85be 9a95 3ebe 0a6d 0dbe 2876 b5bd
00000340: 578a 99bc 1e77 b03c e097 fbbc e263 653d
00000350: a35b ca3d 65ff c13d f940 c83d 68db 1d3e
00000360: afaa 1b3e a56a 303e 6e42 5b3e 0422 723e
00000370: 6082 4d3e bd97 6c3e c288 6b3e 89ad 633e
00000380: 1d68 6f3e f89b 8a3e 697c 9c3e 9d1a a33e
00000390: 1865 a63e 95ea ac3e deb1 a93e 4e01 aa3e
000003a0: 594c ba3e fce6 b63e f906 c13e 6b80 ce3e
000003b0: a9f4 cc3e f20f 023f 50c4 e43e c9cf 033f
000003c0: b5a1 063f 2f9b 013f f94c 1d3f b7d8 0b3f
000003d0: 217f 253f 3f54 323f 1394 273f c2ba 2d3f
000003e0: 2267 393f 6fb7 4b3f 2a5a 93bc 9950 aabd
000003f0: e910 a5bd 94a9 c5bd a67d b4bd d796 6bbd
