figs2-3_rl/results/asterix-DQN/network.pth (torch_old, 531393 bytes, 6 tensors)

conv.weight f4 [16, 4, 3, 3]
0.1769712 0.12034586 -0.0044853827 0.33744732 0.70386785 0.046600875 0.07097728 0.16422977
0.05046315 -0.37423453 0.015286103 -0.28569683 -0.9637105 0.27883026 -0.9226191 -0.074697055
0.05014263 -0.037962694 -0.022273652 0.28822762 -0.059460666 -0.2414243 -1.802696 0.07042292
-0.013301247 0.123976886 -0.097338334 -0.34182358 0.22258534 -0.045197356 1.8797665 0.103928715
1.3651328 -0.029596971 0.21579894 0.08408514 -0.030937763 -0.04793853 -0.29724684 0.27732658
0.35958108 -0.22567847 0.9259698 1.2187331 0.8564133 0.31883323 0.16184098 0.04878303
0.34194937 0.17158546 0.35845703 -1.0146531 -2.0811288 -0.7986043 -0.022875546 -0.22914036
0.12989569 -0.15647973 -0.33365193 -0.3237109 -0.17244099 0.81842744 0.136497 -0.11214985
-0.47982988 -0.35671332 -0.11084833 -1.3333536 0.5293867 0.13653952 0.44317597 -0.40472472
-0.55060846 -0.24800688 -0.39702573 0.594916 0.86139625 -0.1607125 -1.0568411 -0.22072361
-0.9359161 0.6877733 0.63801813 0.24006024 -1.0361538 0.057448894 -0.61490905 1.0302724
0.48584193 0.26137412 -0.17421418 -0.49516457 0.23280522 0.011492235 0.24092484 -0.21012384
-0.098651454 -0.73923886 -0.13532044 0.42802253 -0.9406583 -0.10071974 0.8150831 0.14008045
0.6905091 -0.20447537 -0.9971367 0.45668685 0.03526968 0.19067729 -0.07322697 -2.246287
-1.6717209 -0.66843337 -0.6787209 -1.768661 -1.085725 -0.07446283 0.10506111 -0.37641782
0.76266783 0.36426935 0.4970218 0.19588976 0.27574173 -0.03658105 0.08740025 0.38490415
0.14684194 0.47978058 -0.37051842 -0.20890528 0.05705461 0.13259783 -0.162438 0.30078155
0.4239453 0.15489535 0.80978405 0.094955854 -0.60828286 0.710503 0.28470203 -0.04683813
0.30476418 0.31831542 -0.013564832 0.536668 0.8192927 1.3809868 -0.07344016 -0.09063315
0.119960465 -0.28216782 -0.022531258 -0.105852455 -0.38139144 -0.33611786 0.103607684 -0.8555273
-0.8407567 -1.7382848 -0.09190601 0.10399057 -0.19064298 0.11925382 0.07436284 -0.061399985
-0.319429 -1.6336706 0.053500723 -0.02925601 0.011631178 -0.11333272 0.26819694 -0.030132854
0.1035987 0.015771661 -0.050011396 0.84626365 -0.54130965 -2.2023487 -2.1659594 -2.1521385
-2.2023435 -1.6922373 -0.0002599037 0.13177094 0.1826723 -0.1659518 0.07419364 0.14771767
0.4011106 0.107917234 0.616539 0.30581418 0.15082452 0.40121832 0.044928186 0.03232984
-0.13022035 0.14487052 -0.5526533 -0.029338567 0.04929346 -0.3255914 -0.18871564 1.6221273
0.8175356 -1.3253121 0.0999356 -0.32036155 -0.14778298 -0.19607069 -0.095933214 -0.16234204
1.1247473 1.1214675 0.5299292 1.1158478 1.4177576 1.204849 -1.589215 0.9487214
0.8830349 -0.35122678 -1.1282911 -0.16244265 0.55611664 0.34189588 -0.36671934 0.5194356
0.25017652 0.40777746 0.101142295 0.35177454 -0.41751304 -0.070516266 -0.021340013 0.17085579
-0.13278972 -0.58048 0.055290382 0.08946505 0.7493656 0.6817012 -0.8062103 -1.3002452
0.3113813 -0.63011116 -1.8207899 -0.27283835 -1.3381389 -0.7646619 -0.9195724 -1.3003721
00000000: f037 353e e477 f63d 1efa 92bb e5c5 ac3e
00000010: af30 343f 8fe0 3e3d 895c 913d d92b 283e
00000020: 73b2 4e3d ab9b bfbe 9072 7a3c db46 92be
00000030: bbb5 76bf d7c2 8e3e c430 6cbf c5fa 98bd
00000040: 5c62 4d3d c57e 1bbd 3c77 b6bc 9292 933e
00000050: 078d 73bd ef37 77be bebe e6bf e439 903d
00000060: 79ed 59bc 98e7 fd3d 5259 c7bd 8003 afbe
00000070: 69ed 633e dd20 39bd 309c f03f 94d8 d43d
00000080: acbc ae3f 5975 f2bc 66fa 5c3e d434 ac3d
00000090: 3171 fdbc 315b 44bd bd30 98be c0fd 8d3e
000000a0: 031b b83e 4218 67be 5b0c 6d3f 72ff 9b3f
000000b0: e73d 5b3f 1c3e a33e a4b9 253e b7d0 473d
000000c0: fd13 af3e 19b4 2f3e ae87 b73e 27e0 81bf
000000d0: 3731 05c0 5571 4cbf 7f65 bbbc c5a3 6abe
000000e0: 6003 053e 393c 20be 6dd4 aabe 6fbd a5be
000000f0: 5f94 30be 7684 513f dfc5 0b3e d2ae e5bd
00000100: 43ac f5be 21a3 b6be 7304 e3bd 55ab aabf
00000110: e385 073f 04d1 0b3e f6e7 e23e 1438 cfbe
00000120: adf4 0cbf 84f5 7dbe f546 cbbe 6a4c 183f
00000130: 7784 5c3f d191 24be 9246 87bf 5f05 62be
00000140: 3398 6fbf e911 303f 2855 233f 5ad2 753e
00000150: b0a0 84bf 884f 6b3d ae6a 1dbf f7df 833f
00000160: 46c0 f83e d4d2 853e 3465 32be 3686 fdbe
00000170: 7e64 6e3e ed49 3c3c 00b5 763e b42a 57be
00000180: c609 cabd c23e 3dbf 7191 0abe c525 db3e
00000190: fbce 70bf 2746 cebd 49a9 503f 4071 0f3e
000001a0: 34c5 303f fe61 51be 5a44 7fbf dcd2 e93e
000001b0: f176 103d e840 433e 06f8 95bd 2bc3 0fc0
000001c0: f3fa d5bf 731e 2bbf a7c0 2dbf 7c63 e2bf
000001d0: 09f9 8abf f87f 98bd 472a d73d d6b9 c0be
000001e0: 333e 433f 8381 ba3e a479 fe3e 5397 483e
000001f0: 052e 8d3e 03d6 15bd e7fe b23d 2812 c53e
00000200: bc5d 163e cda5 f53e 97b4 bdbe 44eb 55be
00000210: 18b2 693d bac7 073e 2656 26be 0a00 9a3e
00000220: 5c0f d93e e39c 1e3e 024e 4f3f 3778 c23d
00000230: 6db8 1bbf 86e3 353f 77c4 913e 57d9 3fbd
00000240: 0d0a 9c3e 3dfa a23e 073f 5ebc 1363 093f
00000250: 2bbd 513f 2dc4 b03f cb67 96bd df9d b9bd
00000260: d5ad f53d 4d78 90be 7993 b8bc 2cc9 d8bd
00000270: bd45 c3be a417 acbe 4430 d43d d603 5bbf
00000280: d53b 57bf 1e80 debf 3839 bcbd 02f9 d43d
00000290: ea37 43be 593b f43d 8b4b 983d 8d7e 7bbd
000002a0: 338c a3be 1e1c d1bf 9323 5b3d 4daa efbc
000002b0: b290 3e3c fc1a e8bd 1c51 893e 2dd9 f6bc
000002c0: 8e2b d43d 9233 813c c0d8 4cbd bca4 583f
000002d0: 4593 0abf 48f3 0cc0 149f 0ac0 a3bc 09c0
000002e0: 32f3 0cc0 3b9b d8bf af43 88b9 f6ee 063e
000002f0: 730e 3b3e 45ef 29be d6f2 973d 4d43 173e
00000300: 5e5e cd3e b603 dd3d 80d5 1d3f ad93 9c3e
00000310: be71 1a3e 7d6c cd3e 9e06 383d 4b6c 043d
00000320: 7c58 05be f058 143e b07a 0dbf 6f57 f0bc
00000330: f0e7 493d eab3 a6be ac3e 41be dea1 cf3f
00000340: 034a 513f d4a3 a9bf 09ab cc3d 6e06 a4be
00000350: 6c54 17be c1c6 48be a278 c4bd fe3c 26be
00000360: b8f7 8f3f 3f8c 8f3f 71a9 073f 1ad4 8e3f
00000370: 1579 b53f 7e38 9a3f 666b cbbf 68df 723f
00000380: 930e 623f ffd3 b3be d86b 90bf 5e57 26be
00000390: a95d 0e3f fa0c af3e a3c2 bbbe bbf9 043f
000003a0: 2317 803e 35c8 d03e b123 cf3d cb1b b43e
000003b0: 45c4 d5be d56a 90bd 40d1 aebc d2f4 2e3e
000003c0: 07fa 07be 569a 14bf 2b78 623d 7439 b73d
000003d0: 6dd6 3f3f f883 2e3f cc63 4ebf 6f6e a6bf
000003e0: 5f6d 9f3e f74e 21bf a50f e9bf 78b1 8bbe
000003f0: 2348 abbf e2c0 43bf 1969 6bbf 9872 a6bf

conv.bias f4 [16]
0.21781357 -0.25228494 -0.5231316 -0.19627851 0.07098863 -0.12652968 -0.824595 -0.13441025
0.05198324 -0.276078 -0.043398652 0.24686411 -0.4204443 -0.5647249 -0.37082842 -0.553793
00000000: 850a 5f3e 7e2b 81be f4eb 05bf 3cfd 48be
00000010: 7d62 913d ff90 01be a818 53bf d7a2 09be
00000020: 61ec 543d 185a 8dbe c9c2 31bd f2c9 7c3e
00000030: 7a44 d7be d091 10bf 39dd bdbe 61c5 0dbf

fc_hidden.weight f4 [128, 1024]
0.11363488 0.045140937 0.30146518 -0.18290024 0.101822995 0.033110477 0.08843725 0.16474816
0.117628805 0.24508928 0.19272265 -0.17669542 -0.0525175 -0.03763884 -0.05100089 -0.07301704
-0.30193356 0.07727536 -0.15560128 -0.10401218 -0.23918404 -0.0058845095 -0.260206 0.14565489
-0.009105765 -0.06494059 -0.1327436 -0.08634452 0.028877009 0.051422235 0.07312929 0.093618825
-0.18569756 0.27490246 0.09270448 -0.17171118 -0.120973654 -0.33749202 -0.28937438 -0.06056878
0.11701571 -0.12452028 -0.02440609 0.01640341 0.10280817 -0.0205219 -0.13625072 -0.019298438
0.2358366 -0.034518097 0.093530804 0.04394737 -0.17914952 -0.12710539 0.053115603 0.14688362
0.021079548 -0.3223659 0.2615057 0.080691315 -0.08222649 0.1092999 0.28260624 -0.2088792
-0.57353586 -0.113347806 0.035867408 -0.22336851 -0.18520594 -0.25663683 0.07013991 -0.08230038
0.13258545 -0.24124807 -0.18666421 -0.11193484 -0.226419 -0.28370234 -0.34148094 -0.14818902
-0.1257056 0.08165117 -0.044042 -0.2524631 0.061642468 -0.12854023 -0.14167064 -0.32751322
-0.13921468 -0.12803851 0.009917441 -0.26836503 -0.1569637 -0.12529583 -0.05922058 -0.19106066
0.15128827 -0.06245192 -0.06551824 -0.3844727 -0.04543312 -0.20551738 0.035843853 -0.124190345
-0.26834086 -0.13416411 0.07433511 -0.018351274 -0.09430285 -0.36729988 -0.39018884 -0.30868402
-0.37626526 -0.92303205 -0.40797353 -0.3580478 -0.50110525 -0.076615594 -0.43248695 -0.36090901
-0.051258896 -0.038177803 -0.27876878 0.05779758 -0.3247418 -0.23953664 0.01592449 -0.26397923
-0.30850604 -0.33666125 -0.031862713 -0.13899188 0.18061201 -0.4580841 0.20039651 -0.23473163
-0.11701838 -0.23573881 -0.21942714 -0.15073547 0.07549751 -0.074345306 -0.4329536 0.017383138
-0.3877353 -0.11490101 0.15478188 -0.29569677 -0.52410465 0.25505424 0.1994319 -0.18338609
-0.26516622 0.13339229 0.15825218 -0.45209277 -0.5195992 -0.25251436 -0.10335358 -0.428536
-0.23300451 -0.20677105 -0.17736746 -0.13416499 -0.1570585 -0.32493708 -0.02089272 0.067039736
-0.04562345 -0.44215313 -0.266879 -0.20652181 0.12929176 0.027211633 0.002275704 -0.17975546
-0.7010386 -0.47659054 -0.56388754 -0.009214701 -0.26798853 -0.1170933 -0.62527746 -0.08067708
-0.29208457 -0.48573843 -0.10722183 -0.34742928 -0.22023599 0.045094434 0.09217021 0.1294351
-0.4820982 -0.10536483 -0.16251247 -0.36092165 -0.23397063 -0.18363191 -0.1851246 0.25123766
-0.09221432 0.082296446 0.08068873 -0.16968772 -0.15881403 0.05306934 0.09232687 -0.12341257
0.01064212 0.05526037 -0.14539602 -0.2341323 -0.13422179 -0.10415237 -0.057740316 -0.09347605
-0.13676071 -0.22463137 -0.1427822 -0.3273476 0.024793867 0.077830344 -0.25982556 -0.3024771
-0.7030098 0.13282719 -0.17114191 -0.10073124 -0.2055765 -0.20561698 -0.12140075 -0.1496898
-0.299821 0.067970276 -0.26256743 -0.28975573 -0.98379254 0.083515726 0.100035846 -0.19445783
-0.15628555 -0.06115449 -0.19299248 -0.16123055 -0.013310281 -0.03162108 0.17273916 0.045469053
0.1034878 -0.016893776 0.22094482 -0.4519337 -0.13390659 -0.0014403086 0.22245552 -0.10004341
00000000: 67b9 e83d b4e5 383d a559 9a3e 334a 3bbe
00000010: 9388 d03d da9e 073d 971e b53d beb3 283e
00000020: 5fe7 f03d aff8 7a3e 1659 453e a5ef 34be
00000030: 971c 57bd 2f2b 1abd 4fe6 50bd f589 95bd
00000040: 0997 9abe 8b42 9e3d f155 1fbe 5604 d5bd
00000050: a9ec 74be d8d2 c0bb b939 85be 8e26 153e
00000060: 5930 15bc 92ff 84bd f0ed 07be 65d5 b0bd
00000070: 7a8f ec3c 1fa0 523d cfc4 953d 3abb bf3d
00000080: 8027 3ebe 04c0 8c3e d9db bd3d 0ed5 2fbe
00000090: 09c1 f7bd c1cb acbe e128 94be f816 78bd
000000a0: efa5 ef3d 7d04 ffbd 48ef c7bc 7260 863c
000000b0: 178d d23d 8b1d a8bc 4f85 0bbe c217 9ebc
000000c0: 267f 713e d962 0dbd 148d bf3d 2802 343d
000000d0: f972 37be ea27 02be bf8f 593d a968 163e
000000e0: 04af ac3c 250d a5be 13e4 853e 7d41 a53d
000000f0: 5d66 a8bd a0d8 df3d c4b1 903e 6ee4 55be
00000100: 3fd3 12bf e522 e8bd b4e9 123d b7ba 64be
00000110: a0a6 3dbe e765 83be 83a5 8f3d 1a8d a8bd
00000120: 7bc4 073e bc09 77be e724 3fbe 183e e5bd
00000130: 62da 67be 6f41 91be 97d6 aebe ddbe 17be
00000140: f8b8 00be bb38 a73d 6265 34bd d842 81be
00000150: d07c 7c3d 0da0 03be 1c12 11be d0af a7be
00000160: 4b8e 0ebe 871c 03be c37c 223c 2467 89be
00000170: 18bb 20be 8d4d 00be 4791 72bd 68a5 43be
00000180: 50eb 1a3e 96cd 7fbd 6d2e 86bd 9bd9 c4be
00000190: 1418 3abd 2673 52be 01d1 123d 8257 febd
000001a0: f963 89be 5162 09be 023d 983d 6955 96bc
000001b0: da21 c1bd bb0e bcbe d5c6 c7be d50b 9ebe
000001c0: d7a5 c0be d44b 6cbf e8e1 d0be 0b52 b7be
000001d0: 6f48 00bf a3e8 9cbd ee6e ddbe 11c9 b8be
000001e0: d9f4 51bd 5460 1cbd c8ba 8ebe 28bd 6c3d
000001f0: 8f44 a6be 1849 75be 1374 823c 4928 87be
00000200: 81f4 9dbe dd5e acbe 7a82 02bd e353 0ebe
00000210: 5bf2 383e 008a eabe be34 4d3e 7d5d 70be
00000220: 55a7 efbd 8465 71be 82b1 60be 665a 1abe
00000230: 709e 9a3d 5a42 98bd 18ac ddbe 1567 8e3c
00000240: 3e85 c6be 3951 ebbd 247f 1e3e 9165 97be
00000250: b92b 06bf 7896 823e e037 4c3e 90c9 3bbe
00000260: dec3 87be fd97 083e dc0c 223e b478 e7be
00000270: 7404 05bf 9049 81be 0bab d3bd 1269 dbbe
00000280: bc98 6ebe cabb 53be d19f 35be 8c62 09be
00000290: f2d3 20be 275e a6be 3627 abbc 214c 893d
000002a0: a8df 3abd e561 e2be 5da4 88be 747a 53be
000002b0: 0f65 043e eeea de3c fa23 153b d111 38be
000002c0: 4477 33bf ad03 f4be ef5a 10bf 42f9 16bc
000002d0: cb35 89be 9dce efbd 2f12 20bf 063a a5bd
000002e0: 1c8c 95be b5b2 f8be 1e97 dbbd 40e2 b1be
000002f0: 8b85 61be f1b4 383d bcc3 bc3d a38a 043e
00000300: 93d5 f6be 84c9 d7bd ab69 26be b9ca b8be
00000310: ff95 6fbe 010a 3cbe 4e91 3dbe 39a2 803e
00000320: ddda bcbd 0a8b a83d 2240 a53d 9ec2 2dbe
00000330: 25a0 22be 3c5f 593d df15 bd3d bbbf fcbd
00000340: 495c 2e3c b358 623d b2e2 14be 61c0 6fbe
00000350: 7071 09be d64d d5bd 1c81 6cbd 5f70 bfbd
00000360: 000b 0cbe c405 66be 7f35 12be 1b9a a7be
00000370: 821c cb3c 8465 9f3d db07 85be 47de 9abe
00000380: 73f8 33bf da03 083e d33f 2fbe 2e4c cebd
00000390: a582 52be 428d 52be f5a0 f8bd 4848 19be
000003a0: 2382 99be 0034 8b3d 3d6f 86be dd5a 94be
000003b0: d4d9 7bbf 4b0a ab3d 98df cc3d f41f 47be
000003c0: 5209 20be 217d 7abd d29f 45be 9f19 25be
000003d0: 5d13 5abc 1b85 01bd 89e2 303e c23d 3a3d
000003e0: 69f1 d33d d164 8abc 5c3f 623e db63 e7be
000003f0: cf1e 09be bdc8 bcba 61cb 633e 8fe3 ccbd

fc_hidden.bias f4 [128]
0.22114567 0.123026155 0.08985063 0.09953705 0.047963604 0.13145937 0.08491736 0.03990007
0.025989264 0.11923584 0.0717999 0.109538674 0.06918838 0.14260162 0.10126698 0.3047922
0.040682007 0.19841088 0.030335357 0.16089396 0.57902175 0.08455847 0.0058663944 0.22664268
0.059262488 0.09906765 0.31172222 -0.046541236 0.41499266 0.1428458 0.03754133 0.3645407
0.2889228 0.12006415 0.16121079 0.10385158 0.34866136 0.115403 0.12028737 0.23968498
0.15620078 0.11357376 -0.0016046142 0.15416352 0.30149567 0.16369767 0.24337895 0.04649123
0.17704588 0.10358824 0.12070464 0.0051727546 0.09203372 0.6542371 -0.05393634 0.13209239
0.15561137 0.122784115 0.07343622 0.63969815 -0.011667973 0.10413948 0.023778558 0.042038497
0.04629122 0.11390322 -0.108169116 0.2012264 -0.015537642 0.13940595 0.17482774 0.12846728
-0.046160143 0.107037954 0.12680475 0.06833561 0.23422742 0.078916736 -0.0524026 0.19662187
0.2981881 0.031571582 0.120371535 0.34867164 0.24259107 0.08803968 0.18832004 0.16774721
0.3643401 0.42968285 0.06836327 0.090273276 0.121017836 0.075722635 0.07557545 0.038873773
-0.041211087 0.07455386 0.19338728 -0.0024670698 0.075866796 -0.0023053677 -0.004779217 0.047551207
0.32993478 -0.005411963 -0.06427658 0.026866926 0.09124263 0.018276112 -0.053095274 0.3400052
0.07544019 0.14450172 0.4273758 0.13661608 0.13430487 0.31358775 0.15047085 0.14367634
0.081165515 0.3051151 0.1847498 -0.10317553 0.112355955 0.44365177 0.1743483 -0.013734416
00000000: 0374 623e 23f5 fb3d 9b03 b83d 15da cb3d
00000010: 7c75 443d 499d 063e 27e9 ad3d 416e 233d
00000020: 70e7 d43c ec31 f43d d30b 933d d055 e03d
00000030: a3b2 8d3d 2906 123e 1065 cf3d b90d 9c3e
00000040: 2da2 263d 392c 4b3e db81 f83c 63c1 243e
00000050: c53a 143f fe2c ad3d e23a c03b 0515 683e
00000060: 39bd 723d fbe3 ca3d 0e9a 9f3e 06a2 3ebd
00000070: eb79 d43e 2b46 123e f0c4 193d 14a5 ba3e
00000080: b0ed 933e 31e4 f53d 7114 253e 23b0 d43d
00000090: be83 b23e 6858 ec3d 3a59 f63d fb6f 753e
000000a0: 19f3 1f3e 5c99 e83d eb51 d2ba 0bdd 1d3e
000000b0: a45d 9a3e 5da0 273e 5538 793e 976d 3e3d
000000c0: 844b 353e 1226 d43d ff33 f73d 3680 a93b
000000d0: 2d7c bc3d 157c 273f 5aec 5cbd 3a43 073e
000000e0: 9658 1f3e 3d76 fb3d bb65 963d 42c3 233f
000000f0: 072b 3fbc 1447 d53d 40cb c23c 8f30 2c3d
00000100: dd9b 3d3d 1746 e93d c587 ddbd 4b0e 4e3e
00000110: 9891 7ebc 6fc0 0e3e 0b06 333e ed8c 033e
00000120: 6b12 3dbd b736 db3d 1bd9 013e 8af3 8b3d
00000130: 50d9 6f3e 199f a13d 1ca4 56bd 3e57 493e
00000140: 1cac 983e 3451 013d 5a85 f63d 1785 b23e
00000150: cb69 783e 264e b43d f8d6 403e edc5 2b3e
00000160: c98a ba3e 64ff db3e 0b02 8c3d 32e1 b83d
00000170: 33d8 f73d 7814 9b3d 4dc7 9a3d 1b3a 1f3d
00000180: f5cc 28bd b2af 983d 5107 463e 90ae 21bb
00000190: 0d60 9b3d a715 17bb fa9a 9cbb 0ec5 423d
000001a0: 36ed a83e d656 b1bb 71a3 83bd 0718 dc3c
000001b0: 6add ba3d c9b7 953c 6e7a 59bd 2915 ae3e
000001c0: 6380 9a3d 42f8 133e 00d1 da3e 16e5 0b3e
000001d0: 3787 093e 938e a03e 0815 1a3e e41f 133e
000001e0: 1b3a a63d 0c38 9c3e 0d2f 3d3e b14d d3bd
000001f0: e11a e63d 5326 e33e 5c88 323e 5106 61bc

output.weight f4 [6, 128]
0.5491758 -0.48005262 0.14580405 0.25414622 -0.43181574 -0.1223081 0.43915057 0.5428237
-0.49372467 -0.18802023 0.28034946 0.3298851 -0.4387516 0.39667052 -0.37456077 0.013444941
0.5160515 0.53848 0.3045906 -0.34272125 0.1083221 -0.45514995 0.47093898 -0.51777405
0.42057008 0.32175308 0.39158154 0.44005966 0.2075774 0.13607164 0.5234137 0.3105519
0.3724598 0.40971172 0.34921452 -0.48648018 0.17573588 0.44278863 0.38710037 0.36389565
-0.6757072 0.43312168 0.4159059 0.48388094 0.26878664 -0.42110583 0.46549243 0.48055816
-0.38439158 0.4847291 -0.55602634 0.5057229 0.44520822 0.22880597 0.58144486 -0.37914503
0.45343208 0.58665293 0.30886364 0.10938315 -0.37619722 -0.30910912 -0.3183875 0.45816094
0.45278463 0.2527855 0.5239215 0.5091642 0.5010373 -0.373874 0.46198496 0.28419048
0.30365342 -0.41404924 0.4742209 -0.24737684 -0.5044682 0.5171892 0.45042065 0.5603779
0.018447941 0.5197475 0.51248246 0.07778009 0.28455406 0.47778317 0.5222896 -0.28464106
0.5206712 0.31615856 0.48312244 0.52852625 -0.21431859 0.46754616 0.41027066 0.4383697
0.48765135 0.4446361 -0.49922237 0.38399938 0.43038318 0.5522807 -0.232799 0.4388473
0.5530257 -0.43929487 -0.44649783 0.32123178 0.2947622 0.5257133 0.25507694 0.50114083
0.45096257 0.21676454 0.092865385 -0.49309754 0.32396927 0.102603756 0.24281238 0.46517316
0.50462824 0.34136266 0.34966782 0.5830107 0.3148716 0.089277014 0.5089893 0.54211783
0.5586494 -0.28384677 0.17705877 0.4302314 -0.50338477 -0.15914755 0.46249318 -0.31010994
-0.77643245 0.3071448 0.3192035 0.31457764 -0.63090736 0.4746949 0.16657847 -0.014396023
0.50255924 0.37289795 0.3953393 -0.9945468 0.2057312 -0.58404887 0.42378384 -0.58513415
0.45137033 0.16666916 0.2410945 0.4222061 0.22431849 0.2347241 0.47224304 0.42955285
0.507429 0.5795299 0.25238082 -0.6153938 0.12914754 0.51988447 0.4639965 0.435609
-0.6662138 0.3966379 0.48612267 0.5344418 0.13045703 -0.27497256 0.544315 0.44763264
0.27971765 0.5501467 -0.6835945 -1.1595813 0.4727405 0.106593005 0.49823177 -0.33497545
0.22745536 0.38703543 -0.5106792 0.21484073 -0.49226826 -0.2959423 -0.3570787 -0.63004273
0.41591948 0.29476032 0.5059371 0.43256682 -0.56588525 -0.51458097 0.37638146 0.26280418
0.35171142 0.3075576 0.42275754 -0.6760644 -0.42729747 0.4538131 0.42831203 0.568377
0.08939329 0.5915403 0.51106584 0.0662831 0.29238757 0.5165475 0.5032663 -0.88820237
0.14045453 0.34608108 0.4982278 0.3042773 -0.7389707 0.5775248 0.56473315 0.45082685
0.42021802 0.44207335 -0.40192524 0.49353826 0.40473306 0.4104233 -0.7757604 0.4245769
0.4683122 -0.7621042 -0.09495448 0.45983893 0.4165219 0.47438386 0.36182198 0.07693506
-0.55638236 0.42048293 -0.010225227 -0.3177762 0.27593586 0.09861551 0.27888408 0.38684845
0.44205576 0.34756607 0.3451501 -0.84823716 0.32069474 0.086205825 0.47643104 0.46926892
00000000: c996 0c3f 75c9 f5be a84d 153e 741f 823e
00000010: f416 ddbe ab7c fabd 58d8 e03e 7ef6 0a3f
00000020: 7bc9 fcbe 6088 40be f789 8f3e b3e6 a83e
00000030: 0da4 e0be 6618 cb3e 6ec6 bfbe 2b48 5c3c
00000040: f31b 043f d3d9 093f 4df3 9b3e 2979 afbe
00000050: fad7 dd3d 6a09 e9be ea1e f13e d78c 04bf
00000060: f654 d73e d2bc a43e 607d c83e 804f e13e
00000070: 2c8f 543e 5d56 0b3e 71fe 053f a900 9f3e
00000080: 0db3 be3e bcc5 d13e 3fcc b23e ee13 f9be
00000090: 1bf4 333e 31b5 e23e 0532 c63e 8850 ba3e
000000a0: 26fb 2cbf 20c2 dd3e 9ef1 d43e 3ebf f73e
000000b0: 679e 893e 2f9b d7be 0655 ee3e b80b f63e
000000c0: f9ce c4be 6a2e f83e be57 0ebf 0e77 013f
000000d0: 55f2 e33e 1d4c 6a3e 92d9 143f 4c1f c2be
000000e0: 4028 e83e e32e 163f 6023 9e3e 4604 e03d
000000f0: ec9c c0be 8d43 9ebe b003 a3be 1294 ea3e
00000100: 63d3 e73e 1a6d 813e b81f 063f 9658 023f
00000110: fb43 003f 6a6c bfbe 4b89 ec3e 6a81 913e
00000120: 7678 9b3e 43fe d3be 15cd f23e 5b50 7dbe
00000130: d424 01bf 8366 043f 899d e63e ed74 0f3f
00000140: 2320 973c 2c0e 053f 0d32 033f 2b4b 9f3d
00000150: 12b1 913e ff9f f43e c5b4 053f 79bc 91be
00000160: b54a 053f 89df a13e d35b f73e 7f4d 073f
00000170: 5576 5bbe 3662 ef3e ff0e d23e fe71 e03e
00000180: 70ad f93e 58a7 e33e 139a ffbe 919b c43e
00000190: 2f5b dc3e 4562 0d3f dc62 6ebe 98b0 e03e
000001a0: 1893 0d3f 42eb e0be 5d9b e4be 7e78 a43e
000001b0: 12eb 963e 2695 063f 7299 823e c44a 003f
000001c0: 91e4 e63e 86f7 5d3e 3530 be3d 4877 fcbe
000001d0: 4ddf a53e eb21 d23d cfa3 783e 2d2b ee3e
000001e0: 512f 013f 16c7 ae3e a907 b33e 3040 153f
000001f0: da36 a13e ded6 b63d 1f4d 023f 3cc8 0a3f
00000200: a603 0f3f 5d54 91be e54e 353e 4a47 dc3e
00000210: d3dd 00bf 93f7 22be e8cb ec3e bbc6 9ebe
00000220: 47c4 46bf 1542 9d3e a46e a33e 5210 a13e
00000230: 2583 21bf 360b f33e 8c93 2a3e 4cdd 6bbc
00000240: b9a7 003f 7bec be3e ea69 ca3e 9e9a 7ebf
00000250: 33ab 523e 3a84 15bf 32fa d83e 5acb 15bf
00000260: 031a e73e 52ab 2a3e 7ae1 763e 662b d83e
00000270: bfb3 653e 845b 703e d7c9 f13e 5aee db3e
00000280: dee6 013f 125c 143f 0f38 813e 738a 1dbf
00000290: 413f 043e 2617 053f f390 ed3e 2508 df3e
000002a0: fd8c 2abf 1f14 cb3e 12e5 f83e 2ed1 083f
000002b0: 8796 053e 34c9 8cbe 3a58 0b3f 1b30 e53e
000002c0: 2737 8f3e 6ad6 0c3f 0d00 2fbf 296d 94bf
000002d0: 0b0b f23e 6f4d da3d 3c18 ff3e e781 abbe
000002e0: 0fea 683e 8229 c63e dfbb 02bf 35ff 5b3e
000002f0: 960a fcbe c085 97be 05d3 b6be 7b4a 21bf
00000300: 66f3 d43e d3ea 963e 1885 013f 6679 dd3e
00000310: dbdd 10bf 94bb 03bf 12b5 c03e 458e 863e
00000320: 8513 b43e 3178 9d3e ad73 d83e 8e12 2dbf
00000330: bcc6 dabe 315a e83e b74b db3e 2881 113f
00000340: d413 b73d 2f6f 173f 36d5 023f 6fbf 873d
00000350: d3b3 953e 753c 043f 0fd6 003f 3b61 63bf
00000360: 50d3 0f3e 8a31 b13e b717 ff3e 3cca 9b3e
00000370: 2f2d 3dbf aad8 133f 5a92 103f c7d2 e63e
00000380: d126 d73e 7057 e23e 25c9 cdbe 0cb1 fc3e
00000390: 2c39 cf3e 0123 d23e 3c98 46bf 2562 d93e
000003a0: 9ec6 ef3e 4319 43bf 7f77 c2bd 0270 eb3e
000003b0: 5c42 d53e 71e2 f23e bb40 b93e 2190 9d3d
000003c0: 136f 0ebf 8a49 d73e b687 27bc 90b3 a2be
000003d0: 7747 8d3e eef6 c93d e5c9 8e3e 0011 c63e
000003e0: 2255 e23e 2ef4 b13e 84b7 b03e 1226 59bf
000003f0: 1a32 a43e ae8c b03d c5ee f33e 0444 f03e

output.bias f4 [6]
0.37366343 0.51556027 0.47118026 0.3582138 0.68357104 0.38237628
00000000: d050 bf3e c2fb 033f 8a3e f13e cd67 b73e
00000010: 83fe 2e3f d3c6 c33e
