figs2-3_rl/results/asterix-QRDQN/network.pth (torch_old, 683100 bytes, 6 tensors)

conv.weight f4 [16, 4, 3, 3]
-0.010259699 0.019276053 -0.004249733 0.026454989 0.05906977 -0.058935747 0.06657471 0.043975133
0.015795449 -0.13190508 0.041367877 -0.12308668 0.36561096 -0.019544771 0.2663954 0.16150095
-0.03299253 0.10788416 -0.014648436 0.12550111 -0.019583438 0.0076402514 -0.31108105 0.009996202
-0.0035454708 -0.12561719 0.0063875304 -0.08864096 -0.018626388 -0.13015392 -0.019423895 0.026471956
-0.025322407 -0.09747585 0.022819644 0.091419704 0.23685764 0.21186249 -0.24604332 1.1245073
0.4237087 0.057996307 0.22027108 0.13816717 0.06868875 0.0046398193 0.03587953 -0.025473703
0.20564358 -2.1307547 -1.9378088 0.007217808 0.0025811305 -0.022297684 0.015636012 -0.022039887
0.031674463 -0.042044614 -0.16067691 0.018983148 -0.031360973 0.010805012 0.0010538382 -0.05226868
-0.028892789 -0.01021899 0.36840612 -0.021348575 0.28783327 -0.11392902 0.016743515 -0.013176508
0.60216945 0.4661494 0.8718432 0.17078266 0.15056466 0.5208259 0.17952012 0.035138495
0.3953951 0.5464107 0.049232505 0.69540143 0.6983322 0.06638669 0.92092204 0.5132078
-0.09042074 0.628859 0.08392583 -0.46852913 0.24735631 0.0806597 -0.691517 0.30611932
0.036608685 -0.55778986 0.16530332 1.7555181 1.6740434 1.948417 2.1239405 1.6676143
1.7584441 1.108919 0.32177106 0.9970091 0.028443485 0.024450934 0.023640327 0.07762123
0.048443906 0.08272806 0.058519807 0.025082616 0.017611193 0.039279636 0.032492086 0.033431433
-0.003734289 -0.040310144 -0.031747945 -0.017110402 -0.011589597 0.005483309 0.012847878 -0.024465509
-0.03775507 0.024585966 0.0005937253 0.04675003 -0.0032587587 -0.004273643 -0.0337633 0.2601042
0.16062045 0.21292017 0.18521874 0.10817037 -0.13709335 0.21460356 0.32178262 0.26987073
0.18553819 0.32832018 0.33819434 0.1622231 -0.102500625 0.31979176 -0.0511224 0.18804936
0.19614212 0.026703624 0.08032308 0.0051260404 0.19852735 0.05546199 -0.87124145 0.014796912
0.010477649 -0.09639432 -0.010549544 -0.0039554434 -0.03334804 -0.14251734 -0.0030451468 0.11703583
-0.014239258 0.026771223 0.03116891 -0.0043542776 0.0149288 0.0027243204 -0.010039228 -0.25762054
0.17036162 -0.027569773 -0.03376118 0.03393521 0.052118648 0.06412503 -0.0024809309 0.1423601
0.11833829 0.058919523 0.10753291 -0.6312111 -0.050635386 -0.028060352 -0.0047864052 -0.017340422
-0.033129133 -0.9550548 -0.073620416 -0.058588203 -0.015032606 0.058876432 0.026028976 0.02019281
-0.011584916 0.09722304 0.18058683 -0.07445889 0.0050113606 -0.62448245 0.026072511 -0.017129954
-0.0059492923 -0.015123301 0.005068333 0.18578435 0.080111414 0.34153834 -0.08210265 0.0077207345
0.0116841225 -1.1082032 -0.7945872 -0.033215776 -1.1067669 -0.7177892 -0.022312801 -0.046550043
0.0031074334 -0.049558077 0.053607844 0.19557285 -0.006197982 -0.13385119 -0.008785814 -0.011580487
-0.028037932 -0.013532517 -1.6740667 -0.73657346 -0.22272615 0.08831479 -0.01019095 -0.012038155
0.031204233 -0.004663232 0.0076301 0.20839742 -0.044074263 -0.33178985 0.054080397 0.078461915
0.03946748 0.0119342925 -0.0029176746 0.0037451677 0.09689733 0.16802974 0.115302436 0.3572311
00000000: 4c18 28bc d0e8 9d3c 5841 8bbb 22b8 d83c
00000010: 25f3 713d 9c66 71bd 5258 883d 451f 343d
00000020: 7565 813c 2012 07be 5d71 293d df14 fcbd
00000030: 5c31 bb3e 5b1c a0bc fa64 883e 8160 253e
00000040: 2d23 07bd 5ff2 dc3d feff 6fbc 5d83 003e
00000050: 726d a0bc 135b fa3b 0446 9fbe 1cc7 233c
00000060: 215b 68bb cba1 00be 7d4e d13b 6489 b5bd
00000070: 5e96 98bc 1247 05be dc1e 9fbc b7db d83c
00000080: f070 cfbc 6ba1 c7bd 43f0 ba3c 413a bb3d
00000090: cf8a 723e 7bf2 583e c8f2 7bbe dbef 8f3f
000000a0: 59f0 d83e 898d 6d3d be8e 613e b27b 0d3e
000000b0: b0ac 8c3d a009 983b 6af6 123d 3aae d0bc
000000c0: 3b94 523e 495e 08c0 1e0a f8bf 5d83 ec3b
000000d0: 2f28 293b a2a9 b6bc 1817 803c fe8c b4bc
000000e0: 15bd 013d f936 2cbd 7d88 24be 8c82 9b3c
000000f0: 5d74 00bd 8107 313c f120 8a3a af17 56bd
00000100: 92b0 ecbc 8d6d 27bc ba9f bc3e 35e3 aebc
00000110: e25e 933e 9e53 e9bd b229 893c 48e2 57bc
00000120: c727 1a3f 22ab ee3e 1e31 5f3f a6e1 2e3e
00000130: 9f2d 1a3e d954 053f 1fd4 373e 62ed 0f3d
00000140: 3a71 ca3e 92e1 0b3f 06a8 493d d405 323f
00000150: e6c5 323f bff5 873d 8cc1 6b3f 9661 033f
00000160: 822e b9bd e7fc 203f 4ee1 ab3d 0de3 efbe
00000170: f94a 7d3e ea30 a53d 4207 31bf acbb 9c3e
00000180: fdf2 153d 51cb 0ebf 4645 293e d1b4 e03f
00000190: 0e47 d63f ba65 f93f a4ee 0740 6374 d53f
000001a0: b214 e13f 0ff1 8d3f 2dbf a43e fd3b 7f3f
000001b0: 5002 e93c 534d c83c 5ca9 c13c e1f7 9e3d
000001c0: 1e6d 463d 546d a93d 77b2 6f3d 0f7a cd3c
000001d0: 5945 903c afe3 203d 6c16 053d 66ef 083d
000001e0: f9ba 74bb 401c 25bd 220a 02bd 1d2b 8cbc
000001f0: 4be2 3dbc 54ad b33b e87f 523c e46b c8bc
00000200: 0fa5 1abd 8268 c93c 3ba4 1b3a f67c 3f3d
00000210: e690 55bb ea09 8cbb 634b 0abd 612c 853e
00000220: b079 243e bf07 5a3e fba9 3d3e 6d88 dd3d
00000230: 3362 0cbe 09c1 5b3e b1c0 a43e 7f2c 8a3e
00000240: b9fd 3d3e 9519 a83e cf27 ad3e d01d 263e
00000250: d9eb d1bd bfbb a33e b965 51bd 0390 403e
00000260: 7bd9 483e 8fc1 da3c 6d80 a43d 58f8 a73b
00000270: c14a 4b3e 1d2c 633d ae09 5fbf bf6e 723c
00000280: 72aa 2b3c 636a c5bd ffd7 2cbc aa9c 81bb
00000290: f497 08bd 11f0 11be 1691 47bb 7bb0 ef3d
000002a0: c74b 69bc 534f db3c f155 ff3c 54ae 8ebb
000002b0: ed97 743c 838a 323b 937b 24bc d7e6 83be
000002c0: 4773 2e3e 01da e1bc 2a49 0abd a6ff 0a3d
000002d0: 5d7a 553d fc53 833d 1d97 22bb d9c6 113e
000002e0: 585b f23d 9955 713d 373a dc3d 0d97 21bf
000002f0: 0d67 4fbd d3de e5bc 47d7 9cbb 800d 8ebc
00000300: 6ab2 07bd 797e 74bf 4dc6 96bd 2ffa 6fbd
00000310: 524b 76bc 6a28 713d b83a d53c 646b a53c
00000320: a9ce 3dbc e01c c73d c1eb 383e e77d 98bd
00000330: 5736 a43b 15de 1fbf 0596 d53c 1e54 8cbc
00000340: 48f2 c2bb b9c7 77bc 4214 a63b 413e 3e3e
00000350: 7411 a43d 1dde ae3e 6f25 a8bd 37fe fc3b
00000360: c36e 3f3c 9ad9 8dbf 116a 4bbf 440d 08bd
00000370: 8aaa 8dbf 08c1 37bf 56c9 b6bc 42ab 3ebd
00000380: 15a6 4b3b 69fd 4abd e693 5b3d 4044 483e
00000390: 7118 cbbb 4910 09be 60f2 0fbc 15bc 3dbc
000003a0: ceaf e5bc 7db7 5dbc d147 d6bf 1490 3cbf
000003b0: 5312 64be 62de b43d f1f7 26bc af3b 45bc
000003c0: 05a0 ff3c 06ce 98bb eb05 fa3b 2266 553e
000003d0: 3787 34bd 5ce0 a9be 6883 5d3d a4b0 a03d
000003e0: a7a8 213d 0d88 433c 7536 3fbb 7d71 753b
000003f0: 1b72 c63d fd0f 2c3e af23 ec3d ffe6 b63e

conv.bias f4 [16]
-0.14031667 -0.32776254 1.5771236 -0.054722507 -0.33567262 -0.19457027 -0.08691266 -0.060925514
-0.22181834 -0.315806 -0.35423878 -0.177657 -0.55736357 -0.5516296 -0.2721577 -0.5751464
00000000: 2caf 0fbe 7ed0 a7be 30df c93f b524 60bd
00000010: 48dd abbe 6e3d 47be 44ff b1bd 088d 79bd
00000020: 5924 63be 53b1 a1be c95e b5be b7eb 35be
00000030: 61af 0ebf 9937 0dbf 4158 8bbe cb3c 13bf

fc_hidden.weight f4 [128, 1024]
0.03775228 0.13637482 0.41827866 0.013886977 -0.1338263 0.3013701 0.0058757584 -0.040205546
0.09915887 -0.119420424 -0.12571284 -0.069195054 -0.5511601 -0.47713232 -0.31457564 0.10553113
0.40004903 0.18106288 -0.0020304103 -0.24657616 -0.33666077 -0.6531455 -0.32320473 -0.19940062
0.22021475 0.5579367 0.65358454 0.16520295 -0.25911927 -1.0015783 -0.42889163 -0.33626693
0.10028563 0.4833234 0.67235404 0.31125104 -0.10421403 -0.47579563 -0.33015674 0.05773801
0.2228668 0.3379535 0.6870279 0.6572078 0.56446475 0.33535567 -0.108932145 -0.13871773
0.43982765 -0.055613633 0.6582075 0.65364337 0.46256354 0.23566702 0.48985443 -0.1001539
0.29451874 0.04302316 0.37999204 0.8616183 0.48468468 0.2304878 0.32424852 -0.090338096
1.3538454 -0.32679233 0.655703 1.6991892 1.0552796 0.12204077 0.49698263 0.38918394
0.14769739 0.5824191 0.39183253 0.645006 0.85534984 0.39689603 0.2566755 0.32754022
-0.05087443 0.16819106 -0.75590754 0.22765118 0.52592057 0.30380812 0.27378616 -0.002528037
0.6428027 0.6917952 0.85374844 0.798377 0.55832297 0.32128596 0.2767771 -0.025952868
1.0816175 0.9140325 1.1843051 1.1380637 0.6256762 0.28608665 0.14292958 0.38351098
1.3281523 0.2371498 0.34953892 0.2388108 0.826908 0.12663206 0.5650686 0.03972062
0.29684597 0.633971 0.90054584 1.4861584 1.0114888 0.59708726 0.18503408 0.12844186
1.0738323 1.0153042 -0.052174572 0.31293505 0.009552092 0.532451 0.6507467 0.7372446
0.035016004 0.0040967856 0.010321649 0.084847055 0.104005955 -0.055065524 -0.026135635 -0.06964436
-0.09804812 -0.05023992 0.018824214 -0.032952443 -0.04621703 -0.051902622 0.03229431 -0.03378961
-0.064816326 -0.053717267 -0.008361165 0.0042274874 0.011503967 -0.010305221 -0.106004804 -0.004114465
-0.09593953 -0.039156575 0.022412738 -0.01253779 0.027847175 -0.0045794644 0.010503052 0.0009875823
0.03204322 -0.07727985 0.0154418 0.035718318 -0.0017634195 -0.0070466907 -0.06298934 -0.09290138
-0.10877312 -0.09879938 -0.17405154 -0.062026907 -0.007936019 0.05783632 0.032505255 -0.0042489595
-0.006330404 0.062934056 0.06688858 -0.0029827214 0.0028880297 -0.03746232 -0.050764795 0.0032149244
-0.077827536 -0.083796255 -0.13362406 -0.06944986 -0.07193459 0.08097516 0.009029555 0.033066083
0.60127276 0.2781258 0.32328153 -0.02804 0.25445464 -0.042586666 0.45758757 0.6819883
0.25864953 -0.3126155 -0.40378496 -0.6232223 -0.19025782 0.15666105 0.08836419 0.21542081
0.4765341 0.14763069 -0.34948912 -0.04238677 -0.09345285 0.20314759 0.47119752 0.39108303
0.27390924 0.193818 0.088008024 0.22785874 -0.011867068 -0.018151674 0.118578725 0.13382465
-0.0048974273 0.055288803 -0.4443736 0.047697946 -0.46370566 -0.3184511 0.16718277 -0.1556811
0.28194767 0.013271452 0.19241917 0.07539089 -0.37602827 -0.33081782 -0.6109778 -0.16899808
0.39877152 0.027397988 -0.13622463 -0.30972463 -0.9544268 -0.6111159 -0.691838 -0.40873206
0.29640868 -0.23430888 0.28182265 0.11208895 -0.36514318 -0.5743096 -0.17578664 -0.087036885
00000000: 22a2 1a3d d7a5 0b3e 9f28 d63e 3486 633c
00000010: c309 09be 2f4d 9a3e 6f89 c03b 92ae 24bd
00000020: ce13 cb3d b292 f4bd deba 00be 23b6 8dbd
00000030: d418 0dbf b04a f4be 0f10 a1be b520 d83d
00000040: 3ad3 cc3e 8c68 393e a210 05bb 767e 7cbe
00000050: cd5e acbe 8b34 27bf 177b a5be ad2f 4cbe
00000060: fa7f 613e f1d4 0e3f 5151 273f f62a 293e
00000070: 48ab 84be b833 80bf af97 dbbe 2e2b acbe
00000080: 8d62 cd3d 2a76 f73e 651f 2c3f 4c5c 9f3e
00000090: 2a6e d5bd 7c9b f3be 4e0a a9be b17e 6c3d
000000a0: 3237 643e 3e08 ad3e 0fe1 2f3f c53e 283f
000000b0: c380 103f bdb3 ab3e d117 dfbd 050c 0ebe
000000c0: 1731 e13e 1fcb 63bd 4980 283f 2c55 273f
000000d0: 21d5 ec3e b252 713e 33ce fa3e 7d1d cdbd
000000e0: 29cb 963e 0e39 303d 518e c23e 0493 5c3f
000000f0: 9728 f83e fe04 6c3e e703 a63e 2e03 b9bd
00000100: ce4a ad3f 5351 a7be 27dc 273f 087f d93f
00000110: 6713 873f 83f0 f93d 8274 fe3e 1e43 c73e
00000120: fc3d 173e 6b19 153f 469e c83e 1d1f 253f
00000130: 35f8 5a3f f535 cb3e f96a 833e 5ab3 a73e
00000140: b561 50bd 473a 2c3e 2883 41bf 641d 693e
00000150: bba2 063f bd8c 9b3e b32d 8c3e 6cad 25bb
00000160: b88e 243f 7d19 313f 428f 5a3f 6f62 4c3f
00000170: 41ee 0e3f 987f a43e bab5 8d3e 1c9b d4bc
00000180: 7172 8a3f 09fe 693f 4f97 973f 12ac 913f
00000190: 512c 203f f379 923e 225c 123e 8d5b c43e
000001a0: e500 aa3f 66d7 723e c4f6 b23e d18a 743e
000001b0: 3eb0 533f d6ab 013e 56a8 103f 17b2 223d
000001c0: 32fc 973e ec4b 223f 2c8a 663f 703a be3f
000001d0: 7778 813f b6da 183f 9379 3d3e 4386 033e
000001e0: 5673 893f 7df5 813f 01b5 55bd 0639 a03e
000001f0: 6180 1c3c b54e 083f 5697 263f 10bc 3c3f
00000200: f16c 0f3d 543e 863b 221c 293c 4bc4 ad3d
00000210: 1301 d53d 638c 61bd 661a d6bc b4a1 8ebd
00000220: 74cd c8bd 60c8 4dbd 3d35 9a3c 24f9 06bd
00000230: 124e 3dbd d897 54bd 0a47 043d f966 0abd
00000240: 6cbe 84bd a306 5cbd 45fd 08bc bc86 8a3b
00000250: 237b 3c3c 3bd7 28bc 0c19 d9bd a2d2 86bb
00000260: f27b c4bd a562 20bd eb9a b73c 4e6b 4dbc
00000270: c21f e43c 550f 96bb fe14 2c3c c371 813a
00000280: c03f 033d e644 9ebd 9aff 7c3c 5f4d 123d
00000290: 8a22 e7ba ede7 e6bb 8e00 81bd 1443 bebd
000002a0: 71c4 debd 5457 cabd 913a 32be ed0f 7ebd
000002b0: 1406 02bc c7e5 6c3d 3b24 053d db3a 8bbb
000002c0: 476f cfbb 92e3 803d e1fc 883d c379 43bb
000002d0: 1945 3d3b 1772 19bd bfee 4fbd 7bb1 523b
000002e0: 0b64 9fbd 5f9d abbd bfd4 08be ba3b 8ebd
000002f0: 7152 93bd 4ed6 a53d b3f0 133c 4d70 073d
00000300: 03ed 193f 8166 8e3e 2885 a53e 24b4 e5bc
00000310: e147 823e 5b6f 2ebd eb48 ea3e c996 2e3f
00000320: b66d 843e 240f a0be e7bc cebe 7f8b 1fbf
00000330: f2d2 42be c16b 203e 49f8 b43d 4697 5c3e
00000340: 47fc f33e 802c 173e 3df0 b2be c09d 2dbd
00000350: 3564 bfbd ec05 503e cd40 f13e 093c c83e
00000360: d53d 8c3e 3a78 463e 8d3d b43d cd53 693e
00000370: 176e 42bc d2b2 94bc 67d9 f23d 5409 093e
00000380: 997a a0bb 8376 623d f084 e3be ec5e 433d
00000390: d46a edbe 060c a3be f631 2b3e de6a 1fbe
000003a0: 725b 903e 8170 593c 8809 453e 8a66 9a3d
000003b0: c786 c0be f460 a9be 0b69 1cbf d50d 2dbe
000003c0: c82b cc3e bf71 e03c 787e 0bbe 3a94 9ebe
000003d0: 5155 74bf 1772 1cbf 4c1c 31bf 5445 d1be
000003e0: e1c2 973e abee 6fbe 0f4b 903e e48e e53d
000003f0: 0cf4 babe f405 13bf 6a01 34be 6540 b2bd

fc_hidden.bias f4 [128]
-0.16088565 -0.094864465 -0.22231796 0.7062464 -0.1447043 -0.18951577 -0.20767835 -0.16713189
-0.12851027 -0.12203691 -0.20601399 -0.27366367 -0.16834745 -0.16303688 -0.1164013 0.44775394
-0.30252513 -0.11708802 -0.1255525 -0.0792449 -0.10752583 -0.2571943 -0.40440166 -0.3499162
-0.33198583 -0.15520288 0.07538879 -0.19649957 -0.031913713 -0.07013127 -0.18822443 -0.106284656
-0.15381591 -0.27377638 -0.009852647 -0.23561285 -0.3084321 0.109018356 -0.20822522 -0.2482849
-0.23838179 -0.21095277 -0.32801738 0.017113078 -0.18022531 -0.16417928 -0.11833703 -0.046362318
-0.22232182 0.024894226 0.7165468 -0.26037565 -0.29105642 -0.095894895 -0.10226209 -0.025571205
-0.2254974 -0.31664056 0.2796061 -0.2470338 -0.104409866 -0.16830856 -0.17508298 -0.090814546
-0.35755983 -0.21489823 -0.1263385 -0.09990536 -0.102682285 -0.051489826 -0.10935083 0.268268
-0.22907262 -0.08382982 -0.3077998 -0.17968386 -0.025109181 -0.18189764 -0.26557013 0.82760626
-0.3377751 -0.20904239 -0.031346373 -0.18332379 -0.09209651 -0.3511639 -0.1724309 -0.17333765
-0.3003035 -0.04658254 -0.059361942 -0.26762384 1.0458243 -0.21692671 -0.021583585 -0.21930817
-0.17010936 -0.2911524 0.5241161 -0.20270312 -0.26617813 -0.10104012 -0.2798307 0.95002455
-0.1800622 -0.17929284 -0.096809015 -0.044352196 0.09517051 -0.18017815 -0.26820454 -0.10920209
-0.35949785 -0.1986491 -0.069427215 -0.062848516 -0.15836263 -0.27043283 0.62125206 -0.15587205
1.7533903 -0.23402071 -0.25001326 -0.22565693 0.17417882 -0.021496272 -0.21126977 -0.12818544
00000000: 35bf 24be 4d48 c2bd 52a7 63be 90cc 343f
00000010: 5d2d 14be 6c10 42be a2a9 54be 9f24 2bbe
00000020: 3298 03be 7dee f9bd 55f5 52be a51d 8cbe
00000030: 4663 2cbe 24f3 26be ce63 eebd 0140 e53e
00000040: 93e4 9abe d8cb efbd d690 00be 264b a2bd
00000050: 8136 dcbd f9ae 83be bc0d cfbe 3728 b3be
00000060: 0cfa a9be 81ed 1ebe 7065 9a3d 2f37 49be
00000070: f4b7 02bd fca0 8fbd e8bd 40be c5ab d9bd
00000080: eb81 1dbe 6b2c 8cbe ff6c 21bc 7f44 71be
00000090: d0ea 9dbe 0445 df3d fe38 55be 663e 7ebe
000000a0: 5b1a 74be 0104 58be e5f1 a7be ba30 8c3c
000000b0: fc8c 38be 9d1e 28be af5a f2bd 6ae6 3dbd
000000c0: 55a8 63be faee cb3c 9c6f 373f f54f 85be
000000d0: 5905 95be 8b64 c4bd c96e d1bd b47a d1bc
000000e0: cae8 66be b61e a2be 8828 8f3e 6ef6 7cbe
000000f0: d7d4 d5bd 1459 2cbe f448 33be fafc b9bd
00000100: 1512 b7be 480e 5cbe e15e 01be 2e9b ccbd
00000110: 174b d2bd ffe6 52bd 54f3 dfbd 6c5a 893e
00000120: 0392 6abe f8ae abbd ef97 9dbe 0cff 37be
00000130: c5b1 cdbc 6043 3abe cff8 87be 01de 533f
00000140: dcf0 acbe 350f 56be 0e65 00bd 3bb9 3bbe
00000150: 189d bcbd c1cb b3be ba91 30be 6d7f 31be
00000160: 61c1 99be 55cd 3ebd 8225 73bd fe05 89be
00000170: 92dd 853f 0922 5ebe 0fd0 b0bc 5292 60be
00000180: 2631 2ebe ed11 95be 792c 063f 6891 4fbe
00000190: 8048 88be 1fee cebd f845 8fbe cf34 733f
000001a0: 3a62 38be 8b98 37be ce43 c6bd a6aa 35bd
000001b0: c2e8 c23d 9f80 38be 1b52 89be 58a5 dfbd
000001c0: 1a10 b8be ab6a 4bbe db2f 8ebd b9b6 80bd
000001d0: d029 22be 2c76 8abe 600a 1f3f ec9c 1fbe
000001e0: 186f e03f 20a3 6fbe bd01 80be 9c12 67be
000001f0: ef5b 323e f318 b0bc 1a57 58be 0b43 03be

output.weight f4 [300, 128]
0.62684387 0.06461052 1.7060424 -0.22951409 1.894566 2.3502834 2.071196 1.1401342
2.7035146 0.86426485 1.7480935 1.5623211 2.8704052 2.0503201 1.7915261 0.27539507
1.5018486 2.408086 3.2227159 0.04377025 2.3611298 1.7516015 1.9481908 2.5213597
1.2959912 2.740956 0.9883238 1.8627571 0.70722455 0.19549504 3.123201 2.9945014
2.2337112 1.1637162 0.9656659 1.7301893 2.059029 2.7481737 2.1494048 1.5216515
1.9607083 3.008644 1.5934466 3.5746276 2.1343365 1.5784631 0.6122045 2.4244683
1.3677125 3.619699 -0.079571515 2.1139147 1.2525158 0.9942467 1.6758639 3.1557648
2.4612968 1.4675864 0.85111153 1.4774797 2.611799 2.4419641 1.5543844 -0.04363547
3.083958 2.1232615 4.011524 -0.1392185 2.913123 1.8121954 0.016553687 0.68903077
2.5505855 0.13366285 1.0208582 3.061124 1.5102288 2.2000864 3.0719671 -0.16577926
3.0422473 2.9975533 3.817493 3.1125915 3.223697 1.2509711 1.4649539 2.050065
2.622435 2.4873836 -0.13225831 2.2294037 -0.1871217 2.2126114 2.2131498 1.8908641
1.8507636 2.0666685 -0.26626128 1.9102563 1.5065602 1.4281689 3.5826392 -0.088289134
1.8810412 2.6438484 2.6244745 2.1434517 0.16647609 2.3995404 2.9379878 1.7704935
1.6099765 2.9379609 3.0109735 -0.013250382 3.4871945 2.5082028 0.67878103 2.360356
-0.3888605 1.9690089 2.3763378 1.7698847 -0.1499589 0.8486243 1.3984152 2.111874
0.61699927 -0.47898385 1.6497158 -0.21685575 1.8298906 2.281058 2.0567367 1.1121496
2.568597 0.7832845 1.6926502 1.4297663 2.7104924 1.9031935 1.795771 0.28413817
1.4390703 2.2877893 2.90158 -0.25930056 2.2697358 1.6184633 1.8595713 2.3661103
1.2569373 2.6351745 0.8896445 1.9066162 0.70180196 0.0048669325 2.8680265 2.7653172
2.1149776 1.1178217 0.98994017 1.6437371 1.9652891 2.5276985 2.1033561 1.4790136
1.8567414 2.773435 1.5191541 3.3698082 2.0433056 1.6325471 0.59271294 2.308297
1.3482854 3.3764346 -0.051294215 2.0800173 1.2334809 1.0023224 1.7396791 3.0349758
2.3073936 1.420871 0.79363316 1.4859626 2.4149332 2.252364 1.4858174 -0.026088292
2.7857807 2.1390743 3.7194448 0.06820179 2.723079 1.65365 -0.024052028 0.671871
2.3172784 0.0041696187 1.0483878 2.9107633 1.526881 2.1792426 2.8761883 -0.19278781
2.8039854 2.7407994 3.4860895 3.0335686 3.0622401 1.1824491 1.5523946 1.9872395
2.581543 2.2825098 -0.17009911 2.0850022 -0.14638643 1.9620992 2.0340173 1.8781134
1.8136636 2.0491867 -0.21888949 1.824601 1.4131407 1.402713 3.3303754 -0.099013396
1.7800728 2.4185524 2.3849626 2.114781 0.17467447 2.387447 2.8327055 1.8316528
1.4940779 2.8976924 2.7729845 -0.04776591 3.1765473 2.352271 0.5941341 2.295221
-0.2891571 1.9799001 2.261502 1.6102004 -0.13615948 0.79304844 1.3490599 1.9871899
00000000: d778 203f 8552 843d 995f da3f be05 6bbe
00000010: 2481 f23f 0b6b 1640 7a8e 0440 ebef 913f
00000020: 6206 2d40 7640 5d3f 87c1 df3f 23fa c73f
00000030: b8b4 3740 7238 0340 ba50 e53f 9500 8d3e
00000040: 933c c03f 151e 1a40 fa40 4e40 6f48 333d
00000050: c01c 1740 7a34 e03f 515e f93f f55d 2140
00000060: 0ae3 a53f d36b 2f40 ca02 7d3f d36e ee3f
00000070: ab0c 353f da2f 483e 86e2 4740 e9a5 3f40
00000080: 20f5 0e40 a7f4 943f e135 773f d876 dd3f
00000090: 22c7 0340 14e2 2f40 d98f 0940 7ac5 c23f
000000a0: 7df8 fa3f a08d 4040 0ff6 cb3f b3c6 6440
000000b0: f898 0840 140b ca3f 6fb9 1c3f 7d2a 1b40
000000c0: 3411 af3f 26a9 6740 64f6 a2bd 614a 0740
000000d0: 7052 a03f f486 7e3f b582 d63f 0df8 4940
000000e0: e385 1d40 dfd9 bb3f 72e2 593f 0e1e bd3f
000000f0: b727 2740 2449 1c40 11f6 c63f 1bbb 32bd
00000100: 915f 4540 84e3 0740 685e 8040 4b8f 0ebe
00000110: 9b70 3a40 05f6 e73f 999b 873c 5264 303f
00000120: cb3c 2340 eade 083e 7bab 823f 75e9 4340
00000130: 2d4f c13f 37ce 0c40 1c9b 4440 0ac2 29be
00000140: 2eb4 4240 ead7 3f40 ce51 7440 b334 4740
00000150: 0d51 4e40 d21f a03f 9c83 bb3f 4434 0340
00000160: fad5 2740 4b31 1f40 b96e 07be 8dae 0e40
00000170: d59c 3fbe 6d9b 0d40 3fa4 0d40 d607 f23f
00000180: d2e5 ec3f 4c44 0440 6653 88be 4783 f43f
00000190: f7d6 c03f 3dce b63f f649 6540 efd0 b4bd
000001a0: f5c5 f03f d034 2940 64f7 2740 502e 0940
000001b0: b578 2a3e 1292 1940 fe07 3c40 889f e23f
000001c0: b613 ce3f 8d07 3c40 cab3 4040 2118 59bc
000001d0: 322e 5f40 6586 2040 98c4 2d3f 1310 1740
000001e0: b918 c7be 7c08 fc3f eb15 1840 958b e23f
000001f0: d38e 19be 713f 593f 45ff b23f f228 0740
00000200: aaf3 1d3f 5f3d f5be e329 d33f 6f0f 5ebe
00000210: db39 ea3f dbfc 1140 93a1 0340 eb5a 8e3f
00000220: e563 2440 5585 483f c3a8 d83f 9502 b73f
00000230: b578 2d40 d89b f33f d3db e53f 8f7a 913e
00000240: 7533 b83f 246b 1240 7db3 3940 0bc3 84be
00000250: 5a43 1140 ce29 cf3f 6f06 ee3f 5a6e 1740
00000260: 52e3 a03f b3a6 2840 bebf 633f 000c f43f
00000270: 4ba9 333f ca7a 9f3b bf8d 3740 f5fa 3040
00000280: cb5b 0740 c814 8f3f b86c 7d3f fa65 d23f
00000290: 988e fb3f d0c5 2140 639d 0640 5150 bd3f
000002a0: b4a9 ed3f f67f 3140 a473 c23f f0aa 5740
000002b0: 85c5 0240 4ef7 d03f 09bc 173f 23bb 1340
000002c0: 9e94 ac3f 8117 5840 e219 52bd 011f 0540
000002d0: b4e2 9d3f 1a4c 803f cead de3f 0b3d 4240
000002e0: 56ac 1340 1adf b53f 8b2b 4b3f 0634 be3f
000002f0: 448e 1a40 bb26 1040 442f be3f 1db7 d5bc
00000300: 3b4a 3240 98e6 0840 620b 6e40 61ad 8b3d
00000310: ed46 2e40 ceaa d33f c208 c5bc bdff 2b3f
00000320: 4a4e 1440 4ca1 883b 9231 863f f249 3a40
00000330: d670 c33f b678 0b40 7813 3840 2b6a 45be
00000340: 7f74 3340 4269 2f40 171c 5f40 fd25 4240
00000350: befb 4340 7e5a 973f deb4 c63f dd5d fe3f
00000360: 0038 2540 a414 1240 762e 2ebe ad70 0540
00000370: 53e6 15be 1126 fb3f 572d 0240 0566 f03f
00000380: 2126 e83f e025 0340 9124 60be 878c e93f
00000390: cbe1 b43f 198c b33f df24 5540 89c7 cabd
000003a0: 6dd9 e33f 90c9 1a40 3aa3 1840 9258 0740
000003b0: dddd 323e efcb 1840 0c4b 3540 9973 ea3f
000003c0: f23d bf3f cb73 3940 9478 3140 30a6 43bd
000003d0: 8d4c 4b40 9c8b 1640 2c19 183f e7e4 1240
000003e0: 660c 94be 5e6d fd3f 73bc 1040 0c1b ce3f
000003f0: 646d 0bbe 3905 4b3f ffad ac3f 3d5c fe3f

output.bias f4 [300]
-1.0227966 -0.89569116 -0.8000481 -0.68430173 -0.5804664 -0.48861575 -0.41152814 -0.35454535
-0.3197601 -0.2983353 -0.2840876 -0.27880183 -0.27689564 -0.27305186 -0.26588106 -0.25356686
-0.23630597 -0.21389782 -0.18660463 -0.1558529 -0.12200301 -0.08616614 -0.04876531 -0.010036849
0.029198324 0.06935819 0.10969329 0.1503037 0.19124255 0.2323642 0.27379826 0.31590182
0.35815215 0.40107405 0.44481188 0.48972216 0.53583926 0.58353263 0.63287324 0.6833566
0.7353428 0.78848004 0.84212244 0.89434737 0.9434887 0.9881286 1.0259064 1.0508395
1.0681839 1.0298404 -0.901375 -0.6877657 -0.5782165 -0.4676003 -0.37167397 -0.29638982
-0.24723187 -0.21862005 -0.2069778 -0.21201625 -0.22099155 -0.2440565 -0.26319012 -0.269931
-0.2696877 -0.26290634 -0.2490558 -0.22958688 -0.20520039 -0.17704704 -0.14627016 -0.11286345
-0.07772222 -0.04127087 -0.003911909 0.03403961 0.072831996 0.1115763 0.15098019 0.19063471
0.23075311 0.27096802 0.31222874 0.3539349 0.39639828 0.4400118 0.48517096 0.53111535
0.5786329 0.6274867 0.67729616 0.7279423 0.77885175 0.8298795 0.8791083 0.92488647
0.9634783 0.99033475 0.99539 0.95146525 -1.017878 -0.8340259 -0.7145824 -0.5850702
-0.47104812 -0.37444243 -0.30017924 -0.24973096 -0.22412549 -0.2169944 -0.22253487 -0.2342427
-0.24491096 -0.25258568 -0.2554357 -0.25109598 -0.24074471 -0.22399174 -0.20254482 -0.17667356
-0.14686286 -0.11449772 -0.08033838 -0.045218598 -0.008852812 0.028016996 0.06529378 0.103279315
0.14137428 0.18001188 0.21898362 0.25849336 0.29850054 0.33949366 0.3811702 0.42400485
0.46813625 0.5134192 0.56010985 0.6084788 0.6577586 0.7083754 0.75912195 0.8104073
0.8591932 0.90313053 0.9388304 0.96019715 0.9604435 0.91446173 -0.7242195 -0.5501004
-0.43062773 -0.30987155 -0.2067146 -0.11273902 -0.037231445 0.023754014 0.057506204 0.07111682
0.07340914 0.06842016 0.06481446 0.062188823 0.06090064 0.06511315 0.0749929 0.090926684
0.11181898 0.13691036 0.16502173 0.1958203 0.22836782 0.26265556 0.29803506 0.33357617
0.3700338 0.4071476 0.44472173 0.48240858 0.5209414 0.5597856 0.5993351 0.6397433
0.6807979 0.72273415 0.7657317 0.8104466 0.8562648 0.9033417 0.95188636 1.0008597
1.0504738 1.0994351 1.146003 1.1874633 1.2195479 1.2377734 1.2307478 1.1770096
-0.7560371 -0.5856099 -0.48009714 -0.37455815 -0.2807596 -0.20512804 -0.15626387 -0.13454324
-0.1311032 -0.13915302 -0.15090284 -0.16451238 -0.18287912 -0.19468941 -0.19897448 -0.19487764
-0.18111661 -0.16131637 -0.1367013 -0.107383884 -0.07501184 -0.040113296 -0.0030634778 0.03508822
0.07402363 0.1137889 0.15403052 0.19447406 0.23525254 0.276316 0.31772318 0.3592837
0.40204203 0.4449462 0.48867857 0.5333623 0.5791781 0.6266736 0.67494255 0.72462845
0.7756251 0.82717663 0.8792678 0.9304739 0.98006546 1.024249 1.0604796 1.0836724
1.0854856 1.032105 -1.0079529 -0.8702966 -0.7919678 -0.6903603 -0.591151 -0.49871036
00000000: 00eb 82bf 044c 65bf f4cf 4cbf 662e 2fbf
00000010: 7299 14bf d82b fabe d1b3 d2be f886 b5be
00000020: 99b7 a3be 68bf 98be ee73 91be 1dbf 8ebe
00000030: 44c5 8dbe 74cd 8bbe 9021 88be 84d3 81be
00000040: 31fa 71be 0808 5bbe 4915 3fbe e797 1fbe
00000050: b7dc f9bd e077 b0bd 22be 47bd 9971 24bc
00000060: 5331 ef3c ab0b 8e3d e0a6 e03d 37e9 193e
00000070: 16d5 433e e1f0 6d3e 492f 8c3e e2bd a13e
00000080: b85f b73e 9459 cd3e 62be e33e ddbc fa3e
00000090: c32c 093f 6562 153f fb03 223f 75f0 2e3f
000000a0: 6d3f 3c3f d4d9 493f 5695 573f f3f3 643f
000000b0: 7a88 713f fff5 7c3f e750 833f e981 863f
000000c0: 40ba 883f cfd1 833f 83c0 66bf 6a11 30bf
000000d0: ff05 14bf 4e69 efbe 0d4c bebe 68c0 97be
000000e0: 5a2a 7dbe efdd 5fbe fdf1 53be ca1a 59be
000000f0: 9c4b 62be f2e9 79be dbc0 86be 6534 8abe
00000100: 8214 8abe a99b 86be 7c08 7fbe d318 6bbe
00000110: 0d20 52be d24b 35be d8c7 15be f424 e7bd
00000120: d42c 9fbd a50b 29bd 792f 80bb 1e6d 0b3d
00000130: f128 953d 1d82 e43d 8d9a 1a3e bf35 433e
00000140: 8b4a 6c3e 52bc 8a3e 72dc 9f3e f536 b53e
00000150: b7f4 ca3e 3a49 e13e 5468 f83e 2df7 073f
00000160: 4921 143f f8a2 203f 4863 2d3f 6d5a 3a3f
00000170: d462 473f fc72 543f 3e0d 613f 5cc5 6c3f
00000180: 84a6 763f 9486 7d3f e1d1 7e3f 3a93 733f
00000190: d449 82bf b982 55bf dfee 36bf 29c7 15bf
000001a0: 382d f1be ebb6 bfbe 18b1 99be 79b9 7fbe
000001b0: 2781 65be c833 5ebe 2ee0 63be 51dd 6fbe
000001c0: f0c9 7abe e952 81be 78c8 82be a78f 80be
000001d0: c885 76be 175e 65be e967 4fbe eae9 34be
000001e0: 3863 16be c87d eabd 7388 a4bd 2337 39bd
000001f0: 630b 11bc e683 e53c bfb8 853d 1b84 d33d
00000200: 6bc4 103e 0955 383e 3e3d 603e 3e59 843e
00000210: 10d5 983e 1dd2 ad3e be28 c33e 2a17 d93e
00000220: 8eaf ef3e 716f 033f 5c63 0f3f 44c5 1b3f
00000230: de62 283f 1758 353f d155 423f da76 4f3f
00000240: 16f4 5b3f 9033 673f 3057 703f 7bcf 753f
00000250: a0df 753f 2a1a 6a3f 7366 39bf 61d3 0cbf
00000260: 3d7b dcbe 7ca7 9ebe feac 53be b7e3 e6bd
00000270: 0080 18bd c797 c23c a08b 6b3d b2a5 913d
00000280: 8857 963d de1f 8c3d 72bd 843d b5b9 7e3d
00000290: f372 793d 0b5a 853d e195 993d c537 ba3d
000002a0: 5901 e53d 3b32 0c3e 75fb 283e 1e85 483e
000002b0: 41d9 693e ca7a 863e 0d98 983e 7fca aa3e
000002c0: 1275 bd3e a675 d03e 91b2 e33e 42fe f63e
000002d0: 6a5c 053f 1c4e 0f3f 066e 193f 38c6 233f
000002e0: c548 2e3f 1b05 393f fe06 443f 6e79 4f3f
000002f0: 2c34 5b3f 6741 673f d3ae 733f 2c1c 803f
00000300: ed75 863f 4aba 8c3f 3ab0 923f ccfe 973f
00000310: 251a 9c3f 5c6f 9e3f 2589 9d3f 40a8 963f
00000320: a68b 41bf 88ea 15bf 4bcf f5be 16c6 bfbe
00000330: b9bf 8fbe 160d 52be a303 20be b4c5 09be
00000340: eb3f 06be 217e 0ebe 4686 1abe ef75 28be
00000350: aa44 3bbe a95c 47be f7bf 4bbe 018e 47be
00000360: a276 39be 1e30 25be 6dfb 0bbe 15ec dbbd
00000370: cf9f 99bd d74d 24bd a1c4 48bb aab8 0f3d
00000380: b399 973d 280a e93d 2dba 1d3e 3524 473e
00000390: 0be6 703e 4a79 8d3e 9dac a23e 08f4 b73e
000003a0: 74d8 cd3e fdcf e33e 1434 fa3e 6f8a 083f
000003b0: 0445 143f ae6d 203f 09c9 2c3f 4081 393f
000003c0: 5e8f 463f d9c1 533f b217 613f 8a33 6e3f
000003d0: 92e5 7a3f 971a 833f ccbd 873f c7b5 8a3f
000003e0: 31f1 8a3f 041c 843f 9a04 81bf c2cb 5ebf
000003f0: 67be 4abf 74bb 30bf ac55 17bf f756 ffbe
