figs2-3_rl/results/asterix-UADQN/network.pth (torch_old, 683100 bytes, 6 tensors)

conv.weight f4 [16, 4, 3, 3]
0	0xbfbaeec6	-1.4604118
1	0xbeb85c7e	-0.36008066
2	0xbfadb16c	-1.356977
3	0xbef3bd20	-0.47605228
4	0xbfa096b9	-1.2545997
5	0xbecc35ad	-0.398847
6	0xbe5a030d	-0.21290226
7	0x3dc893e0	0.0979383
8	0xbe13ecdf	-0.14445828
9	0x3ccc2f62	0.024924938
10	0x3c191774	0.009343971
11	0x3c8114da	0.015757013
12	0xbdc835bb	-0.09775873
13	0x3d5bec35	0.05369206
14	0xbdfe23b6	-0.12409155
15	0x3b87491d	0.004128589
16	0xbcb6b03d	-0.022300834
17	0xbd1fcc7e	-0.03901338
18	0xbd375b60	-0.044764876
19	0x3c1bce6c	0.009509664
20	0xbc1a7280	-0.009426713
21	0xbc9892d0	-0.018624693
22	0x3ed08e0b	0.4073337
23	0x3db7c215	0.08972565
24	0x3d95e5fb	0.07319256
25	0xbd80b293	-0.0628406
26	0xbc52b046	-0.01285941
27	0x3d00350e	0.031300597
28	0x3dbcdddc	0.09222004
29	0x3d0f67ab	0.035010975
30	0x3e894517	0.26810524
31	0x3e9ddb61	0.30831435
32	0x3e9d68a4	0.30743897
33	0x3d26dda5	0.04073872
34	0x3ea0c10e	0.3139729
35	0x3e307d73	0.17235355
36	0xbd06b003	-0.0328827
37	0xbd220fff	-0.039566036
38	0x3db101fa	0.08642955
39	0xbe0f2e42	-0.1398249
40	0xbe938150	-0.28809595
41	0xbf08ae6f	-0.53391165
42	0xbe2de4fd	-0.16981883
43	0xbe7fbecf	-0.24975131
44	0xbf771553	-0.96516913
45	0x3e5a29b0	0.21304965
46	0x3dc9bdd0	0.09850657
47	0x3e88e585	0.2673761
48	0x3e77977f	0.24178885
49	0x3e9be474	0.30447733
50	0x3ea8aee9	0.32945946
51	0x3b343028	0.0027494524
52	0xbea96522	-0.3308497
53	0x3f0d5c9d	0.5521944
54	0x3c634214	0.013870735
55	0xbe9518ff	-0.29120633
56	0xbc3084b1	-0.010773824
57	0xbda8efc4	-0.08248857
58	0xbe271568	-0.1631676
59	0xbd13e069	-0.036102686
60	0x3df59fb7	0.11993354
61	0xbf208718	-0.62706137
62	0xbe13a4b9	-0.14418305
63	0x3c129c4d	0.008948398
64	0xbc946ec0	-0.018119216
65	0x3d205968	0.039147764
66	0x3ddc3da5	0.10753945
67	0x3c519d9b	0.012793924
68	0x3d09a49b	0.033604246
69	0x3e03a2e2	0.12855104
70	0x3e152a81	0.14566995
71	0xbdaef8bb	-0.08543535
72	0x3eebbfeb	0.4604486
73	0x3f40c7c7	0.75304836
74	0x3f30ce37	0.6906466
75	0x3e68eeb2	0.22747305
76	0x3ef837aa	0.48479968
77	0x3fb7b75d	1.4352833
78	0x3e8536ad	0.26018277
79	0x3f39775c	0.7244775
80	0x3f14f42f	0.58185095
81	0x3ecf352d	0.40470257
82	0x3f0f8666	0.5606445
83	0xbed41b21	-0.41426948
84	0x3f21c597	0.63192123
85	0x3ec0966b	0.3761476
86	0x3f603c9c	0.8759248
87	0x3edbfbfb	0.42965683
88	0x3eea7024	0.45788682
89	0x3f304dc3	0.68868655
90	0x3e9cd126	0.30628318
91	0xbd80bc9f	-0.062859766
92	0x3eed3879	0.46332148
93	0xbeffb767	-0.49944612
94	0xbe46d067	-0.19415437
95	0x3d39a147	0.04531982
96	0xbe1f1631	-0.15535809
97	0xbeebea36	-0.46077126
98	0x3d8245a0	0.06360936
99	0x3fcb7651	1.5895482
100	0x3fe1412d	1.7598015
101	0x3fe9fd95	1.8280512
102	0x3fefa550	1.8722324
103	0x3ee2f8d8	0.44330478
104	0x40188a15	2.3834279
105	0x3fd63599	1.6735107
106	0x3fca681d	1.5813023
107	0x4004ee92	2.0770612
108	0x3bdb8f11	0.0067004045
109	0xbe100925	-0.14065988
110	0x3bb25bdb	0.005443079
111	0x3e87c349	0.26516178
112	0xbf938955	-1.1526285
113	0x3d81af1f	0.0633223
114	0x3e76b627	0.24092923
115	0x3ea5ac1a	0.32357866
116	0x3e7225d9	0.2364725
117	0xbdab2c15	-0.08358017
118	0x3d859429	0.065224
119	0xbd1cf2bc	-0.038317427
120	0xbebe02a0	-0.37111378
121	0xbf937e2d	-1.1522881
122	0xbc33a026	-0.010963475
123	0x3e6f35bb	0.2336034
124	0x3e819585	0.25309387
125	0x3dee2f2e	0.116300926
126	0x3ce3d989	0.02781369
127	0x3c0222ec	0.007942896
128	0xbd152310	-0.03641039
129	0x3d412b93	0.047160696
130	0xbf2ff8f2	-0.68739235
131	0x3c7bb939	0.015363985
132	0xbcb4a919	-0.022053288
133	0xbe6a7832	-0.22897413
134	0xbd9b40b3	-0.075807
135	0xbfa836b5	-1.3141695
136	0x3d61a866	0.055092238
137	0xbceadf42	-0.02867091
138	0xbf4d2110	-0.80128574
139	0xbd92705d	-0.07150338
140	0xbf650b24	-0.89470124
141	0xbe348d22	-0.17631963
142	0xbeb23c99	-0.34811857
143	0xbd8da272	-0.069157496
144	0xbf90867f	-1.1291045
145	0x3ea69c94	0.32541335
146	0x3e8fe0e4	0.28101265
147	0xbfc8a905	-1.5676581
148	0x3ecc4003	0.39892587
149	0x3eae6e40	0.3406849
150	0xbe785cc4	-0.24254137
151	0xbe1deaad	-0.15421553
152	0xbd721f57	-0.05911192
153	0x3ed8ebf5	0.4236752
154	0x3f3f0196	0.74611795
155	0x3ea8dc50	0.32980585
156	0x3dd2e241	0.10297061
157	0x3e2038aa	0.15646616
158	0x3def92eb	0.11697944
159	0xbd869026	-0.06570463
160	0x3d91acb7	0.07113021
161	0x3d46b96b	0.048516672
162	0x3e0a66bc	0.13515753
163	0xbec9bd16	-0.39402074
164	0xbefb20a4	-0.4904834
165	0x3dac9e0e	0.08428584
166	0xbdb128df	-0.08650374
167	0xbd8eb88c	-0.06968793
168	0x3d4f1b1c	0.050562963
169	0x3dceba11	0.10094083
170	0xbd3df370	-0.04637474
171	0x3ea020c2	0.31274992
172	0xbf8f663a	-1.1203072
173	0xbfa4d581	-1.2877656
174	0x3e0b96b1	0.13631703
175	0x3d714e5d	0.058912624
176	0x3d0283d0	0.031863987
177	0xbe445ffa	-0.19177237
178	0x3e6b13b3	0.22956733
179	0x3c18a30d	0.009316218
180	0x3d2dcdb2	0.042432494
181	0x3d587ccd	0.052853394
182	0x3dbdbd28	0.09264594
183	0xbe818fe5	-0.25305095
184	0xbe474473	-0.19459705
185	0xbe75f824	-0.2402044
186	0xbe9db7f7	-0.30804417
187	0xbe9629db	-0.29328808
188	0xbf3e2b24	-0.7428458
189	0x3e5a3cff	0.2131233
190	0x3d50e5b7	0.051000323
191	0x3dbec346	0.09314589
192	0x3e985acb	0.2975677
193	0x3ddffc7c	0.109368294
194	0x3e636c03	0.22209172
195	0x3f0bb781	0.5457688
196	0xbe42c5c9	-0.19020762
197	0x3ce88891	0.028385432
198	0xbcb1b6d4	-0.021693625
199	0xbe27aff9	-0.16375722
200	0x39e29842	0.0004321952
201	0xbd61f5a3	-0.055165898
202	0xbe813caf	-0.2524161
203	0x3db6ce97	0.08926123
204	0x3d1926c7	0.037390497
205	0xc0192afb	-2.3932483
206	0x3cde618b	0.027146121
207	0x3b620555	0.0034488041
208	0xbd7022a1	-0.058626775
209	0x3e2f49c5	0.17117985
210	0x3d1a63e6	0.037692927
211	0x3e5e0878	0.21682918
212	0x3ec03107	0.37537405
213	0xbf594d21	-0.84883314
214	0xbdba522b	-0.090977035
215	0x3fb5bb93	1.4197868
216	0x3eba066c	0.36333025
217	0x3da5fca2	0.081048265
218	0x3e753db4	0.23949319
219	0xbf933d46	-1.1503074
220	0xbf17ee4f	-0.59348005
221	0xbeedcc99	-0.46445158
222	0xbc72a1e5	-0.0148091065
223	0xbe664cb3	-0.22490196
224	0xbd405aee	-0.046961717
225	0xbe820dce	-0.25401157
226	0xbf7213a0	-0.94561195
227	0xbe9ee964	-0.31037438
228	0x3da0a686	0.07844262
229	0x3cf9d319	0.030496167
230	0x3db5265a	0.088452056
231	0xbc31afd0	-0.01084514
232	0xbd40292c	-0.046914265
233	0x3c111c29	0.008856812
234	0x3c88e872	0.016712401
235	0x3e5a232d	0.21302481
236	0xbb0dc294	-0.002163087
237	0xbdbbda3b	-0.091724835
238	0xbe0b6491	-0.13612582
239	0xbd38a1f1	-0.045076314
240	0x3d132afe	0.035929672
241	0xbc2f26aa	-0.010690371
242	0x3c287cf2	0.0102836955
243	0xbd23eb43	-0.040019285
244	0xbc69f24b	-0.014278959
245	0x3be3af22	0.0069483677
246	0xbe44b313	-0.19208936
247	0x3c6ac9c8	0.014330335
248	0xbe0004ea	-0.12501875
249	0xbc39b18d	-0.011333835
250	0xbe836beb	-0.25668272
251	0xbd5ae3b8	-0.053439826
252	0xbd9b0ab0	-0.07570398
253	0xbe72c120	-0.23706484
254	0x3eae7009	0.3406985
255	0xbddedcf3	-0.108819865

conv.bias f4 [16]
0	0xbd593557	-0.053029384
1	0xbdc159b0	-0.09440935
2	0x3f991840	1.1960526
3	0xbe4e782a	-0.20163026
4	0xbee4a95d	-0.44660464
5	0xbd7b7b78	-0.061397046
6	0x3d07f69c	0.03319417
7	0xbec2d594	-0.38053572
8	0xbe99f696	-0.30070943
9	0xbf3bc798	-0.7335143
10	0xbd855f73	-0.06512346
11	0xbf3ad2e5	-0.7297805
12	0xbf36c832	-0.71399224
13	0xbe397191	-0.18109728
14	0x3d8c4b48	0.06850296
15	0xbee770d0	-0.45203257

fc_hidden.weight f4 [128, 1024]
0	0xbd89ee0f	-0.06734859
1	0x3e9be7ee	0.30450386
2	0x3d015534	0.031575397
3	0xbce83cb5	-0.02834926
4	0x3e27972b	0.1636626
5	0xbf17c52f	-0.59285253
6	0x3df10a2c	0.11769518
7	0x3e802bfa	0.2503355
8	0x3d03f5ca	0.032216825
9	0x3ede9d26	0.4347927
10	0x3ea9772f	0.33098742
11	0xbdbb8d20	-0.09157777
12	0xbe39240f	-0.18080162
13	0x3dcde10d	0.10052691
14	0x3ef2f872	0.47455174
15	0x3ca97856	0.020687263
16	0xbecf1b84	-0.4045068
17	0x3d955a59	0.07292623
18	0x3e7a29d8	0.24430025
19	0x3e176a23	0.14786582
20	0x3e8faed0	0.2806306
21	0xbc5a3d8b	-0.013320337
22	0x3e05ebf6	0.13078293
23	0xbe614257	-0.21997963
24	0xbdab3d56	-0.08361308
25	0x3e2065e8	0.15663874
26	0x3e31d43f	0.17366122
27	0x3e0b2cca	0.13591304
28	0xbe8ae737	-0.27129528
29	0x3e1a91a4	0.1509462
30	0xbdee09e4	-0.1162298
31	0xbdcd05f3	-0.100109
32	0xbcc450b2	-0.02396426
33	0xbe0bfd36	-0.13670811
34	0xbcfa60bc	-0.030563705
35	0x3e198290	0.14991212
36	0xbdf6aa12	-0.12044157
37	0xbe7a64ee	-0.24452564
38	0x3dfefd40	0.12450647
39	0xbead6ee2	-0.3387366
40	0x3df08c98	0.11745566
41	0x3cb82bf4	0.022481896
42	0x3c6881fc	0.014191147
43	0x3e9a9489	0.30191448
44	0xbcf3df1a	-0.029769469
45	0x3e744f5c	0.23858398
46	0x3dae1440	0.08499956
47	0x3e25c487	0.1618825
48	0x3e21f527	0.15816174
49	0x3e886599	0.26640013
50	0x3e2a90bc	0.16656774
51	0x3eaeb346	0.3412115
52	0x3e1bc4e1	0.15211822
53	0x3e6dd6c6	0.23226461
54	0x3d81b695	0.06333653
55	0x3e34face	0.176738
56	0x3de219e4	0.110400945
57	0x3d9bdf7c	0.07610986
58	0xbd3b5cc4	-0.045742765
59	0x3e3f6244	0.18689829
60	0xbccecd25	-0.025244305
61	0xbd967c36	-0.0734791
62	0x3e32d0b1	0.17462422
63	0x3e6ff865	0.23434599
64	0x3ddd062e	0.10792194
65	0x3e9bbf45	0.30419365
66	0xbdbd392a	-0.09239419
67	0xbc94873b	-0.01813089
68	0x3d8ca2e9	0.0686701
69	0x3da340aa	0.07971318
70	0x3e8c75c7	0.27433607
71	0x3e161810	0.14657617
72	0xbc4c407f	-0.012466549
73	0x3ea5f8e4	0.3241645
74	0xbd14cbea	-0.03632728
75	0xbe66baae	-0.2253215
76	0x3e6b1bbd	0.229598
77	0x3f101a22	0.56289876
78	0x3cc651b1	0.024208875
79	0xbdaa4fdd	-0.08316014
80	0xbed43cc2	-0.41452605
81	0xbd495b7a	-0.049159504
82	0xbe1678f2	-0.14694574
83	0x3d6b6f6d	0.05747931
84	0xbe10225b	-0.14075606
85	0x3e325985	0.17416961
86	0xbd883b8c	-0.06651983
87	0xbe5ff774	-0.2187174
88	0xbeb72d4e	-0.35776752
89	0xbe3cd48a	-0.18440452
90	0x3e36d878	0.17856014
91	0xbcc55748	-0.02408947
92	0xbc9fb1e0	-0.019493997
93	0xbe396161	-0.18103553
94	0xbcfd921d	-0.030953461
95	0xbd2599f0	-0.04043001
96	0x3e33350a	0.17500702
97	0x3e688008	0.2270509
98	0x3e4b5101	0.1985512
99	0x3eb33310	0.34999895
100	0x3d992d06	0.07479291
101	0xbc76e0e4	-0.015068267
102	0x3d4c1f02	0.04983426
103	0x3e6193b6	0.22029004
104	0x3e508360	0.20362616
105	0x3e9608d9	0.29303625
106	0xbd464d4f	-0.04841357
107	0xbd1db354	-0.0385011
108	0xbdbdd75d	-0.09269593
109	0x3eb8b1c4	0.36073124
110	0x3f00b19f	0.5027103
111	0x3e4011f5	0.1875685
112	0x3e546100	0.20740128
113	0x3e2de4b7	0.16981779
114	0x3e7e24da	0.24818745
115	0x3c9ba896	0.019001286
116	0x3cc93ad1	0.024564179
117	0x3e34a059	0.17639293
118	0x3e021c3d	0.12706085
119	0x3e59f8a2	0.21286252
120	0x3ea3a391	0.3196073
121	0x3eb5d99a	0.3551758
122	0x3e0ffd89	0.1406156
123	0x3ded0759	0.11573667
124	0x3e834163	0.25635824
125	0x3e05485c	0.13015884
126	0x3e7fea7d	0.24991794
127	0x3e737273	0.23774128
128	0xbe1a19d3	-0.15048914
129	0xbddcfdbb	-0.10790583
130	0xbd305fc1	-0.043060068
131	0xbe35143f	-0.17683505
132	0xbe1dffb4	-0.15429574
133	0xbb4f05cc	-0.0031589149
134	0xbe23e7a6	-0.16006336
135	0x3c113e26	0.008864915
136	0xbbbde3f9	-0.0057949987
137	0xbe2eb1dd	-0.17060037
138	0x3d4bab72	0.04972405
139	0xbc2fbdff	-0.010726451
140	0x3c986222	0.01860148
141	0xbe04982e	-0.12948677
142	0x3d868232	0.065678015
143	0x3cde0b97	0.027105136
144	0xbd8b882a	-0.068130806
145	0x3dac3402	0.08408357
146	0xbe585e0e	-0.21129629
147	0x3d9a16cc	0.075238794
148	0xbe96a17d	-0.2942008
149	0x3e006ce4	0.12541538
150	0xbea31530	-0.31852102
151	0xbe72ed34	-0.23723298
152	0xbe3feb42	-0.18742087
153	0xbe2a05b8	-0.16603744
154	0x3c28e89e	0.0103093665
155	0xbe4e2c63	-0.2013412
156	0xbe8006d9	-0.25005224
157	0x3e0d3bf5	0.13792403
158	0xbdfc61a3	-0.1232331
159	0xbe53cfaa	-0.20684686
160	0xbd405a76	-0.04696127
161	0xbe7095bd	-0.2349462
162	0xbe0bf24f	-0.13666652
163	0x3c6716cd	0.014104557
164	0x3e1c2719	0.1524929
165	0xbe024acf	-0.1272385
166	0x3da0f360	0.0785892
167	0xbeb60706	-0.35552233
168	0xbdb202ee	-0.08691965
169	0xbc7d42c5	-0.015457814
170	0x3e29af01	0.16570665
171	0x3e0a0797	0.13479458
172	0xbd945ba7	-0.07244044
173	0xbe314eba	-0.17315188
174	0xbd8d06b8	-0.06886047
175	0x3b37b557	0.002803167
176	0xbd820d3b	-0.0635018
177	0x3de21b69	0.11040384
178	0x3a1bbd33	0.00059409736
179	0xbdc2c6c6	-0.09510569
180	0xbdf57ad8	-0.11986321
181	0xbd936125	-0.07196263
182	0x3e1b72de	0.15180537
183	0xbe8c9e31	-0.2746444
184	0x3d262ffb	0.0405731
185	0xbeaa6322	-0.33278757
186	0xbe858ee6	-0.26085585
187	0xbe2be7e6	-0.16787681
188	0xbd4d7cf6	-0.050168
189	0xbdb73106	-0.08944897
190	0x3c7b029a	0.0153204445
191	0xbe1d2e2b	-0.15349643
192	0xbe975d48	-0.29563355
193	0xbe5ae8d8	-0.21377885
194	0x3e3ef986	0.18649873
195	0x3e1a497a	0.15067092
196	0x3d0efd4e	0.03490954
197	0xbd0e12dc	-0.034685954
198	0x3e099432	0.13435438
199	0x3e98a0d9	0.29810217
200	0x3dc8fa17	0.09813326
201	0xbe617017	-0.22015415
202	0x3e532848	0.20620835
203	0x3e973af7	0.29537174
204	0x3e9725e4	0.29521096
205	0xbdc0fb48	-0.09422928
206	0xbccdc4b3	-0.025118208
207	0xbe6a7564	-0.22896343
208	0xbd8b4d4d	-0.06801853
209	0x3e421c5f	0.18956135
210	0x3d38d910	0.045128882
211	0x3da74b80	0.08168697
212	0x3a9e6e02	0.0012087228
213	0x3da84682	0.08216573
214	0xbe8afe61	-0.271472
215	0x3d8e562e	0.06950031
216	0xbe1b4d37	-0.15166174
217	0xbedb4176	-0.4282338
218	0x3e01216c	0.12610406
219	0x3ea6010f	0.32422683
220	0x3eb2a3c2	0.34890562
221	0xbddfdc58	-0.10930699
222	0x3ea43448	0.32071137
223	0x3e9910b6	0.29895562
224	0x3e88c666	0.26713866
225	0xbb3cac25	-0.002878913
226	0xbeb00ff8	-0.34387183
227	0xbdeeefa7	-0.11666804
228	0x3ea23834	0.31683505
229	0x3e2e5c5a	0.17027417
230	0xbce12556	-0.027483623
231	0x3e9e0776	0.30865067
232	0xbd3df99b	-0.04638062
233	0x3e5c0d26	0.2148939
234	0x3ea9b494	0.33145583
235	0x3e555d72	0.20836428
236	0xbe0a81dc	-0.135261
237	0xbd5a9335	-0.053363044
238	0xbd783471	-0.060596887
239	0x3ddc5ace	0.10759507
240	0x3e2e02c0	0.16993237
241	0x3e0deca2	0.138598
242	0xbea262de	-0.31716055
243	0xbec50717	-0.38481972
244	0x3eab3608	0.3343966
245	0x3d5719c7	0.052514818
246	0xbc436bda	-0.011927569
247	0x3e9cac2f	0.30600116
248	0xbcf82e0d	-0.030295396
249	0x3c7a7854	0.0152874775
250	0x3e254dd6	0.16142973
251	0x3e75f996	0.2402099
252	0x3f04295b	0.51625603
253	0x3ee4d8b4	0.4469658
254	0x3eb075d9	0.3446491
255	0xbd2f80ee	-0.042847566

fc_hidden.bias f4 [128]
0	0xbe82d5de	-0.25553793
1	0xbd11d294	-0.035601214
2	0x3f60eeae	0.87864196
3	0xbe807014	-0.2508551
4	0xbea60e2b	-0.32432684
5	0xbea446a2	-0.3208514
6	0xbe8f4110	-0.27979326
7	0xbea88317	-0.32912514
8	0x3e9ee1c4	0.3103162
9	0xbe946e78	-0.2899053
10	0xbeadddb3	-0.33958206
11	0xbe7e3b32	-0.24827269
12	0xbdbebb9f	-0.0931313
13	0xbe173b84	-0.14768797
14	0xbe5aea1f	-0.21378373
15	0xbde9845f	-0.11402201
16	0x3ec7ffa7	0.39062235
17	0xbe365043	-0.17804055
18	0xbea1ee9e	-0.31627363
19	0xbea038c4	-0.3129331
20	0xbeaa756d	-0.33292714
21	0xbe8e63f4	-0.27810633
22	0x3deae4dd	0.114694335
23	0xbe87b3eb	-0.26504454
24	0xbecbe65c	-0.39824188
25	0xbe6e3668	-0.23262942
26	0xbea9638b	-0.33083758
27	0x3f5066d0	0.8140688
28	0xbea53f01	-0.3227463
29	0xbe9e62ad	-0.3093466
30	0xbe36db35	-0.17857058
31	0xbd926fe6	-0.07150249
32	0xbe89f932	-0.26947933
33	0xbea52446	-0.32254237
34	0xbe8acd22	-0.2710963
35	0xbeb5f128	-0.3553555
36	0xbe641a24	-0.22275597
37	0xbe8c826c	-0.27443254
38	0xbe2e794f	-0.17038463
39	0xbeb1255f	-0.34598824
40	0xbcfd0b1f	-0.030889092
41	0x3c8ed4b8	0.017435417
42	0xbd8182e9	-0.06323797
43	0xbea57941	-0.32319072
44	0xbe06f790	-0.13180375
45	0xbe987993	-0.29780254
46	0xbe6c84cd	-0.23097534
47	0x3dffc78f	0.12489235
48	0xbe8e39f3	-0.27778587
49	0xbe491c9b	-0.19639818
50	0xbe6189b4	-0.22025186
51	0xbeb1a418	-0.34695506
52	0xbeaa26c0	-0.3323269
53	0xbe830f2e	-0.2559752
54	0xbe39bea7	-0.18139134
55	0xbe4d3f0d	-0.20043583
56	0xbdc3f268	-0.0956772
57	0xbe92ed42	-0.28696638
58	0xbcf6e9d3	-0.030140793
59	0x3e00efe3	0.1259151
60	0xbc0f6758	-0.008752666
61	0x3db270c9	0.08712918
62	0xbe6c8a66	-0.2309967
63	0xbe8fc98c	-0.28083456
64	0xbe96fe4e	-0.29490894
65	0x3be7b6b5	0.007071341
66	0xbe5c8017	-0.21533237
67	0xbe3eed40	-0.18645191
68	0xbe5e879c	-0.21731418
69	0xbe8b3df3	-0.271957
70	0xbea65ade	-0.324912
71	0xbe5f5f01	-0.21813585
72	0xbe7e14d3	-0.24812631
73	0xbe8ee1f5	-0.27906767
74	0xbebeab25	-0.37239948
75	0x3f784f06	0.9699558
76	0x3e1c7f68	0.15282977
77	0xbe845ce8	-0.25852132
78	0xbe8f1e2d	-0.2795271
79	0xbe9505b9	-0.2910593
80	0x3e4f790e	0.20261022
81	0xbe6325ed	-0.22182436
82	0xbeb6674e	-0.3562569
83	0xbe9bb80d	-0.30413857
84	0xbe9d8aa1	-0.30769828
85	0xbe95259c	-0.29130256
86	0xbe809ed1	-0.25121167
87	0xbe9ba813	-0.30401668
88	0xbe91a58d	-0.28446618
89	0xbe8b39f9	-0.27192667
90	0xbea904ee	-0.33011574
91	0xbeb2fb7a	-0.34957486
92	0x3f75f08d	0.96070176
93	0xbe805e17	-0.25071785
94	0xbec2cda7	-0.38047525
95	0xbeaaaab7	-0.3333337
96	0xbe90bafc	-0.28267658
97	0xbe92f751	-0.28704312
98	0x3e45afbb	0.19305317
99	0xbe5c4589	-0.215109
100	0xbe5ac621	-0.21364643
101	0xbe4c81db	-0.19971411
102	0xbeb6b021	-0.3568125
103	0x3e329281	0.174387
104	0xbe5c6d89	-0.2152616
105	0xbe8f6477	-0.28006336
106	0xbea1044c	-0.3144859
107	0xbe7f4eb5	-0.24932368
108	0xbcad4675	-0.02115176
109	0xbe862dd9	-0.26206854
110	0xbe5972f2	-0.21235254
111	0x3cbc4dbc	0.022986285
112	0xbe8d2d6b	-0.27573714
113	0xbe871214	-0.2638098
114	0xbeaeef3f	-0.34166905
115	0xbe84f032	-0.25964504
116	0xbe835340	-0.25649452
117	0xbe58a1b1	-0.2115543
118	0xbe8f02c7	-0.27931806
119	0xbe6222e6	-0.22083625
120	0x3dde4594	0.10853115
121	0xbce18ec0	-0.027533889
122	0xbe112a5d	-0.14176317
123	0xbeab2c05	-0.33432022
124	0xbe3a8627	-0.18215238
125	0xbe52a6e8	-0.20571482
126	0xbe8990d6	-0.26868314
127	0xbdd529c5	-0.104083575

output.weight f4 [300, 128]
0	0x3fa38c6c	1.2777228
1	0xbdb27147	-0.08713012
2	0xbeb22411	-0.3479314
3	0x3fbc8f84	1.4731297
4	0x3fdc05f4	1.7189317
5	0x3fbb6a6f	1.4641856
6	0x3fba6898	1.456317
7	0x3fd0c9cd	1.6311585
8	0xbdf0bad5	-0.117543854
9	0x3f93c8e4	1.1545682
10	0x3fa79861	1.3093377
11	0x3f83f0aa	1.030782
12	0x4007fd0a	2.1248193
13	0x3fdf1a58	1.7429914
14	0x3f8ed1a8	1.1157732
15	0x3fc17842	1.5114825
16	0xbdd21583	-0.10258009
17	0x3f6aab5c	0.91667724
18	0x3fa91070	1.3208141
19	0x3f9c68ee	1.2219522
20	0x3fcf3f31	1.619116
21	0x3f9e44f3	1.2364792
22	0x3ee081f3	0.43849143
23	0x3f84dee0	1.0380516
24	0x3fa4bb99	1.286975
25	0x400591ae	2.0870166
26	0x3fc94d80	1.5726776
27	0xbc582ac0	-0.013193786
28	0x3fb9d9eb	1.4519628
29	0x3fd736dd	1.6813618
30	0x3f1a8a57	0.6036734
31	0x3f3b0ac0	0.7306328
32	0x400544ea	2.0823312
33	0x3fe63478	1.7984762
34	0x3fc3a5c7	1.5284966
35	0x3fa6156e	1.297529
36	0x3fbafdfa	1.4608757
37	0x3f944c58	1.1585798
38	0x3f6e3963	0.93056315
39	0x3f928493	1.1446708
40	0xbb431cc7	-0.0029771791
41	0xbe589a4d	-0.21152611
42	0x3eabc697	0.3354995
43	0x3fe9a3ca	1.825311
44	0x4009c968	2.1529179
45	0x3fb831f6	1.4390247
46	0x3f9cad01	1.2240297
47	0x3ed005cf	0.40629432
48	0x3fdb3ea6	1.7128494
49	0x3fef9246	1.8716514
50	0x3fcd4e61	1.6039544
51	0x3fd456c0	1.6588974
52	0x3fc9c44a	1.5763028
53	0x3fc6b28f	1.5523242
54	0x3fb1b0e2	1.3882105
55	0x3f97cf6d	1.1860176
56	0x3f96fb75	1.1795489
57	0x3fa6f278	1.3042746
58	0x3d56b966	0.052422903
59	0xbe073d4f	-0.13206981
60	0x3f12ad5e	0.5729579
61	0x3f16d06b	0.5891177
62	0x3fd1f808	1.6403818
63	0x3fea9c6d	1.8328987
64	0x3fb8133d	1.4380871
65	0x3e5bd54a	0.21468082
66	0x3f69f30b	0.9138648
67	0x3fba2906	1.4543769
68	0x3fc05f34	1.5029054
69	0x3fb05c00	1.3778076
70	0x3f98b09d	1.1928898
71	0x3f3d3583	0.7390978
72	0x3fb4bc58	1.4119978
73	0x3fd7fbd9	1.6873733
74	0x3fb7e77d	1.436752
75	0x3e198c0a	0.14994827
76	0x3e9d8324	0.30764115
77	0x3fa08f44	1.2543721
78	0x3fb43055	1.407725
79	0x3fc0c39a	1.5059693
80	0x3cc53bdd	0.024076397
81	0x3fc8ae97	1.567828
82	0x3fbe7097	1.487811
83	0x3fcdb162	1.6069758
84	0x3fefcd06	1.8734443
85	0x3fcab63d	1.5836865
86	0x3fb67586	1.4254615
87	0x3fefe53c	1.8741832
88	0x40087f46	2.1327682
89	0x3fe2e9ed	1.7727638
90	0x3fceb2a1	1.6148263
91	0x3fd57708	1.667695
92	0xbe3f8b95	-0.1870559
93	0x3fe29774	1.770247
94	0x3f975014	1.1821313
95	0x3fddf2ba	1.7339699
96	0x3fa4500d	1.283693
97	0x3f9fa9bf	1.2473677
98	0x3c9e2417	0.019304318
99	0x3fbcc1f1	1.4746686
100	0x3fc4f797	1.5388058
101	0x3fab2b56	1.33726
102	0x3f855103	1.0415348
103	0x3dfa1b69	0.12212259
104	0x3fab84e8	1.3399935
105	0x3fe25b7c	1.7684169
106	0x3fb14c17	1.3851346
107	0x3f98ded7	1.1943005
108	0x3e038dfe	0.12847134
109	0x40071d86	2.111177
110	0x3f9ed163	1.240765
111	0x3f140ecb	0.5783507
112	0x3fb4d723	1.4128155
113	0x3f884d1e	1.0648534
114	0x3fc7dfdd	1.5615193
115	0x3fa8648a	1.3155682
116	0x3f9dbbfa	1.2322991
117	0x3ff3d549	1.9049464
118	0x3fa4ff30	1.2890377
119	0x3ff12cdd	1.8841816
120	0xbe9e152d	-0.3087553
121	0xbd838859	-0.064224906
122	0x3fa03f7e	1.2519376
123	0x3fb953cd	1.4478699
124	0x3f73b9d1	0.9520541
125	0x3fe3b3fe	1.7789304
126	0x3fb1ce70	1.3891125
127	0x3f155dc9	0.5834623
128	0x3f9fe634	1.2492127
129	0x3d82271f	0.06355118
130	0xbe9ae1b7	-0.30250332
131	0x3fbb2260	1.4619865
132	0x3fe14ead	1.7602135
133	0x3fb1d6be	1.3893659
134	0x3fbe6aa9	1.48763
135	0x3fd70ec9	1.6801387
136	0xbdb99807	-0.090622
137	0x3f986cf7	1.1908253
138	0x3fa3762c	1.2770438
139	0x3f83546b	1.0260137
140	0x400ec989	2.2310507
141	0x3fe64194	1.7988763
142	0x3f8e1146	1.1099021
143	0x3fbadece	1.4599245
144	0xbb89a056	-0.0042000217
145	0x3f917a44	1.1365438
146	0x3faadaa2	1.3347971
147	0x3f9f2929	1.2434436
148	0x3fe014d1	1.7506353
149	0x3f933804	1.150147
150	0x3ee58f42	0.4483586
151	0x3f85180e	1.0397966
152	0x3fa0d8e6	1.2566192
153	0x4006c317	2.1056573
154	0x3fc2c960	1.5217705
155	0xbd270405	-0.040775318
156	0x3fb5485c	1.4162707
157	0x3fccfbff	1.6014403
158	0x3f1d9858	0.61560583
159	0x3f6433be	0.8914145
160	0x400ab479	2.1672652
161	0x3fefe93d	1.8743054
162	0x3fc0dd29	1.5067493
163	0x3fa24d3c	1.267982
164	0x3fb267f0	1.3937969
165	0x3fa29365	1.2701231
166	0x3f616eee	0.8805989
167	0x3f9127bf	1.1340255
168	0x3c911a46	0.017712723
169	0xbe869647	-0.26286528
170	0x3eb634b2	0.35587078
171	0x3fe4170b	1.7819532
172	0x400b970c	2.1810942
173	0x3fbee6f3	1.491423
174	0x3f91bc2b	1.1385549
175	0x3ef28c3f	0.47372624
176	0x3fd2315c	1.6421313
177	0x3ffc2bee	1.9700906
178	0x3fc4d24d	1.5376679
179	0x3fd7d24a	1.686105
180	0x3fdf9c24	1.7469525
181	0x3fcaac2c	1.5833793
182	0x3fac4c98	1.3460875
183	0x3f8e1900	1.1101379
184	0x3f92bdcc	1.1464171
185	0x3f9e760b	1.2379774
186	0xbdd5c7a2	-0.104384676
187	0xbdc56f17	-0.09640329
188	0x3f14950f	0.58039945
189	0x3f1bc619	0.6084915
190	0x3fce6ae1	1.6126367
191	0x3fe510a0	1.7895699
192	0x3fbb0dce	1.4613588
193	0x3e898666	0.2686035
194	0x3f5e0156	0.8672079
195	0x3fbed4da	1.4908707
196	0x3fba8d9e	1.4574468
197	0x3fab0b38	1.3362799
198	0x3f936af8	1.1517019
199	0x3f326724	0.6968863
200	0x3fad3f99	1.3535033
201	0x3fe0290c	1.7512527
202	0x3fb32d20	1.3998146
203	0xbcba3ab0	-0.022733063
204	0x3e900dda	0.28135568
205	0x3f9c1da2	1.2196543
206	0x3faaa1da	1.3330643
207	0x3fb6ccd9	1.4281265
208	0x3d1d40b6	0.03839179
209	0x3fccbd68	1.5995302
210	0x3fbb4a6e	1.4632089
211	0x3fc0efde	1.5073202
212	0x3ff91c3f	1.9461745
213	0x3fc106a0	1.5080147
214	0x3fbb33a4	1.4625134
215	0x3ffaf048	1.9604578
216	0x400dba80	2.214508
217	0x3fe40573	1.7814163
218	0x3fc6e279	1.5537864
219	0x3fd16229	1.6358081
220	0xbe334495	-0.1750663
221	0x3fe2b89d	1.771259
222	0x3f953833	1.1657776
223	0x3fd11d0e	1.6336992
224	0x3fa86308	1.3155222
225	0x3f9b9178	1.2153769
226	0xbc83f78c	-0.01610925
227	0x3fb9d0f0	1.4516888
228	0x3fb1a776	1.387923
229	0x3fb14851	1.3850194
230	0x3f7721d6	0.96536005
231	0x3daeaba9	0.08528835
232	0x3fab0209	1.3359996
233	0x3fdb2e95	1.7123591
234	0x3fbd44df	1.4786643
235	0x3f989f7e	1.1923673
236	0xbdcb7619	-0.09934635
237	0x400b4479	2.1760542
238	0x3f9b135b	1.2115282
239	0x3f1368b6	0.5758165
240	0x3faf1dca	1.3680966
241	0x3f88c604	1.068543
242	0x3fc54dbb	1.5414346
243	0x3f950741	1.1642839
244	0x3f9268c4	1.1438222
245	0x400bc8ab	2.1841228
246	0x3f9ac174	1.2090287
247	0x3ffd55a9	1.9791766
248	0xbeb30e37	-0.34971783
249	0xbca5dfa2	-0.020248238
250	0x3f9aac55	1.2083842
251	0x3fabe7f9	1.3430167
252	0x3f6f973b	0.93590134
253	0x3ffa8e1c	1.9574618
254	0x3faa57a3	1.3307995
255	0x3f14d2a0	0.5813389

output.bias f4 [300]
0	0xbf58d9e9	-0.84707505
1	0xbf34cb52	-0.7062274
2	0xbf2605fa	-0.6485287
3	0xbf0a7b6a	-0.54094565
4	0xbeeb52fb	-0.45961747
5	0xbec8b5e8	-0.39201283
6	0xbeaaa812	-0.33331352
7	0xbe94d46a	-0.2906831
8	0xbe82e951	-0.2556863
9	0xbe68ada4	-0.22722489
10	0xbe4f3668	-0.20235598
11	0xbe376ec0	-0.17913342
12	0xbe20f3fd	-0.15718074
13	0xbe0a56c0	-0.13509655
14	0xbde778ab	-0.113023125
15	0xbdb9ce49	-0.09072549
16	0xbd8c4f06	-0.0685101
17	0xbd3b700c	-0.045761153
18	0xbcb91857	-0.022594614
19	0x3a85d34e	0.0010210068
20	0x3cd0bc44	0.025480397
21	0x3d4f3b0b	0.050593417
22	0x3d9c3db4	0.076289564
23	0x3dd2110e	0.10257159
24	0x3e047239	0.12934197
25	0x3e210453	0.15724306
26	0x3e3e6f84	0.18597227
27	0x3e5ce0ce	0.21570131
28	0x3e7bf056	0.246034
29	0x3e8de063	0.27710256
30	0x3e9e4fd2	0.30920273
31	0x3eaf96dd	0.34294787
32	0x3ec1378c	0.3773769
33	0x3ed392c4	0.4132291
34	0x3ee6ae31	0.45054772
35	0x3efaab42	0.48958784
36	0x3f07c612	0.53036606
37	0x3f12b050	0.5730028
38	0x3f1e12db	0.6174752
39	0x3f29d6b5	0.6634324
40	0x3f361432	0.71124566
41	0x3f42610c	0.7592933
42	0x3f4e9322	0.80693257
43	0x3f5a3f79	0.852531
44	0x3f64c4c3	0.89362735
45	0x3f6d8f1b	0.92796487
46	0x3f731593	0.94954795
47	0x3f73ee0a	0.95285094
48	0x3f6c97e4	0.92419267
49	0x3f4ceea1	0.8005162
50	0xbf432edf	-0.76243395
51	0xbf0f6019	-0.5600601
52	0xbef8a45a	-0.4856289
53	0xbec13d90	-0.3774228
54	0xbe935bc0	-0.28780937
55	0xbe65291e	-0.22378966
56	0xbe410308	-0.18848813
57	0xbe28d48a	-0.16487327
58	0xbe1a0d1d	-0.15044065
59	0xbe0f38a0	-0.13986444
60	0xbe084c25	-0.13310297
61	0xbe0050c6	-0.12530813
62	0xbdee415a	-0.116335586
63	0xbdd56c9e	-0.10421108
64	0xbdba3433	-0.090919875
65	0xbd9a4aad	-0.075337745
66	0xbd6ebbb6	-0.058284484
67	0xbd219595	-0.039449293
68	0xbc9a0e3c	-0.018805616
69	0x3b067d68	0.0020521525
70	0x3cc737fb	0.024318686
71	0x3d4008be	0.046883337
72	0x3d90edeb	0.07076629
73	0x3dc4b53e	0.09604882
74	0x3df89720	0.121382
75	0x3e172d69	0.14763416
76	0x3e33360f	0.1750109
77	0x3e5049fe	0.20340726
78	0x3e6dacc0	0.2321043
79	0x3e85e427	0.2615063
80	0x3e95ae20	0.2923441
81	0x3ea5e256	0.32399243
82	0x3eb6ccb3	0.35703048
83	0x3ec854f4	0.39127314
84	0x3edacedf	0.42735955
85	0x3eedb469	0.46426705
86	0x3f00c633	0.5030243
87	0x3f0b15a9	0.54329926
88	0x3f15c04c	0.58496547
89	0x3f20aee0	0.6276684
90	0x3f2bfd56	0.67183435
91	0x3f375740	0.7161751
92	0x3f42c983	0.7608873
93	0x3f4dd486	0.8040241
94	0x3f57c800	0.8428955
95	0x3f5fea3d	0.87466794
96	0x3f650d02	0.89472973
97	0x3f650e8c	0.8947532
98	0x3f5b97a2	0.8577825
99	0x3f3a1ff1	0.7270499
100	0xbec331ba	-0.38123876
101	0xbe6bc1f9	-0.23023213
102	0xbe1ad37c	-0.15119737
103	0xbd4293f0	-0.047504365
104	0x3d0abe03	0.033872616
105	0x3d9c39d6	0.07628219
106	0x3dd03e44	0.10168126
107	0x3dda7837	0.106674604
108	0x3dd73460	0.105080366
109	0x3dd3e34f	0.1034609
110	0x3dcf291f	0.10115265
111	0x3dce76b6	0.10081236
112	0x3dd25e4f	0.10271894
113	0x3ddb9bae	0.10723053
114	0x3dea7b1d	0.11449263
115	0x3dfe3ed5	0.12414328
116	0x3e0b56e3	0.13607363
117	0x3e1969da	0.14981785
118	0x3e289e20	0.1646657
119	0x3e398380	0.1811657
120	0x3e4b6033	0.19860916
121	0x3e5efb60	0.2177558
122	0x3e734fa3	0.23760848
123	0x3e843464	0.2582122
124	0x3e8f74dc	0.28018844
125	0x3e9af8ad	0.3026785
126	0x3ea713b9	0.32632235
127	0x3eb3c6d3	0.35112628
128	0x3ec110e1	0.3770819
129	0x3eced54b	0.40397105
130	0x3edd2230	0.43190145
131	0x3eebee3e	0.46080202
132	0x3efb3e08	0.49070764
133	0x3f05a9c1	0.5221215
134	0x3f0e17b7	0.55504936
135	0x3f16e48a	0.5894247
136	0x3f20134d	0.6252945
137	0x3f29a085	0.6626056
138	0x3f339e13	0.7016308
139	0x3f3de66a	0.7417971
140	0x3f4871c4	0.7829859
141	0x3f53278a	0.82482207
142	0x3f5dd1ee	0.8664845
143	0x3f67e584	0.9058459
144	0x3f70debf	0.94089884
145	0x3f77e395	0.9683164
146	0x3f7b68ec	0.98206973
147	0x3f7975d7	0.97445434
148	0x3f6cd003	0.925049
149	0x3f474f6c	0.77855563
150	0xbf5eb587	-0.8699574
151	0xbf369333	-0.7131836
152	0xbf247de3	-0.6425459
153	0xbf09207b	-0.53565186
154	0xbee2c277	-0.4428899
155	0xbeb9a5b5	-0.36259237
156	0xbe9b33d2	-0.30312973
157	0xbe86391e	-0.26215452
158	0xbe6e8f41	-0.23296835
159	0xbe59d887	-0.21274005
160	0xbe470307	-0.19434749
161	0xbe3564f3	-0.1771429
162	0xbe24aea7	-0.1608225
163	0xbe1325f5	-0.14369948
164	0xbe00ce81	-0.12578775
165	0xbddb771b	-0.10716077
166	0xbdb215b5	-0.086955465
167	0xbd86ccfa	-0.06582065
168	0xbd362b7b	-0.04447506
169	0xbcafb284	-0.021447428
170	0x3b089489	0.0020840487
171	0x3cd3d1d3	0.025856888
172	0x3d50e3a8	0.05099836
173	0x3d9d2847	0.07673698
174	0x3dd27479	0.10276122
175	0x3e0454bc	0.12922949
176	0x3e20b130	0.15692592
177	0x3e3df375	0.18549903
178	0x3e5c2d15	0.21501572
179	0x3e7b200d	0.24523945
180	0x3e8d945a	0.27652246
181	0x3e9e4106	0.30908984
182	0x3eaf5ca1	0.34250358
183	0x3ec13783	0.37737665
184	0x3ed39aa4	0.4132892
185	0x3ee6c13c	0.450693
186	0x3efab04f	0.48962638
187	0x3f07c18d	0.5302971
188	0x3f126f37	0.5720095
189	0x3f1d95e4	0.6155684
190	0x3f28eb9f	0.6598453
191	0x3f347267	0.70487064
192	0x3f4006cf	0.7501039
193	0x3f4b2b9e	0.7936343
194	0x3f55807e	0.8339919
195	0x3f5dda1d	0.8666094
196	0x3f63a78c	0.8892753
197	0x3f64308e	0.8913659
198	0x3f5bd7f1	0.85876375
199	0x3f3ef43c	0.7459142
200	0xbf0da66e	-0.55332077
201	0xbec9ae9e	-0.39391035
202	0xbea47322	-0.3211909
203	0xbe51be90	-0.2048285
204	0xbdf0e382	-0.11762144
205	0xbd63f08b	-0.05564932
206	0xbd1358ef	-0.035973486
207	0xbd22461d	-0.039617646
208	0xbd4b61e0	-0.049653888
209	0xbd81474b	-0.06312426
210	0xbd992b49	-0.07478959
211	0xbdaa10ea	-0.08304007
212	0xbdb298f0	-0.08720577
213	0xbdb2bd84	-0.087275535
214	0xbdac2325	-0.08405141
215	0xbd9ee7af	-0.07759034
216	0xbd8bc968	-0.068255246
217	0xbd698ef3	-0.057021093
218	0xbd321194	-0.043473795
219	0xbceb744c	-0.028741978
220	0xbc434b27	-0.011919773
221	0x3bd05acf	0.0063584815
222	0x3cd2e4ba	0.025743831
223	0x3d3ccdc2	0.046094663
224	0x3d8a7015	0.06759659
225	0x3db878d0	0.09007418
226	0x3de99ad3	0.114064835
227	0x3e0e7bc0	0.13914394
228	0x3e290e46	0.16509351
229	0x3e4473ce	0.19184801
230	0x3e612b00	0.2198906
231	0x3e7f07e7	0.24905358
232	0x3e8f1820	0.27948093
233	0x3e9f3d0e	0.3110127
234	0x3eb0412b	0.3442472
235	0x3ec218b5	0.37909475
236	0x3ed4bd66	0.4155075
237	0x3ee84f54	0.45373023
238	0x3efc9c87	0.4933817
239	0x3f08d98d	0.53456956
240	0x3f13cfab	0.5773875
241	0x3f1ec14f	0.62013716
242	0x3f297945	0.6620067
243	0x3f33e9dd	0.7027872
244	0x3f3d5260	0.7395382
245	0x3f44a2fc	0.76811194
246	0x3f486456	0.782781
247	0x3f464bf5	0.7745965
248	0x3f396162	0.7241422
249	0x3f12eb40	0.57390213
250	0xbf5bed1b	-0.8590867
251	0xbf3d0f1c	-0.7385118
252	0xbf3265db	-0.6968667
253	0xbf15d1d3	-0.5852329
254	0xbf00deda	-0.50340044
255	0xbee0e7b2	-0.4392677
