figs2-3_rl/results/asterix-UADQN/network_posterior1.pth (torch_old, 683100 bytes, 6 tensors)

conv.weight f4 [16, 4, 3, 3]
0	0xbf816c04	-1.0111089
1	0x3c8a8ca8	0.016912773
2	0xbd403188	-0.046922237
3	0xbce2cd77	-0.027685864
4	0xbf396dae	-0.7243298
5	0x3e914952	0.2837625
6	0xbf0de8a0	-0.5543308
7	0xbe5457ce	-0.2073662
8	0xbebb1145	-0.36536613
9	0xbe8e4d4a	-0.27793342
10	0xbeb2b762	-0.34905535
11	0x3f0ce5f0	0.55038357
12	0xbf22fd71	-0.6366797
13	0x3d40d7a3	0.047080647
14	0x3eb4225a	0.35182458
15	0x3e622351	0.22083785
16	0x3ebcec68	0.36899114
17	0x3f439c8e	0.7641076
18	0x3e2bee0a	0.16790023
19	0xbfbb3a48	-1.4627161
20	0x3e94429e	0.28957075
21	0x3dcacc4f	0.0990225
22	0x3db7a43e	0.089668736
23	0xbf148f44	-0.58031106
24	0xbcf5c1b4	-0.029999591
25	0xbf30fddc	-0.6913736
26	0x3e1d2deb	0.15349548
27	0x3f6ec661	0.9327145
28	0xbf480f34	-0.781482
29	0xbf036133	-0.5132019
30	0xbd8b10d3	-0.06790318
31	0x3ea6d22a	0.32582217
32	0x3f429e58	0.76022863
33	0x3e54d145	0.20782955
34	0xbda465a0	-0.08027196
35	0xbf028728	-0.5098748
36	0x3e850210	0.25978136
37	0x3f0550af	0.5207624
38	0x3f0b210c	0.543473
39	0x3e8e8d6e	0.27842277
40	0x3f08be3a	0.5341526
41	0x3f0d4438	0.5518222
42	0x3de8668f	0.113476865
43	0x3df07fb6	0.11743109
44	0x3edbe7b4	0.42950213
45	0x3e050ef2	0.12993982
46	0xbe2a8ca8	-0.16655219
47	0x3c5ef14e	0.013607336
48	0xbd5523b2	-0.052035995
49	0xbee1212c	-0.4397062
50	0xbd99f127	-0.07516699
51	0xbe95ca7b	-0.29256043
52	0xbf209df5	-0.62741023
53	0xbe481702	-0.19540027
54	0xbdf96786	-0.12177949
55	0x3ca647cc	0.020297907
56	0x3e452dc8	0.19255745
57	0xb9dffd9b	-0.00042722825
58	0xbc848c2c	-0.01618012
59	0xbec1fd34	-0.3788849
60	0xbfb65577	-1.4244832
61	0xbf7e7ff7	-0.9941401
62	0x3f1d994a	0.61562026
63	0x3e92f5bf	0.28703114
64	0xbf18fd08	-0.59761095
65	0x3ee332aa	0.4437459
66	0x3e6349ab	0.22196071
67	0xbe4b49ce	-0.19852373
68	0x3d9c10b2	0.07620372
69	0x3e80f0bb	0.25183663
70	0x3fd6a64b	1.6769499
71	0x3fa03077	1.251479
72	0x3e6eb53b	0.23311321
73	0xbe146bd1	-0.14494254
74	0x3da6afd9	0.08139009
75	0x3db65f70	0.08904922
76	0x3e90116b	0.2813829
77	0x3cc0a705	0.023517141
78	0xbf135e96	-0.575662
79	0x3e76fd31	0.24120022
80	0x3ee20fd0	0.4415269
81	0xbec38009	-0.3818362
82	0x3f2c3f41	0.6728402
83	0xbf061648	-0.5237775
84	0xbe858cab	-0.26083884
85	0x3e59cb0c	0.21268862
86	0x3dda99a1	0.10673834
87	0x3dfbe6a0	0.122998476
88	0x3d5a88b5	0.05335303
89	0x3f26a998	0.6510253
90	0xbd48b04f	-0.048996266
91	0x3efb3894	0.49066603
92	0xbf1577ec	-0.5838611
93	0x3e46ed84	0.19426543
94	0x3e9cdeba	0.30638677
95	0x3eb7abc1	0.35873225
96	0xbe67f500	-0.22652054
97	0x3f10e371	0.5659705
98	0x3f13b0ce	0.5769166
99	0x3f1457ae	0.5794629
100	0x3f4af15f	0.79274553
101	0x3fab9c1a	1.3407013
102	0xbe79a205	-0.24378212
103	0x3f0cbf0d	0.5497902
104	0x3f9c39c5	1.220513
105	0x3dcc2572	0.099680796
106	0x3f2cc03f	0.67480844
107	0x3f0ddb2c	0.55412555
108	0x3e60513d	0.2190599
109	0xbdec9f18	-0.11553782
110	0xbe6b482d	-0.22976752
111	0xbe9f4325	-0.31105915
112	0x3e9f2e61	0.31090072
113	0xbf974849	-1.1818935
114	0x3e80ad1c	0.25132072
115	0xbf3508c0	-0.70716476
116	0x3eaeca0f	0.34138533
117	0x3dda2a18	0.1065256
118	0xbea369b3	-0.3191658
119	0xbf1262ec	-0.5718219
120	0x3e1785f1	0.14797188
121	0xbfa9a3f9	-1.3253165
122	0xbe58b824	-0.21163994
123	0x3ebff682	0.37492758
124	0xbeb8221e	-0.3596353
125	0x3dd15c2f	0.10222661
126	0x3f095b86	0.5365528
127	0xbf6da99d	-0.92836934
128	0xbf315f70	-0.6928625
129	0x3ea28a1b	0.3174599
130	0x3e0b7ac9	0.13621058
131	0x3d5c776a	0.05382482
132	0x3e796f35	0.24358828
133	0xbd653614	-0.055959776
134	0xbe5f8f27	-0.21831952
135	0xbe6d90af	-0.23199724
136	0xbddeaed1	-0.10873187
137	0xbef88d23	-0.4854518
138	0xbf32eed5	-0.6989568
139	0xbe389b1a	-0.18027917
140	0x3d656013	0.055999827
141	0x3f0022ee	0.500533
142	0x3f6373bf	0.8884849
143	0xbdadebdc	-0.08492252
144	0xbf342f4f	-0.7038469
145	0xbe3566f4	-0.17715055
146	0xbef744e3	-0.48294744
147	0xbf3040cb	-0.68848866
148	0x3df7c031	0.120972045
149	0xbe17b75f	-0.14816044
150	0x3ea05a43	0.31318864
151	0xbd372068	-0.04470864
152	0x3e122db3	0.14275245
153	0x3e98ebad	0.29867306
154	0xbf17986b	-0.59216946
155	0x3d1eda0e	0.038782172
156	0xbe6e667f	-0.23281287
157	0xbdfd0276	-0.12353985
158	0x3d820228	0.063480675
159	0xbe3e6913	-0.1859477
160	0x3ed307ed	0.41216984
161	0xbf2d8dcc	-0.6779449
162	0x3d45861a	0.048223592
163	0xbe32009f	-0.1738305
164	0x3e112290	0.14173341
165	0x3e48e8ec	0.19620103
166	0x3ec082cd	0.37599793
167	0x3c7042b7	0.014664344
168	0xbefb4833	-0.4907852
169	0x3f61a339	0.88139683
170	0x3c31dc10	0.01085569
171	0x3ee86282	0.45387655
172	0x3f76849c	0.96296096
173	0x3d36434d	0.044497777
174	0x3f8bfcb8	1.0936499
175	0xbe3d4ecb	-0.18487088
176	0xbe3d77d4	-0.18502742
177	0xbfb81ffe	-1.4384763
178	0x3f1bb8d7	0.6082892
179	0x3e48489f	0.19558953
180	0x3eaabef4	0.3334881
181	0xbe6c225c	-0.23059982
182	0x3e82c987	0.25544378
183	0xbe270f78	-0.16314495
184	0xbebc067f	-0.36723706
185	0x3eb9c436	0.3628251
186	0x3e025269	0.1272675
187	0xbecb636c	-0.3972429
188	0xbe1e8582	-0.15480617
189	0xbf02be5d	-0.5107172
190	0xbe341a18	-0.17588079
191	0x3e4bb0f7	0.19891725
192	0xbf2b24e8	-0.6685319
193	0xbdf42f09	-0.11923034
194	0xbefb4c17	-0.4908149
195	0x3e465e4a	0.19371906
196	0xbed7752d	-0.42081586
197	0xbf205c35	-0.62640697
198	0xbd9510d9	-0.07278604
199	0xbf02f4e5	-0.5115493
200	0x3f19fa55	0.601476
201	0x3d81d13d	0.06338737
202	0xbfa7c3eb	-1.3106664
203	0x3edc6658	0.43046832
204	0x3f0d244e	0.5513352
205	0x3f8a5410	1.0806904
206	0xbec2dba7	-0.38058206
207	0x3f6786ee	0.9044026
208	0xbe37ee79	-0.17962064
209	0xbd269490	-0.040669024
210	0xbf11fb18	-0.57023764
211	0xbf669486	-0.9007038
212	0x3cbbb958	0.022915527
213	0xbf0fc8ca	-0.56165755
214	0x3d68f1b4	0.05687113
215	0x3ec42915	0.38312593
216	0xbf8fa96d	-1.122358
217	0x3ed48867	0.41510317
218	0xbea6e125	-0.32593647
219	0xbf0f772a	-0.56041205
220	0xbdf46fff	-0.11935424
221	0xbf4feb2d	-0.81218225
222	0xbe9a3f36	-0.3012635
223	0x3df9efbc	0.12203929
224	0x3d606bd0	0.054790318
225	0x3ebe64fa	0.37186414
226	0x3ec84613	0.39115962
227	0x3d9ca3e0	0.07648444
228	0x3f833db6	1.0253208
229	0x3f55bf95	0.83495456
230	0x3e7a53fc	0.244461
231	0x3eb80172	0.35938603
232	0xbee03923	-0.43793592
233	0x3f3d3b59	0.7391868
234	0xbefbded9	-0.49193457
235	0xba05f635	-0.0005110235
236	0x3ed4a7a8	0.41534162
237	0xbe78fe41	-0.2431574
238	0xbe668674	-0.22512227
239	0x3d9d9cbb	0.076959096
240	0xbbb94e13	-0.005655059
241	0xbd8b151b	-0.06791135
242	0x3e694ba4	0.22782761
243	0x3d1f6398	0.03891334
244	0x3e8c6a3d	0.27424803
245	0xbf65b121	-0.897234
246	0xbf742145	-0.95363265
247	0xbc9fec47	-0.019521846
248	0xbe5ee0a6	-0.21765384
249	0xbec5c83a	-0.38629323
250	0xbe2d4d2a	-0.16923967
251	0xbf121e78	-0.5707774
252	0xbeb85206	-0.3600008
253	0xbeaa0135	-0.33204046
254	0x3e224aaf	0.15848802
255	0x3f2a87f2	0.66613686

conv.bias f4 [16]
0	0x3f025521	0.50911146
1	0xbe82477d	-0.25445166
2	0x3fc23114	1.5171227
3	0xbd606a4a	-0.054788865
4	0x3f2262b5	0.63431865
5	0xbeb588e0	-0.3545599
6	0x3e618aac	0.22025555
7	0x3da6ffe8	0.08154279
8	0x3d7f6f09	0.06236175
9	0xbe0343de	-0.12818858
10	0x3c936bc5	0.017995724
11	0xbe05aeab	-0.13054912
12	0xbf054b11	-0.5206767
13	0xbeacd0ab	-0.3375295
14	0xbdfab0dd	-0.12240765
15	0x3e905ee7	0.28197405

fc_hidden.weight f4 [128, 1024]
0	0x3dcb682a	0.09931977
1	0x3d26ba56	0.040705048
2	0xbcde21f4	-0.0271158
3	0x3d6ccd3f	0.057812925
4	0xbde0682b	-0.109573685
5	0xbc08c539	-0.008347803
6	0x3d89ca44	0.06728032
7	0xbe083076	-0.13299736
8	0x3dbdf355	0.092749275
9	0xbd89ea44	-0.06734136
10	0x3de72e6c	0.11288151
11	0x3ccf8945	0.02533401
12	0x3df07d59	0.11742658
13	0x3d49ab92	0.049235888
14	0x3c86179d	0.016368682
15	0x3debc624	0.11512402
16	0xbb738fd1	-0.0037164579
17	0x3d065493	0.0327955
18	0x3da3e572	0.080027476
19	0x3c85ac92	0.01631764
20	0xbc581c58	-0.013190351
21	0xbdfb5c3f	-0.12273454
22	0xbdc3ce2a	-0.09560807
23	0xbe9f1d96	-0.3107726
24	0x3dd569c7	0.10420566
25	0xbc24df15	-0.0100629525
26	0x3d57607b	0.052582245
27	0x3da8d438	0.082436025
28	0xbe08c7c1	-0.1335745
29	0x3cc30d61	0.02381009
30	0xbc5bd54c	-0.013417553
31	0x3e035e08	0.12828839
32	0x3d15aff0	0.03654474
33	0xbd74324a	-0.059618272
34	0xbe635350	-0.2219975
35	0xbe395fc0	-0.18102932
36	0xbd71987d	-0.058983315
37	0xbe173afe	-0.14768597
38	0x3d0c149f	0.034199353
39	0xbd8294e4	-0.06376055
40	0x3d35103c	0.044204935
41	0xbd58ee0a	-0.052961387
42	0xbe036ced	-0.1283452
43	0xbdde0153	-0.10840096
44	0x3d6665ee	0.05624955
45	0xbbb0cb72	-0.0053953463
46	0xbd269311	-0.040667597
47	0x3c8f688a	0.017505903
48	0x3cc1a252	0.02363697
49	0x3daf76ee	0.08567606
50	0x3d7c6b57	0.061625805
51	0xbd1a71d6	-0.03770622
52	0xbdbdf3a4	-0.092749864
53	0xbdaab758	-0.08335751
54	0x3d5311f0	0.05153078
55	0xba2712c6	-0.0006373342
56	0x3dfc57d8	0.12321442
57	0xbda6e883	-0.08149817
58	0xbdcee9fe	-0.10103224
59	0xbe4eb921	-0.20187809
60	0xbdb44d8b	-0.08803853
61	0xbd039804	-0.032127395
62	0x3dcfdcc7	0.10149532
63	0xbd5d37b3	-0.054008197
64	0xbdefa606	-0.11701588
65	0x3e8e52d0	0.27797556
66	0xbdbd875d	-0.09254334
67	0xbd08d2f1	-0.033404294
68	0xbd90f41e	-0.07077812
69	0xbddf8540	-0.10914087
70	0xbd1c74ce	-0.03819733
71	0xbe12d35f	-0.14338444
72	0x3d247744	0.040152803
73	0x3d026ddf	0.031843062
74	0x3c830a5c	0.01599615
75	0xbd87fdc7	-0.06640201
76	0x3dd1cc02	0.102439895
77	0xbd8da967	-0.069170766
78	0xbd17714f	-0.036973294
79	0xbe1b8f58	-0.151914
80	0xbe68cb6a	-0.22733846
81	0x3e4a486d	0.1975419
82	0xbdc43d95	-0.09582058
83	0xbce2028d	-0.027589107
84	0xbdaeef47	-0.08541732
85	0x3d0a40bc	0.03375314
86	0x3d08bf6b	0.033385675
87	0x3e18f1d5	0.14936002
88	0x3db4762a	0.088116005
89	0xbdf24888	-0.118302405
90	0x3d05a8aa	0.032631554
91	0xbdf7aa75	-0.12093059
92	0xbdaf111a	-0.08548184
93	0xbd787b49	-0.06066445
94	0x3d9d30cc	0.07675323
95	0xbccefb6c	-0.025266372
96	0xbced5ec3	-0.02897585
97	0xbbb5049e	-0.005524232
98	0x3d0f039b	0.034915548
99	0x3e0cc7b9	0.13748063
100	0xbe02c108	-0.12768948
101	0x3df446d7	0.11927574
102	0x3d92d945	0.07170347
103	0xbc92dc18	-0.017927215
104	0xbd5343ca	-0.05157832
105	0xbe11903c	-0.14215177
106	0xbe1cbb87	-0.15305911
107	0xbd5fbe5a	-0.054624893
108	0xbd1ecc07	-0.038768794
109	0x3b0e3162	0.0021696915
110	0xbd52f202	-0.051500328
111	0x3d73e6b4	0.059546188
112	0xbd24c780	-0.04022932
113	0x3e3c213d	0.18372054
114	0xbcc731c2	-0.024315719
115	0x3e317c62	0.17332605
116	0xbd8932d3	-0.06699147
117	0x3d7b62cd	0.06137352
118	0xbe7b6708	-0.24551022
119	0xbdca2d8c	-0.098719686
120	0xbc11494e	-0.008867575
121	0xbe31562a	-0.17318025
122	0x3d6e9a9c	0.058252916
123	0xbd37b6d9	-0.04485211
124	0xbdeee4e2	-0.1166475
125	0x3de87e41	0.11352206
126	0x3c13d9b6	0.009024074
127	0x3c1fbb9c	0.009749319
128	0xbda4a763	-0.08039739
129	0xbdb3c816	-0.08778398
130	0x3d289b0a	0.04116348
131	0xbd891e73	-0.06695261
132	0xbdf85db2	-0.12127246
133	0xbdf2c914	-0.11854759
134	0xbe33241d	-0.17494245
135	0xbd0d509a	-0.034500696
136	0xbd78d1ff	-0.060747143
137	0xbd178c8d	-0.036999274
138	0xbd585779	-0.052817795
139	0xbb7a9267	-0.0038234235
140	0xbda849b7	-0.08217185
141	0xbd85ade0	-0.06527305
142	0xbd46eca6	-0.04856553
143	0xbe0baee8	-0.1364094
144	0xbcb6bd85	-0.022307167
145	0xbdabf5ab	-0.08396467
146	0x3b9d247c	0.004795609
147	0x3e3a84be	0.182147
148	0xbdd6e8b2	-0.10493602
149	0x3d9fb255	0.07797686
150	0xbc7d7ae2	-0.015471192
151	0x3db2ac1c	0.087242335
152	0x3d8e6055	0.069519676
153	0xbdb7fa23	-0.08983257
154	0xbd99ccdf	-0.07509779
155	0x3d15470f	0.03644472
156	0xbdf6510f	-0.120271794
157	0x3d7ed517	0.062214937
158	0xbe316b1b	-0.17326014
159	0x3d740c54	0.05958207
160	0xbd91d94d	-0.07121525
161	0x3e12a410	0.14320397
162	0xbd9e31eb	-0.07724365
163	0xbd24aacf	-0.04020196
164	0xbdc3c9a7	-0.095599465
165	0xbdf9d801	-0.121994026
166	0x3da09047	0.07840019
167	0x3d49b07a	0.049240567
168	0x3e1555aa	0.1458346
169	0xbd8e2ac2	-0.06941749
170	0x3d57ebf7	0.052715268
171	0x3c960040	0.018310666
172	0xbc9ca899	-0.019123362
173	0x3d7b6723	0.061377656
174	0xbda65690	-0.08121979
175	0xbe3a7867	-0.18209992
176	0x3bd7c4f8	0.00658476
177	0x3c82b779	0.015956627
178	0x3d6dc6de	0.058050983
179	0x3c0cd4c8	0.008595653
180	0x3b8cfd4c	0.0043026563
181	0xbe0ab6eb	-0.1354634
182	0x3e235d21	0.15953495
183	0xbe307675	-0.17232688
184	0x3b78919d	0.003792859
185	0xbda50dca	-0.08059271
186	0xbdaa18b1	-0.08305491
187	0xbe382724	-0.17983681
188	0x3e11e5e5	0.14247854
189	0xbe0547e3	-0.13015704
190	0xbdd424a6	-0.10358553
191	0xbcdda755	-0.02705733
192	0xbbb4986a	-0.0055113332
193	0x3d32d367	0.04365864
194	0x3a15f5f3	0.0005720548
195	0xbd59679b	-0.05307732
196	0x3cf071c0	0.029351115
197	0xbd216cc0	-0.039410353
198	0x3d6fc3ef	0.058536466
199	0xbe07a09c	-0.13244861
200	0xbdb902a9	-0.090337105
201	0xbbf016eb	-0.007326951
202	0xbcc46cbb	-0.023977628
203	0x3d060c8e	0.032726817
204	0xbbeb30d0	-0.0071774498
205	0x3d4e5acd	0.050379563
206	0x3b9b9ce9	0.0047489298
207	0x3d70b7f8	0.058769196
208	0x3df4386b	0.119248234
209	0xbcb36c02	-0.021902088
210	0xbde156de	-0.11002897
211	0xbcbcc49f	-0.023042975
212	0xbc827e48	-0.015929356
213	0x3e1b1043	0.15142922
214	0x3d45422b	0.048158806
215	0x3d7318fd	0.059350003
216	0x3ce7ffcb	0.028320214
217	0xbd3de668	-0.04636231
218	0x3c1528cd	0.009103966
219	0xbbf8585f	-0.007578894
220	0xbdac7931	-0.08421553
221	0xbd89ff0a	-0.06738098
222	0x3be1f7ee	0.0068960106
223	0xbe037a1c	-0.1283955
224	0xbd75c689	-0.06000379
225	0x3d98bf04	0.07458308
226	0x3cfcfee1	0.030883254
227	0x3e1c1424	0.15242058
228	0x3ca1ab54	0.019735016
229	0x3d8d9cdd	0.06914685
230	0xbd2df498	-0.04246959
231	0x3d0830d8	0.033249706
232	0x3d079e42	0.03310991
233	0xbc981154	-0.01856295
234	0xbdba5651	-0.09098495
235	0xbd3bb5be	-0.04582762
236	0x3dfc9bd9	0.12334413
237	0x3ba0f878	0.0049124323
238	0x3cf7e39a	0.030259896
239	0xbca3ed3d	-0.020010585
240	0x3e11b3bd	0.14228721
241	0x3cc3f3ce	0.023919966
242	0x3d7761df	0.06039607
243	0xbd833f07	-0.06408506
244	0xbd188a71	-0.037241403
245	0xbe3060f5	-0.17224486
246	0xbc383896	-0.01124396
247	0xbd6e8451	-0.058231656
248	0xbbf9bef8	-0.007621642
249	0x3e6ae320	0.22938204
250	0x3e290273	0.1650484
251	0x3c19e254	0.00939234
252	0x3df45776	0.11930744
253	0x3afd2aa0	0.0019315071
254	0x3d8f9036	0.07009928
255	0x3c9d88dc	0.019230299

fc_hidden.bias f4 [128]
0	0xbc8cd11e	-0.017189559
1	0xbb86d458	-0.004114669
2	0xbc84cfa5	-0.016212294
3	0xbc1abed9	-0.009444916
4	0xbc421c4a	-0.011847565
5	0xbc6c4895	-0.014421602
6	0xbc3d6ca4	-0.0115615465
7	0xbbb68c84	-0.00557095
8	0xbc4b492e	-0.012407584
9	0xbc34d721	-0.011037619
10	0xbc0da41d	-0.008645085
11	0xbc020c90	-0.007937565
12	0xbc82e628	-0.015978888
13	0xbbd41556	-0.00647227
14	0xbc190cfc	-0.009341475
15	0xbc633cf6	-0.013869515
16	0xbc5b5872	-0.013387786
17	0xbc467970	-0.012113914
18	0xbb9e626e	-0.004833511
19	0xbc26dd8c	-0.010184657
20	0xbc534274	-0.012894262
21	0xbc8682c0	-0.016419768
22	0xbace476d	-0.0015737839
23	0xbc841127	-0.01612146
24	0xbc49a354	-0.012307007
25	0xbc737b54	-0.014860947
26	0xbc11f4be	-0.008908449
27	0xbbdf3537	-0.0068117636
28	0xbb788040	-0.003791824
29	0xbc558e16	-0.013034364
30	0xb8b26478	-8.506415e-05
31	0xbc3fb2b2	-0.011700319
32	0xbc83aba1	-0.01607305
33	0xbc04366a	-0.008069614
34	0xbc105121	-0.008808405
35	0xbc0e4cf1	-0.008685336
36	0xbb0ddb8f	-0.002164576
37	0xbc1dfcc9	-0.009642788
38	0xbc0c1f24	-0.008552346
39	0xbc4dad01	-0.012553454
40	0xbc4d6c66	-0.012538051
41	0xbc8ab4ff	-0.016932009
42	0xbc8d0a80	-0.01721692
43	0xbcb379cd	-0.021908665
44	0xbcae5c33	-0.021284198
45	0xbae0e4a7	-0.0017157987
46	0xbc550c55	-0.0130034285
47	0xbbd7f92a	-0.006590982
48	0xbc96a46f	-0.018388955
49	0xbc4b6e66	-0.012416458
50	0xbc1de49e	-0.009637026
51	0xba5eb2fe	-0.00084953
52	0xbc2a3ad2	-0.01039
53	0xbbe7d003	-0.0070743575
54	0xbbff451b	-0.0077902204
55	0xbbc27a9f	-0.0059350277
56	0xbc5df4f9	-0.013547176
57	0xbc14c783	-0.00908077
58	0xbbeaffd8	-0.0071716122
59	0xbb0611f2	-0.0020457474
60	0xbc57ee4e	-0.013179375
61	0xbbdeab72	-0.00679534
62	0x80000789	-2.703e-42
63	0xbbbdfee1	-0.005798206
64	0xbc6f127d	-0.01459181
65	0xbaf5453f	-0.0018712654
66	0xbc115c6c	-0.008872133
67	0xbbbbb78e	-0.0057286685
68	0xbbd98d82	-0.0066391835
69	0xbc8f59d3	-0.017498886
70	0xbc1fbf95	-0.009750267
71	0xbb7a6db7	-0.0038212368
72	0xbc3416ec	-0.010991793
73	0xbc253f04	-0.010085825
74	0xbb94150b	-0.00451911
75	0xbc8461c4	-0.0161599
76	0xbbc747c6	-0.006081554
77	0xbc8b1408	-0.016977325
78	0xbc4eaf84	-0.012615088
79	0xbcb3b23d	-0.021935577
80	0xbc9f78a6	-0.01946671
81	0xbbdfb793	-0.0068273037
82	0xbc294d9d	-0.010333446
83	0x00008d98	5.0794e-41
84	0xbc4b3df9	-0.012404912
85	0xbca63472	-0.02028868
86	0xbc805ab4	-0.01566825
87	0xbb82ac34	-0.0039878134
88	0xbc461122	-0.012089046
89	0xbc00e4af	-0.007867022
90	0xbc29cf7e	-0.010364411
91	0xbb11565d	-0.002217672
92	0xbc754680	-0.014970422
93	0xbc345cd7	-0.011008463
94	0xbc779262	-0.015110584
95	0xbc1d420c	-0.009598266
96	0xbbfda197	-0.0077402103
97	0xbb886da2	-0.00416346
98	0xbc4c839d	-0.012482551
99	0xbc30b534	-0.01078539
100	0xbb11f6b8	-0.00222723
101	0xbc0ad69d	-0.008474019
102	0xbc88b58c	-0.01668813
103	0xbb2f34e7	-0.0026734413
104	0xbc89c09e	-0.01681548
105	0xbb870a25	-0.0041210824
106	0xbc9806c9	-0.018557923
107	0xbbf8797d	-0.007582842
108	0xbc192b14	-0.0093486495
109	0xbc1eb62a	-0.009686986
110	0xbb691e78	-0.003557114
111	0xbc3e9ce2	-0.011634083
112	0xbc4478e2	-0.011991711
113	0xbbaa3751	-0.0051945825
114	0xbcbd947b	-0.02314209
115	0xbc4563f8	-0.01204776
116	0xba9e2f0c	-0.0012068464
117	0xbc6a9326	-0.0143173095
118	0xbc584c82	-0.013201835
119	0xbcafc284	-0.021455057
120	0xbbee9945	-0.0072814547
121	0xbb510248	-0.003189223
122	0xbc9c58c9	-0.019085305
123	0x3dc29d08	0.095026076
124	0xbc4ba3ca	-0.012429187
125	0xbc2e3e9c	-0.010635044
126	0xbc07c317	-0.008286259
127	0xbc6b1e81	-0.014350534

output.weight f4 [300, 128]
0	0xbe1db0cd	-0.15399475
1	0xbddf3250	-0.10898268
2	0xbe32be1f	-0.17455338
3	0xbd972d83	-0.073817275
4	0xbdf8fdea	-0.12157805
5	0x3ea12e73	0.3148075
6	0x3dcfbdb7	0.10143607
7	0x3e095331	0.13410641
8	0x3e12cf18	0.14336812
9	0xbe21fd55	-0.15819295
10	0x3d4205a3	0.047368657
11	0x3da4d5cf	0.08048593
12	0xbe124487	-0.14283954
13	0xbcbfae37	-0.023398502
14	0x3e53b55f	0.20674656
15	0xbd4c0eec	-0.049818918
16	0xbe6a4fe9	-0.22882046
17	0xbdf11c70	-0.11773002
18	0xbd572fd4	-0.052535847
19	0xbe5ec15c	-0.21753448
20	0x3e6f5829	0.23373474
21	0x3da12104	0.07867625
22	0xbcf039fb	-0.029324522
23	0xbe3770d0	-0.17914128
24	0x3e360b28	0.17777693
25	0xbe9c1682	-0.30485922
26	0xbdb3272d	-0.087477066
27	0xbc043746	-0.008069819
28	0xbdffcabc	-0.124898404
29	0xbc7caf04	-0.015422586
30	0xbe732286	-0.23743638
31	0xbd5f59c0	-0.05452895
32	0x3e855de0	0.26048183
33	0xbe0cc785	-0.13747986
34	0x3dc1f03e	0.09469651
35	0xbe108420	-0.14112902
36	0xbd8afd56	-0.06786601
37	0xbde277e8	-0.110580266
38	0x3c40bad9	0.011763298
39	0x3e611281	0.21979715
40	0xbe227db7	-0.15868269
41	0x3d057e7c	0.032591328
42	0xbe82f8c5	-0.2558042
43	0xbdedd2cc	-0.11612472
44	0xbda8987b	-0.08232208
45	0x3d890119	0.066896625
46	0x3e38999e	0.1802735
47	0x3e4e9d7b	0.20177262
48	0x3e1dbeb3	0.15404777
49	0x3d37aead	0.04484432
50	0x3e01884a	0.12649646
51	0xbd830b1c	-0.06398603
52	0xbef4539a	-0.47720033
53	0x3d5da7b3	0.05411501
54	0x3e460d0b	0.19340913
55	0x3e11c22f	0.14234231
56	0xbe276fff	-0.16351317
57	0xbe3bf743	-0.18356042
58	0xbdefe515	-0.11713616
59	0xbe89e32e	-0.26931137
60	0xbe28b415	-0.16474946
61	0x3d8577bb	0.065169774
62	0x3e06ba3b	0.13156979
63	0xbe9839fe	-0.29731745
64	0xbe0028ef	-0.12515615
65	0xbdb06497	-0.08612936
66	0xbe5ed050	-0.21759152
67	0x3e576494	0.21034461
68	0xbde7b515	-0.113138355
69	0xbd6b8b1b	-0.05750571
70	0xbe8bf989	-0.27338818
71	0x3e8436c9	0.25823048
72	0xbd852d41	-0.06502772
73	0x3d486662	0.048925765
74	0xbdf5babf	-0.119985096
75	0xbe3098e9	-0.1724583
76	0xbca7ac50	-0.020467907
77	0x3ddf09c7	0.10890537
78	0xbe639b8f	-0.2222731
79	0xbe3ea7d7	-0.18618713
80	0xbe88f109	-0.26746395
81	0xbe3cf124	-0.18451363
82	0x3d09c2fd	0.03363322
83	0x3de67f57	0.11254757
84	0xbddfc73a	-0.10926671
85	0x3d58ee55	0.052961666
86	0x3e23ba2e	0.1598899
87	0x3c2acd39	0.010424905
88	0xbe5454ff	-0.20735548
89	0x3e35c68d	0.17751522
90	0x3d659acf	0.05605584
91	0xbd81f38f	-0.06345283
92	0xbec5ed72	-0.3865772
93	0x3e826a42	0.25471693
94	0x3e126445	0.14296062
95	0x3dbbbf70	0.09167373
96	0xbe971333	-0.29506835
97	0x3dd1a143	0.10235836
98	0x3ccf1c4b	0.025282046
99	0x3d5391c9	0.051652703
100	0x3e9dc05a	0.30810815
101	0x3d677770	0.05651039
102	0xbd12bd28	-0.035824925
103	0x3e9054cd	0.28189698
104	0x3d7bc2b1	0.06146497
105	0x3d9139aa	0.07091077
106	0xbe2ba9fe	-0.16764066
107	0x3d2bc0c7	0.041931894
108	0xbdfdb2f3	-0.123876475
109	0x3d3f2b66	0.046672247
110	0x3d92b43e	0.07163285
111	0xbebaba05	-0.36470047
112	0x3edab9b3	0.42719802
113	0xbdb4a06a	-0.08819659
114	0x3e0728cd	0.13199158
115	0x3d92519a	0.071444705
116	0xbe41bed8	-0.18920457
117	0xbce00bad	-0.027349317
118	0xbe51ecbf	-0.20500468
119	0xbe2a5601	-0.1663437
120	0xbdb0bfd9	-0.08630342
121	0xbe3601c1	-0.17774107
122	0xbdd590fa	-0.10428043
123	0x3d957300	0.07297325
124	0x3dcc483e	0.099747166
125	0xbde1a2e9	-0.11017401
126	0x3d5e0fa9	0.054214153
127	0x3dd1d5c3	0.1024585
128	0x3d2433ff	0.04008865
129	0xbe78c632	-0.24294356
130	0x3e1f4919	0.15555228
131	0xbe227055	-0.15863164
132	0x3ee1f586	0.44132632
133	0x3d1ba11e	0.03799545
134	0xbea535cb	-0.32267603
135	0xbd906e29	-0.070522614
136	0xbdc35d3f	-0.0953927
137	0x3dca8ed9	0.09890527
138	0xbe1be2fc	-0.15223306
139	0x3e7cf57e	0.24703023
140	0x3e4323cd	0.19056626
141	0xbdbab0ea	-0.09115775
142	0xbdf8aa1a	-0.12141819
143	0x3d3c8461	0.046024684
144	0xbe12251a	-0.14271966
145	0xbdd89835	-0.10575906
146	0x3e6a7628	0.22896636
147	0x3db47ea6	0.08813219
148	0xbe0edb84	-0.13950926
149	0xbcaa8f61	-0.020820322
150	0xbe112a8f	-0.14176391
151	0x3e369036	0.1782845
152	0xbc4fa7c1	-0.012674273
153	0xbe4e8783	-0.20168881
154	0x3edbf4cd	0.42960206
155	0xbe3893bc	-0.18025106
156	0xbdbe68e6	-0.092973515
157	0x3c92bec6	0.017913233
158	0x3c2199e9	0.009863355
159	0x3d50502c	0.050857708
160	0x3c519302	0.012791397
161	0x3daf7f59	0.085692115
162	0xbe0cf98e	-0.13767073
163	0xbcf9c0e0	-0.030487478
164	0xbe229a78	-0.15879238
165	0xbde82f6d	-0.11337171
166	0x3e696723	0.2279325
167	0xbe5c6a67	-0.21524964
168	0x3bad8086	0.005294862
169	0x3e9d032b	0.3066648
170	0x3d393446	0.045215867
171	0xbd0041b6	-0.031312667
172	0x3e213bac	0.1574542
173	0xbda12420	-0.078682184
174	0x3e80d00f	0.25158736
175	0xbd7bbdb1	-0.0614602
176	0xbdbe8d73	-0.09304323
177	0xbe7652bd	-0.24055
178	0xbe2b76ba	-0.1674451
179	0xbd942c7c	-0.07235047
180	0xbd796522	-0.060887463
181	0xbdc3fdb5	-0.09569875
182	0xbded0881	-0.115738876
183	0xbe2e2cc6	-0.17009267
184	0x3d81f14a	0.0634485
185	0xbdfba82a	-0.12287934
186	0xbe17e337	-0.1483277
187	0xbde3be4b	-0.1112028
188	0xbdc1a037	-0.09454387
189	0xbcffe9ea	-0.031239469
190	0xbe1939e2	-0.14963487
191	0x3cefdf24	0.029281206
192	0x3e26aff0	0.16278052
193	0x3e07256f	0.13197874
194	0xbf113531	-0.5672179
195	0xbeba72d1	-0.36415723
196	0xbd4ab0bf	-0.049484964
197	0xbe64fbf7	-0.22361742
198	0x3d220815	0.03955849
199	0x3e61b099	0.22040023
200	0xbe99fb4f	-0.30074546
201	0x3e8b8f5f	0.2725782
202	0xbd60a555	-0.054845173
203	0xbd96522f	-0.07339894
204	0x3db5c3fb	0.08875271
205	0x3d0ba20a	0.03409008
206	0x3e37ef3b	0.17962353
207	0xbe18338b	-0.14863412
208	0xbe0b1fd2	-0.13586357
209	0x3e4e7abe	0.2016401
210	0x3d84a60a	0.06476982
211	0xbebc21d3	-0.36744556
212	0xbdbbe76f	-0.09175002
213	0xbdc4e191	-0.09613336
214	0xbd6959f8	-0.056970567
215	0xbe0eef98	-0.13958585
216	0x3e4b342d	0.19844122
217	0xbe8a7720	-0.2704401
218	0xbe160519	-0.14650382
219	0x3d858c43	0.065208934
220	0x3e7bbaf4	0.24583036
221	0x3d921d14	0.071344525
222	0x3ef1d39c	0.47231758
223	0xbcef4e20	-0.029212058
224	0x3d0b9da9	0.034085903
225	0x3e2e6937	0.17032324
226	0x3e7f6995	0.2494262
227	0xbb35b0cd	-0.002772379
228	0xbd052166	-0.032502554
229	0x3d90da4c	0.07072887
230	0x3e731787	0.23739444
231	0x3e90c79b	0.28277287
232	0xbd42f765	-0.047599215
233	0x3e1b30fc	0.15155405
234	0x3e2cc78a	0.16872993
235	0x3c8c7381	0.01714492
236	0x3e40fe22	0.18846944
237	0xbebc529e	-0.36781782
238	0xbe9c3331	-0.30507806
239	0x3d66c918	0.05634412
240	0x3df0391a	0.11729641
241	0xbe53211a	-0.20618096
242	0x3e048bec	0.12944001
243	0xbd153a87	-0.03643277
244	0xbe37e7cd	-0.17959519
245	0x3e2915f4	0.1651228
246	0x3d22c961	0.03974283
247	0xbde52895	-0.11189381
248	0xbdbb1bee	-0.091361865
249	0xbd8df574	-0.06931582
250	0xbe191afc	-0.149517
251	0x3df44f4e	0.11929189
252	0xbd67b406	-0.056568168
253	0x3e93013e	0.28711885
254	0x3e8ebdd5	0.27879205
255	0xbd411733	-0.047141265

output.bias f4 [300]
0	0xbd1c38a3	-0.03813995
1	0xbe0ce975	-0.13760932
2	0xbe364a93	-0.17801885
3	0xbe42b805	-0.1901551
4	0xbe545da1	-0.20738842
5	0xbe749ea3	-0.2388864
6	0xbe8380a7	-0.2568409
7	0xbe856b59	-0.26058462
8	0xbe888283	-0.26662073
9	0xbe8b8bd9	-0.27255133
10	0xbe907142	-0.2821141
11	0xbe8dd199	-0.27698973
12	0xbe941057	-0.28918716
13	0xbe8b0c64	-0.2715789
14	0xbe8b1fec	-0.27172792
15	0xbe8047fc	-0.2505492
16	0xbe6f6b9a	-0.2338089
17	0xbe65cc6c	-0.22441262
18	0xbe4d7a88	-0.20066273
19	0xbe3726f5	-0.17885955
20	0xbe1ebb1f	-0.15501069
21	0xbe07a14a	-0.1324512
22	0xbde3a651	-0.11115707
23	0xbdad273b	-0.08454748
24	0xbd8e0c9a	-0.06935997
25	0xbd53aa01	-0.0516758
26	0xbca6fa79	-0.020383107
27	0xbb84b9b1	-0.0040504565
28	0x3c8b3e80	0.016997576
29	0x3d13a0c7	0.036042
30	0x3d7ea6af	0.06217068
31	0x3dad1bed	0.08452592
32	0x3ddc1046	0.107452914
33	0x3e08a291	0.13343264
34	0x3e0f380f	0.13986228
35	0x3e1fb1e2	0.155952
36	0x3e3bf014	0.18353301
37	0x3e3e6330	0.18592525
38	0x3e5f10de	0.21783778
39	0x3e672365	0.22572096
40	0x3e725f40	0.23669147
41	0x3e846475	0.25857893
42	0x3e7dd62a	0.24788728
43	0x3e882c4c	0.26596296
44	0x3e874817	0.26422188
45	0x3e822305	0.25417343
46	0x3e810db0	0.25205755
47	0x3e762ad8	0.24039781
48	0x3e4451cd	0.1917183
49	0x3dbfe320	0.093694925
50	0xbc4e1535	-0.012578298
51	0xbcb97af4	-0.022641636
52	0xbd512b64	-0.05106677
53	0xbd74493a	-0.059640147
54	0xbd97128b	-0.07376584
55	0xbd9a4298	-0.07532233
56	0xbd8ba566	-0.068186566
57	0xbd9ab7db	-0.07554599
58	0xbd9a7d1b	-0.07543393
59	0xbdaf1915	-0.08549706
60	0xbdbd84f5	-0.09253875
61	0xbdba70a6	-0.09103517
62	0xbdaafe1e	-0.0834925
63	0xbda572ca	-0.08078535
64	0xbdb505f6	-0.088390276
65	0xbda480c9	-0.08032376
66	0xbd9cb0f6	-0.0765094
67	0xbd8fae04	-0.07015613
68	0xbd914bed	-0.0709456
69	0xbd529c06	-0.051418327
70	0xbd7a5c3a	-0.06112311
71	0xbd287ded	-0.041135717
72	0xbd238397	-0.039920416
73	0xbce1a3aa	-0.027543861
74	0xbc82f17d	-0.015984291
75	0xbcafc864	-0.021457858
76	0xbc5e8173	-0.013580668
77	0x39ce8c8a	0.00039396092
78	0x3cbc34c7	0.022974385
79	0x3c1adb44	0.009451691
80	0x3cfbd637	0.030741794
81	0x3d27bd8f	0.04095226
82	0x3d68045d	0.056644786
83	0x3d5a5ecf	0.053313073
84	0x3d8bc438	0.06824535
85	0x3d793d8a	0.060849704
86	0x3d990751	0.074720986
87	0x3d9ac73a	0.07557531
88	0x3da7dbf3	0.08196249
89	0x3db3f43d	0.08786819
90	0x3dce0ad3	0.10060658
91	0x3dd5e558	0.104441345
92	0x3dce39b1	0.100695975
93	0x3dc72e4e	0.09725629
94	0x3dd7e476	0.10541622
95	0x3dd6d95e	0.10490678
96	0x3de02ae8	0.10945684
97	0x3dc0b755	0.09409968
98	0x3d8b2def	0.067958705
99	0x3d0a6e18	0.0337964
100	0xbcfa8168	-0.030579284
101	0xbddd2f94	-0.108000904
102	0xbe11b3e0	-0.14228773
103	0xbe147ef8	-0.1450156
104	0xbe1e42f0	-0.15455222
105	0xbe2e7def	-0.17040227
106	0xbe3a0ddf	-0.18169354
107	0xbe43b636	-0.19112477
108	0xbe550fdb	-0.2080683
109	0xbe50b02e	-0.20379707
110	0xbe5fef27	-0.21868573
111	0xbe5ce1d8	-0.21570528
112	0xbe60e6c0	-0.21963024
113	0xbe683309	-0.22675718
114	0xbe62461f	-0.22097062
115	0xbe576afb	-0.21036904
116	0xbe47eb62	-0.19523385
117	0xbe3fa246	-0.18714246
118	0xbe22f975	-0.15915473
119	0xbe25bdae	-0.16185638
120	0xbe1e1973	-0.15439396
121	0xbdfe74c8	-0.12424618
122	0xbdfa4bac	-0.122214645
123	0xbdc72ad9	-0.097249694
124	0xbdafdc36	-0.08586924
125	0xbd95fd09	-0.07323653
126	0xbd45991e	-0.048241727
127	0xbcfa06ad	-0.030520761
128	0xbc6b2493	-0.014351982
129	0x3b535d4c	0.0032251654
130	0x3cbd5f6e	0.023116793
131	0x3d206f6a	0.039168753
132	0x3d3936f2	0.045218416
133	0x3d8c4912	0.068498746
134	0x3daa161f	0.083050005
135	0x3dc4cf49	0.09609849
136	0x3de8a669	0.11359865
137	0x3e06614e	0.13123056
138	0x3e072be5	0.13200338
139	0x3e1ae7e9	0.15127529
140	0x3e2dac35	0.16960223
141	0x3e394fba	0.1809682
142	0x3e2f6ac0	0.17130566
143	0x3e44a84b	0.19204824
144	0x3e482583	0.1954556
145	0x3e45d9da	0.19321385
146	0x3e37361d	0.17891736
147	0x3e2bfbf5	0.16795333
148	0x3e0b6954	0.13614398
149	0x3d9daf95	0.07699505
150	0xbcd98ca2	-0.026556317
151	0xbcd9d624	-0.026591368
152	0xbd189b0f	-0.03725725
153	0xbd5a8fcb	-0.053359788
154	0xbd2a129d	-0.041521657
155	0xbd82fa86	-0.0639544
156	0xbd9828c7	-0.07429653
157	0xbd78ebcb	-0.060771745
158	0xbd9c629d	-0.076359965
159	0xbd90214c	-0.07037601
160	0xbd88fc5c	-0.06688759
161	0xbd9df057	-0.07711857
162	0xbdaa8de8	-0.08327848
163	0xbd8ee20e	-0.0697671
164	0xbda9c3d4	-0.082893044
165	0xbda2d689	-0.079510756
166	0xbd8658fc	-0.06559941
167	0xbd8fa564	-0.07013968
168	0xbd63075b	-0.055426937
169	0xbd26f31e	-0.0407592
170	0xbd2a214e	-0.041535668
171	0xbcef9b39	-0.02924882
172	0xbcc9f99f	-0.024655161
173	0xbc819a78	-0.015820727
174	0x3b1f423b	0.002430095
175	0xbb89146e	-0.0041833436
176	0x35c95cdd	1.5002694e-06
177	0x3ae1409d	0.0017185394
178	0x3cf479ed	0.029843295
179	0x3d1a4422	0.037662633
180	0x3d3925b6	0.04520198
181	0x3d198f26	0.037490033
182	0x3d23d67e	0.039999478
183	0x3d897e3a	0.06713529
184	0x3d7b55ce	0.061361127
185	0x3d9b017c	0.075686425
186	0x3d9d74c2	0.076882854
187	0x3d9b3594	0.075785786
188	0x3db3dac6	0.08781962
189	0x3dd23c25	0.10265378
190	0x3dc5ebf9	0.09664149
191	0x3dd0e85d	0.1020057
192	0x3ddf6392	0.109076634
193	0x3ddbd8df	0.10734724
194	0x3de0ec6d	0.10982595
195	0x3dbf6b31	0.09346617
196	0x3dd30ce0	0.1030519
197	0x3da48960	0.08034015
198	0x3d9315c6	0.07181887
199	0x3d0f7018	0.03501901
200	0xbcf942fc	-0.030427448
201	0xbdbf4f11	-0.093412526
202	0xbe0a2c90	-0.13493562
203	0xbe01ad47	-0.12663756
204	0xbe12814c	-0.14307135
205	0xbe26c8ec	-0.16287583
206	0xbe2f94e4	-0.17146641
207	0xbe37d118	-0.17950857
208	0xbe3b20d4	-0.18274242
209	0xbe4ccff5	-0.20001204
210	0xbe4b500b	-0.19854753
211	0xbe5028c2	-0.20328048
212	0xbe5610fe	-0.2090492
213	0xbe4db629	-0.2008902
214	0xbe52f1d1	-0.20600058
215	0xbe4028de	-0.1876559
216	0xbe3ab19f	-0.1823182
217	0xbe2372d3	-0.1596177
218	0xbe1501bb	-0.14551441
219	0xbe114ed4	-0.14190227
220	0xbe085759	-0.1331457
221	0xbded4d6e	-0.11587034
222	0xbdd47cc1	-0.103753574
223	0xbdabd07b	-0.08389374
224	0xbd967f2b	-0.07348474
225	0xbd5519ac	-0.052026436
226	0xbcc068f2	-0.023487542
227	0xbc85bdd0	-0.016325861
228	0xbb9d91c5	-0.004808637
229	0x3cc02fdc	0.023460321
230	0x3cfabfe2	0.030609075
231	0x3d429a2d	0.047510315
232	0x3d6ceda6	0.057843827
233	0x3d9e1c92	0.07720293
234	0x3dc6fa85	0.097157516
235	0x3deadc03	0.11467745
236	0x3df6b2ff	0.120458595
237	0x3e047da1	0.12938549
238	0x3e1a3106	0.15057763
239	0x3e21be4f	0.15795253
240	0x3e29ceb3	0.16582756
241	0x3e3264a2	0.17421201
242	0x3e342770	0.17593169
243	0x3e47649d	0.19471975
244	0x3e47035c	0.19434875
245	0x3e3e2568	0.18568957
246	0x3e3b85b2	0.1831272
247	0x3e35bcec	0.17747849
248	0x3e07bdb7	0.13255964
249	0x3d90573d	0.070478894
250	0xbd7ac251	-0.06122047
251	0xbe088fd0	-0.1333611
252	0xbe27073e	-0.16311356
253	0xbe2bc03f	-0.16772555
254	0xbe4dd1e4	-0.20099598
255	0xbe4cbfd7	-0.19995056
