figs2-3_rl/results/asterix-UADQN/network_posterior2.pth (torch_old, 683100 bytes, 6 tensors)

conv.weight f4 [16, 4, 3, 3]
000000 0a ac 91 3e 62 b3 b3 3e e0 79 05 bf c4 39 4a bf
       0.28451568 0.35097796 -0.5213909 -0.78994393
000010 2f b4 78 3c aa 54 03 be d5 44 ff 3e e3 fa 20 3e
       0.015179678 -0.12825266 0.49857202 0.15720706
000020 9f ac 8f 3e a6 ae 45 3f f0 ea b2 3d 4a 1e 43 3f
       0.28061387 0.7721962 0.08736217 0.7621809
000030 6e c0 bc 3e 4e 25 7e 3e f3 5c 66 3f 33 43 ec 3e
       0.36865562 0.24818918 0.8998558 0.4614502
000040 f6 8f 18 bc 6c 17 3a 3d 64 2e c8 3e 82 4d e5 bb
       -0.009311667 0.045432493 0.39097893 -0.006997765
000050 6d d2 8c bd 99 d5 d0 3e f4 52 98 be 89 af b7 be
       -0.06876073 0.40787962 -0.29750788 -0.3587611
000060 73 2c b9 3e 7c 3c 80 3f 9c 6e ce 3e 69 1a 8a be
       0.36166725 1.0018458 0.40318763 -0.26973274
000070 9b 0b 15 bd 6b 3d 80 bf 5f 42 a5 be 23 25 9b bd
       -0.03638802 -1.0018743 -0.322772 -0.07575443
000080 f5 ed 18 bf 4b b2 f6 3e cf e2 69 bf 5c ab 02 3f
       -0.59738094 0.48182902 -0.9136171 0.51042724
000090 ce 12 8f bd 97 5d a8 be 77 ae 01 be a0 ac 92 be
       -0.069860086 -0.32883903 -0.1266421 -0.28647327
0000a0 5f d3 e8 3e 9d cc 45 be 64 86 9b be 11 57 86 bf
       0.45473763 -0.19316335 -0.3037597 -1.049532
0000b0 3a 03 07 bf e9 4f 3d 3e d3 ad a6 3e 70 54 b3 bd
       -0.527393 0.18487515 0.32554492 -0.087563396
0000c0 29 5a 60 3d 6f c6 cf be 92 5c b5 3c 7c 43 5b 3f
       0.054773483 -0.4058108 0.022138868 0.8564985
0000d0 46 65 1a 3f 18 13 d1 bf 48 a7 01 bf f7 6a ad be
       0.6031078 -1.6333952 -0.50645876 -0.3387067
0000e0 c9 2c b8 be 38 89 91 be 27 c3 97 be 5f 5c ba 3d
       -0.35971668 -0.28425002 -0.29641077 0.0909965
0000f0 58 22 b5 3e 66 24 80 bf 04 33 53 bf f5 50 a2 be
       0.35377765 -1.0011108 -0.8249972 -0.3170239
000100 79 3b 10 3e dc a6 2c 3d 4c 9a 9f be 07 da 30 be
       0.14085187 0.042151317 -0.31172407 -0.17270671
000110 0f 7a 84 3e 98 e4 a0 be 2b 61 ae be 48 57 83 3f
       0.25874373 -0.31424403 -0.34058508 1.0261011
000120 86 d0 45 3f a6 90 1f 3f d5 b6 a2 3f ff f0 7a 3f
       0.77271307 0.6233009 1.2712046 0.9802398
000130 5d 2a 88 3f 0b a4 94 3f 42 69 57 3f 9b 2a 50 3f
       1.0637928 1.1612562 0.84144986 0.8131501
000140 01 ca 74 3f ea 75 81 be 15 20 df be 48 0e 36 bd
       0.95620733 -0.25285274 -0.43579164 -0.044447213
000150 3f 33 e0 be 93 0e 45 bf e3 72 17 bf 55 fc 76 be
       -0.43789098 -0.76975363 -0.5915968 -0.24119695
000160 6b e2 8a be 1e 22 81 be 9d 19 2c 3e 74 2e 05 bd
       -0.27125868 -0.25221342 0.16806646 -0.032515004
000170 be 2b 23 3e 00 3a 37 3e 3b b1 8b bf d3 a6 2f 3e
       0.15934655 0.17893219 -1.0913461 0.17153482
000180 92 0e 89 3d b6 11 67 3e 9a 41 ab 3d c8 2e d9 3e
       0.06692232 0.2256535 0.08362122 0.42418504
000190 9a 97 60 3e f2 07 17 3f 23 55 89 3f 97 83 19 3f
       0.21932831 0.589965 1.0729107 0.59966415
0001a0 33 b1 af 3f 63 b1 29 3f 20 6b ee 3e 32 da 21 3f
       1.3725952 0.66286296 0.46566105 0.63223565
0001b0 b8 a0 03 3f 71 f4 a6 bd 31 6a 5c be 38 e6 23 be
       0.5141711 -0.08152092 -0.21524884 -0.1600579
0001c0 c7 ff 8d be e5 1c bd be 04 d5 62 3f c3 04 1a 3f
       -0.27734205 -0.36936107 0.88606286 0.60163516
0001d0 e2 88 45 bf 46 ef ae 3c dd 28 7e bd 7b 89 4b bd
       -0.7716199 0.021354329 -0.06205069 -0.04969166
0001e0 ca 01 00 bc 62 5b c4 bd 16 75 66 3f c5 ff 67 bd
       -0.007812927 -0.095877424 0.9002241 -0.056640405
0001f0 6e 2c ca 3e 0e 39 a1 3e 82 85 bb 3d 96 e6 7a 3e
       0.39487022 0.31488842 0.09156324 0.24502024
000200 ce be 01 be 87 e7 c6 bc 5a 5d ea bf 8f 47 c8 bd
       -0.12670442 -0.024280323 -1.8309739 -0.09779274
000210 c0 ae 35 be 8d 48 3c bf fe b2 3a bf 90 8e 08 bf
       -0.17742443 -0.73548204 -0.7292937 -0.53342533
000220 79 0a 78 3e 43 47 57 be 54 66 e0 3f 52 a9 5a 3e
       0.24222745 -0.21023278 1.7531228 0.21353653
000230 05 50 9e be 5a e9 45 3f 3d 58 12 3f 08 03 b1 be
       -0.30920425 0.7730919 0.5716589 -0.34572625
000240 4f 90 a1 3e 3a e5 9f bf 28 3d be be e1 16 dc bc
       0.3155541 -1.2491829 -0.37156034 -0.026866378
000250 48 c4 f9 3d 41 32 e2 3e b2 0f f0 3e 29 c5 db bd
       0.12195641 0.44178966 0.46886975 -0.10730965
000260 4a a0 b1 bf 71 4d fa 3e be 5d 09 3d 6e a9 93 3e
       -1.3877041 0.48887208 0.033536665 0.28840202
000270 f8 ea 4f bd a4 b4 4b 3e 8f 0a 91 bf 37 81 31 3f
       -0.050761193 0.19893128 -1.1331347 0.6933779
000280 25 78 87 bf 81 d3 94 3e 57 12 2a bd 85 34 0b bf
       -1.058354 0.29067615 -0.041521396 -0.54377013
000290 c1 83 fd be 51 4b 4a be 3d ec d2 3e db ae 61 bd
       -0.49514583 -0.19755293 0.4119586 -0.055098396
0002a0 38 ba f7 be 26 78 c3 be 77 c1 f7 bd f2 22 0d bf
       -0.4838426 -0.38177603 -0.12097447 -0.5513145
0002b0 6a 70 3d be fc 11 3d 3e 8a 6b 93 3c d0 ff d2 3d
       -0.18499914 0.18463892 0.017995615 0.103026986
0002c0 ba b8 07 be 72 77 09 bf 57 ab 33 3e 27 2b b1 3c
       -0.13254061 -0.53697884 0.1754583 0.021627022
0002d0 dd 04 7f be df b8 c8 be 55 8c 20 bd 5f f5 93 be
       -0.24904199 -0.39203545 -0.03919633 -0.2889814
0002e0 ef c9 5f be c2 0a 43 bd 93 94 8d be 0b 1b 81 3e
       -0.21854375 -0.04761768 -0.27652416 0.25215945
0002f0 40 7a 83 3c 6a 88 18 bf 25 6b 1d be 48 3d 22 3e
       0.016049504 -0.5958315 -0.15372904 0.1584369
000300 79 5f 9f be 18 3e 76 3e 74 90 a0 3e c6 f7 19 3f
       -0.31127527 0.24047124 0.3136021 0.601437
000310 49 49 b5 be 46 98 69 be 3b 11 28 bf d8 08 b5 3e
       -0.35407475 -0.22811994 -0.6565129 0.3535831
000320 d5 98 db 3d 61 bd 02 bd a3 47 81 bd 23 0f d3 3e
       0.1072251 -0.031918887 -0.06312492 0.41222486
000330 2c 3c ae bd a6 02 b4 3e 80 0f d1 bd f9 54 a4 3f
       -0.085075706 0.3515827 -0.102080345 1.2838432
000340 75 88 83 3d d4 5c 12 3e 67 d6 81 bf 01 57 8b 3f
       0.064225115 0.14293224 -1.0143555 1.0885926
000350 47 9f ad 3f 0e 97 71 3f d6 68 04 bd 29 4e 18 bf
       1.3564233 0.94371116 -0.03232654 -0.5949426
000360 5f 14 40 3f 83 8f be 3e d7 17 97 bd 74 b4 f3 3e
       0.75031084 0.37218866 -0.07377594 0.47598612
000370 6a 1a 53 3f 8c a4 db be 4d 6f 41 3f e6 39 a9 3e
       0.8246218 -0.42898977 0.75560457 0.33051986
000380 cc 2f 08 be f1 b3 21 be 13 bc db be 24 96 8c be
       -0.13299483 -0.15791298 -0.42916927 -0.27458298
000390 b4 3a 3e bf 2a d4 42 bd a9 0f fa be ab 46 25 bf
       -0.74308324 -0.047565617 -0.48840073 -0.64560956
0003a0 06 42 2d bf fa f7 3c bf 15 0e 35 bd a5 7b d3 be
       -0.6767887 -0.7381588 -0.044202883 -0.4130527
0003b0 ec 81 08 3e 9d 4b c0 3d 23 ce 06 3f fc 09 df be
       0.13330811 0.09389422 0.5265829 -0.43562305
0003c0 0f b7 09 bf 52 1a af bf a9 e5 90 3e e3 ce 19 3f
       -0.5379495 -1.3679907 0.28300217 0.6008131
0003d0 da 2f 1a 3e 81 99 c4 3e 1c 6c b8 be 18 ce 51 be
       0.15057316 0.38398364 -0.3601998 -0.20488775
0003e0 c6 9a 51 3e dc 43 66 3f 4b 36 a7 be 7a 8d a0 3f
       0.20469198 0.89947295 -0.3265861 1.2543175
0003f0 19 9a 09 be 77 c8 44 bd 9e 7d 6f bf 97 ee 66 bd
       -0.1343769 -0.04804274 -0.9355105 -0.05637988

conv.bias f4 [16]
000000 fe 4f b9 3d 42 d8 a0 3e 4c 85 25 bf d1 89 93 3e
       0.090484604 0.31414992 -0.6465652 0.28816083
000010 8d d9 ba 3e 9e b1 93 3e fc 82 ef 3d 0e 18 7c be
       0.36494103 0.2884645 0.11694905 -0.24618551
000020 b7 f0 10 3e 2a 82 b9 3f ac d4 f6 3e de 9b 97 3a
       0.14154325 1.4492848 0.4820913 0.0011566838
000030 b4 af b3 be 85 4c 05 bf 46 2d 9f 3e 98 99 c8 3e
       -0.35094988 -0.52069885 0.31089228 0.39179683

fc_hidden.weight f4 [128, 1024]
000000 01 02 c8 bb 3d 29 0f 3d 53 82 45 3d 5b 50 00 be
       -0.0061037545 0.034951437 0.04821999 -0.12530653
000010 47 77 27 be 3c d9 7d 3d a8 a1 d7 bd f1 7d 12 3d
       -0.16354094 0.06197475 -0.1052888 0.03576464
000020 40 b4 25 3e 6c c5 a8 3c fc 27 1a bc 40 9e ac 3d
       0.16182041 0.02060195 -0.009408947 0.08428621
000030 44 cf 9c bd f4 92 cc bd df 04 20 bb ad 5d 8e bd
       -0.0765672 -0.099889666 -0.0024416966 -0.06951461
000040 d7 27 63 bb 0c 5b 3c bd 20 de 63 3c 96 22 2a be
       -0.0034661198 -0.045985267 0.013907939 -0.16614756
000050 0d 0f 64 3c 8e 39 5b 3d e5 75 8c 3d 0a 77 e3 3d
       0.013919604 0.053521685 0.06858424 0.11106689
000060 a7 c4 06 3e 6e 32 eb bc 82 b0 dd be 5c 6f 6d bd
       0.13160954 -0.02871057 -0.43298727 -0.05796753
000070 e8 25 d3 bb 93 11 55 3d 45 87 6b bd 88 30 57 bd
       -0.0064437278 0.052018713 -0.05750205 -0.052536517
000080 84 29 e4 3c ad da 63 be de 9a 94 bd cb 23 42 bc
       0.027851827 -0.22251387 -0.07256101 -0.011849354
000090 e1 7d bd 3c 65 2e 3e 3d ab 81 f2 bc e3 0f 6b bc
       0.023131313 0.046430964 -0.029602846 -0.014347049
0000a0 a4 57 d8 bc ff de be 3d ff 47 b5 bd 0d 72 f0 3d
       -0.026408978 0.09319877 -0.08851623 0.117405035
0000b0 0e 57 87 bd 31 13 27 bc b1 db 3b be 1f 32 b2 bc
       -0.06608401 -0.010197447 -0.18345524 -0.021752415
0000c0 b7 b5 26 3e 71 ff 0b 3d 9c c7 ee bd d3 fc 2b 3e
       0.16280256 0.034179155 -0.11659166 0.16795664
0000d0 28 0d 0f bd 97 23 05 be 8a 39 0c be 05 ad 0e 3e
       -0.034924656 -0.13001858 -0.13693824 0.13933189
0000e0 0f 49 8e 3c 94 12 cf 3a 90 94 51 bc 6c 88 4b bd
       0.017368821 0.0015798383 -0.012791768 -0.04969065
0000f0 f9 2b 1d bd 25 d6 5b 3d be 1c 15 be 31 e0 f8 3c
       -0.038372014 0.05367102 -0.14561746 0.03038034
000100 08 d6 e1 bd fd 03 fa 3c 2c 2c ac bc 10 b9 1a 3d
       -0.11027151 0.03051948 -0.021017157 0.037774146
000110 5d ad 04 be d9 a5 46 3c ed 88 07 3e bb d3 65 bc
       -0.12956758 0.012124502 0.13235827 -0.014027531
000120 56 9a 25 be af f2 9f bd e9 95 35 be e9 09 15 3e
       -0.16172156 -0.0780996 -0.17732967 0.14554562
000130 6b 9e e9 3c 8f ae e3 3c 09 ca fb bd 97 07 44 3b
       0.028517922 0.027793197 -0.122943945 0.002991175
000140 80 1c e9 3c 48 71 7c 3d 7a 98 29 be fc a5 6e be
       0.028455973 0.06163147 -0.16562071 -0.23305506
000150 7d 9d e6 bc 54 31 76 3d 33 b4 10 3e 37 22 fe 3d
       -0.028151268 0.060105637 0.1413124 0.1240887
000160 8f 85 59 3d be 2d bb 3c 0b 17 7a bd 6d 09 10 be
       0.053105887 0.02284896 -0.06105713 -0.14066096
000170 69 33 dc 3d 4a 1f 1a 3d b7 82 eb 3d 07 4f b1 3d
       0.10751993 0.037627496 0.11499541 0.086576514
000180 00 09 15 3d e0 1f 7b 3d a9 20 f4 bd 74 e8 10 bd
       0.036385536 0.061309695 -0.11920292 -0.035377935
000190 94 f9 4c 3c be a2 1b be c0 dd fa 3d 4b 2e d8 3d
       0.012510676 -0.151988 0.12249327 0.10555705
0001a0 02 87 5d 3e a7 0b 0b 3d 34 77 b4 3d 04 34 ca bd
       0.21633533 0.03394666 0.08811799 -0.098732024
0001b0 cd fb 5c bd c4 26 88 3d 3b e8 12 bd 6b 42 39 be
       -0.053951073 0.06648019 -0.035866003 -0.18091743
0001c0 b6 42 bb 3d 10 90 d7 bc 1d 2e 0c bd df 5b fd 3d
       0.091435835 -0.026313812 -0.034223665 0.12371039
0001d0 de 08 b7 3d d2 f9 ae 3d 1f c3 80 3d 4d 71 d7 bc
       0.08937238 0.08543743 0.062872164 -0.026299143
0001e0 03 ad 0d 3d e4 0e bc bd 9e be 2c be 70 9b 80 3c
       0.034588825 -0.09182528 -0.1686959 0.015699118
0001f0 df 39 a6 3d 29 a8 5e bd 26 60 f3 3b 32 ba 0b 3d
       0.08116507 -0.05435959 0.0074272333 0.034113117
000200 95 2b 77 bd cf 92 ba bd 56 af f3 3d 07 10 b1 ba
       -0.060344297 -0.09110033 0.11898677 -0.0013508805
000210 2f cd 8c bd 45 6a 42 3d d4 d7 1b be 5b 3a 24 3c
       -0.06875073 0.047464628 -0.1521905 0.010023679
000220 1a 6a 84 bd 54 a4 96 3d 58 4f f2 bc 8a 91 86 3c
       -0.0646555 0.07355562 -0.02957885 0.01642682
000230 c9 2b a6 bd c4 d3 72 3c 33 74 a4 3d 92 a1 de bd
       -0.0811382 0.014820997 0.08029976 -0.10870661
000240 8f fc 71 bd 2c 45 00 3e 18 ee 1f be 75 5d 96 bd
       -0.05907875 0.12526387 -0.1561817 -0.07342044
000250 5d 3f 08 3d 6f b1 8c 3d 5d 18 54 3d 60 ef ce bc
       0.033263553 0.0686978 0.051781047 -0.025260627
000260 30 04 be bc 04 dc 8c bd 87 c8 02 3a 1b 15 1f 3d
       -0.023195356 -0.06877902 0.00049889873 0.038838487
000270 7e bd a8 3d 59 d8 c0 3d ac 2b 58 bd bf a7 9e 3d
       0.08239268 0.09416265 -0.052776024 0.07746839
000280 9b bf e0 3d d5 f0 bc bd be 42 93 bd 82 6f 67 3e
       0.10974046 -0.092256226 -0.071904644 0.2260113
000290 0f b1 22 be 6a e9 fc 3d 4d 87 0f 3b 3b 8c 9a 3d
       -0.15887855 0.12349208 0.0021900714 0.07546278
0002a0 79 67 22 3d 1e 5b f2 3d 6a 71 02 3e 21 87 55 3b
       0.03964946 0.118337855 0.12738577 0.0032581764
0002b0 91 dd e3 bb 91 c5 8c bd 4c e9 15 3e 90 30 51 bc
       -0.006953903 -0.0687362 0.14639777 -0.012767926
0002c0 7e 90 e6 b8 e2 38 ca 3d 5a f6 19 3d cb 46 c8 3b
       -0.000109941684 0.09874131 0.037588455 0.006111955
0002d0 5c 60 14 3d 58 80 ec bd 88 79 eb bd 10 d8 0e bd
       0.036224708 -0.11547917 -0.114977896 -0.034874022
0002e0 d1 41 48 be 81 c4 bf 3d d1 36 8c 3d b1 2d 24 be
       -0.19556357 0.09363652 0.06846393 -0.16033055
0002f0 b2 e6 09 3e db f2 58 3d 1a a0 ba 3d 19 c6 0c bd
       0.1346691 0.05296598 0.09112568 -0.03436861
000300 e9 42 8b 3d 53 6b f4 3c c0 50 0c 3e 90 40 a7 3d
       0.067998715 0.029836332 0.13702679 0.08166611
000310 5b a7 15 bc 09 2e d6 bd c2 58 18 be 5d 7c 94 bd
       -0.009134139 -0.10457999 -0.14877608 -0.07250283
000320 b3 3c 79 3e 77 4b 05 be 01 25 5a 3e 63 94 f0 3d
       0.24339561 -0.13017069 0.21303178 0.117470525
000330 13 39 1b be 5a 8d c9 bd db b3 b6 bd d0 33 34 bc
       -0.15158491 -0.09841414 -0.089210235 -0.010998681
000340 a2 71 0c be e4 e0 e6 bd 9e 74 0e 3c 71 0f 5b be
       -0.13715222 -0.11273363 0.008694796 -0.21392609
000350 df be 8b bd c3 c7 5d bd 24 77 28 3d a9 cd 54 3d
       -0.06823515 -0.054145586 0.041129246 0.051953945
000360 e0 dc 1d be 62 a3 b5 bd 76 fa 25 3c 8d a2 49 bd
       -0.15416288 -0.088690534 0.010130515 -0.049227286
000370 a0 5b 0d 3e 7e 4c 14 3d fb 77 92 bd 2d 76 3f bd
       0.13804483 0.03620576 -0.07151791 -0.04674356
000380 a3 62 6b bd 01 dc a0 3d 22 17 8e 3b 81 04 21 3e
       -0.057467114 0.078544624 0.0043362537 0.15724374
000390 a6 1f 1c 3e ba 34 c1 3d 3e 1c c9 bc ff 0a 92 bc
       0.15246448 0.09433885 -0.0245496 -0.017827509
0003a0 e1 27 7e 3d 54 6e 47 bb b1 b4 eb bd f7 68 45 3c
       0.06204975 -0.003043075 -0.115090735 0.012048951
0003b0 26 0b ea 3d d9 78 1d 3d e5 6e 0d bd ec 7b 86 3d
       0.11427908 0.038445327 -0.034529585 0.06566605
0003c0 5e c9 00 3e 4d 4e be 3d 4e 95 6c 3e 2f f0 09 bd
       0.12576815 0.092922784 0.2310383 -0.033676323
0003d0 00 f7 85 3a a4 1a 31 3b 16 aa 95 3c ec 92 47 3c
       0.0010220706 0.0027023936 0.01826958 0.012181025
0003e0 b7 63 17 be ed 78 07 3e d3 52 cb bd af d5 0a be
       -0.14784132 0.13229723 -0.09927907 -0.13558076
0003f0 2c 03 5a bd b9 0b 92 3c 02 9c 7c 3d 8f 66 f9 3b
       -0.05322568 0.017827855 0.06167222 0.007611103

fc_hidden.bias f4 [128]
000000 80 48 3c bc 5d 09 40 bc 83 9e 6e bc 67 a3 2d bc
       -0.011491895 -0.011720982 -0.014564159 -0.01059804
000010 5c 7c ad bc 81 b2 d9 bb 94 78 b5 bc 92 e0 4c bb
       -0.021177463 -0.006643594 -0.022152223 -0.0031261784
000020 05 67 6e bc 38 09 3e bc 06 52 2f bc 69 3d 3b bc
       -0.014550929 -0.011598878 -0.010700708 -0.011428216
000030 8c 5e 71 bb c4 67 01 bc ec eb c2 bb c7 3f 8d bc
       -0.0036830036 -0.007898275 -0.0059485342 -0.017242325
000040 4f df 40 bc f5 ed 2c bc 04 a3 8a bc a8 9a fa bb
       -0.011771991 -0.01055478 -0.016923435 -0.007647831
000050 37 14 00 00 07 6a 63 bc d5 66 13 bc c2 9f a4 bc
       7.252e-42 -0.013880259 -0.008996685 -0.02009571
000060 ef db d2 bb 1c a2 8a bc c9 8b bf bc a8 32 43 bc
       -0.0064349095 -0.016923003 -0.023382084 -0.011913933
000070 cf 32 06 bc b0 d6 35 bc 3a 84 93 bc 5d 67 ff ba
       -0.008190825 -0.011098549 -0.018007386 -0.0019485761
000080 b2 15 d9 bb 43 46 5e bc c6 ff 50 bc 45 55 16 bc
       -0.0066249007 -0.013566556 -0.012756294 -0.009175603
000090 55 c3 20 bc 95 53 3a bc b8 95 b9 bb 48 ca 83 bc
       -0.009812196 -0.011372467 -0.0056636 -0.016087666
0000a0 98 78 d8 bb 80 6c 35 bc c7 db 1b bc 93 03 25 bc
       -0.006606173 -0.011073232 -0.009512848 -0.010071653
0000b0 60 62 45 bc 60 08 68 bb 55 82 8c bc c9 47 1f bc
       -0.01204738 -0.0035405383 -0.01715199 -0.009721705
0000c0 6a 56 54 bc 1b 26 3f bc ba a9 82 bb f3 cb 87 bc
       -0.012960056 -0.0116668 -0.003987518 -0.016576743
0000d0 9d 6c 00 bc 15 ff 7b bc 25 97 1d bc c1 9a 92 bc
       -0.007838395 -0.0153806405 -0.009618555 -0.017896058
0000e0 d2 9a 3a bc 4f 67 67 bc 29 ca 2c bc 04 58 68 bc
       -0.011389451 -0.014123752 -0.010546246 -0.014181141
0000f0 10 ee 40 bc 88 d9 c3 bb 67 be 85 bc 56 de ff ba
       -0.0117755085 -0.0059768595 -0.016326142 -0.0019521217
000100 86 f1 28 bc a6 a5 ef bb f5 c7 67 bc 2e 18 9d bc
       -0.01031149 -0.007313448 -0.014146795 -0.019176569
000110 4a ac 3e bc da 28 1c bc 3f 92 61 bc e7 ce 4c bc
       -0.011637757 -0.009531224 -0.013767778 -0.012500501
000120 3d b3 8d bb e7 38 6a bb a8 ab f6 bb 44 1a 89 bc
       -0.0043243454 -0.0035739483 -0.0075277872 -0.016736157
000130 fa 20 9f bb 49 f0 a9 bc 82 ed 21 bb fd da 92 bb
       -0.004856226 -0.02074446 -0.0024708216 -0.004481672
000140 89 65 83 bc fd c3 18 bc 74 58 c3 ba 12 c1 4b bc
       -0.016039627 -0.009324071 -0.001490368 -0.012436168
000150 10 70 2d bc 40 f0 42 bc b6 8f 4d ba 99 8d ff 3c
       -0.0105858 -0.0118981 -0.0007841544 0.031195449
000160 35 e7 a0 bc c6 73 30 bc 7a f7 43 bb 8f 14 52 bb
       -0.019641498 -0.01076979 -0.0029902146 -0.003205571
000170 70 52 e5 bb bd c4 48 bc da cb 81 bc f3 78 f4 bb
       -0.0069983527 -0.012253937 -0.015844274 -0.0074607073
000180 a0 67 3a bc 3c 34 07 bc d1 5a 35 bc 80 73 81 bc
       -0.011377245 -0.0082522 -0.011069016 -0.015802145
000190 89 58 54 bb 51 86 70 bc bc 70 0e bc 32 44 f5 bb
       -0.0032401404 -0.014680461 -0.00869387 -0.007484936
0001a0 0f 02 a1 bc 93 a3 91 bc 07 9e e4 bb de 86 8c bc
       -0.019654302 -0.017778194 -0.006976846 -0.017154153
0001b0 85 bc 59 bc 44 de a2 bb 9f 32 0e bc c9 af 02 bc
       -0.013289575 -0.004970344 -0.008679061 -0.007976481
0001c0 35 37 30 bc 29 31 64 bc 8d e8 77 bc 8d 66 a6 ba
       -0.01075535 -0.013927736 -0.015131128 -0.0012695357
0001d0 51 9a 92 bb 9c b1 08 bc bd fe 13 bc 2f 2d 73 bc
       -0.0044739624 -0.008343127 -0.009032902 -0.014842316
0001e0 fd cc 26 bc a8 db 86 bd e0 77 24 bc 2a a7 50 bc
       -0.010180709 -0.06584865 -0.010038346 -0.0127351675
0001f0 a9 83 60 bc c3 97 59 bc b0 4d 8c bc cf f3 7f bc
       -0.013703265 -0.013280812 -0.017126888 -0.015622093

output.weight f4 [300, 128]
000000 1f 77 c4 bc eb 05 8c bc e2 f3 30 be f0 48 07 be
       -0.023982583 -0.017092666 -0.17280534 -0.13211417
000010 51 d4 5a 3d 14 8e c7 bd 86 00 5d 3e 41 1b 15 bc
       0.053425137 -0.09743896 0.21582231 -0.009100736
000020 45 da 3b bc 7f ec fe bd 02 3f ec be ad 0d 4b bd
       -0.011465614 -0.12447452 -0.4614182 -0.04957359
000030 37 f0 c9 bc 6c 01 6e be 09 a0 3c bc 07 7f 9c bb
       -0.024650676 -0.2324273 -0.011512765 -0.004775885
000040 f6 9c d7 3c f2 44 4b be bf 1a a6 3e 13 79 24 3e
       0.026319962 -0.1985052 0.3244228 0.16061811
000050 0b 7f e7 bd ff f0 61 3d d5 28 4f bd d8 e0 c4 3e
       -0.113035284 0.055161472 -0.05057605 0.38452792
000060 fc 73 f8 bc 09 22 8d be 2e 77 13 3d 2e db 3b bd
       -0.030328743 -0.2756503 0.03600233 -0.045863323
000070 ab 62 92 bd 9f b4 20 be 5d 48 35 3c ac a0 5f be
       -0.07147726 -0.15693901 0.011064616 -0.21838635
000080 b0 63 af 3d 60 5d b2 3d bf 6b f5 be 76 26 b3 bd
       0.08563936 0.08709216 -0.47933766 -0.0874757
000090 af d4 f2 bd 4a 21 2a 3e f3 8d 45 3c 85 ee c9 3d
       -0.118569724 0.16614261 0.012057769 0.09859947
0000a0 91 ce 53 be 58 55 84 3d 0d 53 73 3d 09 4c 2f 3d
       -0.20684268 0.064615905 0.059405375 0.042797122
0000b0 16 68 60 bd 8f 66 8f 3c 64 35 1b be 7e 9a f5 3d
       -0.054786764 0.017504958 -0.15157086 0.11992358
0000c0 47 e2 ff 3e 6c b5 a1 3d f4 3d 7c 3e 86 5a c9 bd
       0.49977323 0.078959316 0.24633008 -0.09831719
0000d0 37 b6 5c 3e b0 36 84 be 67 8b 3b be 68 fd e7 3c
       0.21553884 -0.25822973 -0.18314897 0.028319076
0000e0 f3 62 63 be 94 4c 86 be 99 f0 9e 3c 14 5e 8c 3e
       -0.22205715 -0.262303 0.019401835 0.27415526
0000f0 11 3d 66 bc f2 6e 03 3e 18 ea ae 3d 2e 14 36 be
       -0.014052645 0.12835291 0.085407436 -0.17781135
000100 95 15 96 bd 69 2a 9d bc 6a 03 6f be 8a 25 c9 3e
       -0.07328335 -0.019185262 -0.23341146 0.39286453
000110 42 15 85 3e 38 61 c9 3d 24 57 f2 3c be 39 a6 bd
       0.2599278 0.09832996 0.029582568 -0.08116482
000120 80 96 83 be 62 99 9c 3c f6 5c f4 bd 22 13 23 ba
       -0.2570076 0.019116107 -0.119317934 -0.00062208076
000130 95 3a fb 3e bc a3 20 3e 03 2e 6b be e0 dd 9d 3d
       0.49068132 0.1568746 -0.22966771 0.07708335
000140 1a dc 54 3e ab af 2c 3d ae 1c 15 bd c7 ea 66 be
       0.20787087 0.042159718 -0.036404304 -0.22550498
000150 1f 77 59 3e 0b d7 01 3c 57 6a c3 bb b2 5f f8 3d
       0.21236847 0.007924805 -0.0059636044 0.121276274
000160 9a 47 86 bc 1e 23 65 bc 75 98 ae bc 23 8b 06 3e
       -0.016391564 -0.013985423 -0.021312932 0.13139014
000170 b2 38 5c 3e ef 75 99 be 51 00 8c be aa 1c 89 be
       0.21506003 -0.2997279 -0.2734399 -0.2677968
000180 52 83 a0 3d 18 69 c0 be 85 79 0d 3e 0e 13 8b 3e
       0.07837547 -0.3758018 0.13815887 0.27162975
000190 e7 f0 d8 bd be b9 91 3d f6 b7 7a be 74 62 5f be
       -0.105928235 0.07115506 -0.24484238 -0.218149
0001a0 e2 81 9b bd 39 fe 13 3e 1b 1d 7c 3c f9 53 c6 3c
       -0.075931326 0.14452447 0.015387799 0.024209963
0001b0 ef 84 3c 3e 7d 1b 34 3e ec 2c 40 be f4 96 25 3c
       0.18410085 0.17588611 -0.18767136 0.010106791
0001c0 bd d8 7b 3d 91 6e 90 3e 13 2d 8b 3e 55 ec 43 be
       0.061485995 0.28209355 0.27182826 -0.19133122
0001d0 0c 5c 50 3d f6 33 b0 3c a9 da 81 3c e8 35 94 be
       0.050869033 0.021509152 0.015851336 -0.28947377
0001e0 0a 2f 18 3e 61 3a ff be 8b 17 1a 3e c8 80 63 3d
       0.14861694 -0.49849227 0.15048043 0.055542737
0001f0 84 25 a9 bd 03 c9 36 bd 54 f4 bc 3d f7 32 37 3e
       -0.08259109 -0.044625293 0.092262894 0.17890535
000200 45 19 49 3e 70 ed 77 3e a9 df fe 3d 98 3d 99 be
       0.19638546 0.24211669 0.124450035 -0.29929805
000210 c9 10 bb 3e 85 af 50 3e 45 8d b8 3e 9e 34 aa bd
       0.36536244 0.20379455 0.3604528 -0.08310817
000220 b9 ef 6b 3e 39 bf 3d bd 9c 4e f1 bd c4 30 d2 3c
       0.23040666 -0.046324942 -0.11782572 0.025658019
000230 61 1e 95 be 66 96 58 3c 08 71 43 be 19 10 5e be
       -0.2912474 0.0132194515 -0.19086087 -0.21685828
000240 52 11 b1 3d 63 0f d2 bc 7f 18 90 3e 4a 9a 67 3d
       0.08645882 -0.025642103 0.2814369 0.056543626
000250 85 ed 63 be 67 60 21 bd d6 e9 7b be 34 b3 cf 3e
       -0.22258575 -0.039398577 -0.2460092 0.4056641
000260 03 f9 af bd 2b ac af 3b 8f d7 e8 bd 9e 3c ab 3e
       -0.08592417 0.0053611 -0.113692395 0.33444685
000270 64 f8 b1 3d e8 4c 8c be 4c fe 09 be 84 f8 71 bd
       0.08689955 -0.27402425 -0.13475913 -0.059074894
000280 94 23 11 be cf b7 ff 3d f6 e6 b4 3c 55 d9 a7 3c
       -0.14173728 0.124862306 0.022082787 0.020489374
000290 1b 78 02 bd ac 1b 81 3e cc 5a 34 3d bd 1d f9 3d
       -0.031852823 0.25216424 0.044031903 0.12163875
0002a0 35 08 15 3e 62 62 86 be cc 33 af 3d 6e ec 94 3d
       0.14553912 -0.26246935 0.08554801 0.07271658
0002b0 a7 3d 47 3e 03 39 d3 bd a0 1f aa 3d 57 63 1c be
       0.19457112 -0.103136085 0.08306813 -0.1527227
0002c0 c2 22 be bc e0 30 04 bf e6 44 13 3e 6d 31 0b 3d
       -0.023209933 -0.5163708 0.14381751 0.033982683
0002d0 b3 4f b0 3e 15 4b 2d bd fd e6 a8 3d bc db a8 3d
       0.34435806 -0.042307932 0.082471825 0.08245036
0002e0 69 c5 46 3c fc f0 83 bb a4 1b 82 3d ec 84 e3 bc
       0.012132027 -0.0040265303 0.06352928 -0.027773343
0002f0 25 cb 02 3d 9c 05 83 bd 09 b6 03 3e 04 94 c2 bd
       0.031932015 -0.06397554 0.1286241 -0.09500888
000300 f2 0e ac be c6 19 e7 be fa c4 1d 3e a5 a4 81 3d
       -0.33605152 -0.4513685 0.15407172 0.063302316
000310 12 10 12 be ad 87 c0 bd bc bc 0b be 86 94 3c bc
       -0.14263943 -0.09400878 -0.13646215 -0.01151002
000320 ba 73 6d 3e e2 66 c8 3e c1 c7 a6 3e cb 34 75 be
       0.23188677 0.39140993 0.32574275 -0.2394592
000330 72 3e 71 be 6a f4 cd 3e d6 26 fa bd da 6d 09 3e
       -0.23558977 0.40225536 -0.122144386 0.13420811
000340 6e 00 0f bd 49 a1 a5 bd e5 a9 8d bd 2a bc a5 3c
       -0.03491252 -0.08087403 -0.069171704 0.020231325
000350 5b 3b 5e 3e a8 99 b0 bd db e2 ad bd 83 38 18 3e
       0.2170233 -0.086230576 -0.08490535 0.14865308
000360 81 2d 58 be 53 9c f2 bd 35 7d 99 bd 69 76 d4 bd
       -0.21111108 -0.11846223 -0.074945845 -0.103741474
000370 2b fe e8 bd 82 ac 11 3e 57 72 ad bd cf 62 38 be
       -0.11376604 0.14225963 -0.08469074 -0.18006442
000380 e6 4c 54 be 61 71 a3 bd b3 d9 79 be c5 11 fa 3b
       -0.2073246 -0.0798061 -0.24399452 0.007631513
000390 85 c5 6d 3c 7c 33 90 3d 98 78 c8 3c 65 50 88 be
       0.014512424 0.0704107 0.024471566 -0.26623836
0003a0 55 ac 94 bc ed 47 e4 3d 50 3b f0 bd 96 cc 29 be
       -0.01814858 0.11146531 -0.11730063 -0.1658195
0003b0 b7 3f cd be 55 ad 16 be 20 89 21 be 17 0f 87 3d
       -0.40087673 -0.14714558 -0.15774965 0.06594675
0003c0 08 c9 88 3e 55 34 3f bb 73 c0 58 be 14 8f b8 3d
       0.26715875 -0.002917548 -0.21167164 0.09011665
0003d0 6d 0c ee 3d 84 28 5f bd 85 52 5c 3d aa 36 ec bd
       0.11623464 -0.054481998 0.053789634 -0.11533864
0003e0 df 0c 15 bc 68 81 fd be 3c 3b f6 3c 10 16 b9 bc
       -0.009097307 -0.49512792 0.030057542 -0.022593528
0003f0 bd 50 29 3e 7c 2a 75 3d bf c1 65 ba 58 87 bc be
       0.16534705 0.05985497 -0.0008764527 -0.3682201

output.bias f4 [300]
000000 36 ca 1c 3c dd 92 a2 3c 22 76 bd 3c 8f 49 84 3c
       0.009569695 0.01984542 0.02312762 0.016148357
000010 07 41 8d 3c d8 fb e9 3c 74 85 38 3c 1e b4 90 3c
       0.017242922 0.028562471 0.011262286 0.017664012
000020 02 3e 36 3c 5b 06 dd bb 0a 99 8c 3c 31 25 4f bc
       0.011123182 -0.0067451424 0.017162818 -0.0126431445
000030 5d db a1 bc 12 f0 b0 bc f4 1d c6 bc 84 d6 1c bd
       -0.01975792 -0.02159885 -0.024184205 -0.038290516
000040 b5 13 48 bd 5f 51 37 bd 1b 04 05 bd 29 1b 57 bd
       -0.04884692 -0.044755336 -0.03247462 -0.052516136
000050 df ff 34 bd ad c8 3c bd 39 65 15 bd 04 27 1e bd
       -0.04418933 -0.046089817 -0.036473487 -0.038611427
000060 0b 5e 05 bd ab 16 fc bc 72 21 fd bc a6 85 f1 bc
       -0.03256039 -0.030772528 -0.030899737 -0.029482674
000070 2c 42 03 bd 35 6c 76 bc 55 b5 99 bc 5b 8f 45 bc
       -0.03204553 -0.015040447 -0.018763224 -0.012058104
000080 f7 ba f3 bb ce 73 57 ba 2e 65 29 ba f9 c9 40 3c
       -0.0074380594 -0.00082188554 -0.00064619153 0.011766904
000090 44 91 4b 3c ea 89 d7 3c 96 e8 e0 3c b3 ea 16 3d
       0.012424771 0.02631088 0.027454656 0.03684492
0000a0 b2 51 f0 3c 41 1b 31 3d cd 7a 2f 3d cd 9f 0b 3d
       0.02933583 0.043238882 0.04284172 0.034087945
0000b0 28 70 28 3d b2 e4 30 3d 8e b1 0f 3d 13 34 08 3d
       0.041122586 0.04318685 0.03508144 0.033252787
0000c0 8e 81 0b 3d e1 98 d3 3b 90 3f 46 bb 69 3e 21 3c
       0.0340591 0.0064574336 -0.0030250289 0.00984154
0000d0 29 81 2b 3c 08 21 88 3c 29 8b a1 3c 3d 4b 80 3c
       0.010467806 0.016617313 0.019719677 0.015660876
0000e0 d5 81 cb 3c 03 05 9a 3b b8 33 bd 3c 0b 42 e2 3c
       0.024842182 0.0047003045 0.02309595 0.027619382
0000f0 85 18 3b 3c 45 1b e8 3b 0b f5 09 3b ea f1 e8 3b
       0.01141942 0.007083329 0.0021050598 0.0071089165
000100 d2 97 57 bb cc f5 a6 3b 28 0a 9f 3a e4 75 dc 3b
       -0.0032896888 0.0050952192 0.0012133764 0.006727921
000110 a2 fc 43 ba 83 d2 2a bc be 49 f4 bb b1 ec de bb
       -0.0007476305 -0.0104261665 -0.00745508 -0.006803118
000120 28 5a f4 3b 9c 5b 84 bb 1f bf 1f bc f0 74 e0 ba
       0.0074570365 -0.004039241 -0.009750157 -0.0017124694
000130 b8 d3 23 3a 2f 27 a9 bb 5d f4 bc bb a1 6e 0d 3c
       0.0006249505 -0.0051621418 -0.005766435 0.008632333
000140 fa 61 86 bb 43 a5 1d ba 9a 40 8a 3a d7 29 2d 3b
       -0.004101035 -0.00060137006 0.0010547817 0.0026422644
000150 12 8e db 3b 98 a2 45 3c ca c5 6d 3c 92 8c 74 3c
       0.0067002857 0.012062691 0.014512489 0.014926093
000160 9e 39 e7 3c 10 ea ab 3c 2b 46 95 3c cb b1 c6 3c
       0.028225716 0.020985633 0.018221935 0.0242547
000170 8a 8b dc 3c 77 9b 01 3d 6c 0d f3 3c 90 d1 03 3d
       0.026922006 0.031642403 0.029669486 0.032182276
000180 6f d5 1a 3d 88 09 b4 3c 98 48 de 3c 7a f2 7c 3c
       0.037801202 0.021977201 0.027134225 0.01543867
000190 a7 01 d2 3c 3d 09 87 3c 88 5f 15 3d ef c4 81 3c
       0.025635554 0.016483897 0.03646806 0.015840976
0001a0 b0 53 f1 3c 5d bb c9 3c 26 54 a1 3c 98 ae 40 3c
       0.02945885 0.024625475 0.019693445 0.011760376
0001b0 a0 41 80 3c 6b 1e 04 3c ce e8 02 bc 64 c5 aa bc
       0.015656292 0.008063893 -0.007990075 -0.020846076
0001c0 b0 a3 1b bd 31 e0 12 bd 75 75 1c bd 8d cd 29 bd
       -0.0379979 -0.035858337 -0.038197953 -0.041455794
0001d0 6c 47 4e bd 88 c5 6b bd d5 8b 82 bd e7 83 81 bd
       -0.050361082 -0.057561427 -0.06374327 -0.063239865
0001e0 9a 36 7f bd 98 64 76 bd 27 11 57 bd 81 95 80 bd
       -0.06230793 -0.060154527 -0.052506592 -0.062785156
0001f0 52 a7 59 bd ba ac 62 bd 43 4c 73 bd b0 97 82 bd
       -0.053138085 -0.055340506 -0.0593989 -0.06376588
000200 ee f9 51 bd 7d d4 3f bd 66 fb 67 bd c7 49 10 bd
       -0.051263742 -0.046833504 -0.056636237 -0.03522661
000210 6a 87 05 bd 02 25 0f bd 14 3d c2 bc d8 1e 16 bc
       -0.032599844 -0.034947403 -0.023710765 -0.009162627
000220 63 5d f9 bb f0 9c 2f bb 18 3d 7b b9 ca b3 82 3c
       -0.0076100095 -0.0026796423 -0.00023959985 0.01595487
000230 18 4f 51 3c 23 42 92 3c ee 17 eb 3c 3f ab 12 3d
       0.012775205 0.017853802 0.028697934 0.035807844
000240 1b e0 2a 3d a3 81 c8 3c 2b b3 de 3c be 42 c2 3c
       0.04171763 0.024475878 0.027185043 0.023713466
000250 e1 c5 a8 3c 90 15 6b 3b af a6 a4 3c 3b 5e 8e 3c
       0.020602169 0.0035871007 0.020099012 0.017378917
000260 92 99 7a 3c 3b 65 e2 3c 66 18 c0 3c d8 a6 9d 3b
       0.015295403 0.027636161 0.023449134 0.004811149
000270 d7 f8 c6 3c 72 cc aa 3c 7f 49 02 3c 0b c0 8c 3b
       0.024288578 0.02084944 0.007952093 0.0042953542
000280 0e 87 66 3c 6f ed 5f 3c 30 fa 36 ba 44 df f3 bb
       0.0140702855 0.013667448 -0.000698003 -0.007442387
000290 81 92 11 3c f9 0f e8 37 da b7 13 3b 2e ce 6e bc
       0.008885027 2.7663993e-05 0.0022540004 -0.014575524
0002a0 25 39 9f bb f9 c7 20 ba 8c 7f 64 3a f7 e2 e5 bb
       -0.004859107 -0.0006133314 0.0008716516 -0.0070155817
0002b0 3e 35 a7 bb c6 10 22 3c 22 44 39 bc 38 ae 5b ba
       -0.0051027825 0.009891694 -0.011307748 -0.00083801476
0002c0 a8 a5 9d bc 59 b7 b4 3b 7e 87 21 bb 8d a4 92 3a
       -0.01924403 0.005515021 -0.002464741 0.0011187956
0002d0 a9 7e e9 3b d5 03 6b ba 22 bc 34 3c d4 a9 86 3c
       0.007125695 -0.00089651096 0.0110311825 0.016438402
0002e0 75 e2 58 3c 3c f1 5f 3c 35 c8 8b 3c c1 78 1d 3c
       0.013237585 0.013668355 0.01706324 0.0096113095
0002f0 c1 a8 fd 3c c2 cc c7 3c b4 79 b9 3c 9c c0 ba 3c
       0.030964257 0.024389628 0.02264104 0.022796921
000300 47 d6 02 3d d1 cf 08 3d 41 c1 1c 3d d0 1b bb 3c
       0.031942632 0.033401314 0.03827024 0.02284041
000310 12 45 1a 3d 2c 8d e7 3c 2b 5a 51 3c ba 23 65 3c
       0.037663527 0.028265558 0.012777845 0.013985569
000320 b4 75 96 3c 10 bf cf 3c d8 25 1b 3d 5e d0 ee 3c
       0.018366672 0.02535966 0.037877887 0.029152092
000330 03 f2 40 3d c2 de 20 3d e6 94 94 3c e8 75 c1 3c
       0.0471058 0.03927494 0.018137407 0.023615792
000340 79 3a fb 3c e5 a1 7c 3c 18 5a fe 3b 22 9d 3a 3c
       0.03066753 0.015419458 0.007762205 0.011390002
000350 9c ce 37 bc 27 0c e2 bc 9b 52 4b bc de da e0 bc
       -0.011218693 -0.027593685 -0.012409831 -0.027448114
000360 de 27 d8 bc 3b e6 0d bd f7 95 0e bd 2c e2 22 bd
       -0.026386198 -0.034643393 -0.034810986 -0.039766476
000370 da 8e 24 bd 4c 45 49 bd 52 fe 14 bd 38 f5 fb bc
       -0.040175296 -0.049138352 -0.03637535 -0.030756578
000380 df 17 38 bd f4 08 09 bd 66 7d 14 bd 53 a8 50 bd
       -0.04494464 -0.033455804 -0.0362524 -0.050941776
000390 93 2a 02 bd 0c a5 a9 bc e6 38 c8 bc 5f c7 be bc
       -0.031778883 -0.020708583 -0.024441194 -0.023288427
0003a0 3b f2 97 bc ee ca 31 bc e4 2f 23 bc bd 5c e1 bb
       -0.018548122 -0.010851605 -0.0099601485 -0.0068775103
0003b0 90 46 a3 ba 56 cb 0e 3c 26 e2 3e 3c b0 07 dd 3c
       -0.0012456942 0.008715471 0.011650598 0.026981205
0003c0 71 98 98 3c f1 4a eb 3c 00 59 f5 3c c7 28 2f 3d
       0.018627377 0.028722258 0.029949665 0.042763498
0003d0 30 48 24 3d 73 d6 39 3d fa 40 1b 3d 29 76 c2 3c
       0.040107906 0.04537053 0.037903763 0.023737984
0003e0 ac a9 2e 3c 42 17 24 bc df 05 29 bb aa de b3 3b
       0.01066057 -0.010015311 -0.0025790853 0.00548919
0003f0 11 f5 d3 3b 1a 74 f9 3b 97 4d 97 bb ce 68 c6 3b
       0.006468423 0.0076127173 -0.0046174037 0.006054974
