figs2-3_rl/results/seaquest-UADQN/network.pth (torch_old, 686556 bytes, 6 tensors)

conv.weight f4 [16, 10, 3, 3]
0	0x3f1c1d59	0.6098228
1	0x3e9481f3	0.29005393
2	0x3ebcc1ab	0.36866507
3	0x3f20bee8	0.627913
4	0x3f80a7ea	1.0051243
5	0x3ed1413f	0.4087009
6	0x3ed84263	0.4223815
7	0x3dcbdb0f	0.099538915
8	0x3e079652	0.13240936
9	0x3e95b15a	0.2923687
10	0xbdb2234b	-0.08698138
11	0xbd89d2cc	-0.067296594
12	0x3f4d5eb4	0.8022263
13	0xbea3ec9d	-0.3201646
14	0x3dbddc17	0.092704944
15	0x3e42d876	0.19027886
16	0xbdee62d3	-0.11639943
17	0xbd1eaa05	-0.038736362
18	0x3d1b0e17	0.037855234
19	0x3dadf440	0.084938526
20	0x3bd93dab	0.006629666
21	0x3d043b80	0.032283306
22	0xbb638915	-0.0034719158
23	0x3c1ca914	0.009561796
24	0x3e3b0941	0.18265249
25	0x3cf6e79d	0.030139739
26	0x3b295391	0.0025837163
27	0xbcc78573	-0.024355626
28	0x3db405f3	0.08790197
29	0xbcfcb7df	-0.030849395
30	0xbc0302f7	-0.007996312
31	0x3da9595e	0.082689986
32	0x3e053998	0.13010252
33	0xbd1db289	-0.038500343
34	0xbc12468e	-0.008927954
35	0x3cb1530d	0.021646047
36	0xbe2206b3	-0.15822868
37	0xbf115ddf	-0.5678386
38	0xbec61747	-0.38689634
39	0xc0004ddc	-2.0047522
40	0xbf877b22	-1.0584452
41	0xc009aa28	-2.1510105
42	0xbd0a90f4	-0.033829644
43	0xbdefd38a	-0.1171027
44	0xbccb0aa7	-0.024785353
45	0xbf035ad2	-0.51310456
46	0xbf0c5f26	-0.54832685
47	0x3dc7e48c	0.09760389
48	0xbf46637f	-0.7749557
49	0xbfa8e940	-1.3196182
50	0x3dde6a09	0.10860068
51	0x3cb74ce5	0.022375533
52	0xbd99aaec	-0.07503304
53	0xbc0592b5	-0.008152653
54	0xbec8a7dc	-0.39190567
55	0xbef3772e	-0.47551864
56	0x3e5b55a7	0.21419393
57	0xbf923360	-1.1421928
58	0xbf34c7ee	-0.7061757
59	0x3d7b1f31	0.061309043
60	0xbde4881e	-0.11158775
61	0xbd2f48d3	-0.04279406
62	0x3d848ae9	0.064718075
63	0xbd1c9031	-0.03822345
64	0x3db8ac67	0.09017258
65	0x3daa3c68	0.08312303
66	0xbe1ed04d	-0.15509148
67	0xbe430f32	-0.19048765
68	0x3e66f33c	0.22553724
69	0x3dc94e49	0.09829385
70	0xbc915987	-0.017742885
71	0x3d6bf7cb	0.05760936
72	0xbd1bd243	-0.038042318
73	0xbe12529c	-0.14289325
74	0xbd94a15e	-0.07257341
75	0x3e12ec5d	0.14347978
76	0xbe7331a1	-0.237494
77	0x3e1b1698	0.15145338
78	0xbe742706	-0.23843011
79	0x3e4f252f	0.20229028
80	0xbe688943	-0.22708611
81	0xbb5f1d19	-0.0034044443
82	0x3d49475a	0.04914031
83	0xbc870f0d	-0.016486669
84	0xbdb0d865	-0.08635024
85	0xbd1feb81	-0.039042953
86	0xbd1a8732	-0.03772659
87	0xbb906d75	-0.0044075795
88	0x3d4b578a	0.04964403
89	0x3b842cd6	0.004033665
90	0xbf509416	-0.8147596
91	0xc015d692	-2.3412213
92	0xbf708498	-0.9395232
93	0x3e2a3af7	0.16624056
94	0x3d9d4f1b	0.07681104
95	0x3ea327bf	0.3186626
96	0xbd1c31f3	-0.038133573
97	0x3d8a3672	0.06748666
98	0x3d276108	0.04086402
99	0x3e8e1c35	0.27755895
100	0x3f61b5d2	0.8816806
101	0x3dc75c80	0.0973444
102	0xbe2ddac1	-0.16977979
103	0xbe69b2cb	-0.2282211
104	0x3d3a5235	0.045488555
105	0xbd1f2997	-0.038858023
106	0x3d1b2c3a	0.037883975
107	0xbcc97f92	-0.024596963
108	0xc00e292f	-2.2212636
109	0xc00f0dcc	-2.235217
110	0x3b57356e	0.0032838243
111	0x3e6f25d3	0.23354273
112	0x3d116382	0.03549529
113	0x3cc3b7a9	0.023891287
114	0xbd5b5540	-0.053548098
115	0xbd83a3e7	-0.06427746
116	0x3cb22b4b	0.02174916
117	0x3caa5433	0.020792102
118	0xbcc9a1fe	-0.024613377
119	0xbd2da1db	-0.042390686
120	0xbd1b6d5f	-0.0379461
121	0xbc07eca9	-0.00829617
122	0x3c35e535	0.0111020105
123	0xbc7c2e3e	-0.015391884
124	0xbd00ea28	-0.03147331
125	0x3d6e31dc	0.05815302
126	0x3d190e37	0.037367072
127	0xbc2f9ce6	-0.01071856
128	0xb94fe2bf	-0.00019825528
129	0x3d54ac17	0.05192193
130	0x3d2bc270	0.041933477
131	0x3e072080	0.13195992
132	0x3d9bea45	0.07613043
133	0x3dd4c758	0.10389584
134	0x3de98153	0.1140162
135	0x3f1ac44b	0.6045577
136	0x3e80084f	0.2500634
137	0x3f7286cc	0.94736934
138	0xbc7101ff	-0.014709949
139	0xbdf4af50	-0.11947501
140	0xbe105f3f	-0.14098834
141	0x3bccd4ef	0.0062509696
142	0xbe043d87	-0.12914096
143	0x3c89999b	0.016796878
144	0x3f267cc5	0.65034133
145	0x3ea960ca	0.33081657
146	0x3f93e0ee	1.1553018
147	0xbe137fe7	-0.1440426
148	0xbd96bb47	-0.07359939
149	0xbe0b17d5	-0.1358331
150	0xbbaef672	-0.005339437
151	0xbb6d86b6	-0.0036243624
152	0x3e0174f3	0.12642269
153	0x3d6007c0	0.05469489
154	0x3dcb398f	0.09923088
155	0xbd6e3204	-0.058153167
156	0xbdd944dd	-0.10608838
157	0x3bf5c4ae	0.0075002527
158	0x3dd6e933	0.10493698
159	0xbc847ace	-0.01617184
160	0x3d50062c	0.050787136
161	0x3c1a3129	0.009411135
162	0x3e32a271	0.17444779
163	0x3d9df0be	0.077119336
164	0x3a95328f	0.0011382865
165	0x3e976506	0.29569262
166	0x3e5704a1	0.2099786
167	0x3e2a540c	0.16633624
168	0xbd636e8e	-0.055525355
169	0xbcf1884f	-0.029483942
170	0xbdf2539a	-0.11832352
171	0x3d02c76b	0.03192846
172	0x3b92fa3f	0.004485398
173	0x3c5e8f78	0.01358401
174	0x3c83ef77	0.016105397
175	0x3d52d07c	0.051468357
176	0x3c95d03e	0.018287774
177	0x3ab9d94a	0.0014179137
178	0xbd1ecc24	-0.038768902
179	0x3d04aa03	0.0323887
180	0x3e05e8eb	0.13077132
181	0x3e518122	0.20459417
182	0x3e3cccff	0.18437575
183	0x3e1adcf8	0.15123355
184	0x3dc162db	0.09442683
185	0x3e89a3db	0.26882824
186	0x3e884da5	0.26621738
187	0x3db9829c	0.09058115
188	0x3a4d17fd	0.0007823704
189	0x3d06b84c	0.032890603
190	0x3d00eb33	0.031474303
191	0x3d9e4feb	0.07730087
192	0xbb084b5a	-0.0020796866
193	0xbe6738bd	-0.22580238
194	0x3dd73679	0.10508437
195	0x3e03d927	0.12875806
196	0x3ce3e943	0.027821189
197	0x3d0990d1	0.033585373
198	0x3d826bb8	0.06368202
199	0x3d3b2fd8	0.045699924
200	0xbca833bd	-0.020532483
201	0xbb161c64	-0.0022905106
202	0xbd261897	-0.040550794
203	0x3c8c45da	0.017123152
204	0x3d815cbe	0.06316517
205	0x3bc092ca	0.0058768736
206	0xbc3bede1	-0.011470289
207	0xbded821c	-0.11597082
208	0xbe0693f9	-0.13142385
209	0xbc34ff88	-0.0110472515
210	0xbda9b48f	-0.08286392
211	0x3ca63d78	0.020292982
212	0x3d8c0054	0.06836
213	0xbcb3b6ee	-0.021937814
214	0x3d88a495	0.066720165
215	0x3d78c343	0.06073309
216	0xbce25095	-0.027626315
217	0x3c5b0e88	0.013370164
218	0x3c3f68cf	0.011682703
219	0x3d98bbfe	0.07457732
220	0xbd1e7cd7	-0.038693275
221	0xbde2fb70	-0.11083114
222	0xbd10c77a	-0.035346486
223	0x3e126aff	0.14298628
224	0x3d6b1245	0.05739047
225	0x3d230cbf	0.039807077
226	0xbd7fae11	-0.062421862
227	0x3c1601c7	0.009155697
228	0xbe2eace1	-0.17058136
229	0x3ec914cb	0.39273676
230	0xbe1c463e	-0.1526117
231	0x3c5db616	0.013532182
232	0x3d2d6b2b	0.04233853
233	0x3e1df01a	0.15423623
234	0x3f1299d3	0.5726597
235	0x3eb57491	0.35440496
236	0x3ebaf64e	0.3651604
237	0x3b1d6692	0.0024017435
238	0x3efb3825	0.49066272
239	0xbc64fe65	-0.013976668
240	0x3e813381	0.25234607
241	0x3dfa04d1	0.1220795
242	0x3e338484	0.1753102
243	0xbddbe54a	-0.10737093
244	0x3e5836be	0.21114632
245	0xbe04f0a0	-0.12982416
246	0xbd904424	-0.07044247
247	0x3e4e15ce	0.20125505
248	0x3e033aa8	0.12815344
249	0x3ea067b6	0.31329125
250	0x3d05c3f5	0.032657582
251	0xbe524338	-0.20533454
252	0x3d934e13	0.07192626
253	0xbd396f72	-0.0452723
254	0x3de32d68	0.11092645
255	0x3dc23638	0.09482998

conv.bias f4 [16]
0	0xbd0bbf88	-0.034118205
1	0xbdce1e06	-0.1006432
2	0xbeafabe4	-0.3431083
3	0xbe0a4fa9	-0.1350695
4	0xbf076b4d	-0.52898103
5	0xbe81a768	-0.25323033
6	0xbe4ef1f5	-0.20209487
7	0xbe0b9bae	-0.13633606
8	0x3d4802d4	0.048830822
9	0x3ceb25fc	0.028704636
10	0x3ba3eba4	0.005002456
11	0xbe033d88	-0.12816441
12	0xbef01377	-0.4688985
13	0x3ef6e721	0.48223212
14	0x3f1a6dce	0.603238
15	0x3c5a3274	0.013317693

fc_hidden.weight f4 [128, 1024]
0	0x3d458ca0	0.048229814
1	0xbe062e81	-0.13103677
2	0x3e1720a6	0.14758548
3	0xbcbd516d	-0.023110116
4	0xbdcbfb34	-0.099600226
5	0x3e7e9ed2	0.24865273
6	0xbdb2fc3e	-0.08739518
7	0xbeb93fd2	-0.36181504
8	0x3e04ca17	0.12967716
9	0x3c8bb339	0.017053233
10	0xbd8d5560	-0.069010496
11	0xbebc6a99	-0.36800078
12	0xbf005a46	-0.50137746
13	0xbe574d81	-0.21025659
14	0xbc274418	-0.010209106
15	0x3d0ecd00	0.034863472
16	0x3c401420	0.011723548
17	0xbe18031f	-0.1484494
18	0xbcf73663	-0.0301773
19	0x3df92ac7	0.12166362
20	0xbe3c430a	-0.18384948
21	0x3c48e8d9	0.012262546
22	0x3dfebc87	0.124383025
23	0x3e5c2adf	0.21500729
24	0xbcf8bb9b	-0.030362895
25	0xbe63b599	-0.22237243
26	0xbe7161cb	-0.23572461
27	0xbda518da	-0.08061381
28	0x3e8d861f	0.2764139
29	0xbed9feb8	-0.42577147
30	0x3d02dc37	0.031948294
31	0xbe70beb3	-0.23510246
32	0xbdec919e	-0.11551212
33	0xbe5386ec	-0.20656937
34	0xbeb946d2	-0.36186844
35	0xbd95f68c	-0.07322416
36	0xbdb56f9d	-0.08859179
37	0x3e7ddd3f	0.2479143
38	0x3c25d174	0.010120738
39	0xbe26dd8b	-0.1629545
40	0xbeb99b5f	-0.3625135
41	0xbe7729d7	-0.24137054
42	0xbeb34d90	-0.35020113
43	0xbe221b59	-0.15830745
44	0xbe26d155	-0.16290791
45	0x3e15afb4	0.14617807
46	0x3e11d4df	0.1424136
47	0xbe510e9c	-0.2041573
48	0x39fa09e1	0.00047691076
49	0xbdef39ff	-0.11680984
50	0xbeb354d7	-0.35025665
51	0xbdd3bc64	-0.10338667
52	0xbdd20b4e	-0.102560624
53	0xbebd56d6	-0.36980313
54	0xbeba29c3	-0.36359987
55	0xbe54861e	-0.20754287
56	0xbda49a74	-0.08037272
57	0xbe62241b	-0.22084086
58	0xbe9d5d87	-0.30735418
59	0xbddd25c7	-0.10798221
60	0xbe83745c	-0.25674713
61	0xbd872bd6	-0.06600158
62	0x3e66ff92	0.2255843
63	0xbe6d3ce8	-0.23167765
64	0xbe8fe90f	-0.28107497
65	0xbd5fe282	-0.054659374
66	0x3c735b68	0.014853336
67	0x3e458b6f	0.19291471
68	0xbe481fa5	-0.19543321
69	0x3dcbf953	0.09959664
70	0x3eb0c9ea	0.34529048
71	0x3e857475	0.26065412
72	0xbd9274a1	-0.071511514
73	0xbdfd1a52	-0.12358536
74	0xbe6b7d1e	-0.22996947
75	0x3e0472d7	0.12934433
76	0x3ef2190e	0.4728474
77	0x3eaebf59	0.34130362
78	0x3c983991	0.018582137
79	0xbeb13224	-0.34608567
80	0xbe909a17	-0.2824256
81	0xbefc7ecb	-0.49315485
82	0xbe8507c8	-0.259825
83	0x3d404bd1	0.046947304
84	0x3d2ddf0e	0.04244905
85	0x3cc74427	0.02432449
86	0x3b84471a	0.0040367963
87	0x3e035607	0.12825786
88	0xbe7e6aca	-0.24845424
89	0xbe1d1735	-0.15340884
90	0xbe8118f7	-0.2521436
91	0xbe7e9ed0	-0.2486527
92	0xbee589fd	-0.4483184
93	0xbe975e84	-0.29564297
94	0xbdc67086	-0.09689431
95	0xbeb7c685	-0.35893646
96	0x3e1322ad	0.14368697
97	0x3e3e9368	0.18610919
98	0xbd94681a	-0.07246418
99	0xbe37776a	-0.17916647
100	0x3d74e130	0.059785068
101	0x3e0bf576	0.13667855
102	0x3eb54e0b	0.35411105
103	0x3e75d03c	0.24005216
104	0xbda6096e	-0.08107267
105	0x3dea7c0e	0.11449443
106	0xbe07e736	-0.13271794
107	0xbe905557	-0.2819011
108	0xbbeae4f0	-0.0071684048
109	0x3c2ad607	0.010427005
110	0x3d030a6c	0.03199236
111	0x3cfc35cb	0.03078737
112	0xbe469104	-0.19391257
113	0x3ea5b29c	0.3236283
114	0xbe97b8fa	-0.29633313
115	0x3ddbdfa7	0.10736018
116	0xbdf261c4	-0.118350536
117	0xbd39032c	-0.04516904
118	0x3cd92b47	0.026509894
119	0xbdcee8f5	-0.10103027
120	0x3d38273e	0.0449593
121	0xbe7fad86	-0.24968538
122	0xbd3d1837	-0.04616567
123	0xbe8807f8	-0.2656858
124	0xbe583e79	-0.21117581
125	0xbeec8458	-0.4619472
126	0x3ca92bad	0.020650709
127	0xbb803b94	-0.0039133523
128	0x3f0055ea	0.50131094
129	0xbe31f333	-0.1737793
130	0x3e2cfea3	0.16894011
131	0x3da7d335	0.081945814
132	0xbc3a9e47	-0.011390275
133	0x3c539c10	0.012915626
134	0x3def1633	0.11674156
135	0x3bfc75ff	0.007704496
136	0xbc9afe5d	-0.018920118
137	0x3e8a4a5b	0.27009854
138	0x3eef1be9	0.4670098
139	0x3e84dfcc	0.25951993
140	0x3e742242	0.23841193
141	0x3e03de4b	0.12877767
142	0xbb029911	-0.001992766
143	0x3d9c830a	0.07642181
144	0x3d1e864e	0.0387023
145	0xbe274340	-0.16334248
146	0x3d73f9a3	0.059564244
147	0x3ce57009	0.028007524
148	0x3e8f3ff2	0.27978474
149	0x3e40d003	0.1882935
150	0xbca8b0cc	-0.020592116
151	0x3dede47f	0.11615848
152	0xbdfa4801	-0.12220765
153	0xbde4f51c	-0.111795634
154	0x3df85c10	0.121269345
155	0xbdc6f688	-0.09714991
156	0xbcb8801c	-0.022522025
157	0xbeb2970e	-0.3488087
158	0x3e29ab0f	0.1656916
159	0xbe003e79	-0.12523831
160	0xbb14cb57	-0.0022704208
161	0xbe8abb9c	-0.2709626
162	0x3e1a870b	0.15090577
163	0x3d2ceae2	0.04221619
164	0xbdde3135	-0.10849229
165	0x3e0fa455	0.14027531
166	0xbe3dcd57	-0.18535362
167	0x3e2c53b3	0.16828804
168	0x3e87eb49	0.26546696
169	0xbda2bed8	-0.07946557
170	0xbddca4e8	-0.10773641
171	0x3dda7303	0.10666468
172	0x3d9cdaf1	0.07658947
173	0x3c1aa4a8	0.009438671
174	0xb9ed309b	-0.00045240376
175	0x3e4e2f36	0.20135197
176	0xbee119a2	-0.4396487
177	0xbdf7459d	-0.120738246
178	0xbddc6623	-0.107616685
179	0xbd0da8ec	-0.034584925
180	0xbe24f325	-0.16108377
181	0x3e545cb2	0.20738485
182	0xbe414677	-0.18874536
183	0xbef316ac	-0.47478235
184	0x3e5c970a	0.21541992
185	0xbe176166	-0.14783248
186	0x3ea1c94c	0.3159889
187	0xbe547e47	-0.20751296
188	0x3e967212	0.29383904
189	0xbe6ad7f6	-0.22933945
190	0x3e0db7b8	0.13839614
191	0xbedda372	-0.4328876
192	0x3e39c39f	0.1814103
193	0xbd524144	-0.051331773
194	0x3e2ebcf4	0.17064267
195	0x3e119017	0.14215122
196	0xbe5eaf0c	-0.21746463
197	0x3e22aa54	0.15885288
198	0x3e5ecdd8	0.2175821
199	0xbd8054ed	-0.06266198
200	0xbea65c02	-0.3249207
201	0x3dd15d74	0.10222903
202	0x3e3eb35d	0.18623109
203	0x3dd47695	0.1037418
204	0x3e11ca50	0.14237332
205	0xbd368553	-0.04456074
206	0xbe061879	-0.13095273
207	0x3e30168b	0.171961
208	0x3e07f5fe	0.13277432
209	0xbcd62810	-0.02614215
210	0xbe12eb69	-0.14347614
211	0x3b0d1922	0.0021529873
212	0x3d452b06	0.048136733
213	0x3dba9bb0	0.09111726
214	0xbe43af04	-0.19109732
215	0x3da61265	0.08108977
216	0xbc81eb07	-0.01585914
217	0x3cf75f64	0.030196853
218	0xbd118571	-0.03552765
219	0xbdc99fd6	-0.098449394
220	0xbe5a8924	-0.21341377
221	0x3e923f37	0.28563854
222	0x3db27b3b	0.087149106
223	0x3ea59d28	0.32346463
224	0x3db8f4bc	0.090310544
225	0xbe72620f	-0.23670219
226	0xbd875c1c	-0.06609365
227	0xbe7f3b37	-0.24924932
228	0x3da4cfff	0.080474846
229	0x3cc7842f	0.024355022
230	0x3e1584ad	0.14601393
231	0x3dbad0bf	0.091218464
232	0x3db832b0	0.08994043
233	0x3ec465ad	0.38358822
234	0xbe61c12a	-0.22046342
235	0xbd219454	-0.039448097
236	0x3e56fe7a	0.20995513
237	0x3bd8f4ac	0.006620964
238	0x3cabbb54	0.020963348
239	0xbdf19225	-0.11795453
240	0xbce2a98f	-0.027668742
241	0xbd9510ab	-0.0727857
242	0xbe6f9b89	-0.23399176
243	0x3dada536	0.08478777
244	0xbed857ed	-0.42254582
245	0xbc191315	-0.009342928
246	0x3df649b5	0.12025777
247	0xbe7bc10c	-0.2458536
248	0xbe06b2ec	-0.13154191
249	0xbe11b178	-0.14227855
250	0xbcfa90cc	-0.030586623
251	0xbe0c6b6a	-0.1371285
252	0xbe80ec0b	-0.25180086
253	0x3d9a8c9f	0.075463526
254	0x3e112007	0.14172374
255	0xbee99820	-0.45623875

fc_hidden.bias f4 [128]
0	0xbddd1efa	-0.10796924
1	0xbe2ff65b	-0.17183821
2	0xbe1851d8	-0.14874971
3	0xbe3d6c0c	-0.18498248
4	0xbe77e1d5	-0.24207242
5	0xbde61210	-0.11233914
6	0xbbe766ce	-0.007061816
7	0xbc8a8154	-0.016907372
8	0xbdee5aeb	-0.11638435
9	0xbe183942	-0.14865592
10	0xbceb9b4c	-0.028760575
11	0xbcc59388	-0.0241182
12	0xbe3d6927	-0.18497144
13	0xbe4a0c35	-0.19731219
14	0xbe259e10	-0.16173577
15	0xbdc0cb30	-0.09413755
16	0xbe33d265	-0.17560728
17	0xbe2f7869	-0.17135777
18	0xbe7d7823	-0.2475286
19	0xbd41ce47	-0.047315862
20	0xbc62e63b	-0.0138488365
21	0xbdaecf33	-0.08535614
22	0xbe733efb	-0.23754494
23	0xbca9c46d	-0.020723546
24	0xbda410b7	-0.080110006
25	0xbd99e4a2	-0.075143114
26	0xbcfee239	-0.03111373
27	0xbe5e83f1	-0.21730019
28	0x3f638aaf	0.8888349
29	0xbce5667a	-0.028002966
30	0x3d935512	0.0719396
31	0xbe4f5180	-0.20245934
32	0xbd802390	-0.06256783
33	0xbde2d4e2	-0.110757604
34	0x3b7a3e4b	0.0038184102
35	0xbe0957ac	-0.1341235
36	0xbd1b7638	-0.03795454
37	0xbdca9ebe	-0.09893559
38	0xbc7a53dd	-0.015278784
39	0xbca7725c	-0.020440273
40	0xbdf98ee6	-0.12185459
41	0xbe9a48fb	-0.30133805
42	0x3e73c44b	0.23805349
43	0xbe858864	-0.2608062
44	0xbe143910	-0.14474893
45	0x3e8a2f05	0.26988998
46	0x3dc0140b	0.09378823
47	0xbdac12c6	-0.08402018
48	0x3dd750ea	0.1051348
49	0xbbcf6a8b	-0.0063298396
50	0xbe2b4845	-0.16726787
51	0xbe9537f5	-0.29144254
52	0xbd3aa212	-0.04556472
53	0xbded05a8	-0.115733445
54	0xbe505d0e	-0.20347998
55	0x3b1b5738	0.002370311
56	0xbe12d107	-0.1433755
57	0xbd8ef16a	-0.0697964
58	0xbe3851ab	-0.17999904
59	0x3ecbb45e	0.39786047
60	0xbe1fa4a9	-0.15590157
61	0x3cbb6416	0.022874873
62	0xbcc0382b	-0.023464283
63	0xbdc4e794	-0.096144825
64	0xbb87a69d	-0.004139735
65	0xbe420936	-0.18948826
66	0x3dda1368	0.10648233
67	0x3d0ae997	0.033914175
68	0xbddbf7b8	-0.10740608
69	0xbca13820	-0.019680083
70	0xbe1f6a4e	-0.15567896
71	0x3ceee80c	0.029163383
72	0xbdb4f01c	-0.0883486
73	0x3e173284	0.14765364
74	0xbe85e4d5	-0.26151147
75	0xbc5d4938	-0.013506226
76	0xbe5134dc	-0.2043032
77	0xbdeefc24	-0.11669186
78	0xbd74729b	-0.05967961
79	0xbe3b2a04	-0.18277746
80	0x3d71afa7	0.059005406
81	0xbe8aa2e0	-0.2707739
82	0x3e89e004	0.26928723
83	0xbcb29b29	-0.021802502
84	0x3d9b6351	0.075873025
85	0xbcc760e0	-0.024338186
86	0xbc6e83ad	-0.014557761
87	0xbd5751df	-0.052568313
88	0xbe428c3c	-0.18998808
89	0xbe106ef0	-0.1410482
90	0xbd5a2a9a	-0.053263284
91	0xbccda52d	-0.025103176
92	0xbc88d52a	-0.016703207
93	0xbecc04ca	-0.39847404
94	0xbe35f2f6	-0.17768463
95	0xbdff3323	-0.124609254
96	0xbccf8d13	-0.025335824
97	0x3e37a872	0.1793535
98	0x3ceb150d	0.028696561
99	0xbe02c34a	-0.1276981
100	0xbe402210	-0.18762994
101	0xbdff893a	-0.12477346
102	0xbdb215d7	-0.08695572
103	0x3cb43713	0.021998918
104	0x3bf5c856	0.0075006885
105	0xbe956d4f	-0.29184958
106	0x3e979275	0.29603925
107	0xbd5b8f86	-0.05360367
108	0x3e206035	0.156617
109	0xbe7e5607	-0.24837504
110	0xbce3449c	-0.027742676
111	0xbcf5b600	-0.02999401
112	0xbde271e4	-0.11056879
113	0xbe31730c	-0.17329043
114	0xbe6d3cb3	-0.23167686
115	0x3d46f45a	0.048572876
116	0xbe28be5c	-0.16478866
117	0xbe450f4b	-0.19244115
118	0xbeb48ef5	-0.35265318
119	0xbd7917da	-0.060813762
120	0xbcb45c84	-0.022016771
121	0xbd235264	-0.039873496
122	0xbe57d7e1	-0.21078445
123	0xbd4c3097	-0.049851026
124	0xbd043335	-0.032275397
125	0x3d85525b	0.06509849
126	0xbdf7879c	-0.12086412
127	0xbdbfef36	-0.09371798

output.weight f4 [300, 128]
0	0x3f28294f	0.6568803
1	0x3f5b8252	0.8574573
2	0x3fa052f4	1.2525315
3	0x3f01d1e2	0.5071088
4	0x3fa6a646	1.3019493
5	0x3f4574d2	0.7713138
6	0xbecf6262	-0.40504748
7	0xbdddb17e	-0.108248696
8	0x3f3c16ad	0.734721
9	0x3f6b509c	0.91919875
10	0x3e8aaeb2	0.27086407
11	0x3fb261ed	1.3936135
12	0x3eccb269	0.39979866
13	0x3f509eef	0.81492513
14	0x3f91cedd	1.1391255
15	0x3ebdd95d	0.37079898
16	0x3fb11f0a	1.3837597
17	0x3f0735b5	0.52816325
18	0x3f310379	0.69145924
19	0x3f2676cd	0.65025026
20	0x3efde39a	0.4958771
21	0x3ed22a24	0.41047776
22	0x3f909ea9	1.1298419
23	0xbe23ba58	-0.15989053
24	0x3f04247c	0.5161817
25	0x3fb9f65a	1.4528306
26	0x3ebd5711	0.3698049
27	0x3f3c711e	0.73610103
28	0xbe7666f3	-0.2406271
29	0xbe060fc1	-0.13091947
30	0x3d63d9d6	0.055627666
31	0x3f1bab0d	0.6080788
32	0x3ea2f989	0.31831005
33	0x3f0b3804	0.5438235
34	0x3edf09b9	0.43562105
35	0x3f35935c	0.7092798
36	0x3ecde1a4	0.40211213
37	0x3edd3df5	0.43211332
38	0xbd491fc4	-0.04910256
39	0xbc7887c3	-0.015169087
40	0x3edc268a	0.42998153
41	0x3f8a10b7	1.0786351
42	0x3f00851c	0.5020311
43	0x3f499612	0.78744614
44	0x3e86ad9d	0.2630433
45	0x3f4019f9	0.7503963
46	0x3eb71a61	0.35762313
47	0x3e8efa82	0.27925497
48	0xbee3e0c8	-0.44507432
49	0x3e64139d	0.22273107
50	0x3f2f9f24	0.68602204
51	0x400074bb	2.0071247
52	0x3f9d3036	1.2280338
53	0x3faa309f	1.3296088
54	0x3ef19548	0.47184205
55	0x3eb5df3c	0.35521877
56	0x3ef30b84	0.47469723
57	0x3eeda50b	0.4641498
58	0x3ee20b75	0.44149366
59	0x3f92f894	1.148211
60	0x3f8575d2	1.0426581
61	0x3f4c8634	0.7989228
62	0xbcdf0a9a	-0.027226735
63	0x3eead3d0	0.45864725
64	0x3c663dce	0.014052821
65	0x3f758322	0.9590322
66	0x3eeb8250	0.45997858
67	0x3e825c12	0.2546087
68	0x3ec720c0	0.38892174
69	0x3d83e448	0.064400256
70	0x3f156f18	0.5837264
71	0x3f72a168	0.94777536
72	0x3e4b55fe	0.19857022
73	0x3e73f1b9	0.23822679
74	0x3f7dfd5b	0.99214715
75	0x3eb54f2c	0.35411966
76	0x3f9c9d73	1.223555
77	0x3ed04b6d	0.40682545
78	0x3f0b3cd9	0.5438972
79	0x3f6b38cc	0.9188354
80	0x3eadadf3	0.33921775
81	0x3f9d70f4	1.2300096
82	0x3efe5c6c	0.49679887
83	0x3d97b161	0.07406879
84	0x3dc8b63e	0.09800385
85	0x3e0b2574	0.13588506
86	0xbd787c5f	-0.060665485
87	0x3efb5884	0.4909097
88	0x3f49d453	0.78839606
89	0x3fa6cd98	1.3031492
90	0x3edf5f2a	0.43627292
91	0xbdcdf777	-0.10056966
92	0xbc149f1f	-0.009071141
93	0x3fb77633	1.4332947
94	0x3f78ee9a	0.9723908
95	0x3e858d39	0.26084307
96	0x3da615c8	0.08109623
97	0xbda581a1	-0.080813654
98	0x3f050063	0.51953715
99	0x3f5bd025	0.8586448
100	0x3f17c021	0.5927754
101	0x3f317d06	0.69331396
102	0x3ee7bb43	0.45260057
103	0x3f3e6eb8	0.74387693
104	0x3ec32bb4	0.3811928
105	0x3f6a098d	0.91420823
106	0x3dc0990a	0.0940419
107	0x3d74e6e4	0.059790507
108	0x3d97cd3c	0.07412192
109	0x3f327e83	0.6972429
110	0xbb2dae45	-0.0026501578
111	0x3eb017fe	0.34393305
112	0x3f1482c6	0.58012044
113	0x3f988299	1.1914855
114	0x3f9be5bc	1.2179484
115	0x3f5f19b9	0.87148625
116	0x3f5f7910	0.872941
117	0x3f493231	0.7859221
118	0x3f6523d6	0.89507806
119	0x3eeba8a1	0.4602709
120	0xbd98c14b	-0.07458743
121	0x3ea8a0a1	0.3293505
122	0x3f985399	1.1900512
123	0x3f2980c5	0.6621211
124	0x3e95a49c	0.2922715
125	0x3f44b795	0.76842624
126	0x3f906d1e	1.12833
127	0x3ee967b4	0.45586932
128	0x3f308498	0.6895232
129	0x3f73bba7	0.9520821
130	0x3faa7e3e	1.3319776
131	0x3f17300f	0.59057707
132	0x3f9f6bf9	1.2454826
133	0x3f42fd44	0.761677
134	0xbeaee3ce	-0.34158176
135	0x3d5df9c8	0.054193288
136	0x3f3a7de8	0.7284837
137	0x3f776f3e	0.9665412
138	0x3e874351	0.26418546
139	0x3fba5fa2	1.4560435
140	0x3ee14f53	0.44005832
141	0x3f538ae8	0.8263383
142	0x3f88b793	1.0681022
143	0x3ec99a3d	0.39375487
144	0x3fad86c0	1.3556747
145	0x3ef30e6f	0.4747195
146	0x3f358b13	0.70915335
147	0x3f1eb318	0.61992025
148	0x3f02bed3	0.51072425
149	0x3ee121e9	0.43971184
150	0x3f9a48a1	1.2053415
151	0x3e0cb149	0.13739504
152	0x3f10461f	0.56356996
153	0x3fbdf351	1.4839879
154	0x3ee34c46	0.4439413
155	0x3f46e740	0.7769661
156	0xbe2624f8	-0.1622504
157	0xbbf105ce	-0.0073554283
158	0x3d570876	0.052498303
159	0x3f1ec33f	0.6201667
160	0x3e9e8578	0.30961204
161	0x3f081abe	0.53165805
162	0x3ef2cd55	0.4742228
163	0x3f394b51	0.7238055
164	0x3eda31ca	0.4261611
165	0x3f128fdc	0.5725076
166	0xbd0c1ec4	-0.034209028
167	0xbb8a3b9c	-0.004218532
168	0x3ee8d8e8	0.45477986
169	0x3f82d54b	1.0221342
170	0x3efe9995	0.4972655
171	0x3f62afb9	0.8854938
172	0x3e83258b	0.2561458
173	0x3f3d8793	0.74034995
174	0x3eb36019	0.35034254
175	0x3eb171c7	0.34657118
176	0xbee32ae0	-0.4436865
177	0x3e96857a	0.2939871
178	0x3f3effa9	0.74608856
179	0x4003995c	2.0562353
180	0x3f83f0e9	1.0307895
181	0x3fab1e0e	1.3368547
182	0x3f00f631	0.5037566
183	0x3eb77a3e	0.3583545
184	0x3ee3a72c	0.4446348
185	0x3efad85b	0.4899319
186	0x3f038f14	0.51390195
187	0x3f36d5e7	0.7142014
188	0x3f81c074	1.0136857
189	0x3f47b359	0.7800804
190	0x3c498f9c	0.012302306
191	0x3f0171c2	0.50564206
192	0xbcade3fe	-0.02122688
193	0x3f90aeca	1.1303341
194	0x3ed8f5fb	0.42375168
195	0x3e12ff78	0.14355266
196	0x3ee4a0db	0.44653973
197	0xbb6caed5	-0.003611495
198	0x3f1991f2	0.5998832
199	0x3f6604b1	0.8985091
200	0x3e4e5516	0.20149645
201	0x3e75c6cb	0.24001615
202	0x3f73ced5	0.95237476
203	0x3eb72b3f	0.35775182
204	0x3fb106cb	1.3830198
205	0x3ee026c6	0.43779582
206	0x3f1cd86f	0.6126775
207	0x3f82c151	1.0215245
208	0x3ea3fdea	0.3202966
209	0x3f8eef14	1.1166711
210	0x3f11ff65	0.57030326
211	0xbe073b15	-0.13206132
212	0x3db7623e	0.08954285
213	0x3df10269	0.11768038
214	0x3c73b8e3	0.014875623
215	0x3ef4099d	0.47663584
216	0x3f4fef9a	0.8122498
217	0x3fa307bf	1.2736739
218	0x3ee32382	0.44363028
219	0xbd40b9e3	-0.047052275
220	0x3d91e31c	0.07123396
221	0x3fb5b0d0	1.4194584
222	0x3f7cc925	0.9874442
223	0x3e86d984	0.26337826
224	0x3d7613c6	0.06007745
225	0xbdeacbf1	-0.1146468
226	0x3f03cfaa	0.51488745
227	0x3f73253d	0.94978696
228	0x3f13db29	0.57756287
229	0x3f2fabc4	0.6862147
230	0x3eed822d	0.4638838
231	0x3f32560a	0.69662535
232	0x3e9bcd0e	0.30429882
233	0x3f75f74e	0.9608048
234	0x3d7a58c5	0.061119813
235	0x3d93bcf3	0.072137736
236	0xbc5d9461	-0.013524146
237	0x3f3d3e8b	0.7392356
238	0x3dc37dd2	0.09545483
239	0x3ecc21c2	0.39869505
240	0x3f0fe09b	0.56202096
241	0x3f976952	1.1829016
242	0x3f9bdf18	1.2177458
243	0x3f6607b6	0.89855516
244	0x3f819b9d	1.0125614
245	0x3f6bced5	0.92112476
246	0x3f6d49fe	0.9269103
247	0x3f084d44	0.532429
248	0x3cf184b4	0.029482223
249	0x3eaf1666	0.34196776
250	0x3f986796	1.1906612
251	0x3f262a73	0.6490852
252	0x3e89631e	0.26833433
253	0x3f3f2518	0.74665976
254	0x3f8bbfa4	1.0917859
255	0x3eec84cf	0.46195075

output.bias f4 [300]
0	0xbe983ad6	-0.29732388
1	0xbe983912	-0.2973104
2	0xbe909d33	-0.28244933
3	0xbe772777	-0.24136148
4	0xbe4b2905	-0.19839866
5	0xbe203603	-0.15645604
6	0xbdf251e4	-0.11832026
7	0xbdb24767	-0.08705025
8	0xbd85c606	-0.065319106
9	0xbd464ac3	-0.048411142
10	0xbd147586	-0.03624489
11	0xbcd10358	-0.02551429
12	0xbc8795a3	-0.016550845
13	0xbbfc506d	-0.007700017
14	0x3b299b4d	0.002587992
15	0x3c5f12f7	0.013615361
16	0x3cd6b53b	0.026209464
17	0x3d27aeda	0.040938236
18	0x3d68e2b9	0.056856845
19	0x3d9838e3	0.07432725
20	0x3dbe8550	0.09302771
21	0x3de7cbd4	0.11318174
22	0x3e0966e2	0.13418153
23	0x3e2009b4	0.15628701
24	0x3e378f2d	0.17925711
25	0x3e4fa465	0.20277555
26	0x3e682ede	0.22674128
27	0x3e80a632	0.25126797
28	0x3e8d7644	0.27629292
29	0x3e9aa5fd	0.30204764
30	0x3ea84308	0.3286364
31	0x3eb6393e	0.35590547
32	0x3ec47b2a	0.38375217
33	0x3ed3152b	0.41227087
34	0x3ee22325	0.44167438
35	0x3ef1cbed	0.47225896
36	0x3f00f214	0.5036938
37	0x3f09559c	0.53646255
38	0x3f122c22	0.5709859
39	0x3f1b681d	0.6070574
40	0x3f2520f7	0.64503425
41	0x3f2f62c2	0.6851007
42	0x3f3a44e1	0.7276135
43	0x3f457f39	0.7714725
44	0x3f50bcb0	0.81537914
45	0x3f5b4210	0.8564768
46	0x3f63f3dd	0.8904398
47	0x3f696861	0.91174895
48	0x3f683b71	0.907157
49	0x3f53aa70	0.8268194
50	0xbdfa5676	-0.12223522
51	0xbe0ac391	-0.13551165
52	0xbde47986	-0.11155991
53	0xbd8afe75	-0.06786815
54	0xbd008f79	-0.031386826
55	0x3b2fe33b	0.002683832
56	0x3ce99b59	0.028516458
57	0x3d63432b	0.05548398
58	0x3d997ed8	0.07494897
59	0x3dbbdbb8	0.091727674
60	0x3dd1b086	0.10238747
61	0x3de4b265	0.111668386
62	0x3df6c903	0.12050059
63	0x3e028655	0.12746556
64	0x3e0a53f7	0.13508593
65	0x3e157f62	0.14599374
66	0x3e208288	0.15674794
67	0x3e2c30e5	0.16815527
68	0x3e3b0666	0.1826416
69	0x3e4ad0a1	0.19806148
70	0x3e5cc542	0.21559623
71	0x3e6f5619	0.23372687
72	0x3e812b03	0.25228128
73	0x3e8b9428	0.27261472
74	0x3e971156	0.29505414
75	0x3ea287f1	0.3174434
76	0x3eadfebf	0.33983418
77	0x3eba3fe0	0.36376858
78	0x3ec6b8df	0.3881292
79	0x3ed43526	0.414468
80	0x3ee1613e	0.44019502
81	0x3eeedd03	0.46652994
82	0x3efc91c5	0.49329963
83	0x3f056fe5	0.5212386
84	0x3f0c8bb4	0.5490067
85	0x3f142542	0.5786935
86	0x3f1be58b	0.6089713
87	0x3f23e64b	0.64023274
88	0x3f2c649c	0.6734102
89	0x3f351014	0.7072766
90	0x3f3dca11	0.74136454
91	0x3f46dd2c	0.7768123
92	0x3f5067fb	0.8140866
93	0x3f59e57d	0.85115796
94	0x3f631f62	0.8871976
95	0x3f6c0d23	0.92207545
96	0x3f731356	0.9495138
97	0x3f76e886	0.9644855
98	0x3f758de0	0.9591961
99	0x3f6757c2	0.9036828
100	0xbe9635a5	-0.29337803
101	0xbe63099f	-0.22171639
102	0xbe0d9af4	-0.13828641
103	0xbd31f1eb	-0.0434436
104	0x3d1b1550	0.037862122
105	0x3dd1f878	0.1025247
106	0x3e172c6c	0.1476304
107	0x3e35c461	0.17750694
108	0x3e485fc5	0.19567783
109	0x3e4f059c	0.20216984
110	0x3e49c577	0.19704233
111	0x3e3f5b60	0.186872
112	0x3e339a28	0.17539275
113	0x3e248a54	0.16068393
114	0x3e19834a	0.14991489
115	0x3e121f53	0.14269762
116	0x3e0f25f9	0.13979329
117	0x3e10317f	0.14081381
118	0x3e143fe0	0.14477491
119	0x3e1b6a7f	0.15177344
120	0x3e254605	0.16139992
121	0x3e31c854	0.17361575
122	0x3e40b2d1	0.18818213
123	0x3e515d9f	0.2044587
124	0x3e636aca	0.22208706
125	0x3e7718ab	0.24130504
126	0x3e85b9e3	0.26118383
127	0x3e908f67	0.28234407
128	0x3e9bcdd0	0.3043046
129	0x3ea76ad8	0.32698703
130	0x3eb39b52	0.35079437
131	0x3ec031cf	0.37538
132	0x3ecd5837	0.40106365
133	0x3edaf4dd	0.4276494
134	0x3ee94679	0.4556158
135	0x3ef7edea	0.48423702
136	0x3f03870a	0.5137793
137	0x3f0b5fa3	0.54442805
138	0x3f13bb87	0.5770802
139	0x3f1c7e73	0.61130446
140	0x3f2590ff	0.6467437
141	0x3f2f3798	0.68444204
142	0x3f395e06	0.72409093
143	0x3f43ae51	0.7643786
144	0x3f4e3a30	0.8055754
145	0x3f5890db	0.8459603
146	0x3f62078f	0.88292783
147	0x3f68df2b	0.9096553
148	0x3f6a5392	0.9153377
149	0x3f5aef5b	0.8552148
150	0xbe6241ed	-0.22095461
151	0xbe6b0ee7	-0.22954904
152	0xbe61a9f7	-0.22037493
153	0xbe3987f5	-0.1811827
154	0xbe140e56	-0.14458594
155	0xbdeb3bbb	-0.11486002
156	0xbdbd91b6	-0.09256308
157	0xbd9465ab	-0.07245954
158	0xbd7f22e8	-0.06228915
159	0xbd6ed175	-0.058305223
160	0xbd6409a6	-0.055673264
161	0xbd59535d	-0.053058017
162	0xbd4b5b2e	-0.049647503
163	0xbd351226	-0.04420676
164	0xbd16a18b	-0.036775153
165	0xbce4dae0	-0.027936399
166	0xbc8daf98	-0.017295644
167	0xbb75540f	-0.0037434136
168	0x3c2f8c94	0.010714669
169	0x3cda3b59	0.026639627
170	0x3d377b7d	0.044795502
171	0x3d846366	0.06464271
172	0x3daffe24	0.08593395
173	0x3ddd5ffc	0.10809323
174	0x3e065056	0.13116583
175	0x3e1ec2f6	0.15504059
176	0x3e377b66	0.17918167
177	0x3e511752	0.20419052
178	0x3e6b0fbd	0.22955222
179	0x3e82d47d	0.2555274
180	0x3e908a05	0.282303
181	0x3e9e9857	0.309756
182	0x3ead08c2	0.33795744
183	0x3ebb51ff	0.36585996
184	0x3eca7b64	0.39547265
185	0x3ed9e80a	0.42559844
186	0x3ee9d932	0.4567352
187	0x3efa8c0c	0.48934972
188	0x3f05f18a	0.52321684
189	0x3f0ed386	0.5579151
190	0x3f181e1f	0.5942096
191	0x3f21e5ee	0.6324147
192	0x3f2c09f8	0.6720271
193	0x3f366f9c	0.7126405
194	0x3f407aa9	0.75187165
195	0x3f4a3029	0.78979737
196	0x3f526305	0.8218234
197	0x3f57894d	0.8419388
198	0x3f551732	0.8323852
199	0x3f42926b	0.76004666
200	0xbef288b0	-0.4736991
201	0xbee4b4b9	-0.4466913
202	0xbec8368f	-0.39104125
203	0xbea47454	-0.3212
204	0xbe81a617	-0.2532203
205	0xbe43aff4	-0.1911009
206	0xbe12857b	-0.14308731
207	0xbddc7e9c	-0.10766336
208	0xbdaefe37	-0.085445814
209	0xbd9f359f	-0.07773899
210	0xbd9a94af	-0.075478904
211	0xbd9fd2d6	-0.07803886
212	0xbda76978	-0.081744134
213	0xbdaa3be5	-0.08312205
214	0xbdaa43f1	-0.0831374
215	0xbda586b5	-0.08082334
216	0xbd9b4363	-0.07581212
217	0xbd8a6dfd	-0.0675926
218	0xbd69c3bc	-0.057071432
219	0xbd31005d	-0.043213237
220	0xbce4b611	-0.027918847
221	0xbc30f50c	-0.010800611
222	0x3c01bb09	0.007918128
223	0x3ce82427	0.028337551
224	0x3d4be4b7	0.049778666
225	0x3d93d74c	0.07218799
226	0x3dc2487b	0.09486481
227	0x3df1f1ee	0.118137226
228	0x3e11972b	0.14217822
229	0x3e2abb3d	0.16672988
230	0x3e44f692	0.19234684
231	0x3e6012ad	0.21882124
232	0x3e7bd06d	0.24591227
233	0x3e8c15f1	0.2736049
234	0x3e9af0b8	0.3026178
235	0x3eaa4110	0.33252764
236	0x3eba4bf0	0.3638606
237	0x3ecab562	0.3959151
238	0x3edbf8dd	0.42963305
239	0x3eee1e86	0.46507663
240	0x3f007bf5	0.50189143
241	0x3f0a820c	0.54104686
242	0x3f14e268	0.5815797
243	0x3f1fd936	0.6244081
244	0x3f2acdaf	0.667201
245	0x3f35a9ca	0.709622
246	0x3f3f3370	0.7468786
247	0x3f464a2b	0.7745692
248	0x3f46764f	0.77524275
249	0x3f30c625	0.69052345
250	0xbecb71ba	-0.39735204
251	0xbed069f5	-0.4070584
252	0xbec74cb9	-0.38925722
253	0xbeaf8b9f	-0.3428621
254	0xbe954877	-0.2915685
255	0xbe7bb962	-0.24582437
