figs2-3_rl/results/seaquest-UADQN/network_posterior1.pth (torch_old, 686556 bytes, 6 tensors)

conv.weight f4 [16, 10, 3, 3]
-0.05832029 0.08553667 -0.15263186 0.19687095 -0.613869 -0.38115343 0.12342407 -0.44213644
-0.2728255 0.06491497 0.40864173 -0.28950122 0.47291496 0.21782239 -0.15672702 0.19247441
0.24913548 0.26077282 -0.48146778 -0.34887993 -0.18641527 -0.058595296 0.1425985 -0.19668317
0.53543997 -0.19718024 -0.004448427 -0.32659784 -0.08169161 -0.262078 0.16675182 -0.11470312
0.2207845 0.12530391 -0.033172783 0.1399161 0.098011985 0.16885395 -0.23483981 -0.004736136
0.068692625 -0.23005088 0.64581347 -0.156212 0.2515829 -0.6211262 -0.34194016 -0.58072984
0.07549523 0.8957943 1.5506068 0.47466874 0.086757116 0.27756694 0.54866093 -0.2666737
-0.55843884 0.15647088 0.78255785 1.1471114 0.008393159 0.15754227 0.91090536 -0.32081622
-0.22674012 -0.12884036 0.31622 -0.008477716 0.25425777 -0.34488863 0.07237538 -0.0019948476
0.29659444 0.3499506 0.4884386 0.01725651 0.14304563 0.04971764 -0.0017582757 -0.2759013
0.54054075 0.10107633 0.19708477 -0.050064776 0.15392376 -0.09167509 0.021767683 -0.09756229
-0.18724021 0.044249408 0.1153126 -0.10475739 0.48210606 0.49874422 -0.47975326 0.39935666
-0.8271209 0.0705476 0.40827513 0.1505393 -0.058953565 0.7681335 0.22157013 0.21427903
0.7933373 -0.31274986 0.3155102 0.08273267 -0.27089804 0.08727244 -0.15021288 0.13543718
0.03649439 0.18068185 0.044673797 -0.20760782 -0.26971304 0.39548045 0.16340856 0.11080945
0.014586391 -0.15060517 0.34055522 0.11724878 -0.3361897 0.40896928 0.48914695 0.36227447
-0.37775642 0.12017271 0.022969086 0.106232606 -0.26448548 -0.049931142 0.020074015 -0.119182624
-0.22033341 -0.012762945 0.17711869 0.5013085 0.26614785 -0.18592057 -0.48429492 -0.47900507
-0.9621415 -0.33502036 0.16708347 0.49506426 0.31872183 0.4402125 -0.32286134 -0.07825574
-0.428661 -0.48104882 0.06559488 -0.20793462 0.3261953 -0.22844028 0.31371802 0.6711394
-0.40109235 0.13802902 0.19256333 0.09138168 -0.1145539 -0.17350604 -0.05273152 -0.045557566
-0.2802435 -0.4979018 0.0916237 0.38426697 0.15233977 -0.18911472 -0.26774105 -0.235599
0.006533641 0.5521714 -0.0038933305 -0.22353251 0.22992842 -0.19560003 0.27265775 0.87928337
0.08182553 -0.47582328 0.11928403 -0.1323166 0.25661707 -0.47220853 -0.14691508 0.16064495
0.09430371 -0.19741221 -0.00020705487 -0.36907896 -0.6630528 -0.42354628 -0.08513159 0.11484859
0.14204198 -0.17807652 -0.27389446 -0.44593874 0.34835875 0.36063796 0.16501546 -0.49197736
-0.2820747 0.3167998 -0.23647356 -0.10426235 -2.187121e-05 -0.12922497 -0.0069580474 0.17817858
0.09501969 0.22023782 -0.013435403 -0.07192483 -0.03273853 -0.1822943 0.38243377 0.2978334
-0.10633948 0.5427349 0.05819853 0.43320778 -0.2584436 -0.13427086 0.03173611 0.061625294
0.4344024 0.39112988 0.2281685 0.41139993 0.39646697 0.057432532 0.35968882 0.2968594
0.39885634 0.021100935 0.29907075 -0.39901358 0.2109582 -0.3586764 0.2896594 -0.028364163
0.2559474 -0.33604673 0.05930198 0.30310678 -0.15318894 -0.048746012 -0.5512161 -0.26394594
00000000: 42e1 6ebd da2d af3d 874b 1cbe 8a98 493e
00000010: 8526 1dbf 8b26 c3be c2c5 fc3d b55f e2be
00000020: c9af 8bbe 24f2 843d 7d39 d13e 8139 94be
00000030: e921 f23e d50c 5f3e 0c7d 20be 0318 453e
00000040: 5f1d 7f3e 0484 853e f282 f6be 64a0 b2be
00000050: a5e3 3ebe 9f01 70bd 5705 123e 5067 49be
00000060: 9812 093f 9ee9 49be 1cc4 91bb d537 a7be
00000070: ee4d a7bd 162f 86be fdc0 2a3e 78e9 eabd
00000080: 5515 623e ab4f 003e 2fe0 07bd 2b46 0f3e
00000090: 82ba c83d 0de8 2c3e d979 70be 9731 9bbb
000000a0: b8ae 8c3d 7592 6bbe 0854 253f 0af6 1fbe
000000b0: 79cf 803e 2002 1fbf c812 afbe b6aa 14bf
000000c0: 3e9d 9a3d c652 653f 497a c63f c807 f33e
000000d0: b7ad b13d 411d 8e3e 0b75 0c3f 7589 88be
000000e0: d9f5 0ebf e739 203e b655 483f 8cd4 923f
000000f0: 7683 093c c352 213e 1831 693f 0642 a4be
00000100: 902e 68be baee 03be 96e7 a13e 1ee6 0abc
00000110: 132e 823e 3e95 b0be 8b39 943d fdbb 02bb
00000120: 3adb 973e ba2c b33e a014 fa3e 865d 8d3c
00000130: 8e7a 123e b9a4 4b3d f175 e6ba ef42 8dbe
00000140: e160 0a3f 1b01 cf3d 97d0 493e b910 4dbd
00000150: 319e 1d3e 26c0 bbbd 2452 b23c bdce c7bd
00000160: e6bb 3fbe de3e 353d 0329 ec3d 0b8b d6bd
00000170: 9bd6 f63e 675b ff3e 38a2 f5be 7a78 cc3e
00000180: 32be 53bf 437b 903d 7009 d13e f926 1a3e
00000190: 4b79 71bd 66a4 443f 48e3 623e f66b 5b3e
000001a0: 2718 4b3f c020 a0be 8e8a a13e bf6f a93d
000001b0: 26b3 8abe e5bb b23d 68d1 19be 0bb0 0a3e
000001c0: 247b 153d aa04 393e dffb 363d 2597 54be
000001d0: d417 8abe 6a7c ca3e 9354 273e 11f0 e23d
000001e0: c2fb 6e3c 3e38 1abe 415d ae3e 2120 f03d
000001f0: 0e21 acbe 6c64 d13e 7871 fa3e 0a7c b93e
00000200: 4a69 c1be 1c1d f63d aa29 bc3c 7b90 d93d
00000210: a46a 87be 9984 4cbd 4372 a43c 0516 f4bd
00000220: 159f 61be ac1b 51bc 9a5e 353e c155 003f
00000230: 8844 883e f661 3ebe 81f5 f7be 2740 f5be
00000240: e84e 76bf ca87 abbe ee17 2b3e 1079 fd3e
00000250: 822f a33e 8863 e13e 154e a5be 8c44 a0bd
00000260: 7479 dbbe 084c f6be 9c56 863d d0ec 54be
00000270: 1203 a73e 40ec 69be a69f a03e cbcf 2b3f
00000280: fa5b cdbe 7b57 0d3e 522f 453e 5126 bb3d
00000290: 3c9b eabd 91ab 31be 02fd 57bd 929a 3abd
000002a0: 137c 8fbe fcec febe 35a5 bb3d a4be c43e
000002b0: f5fe 1b3e 4aa7 41be 5b15 89be dd40 71be
000002c0: 2718 d63b 1b5b 0d3f 3f27 7fbb b5e5 64be
000002d0: 5b72 6b3e 604b 48be cc99 8b3e b718 613f
000002e0: 2594 a73d 1c9f f3be 2f4b f43d 017e 07be
000002f0: 5063 833e 51c5 f1be e870 16be 1c80 243e
00000300: 4e22 c13d 6d26 4abe de1c 59b9 ebf7 bcbe
00000310: d4bd 29bf 0fdb d8be 7959 aebd bd35 eb3d
00000320: 7473 113e b159 36be e53b 8cbe 1552 e4be
00000330: 145c b23e 8aa5 b83e d0f9 283e 75e4 fbbe
00000340: 186c 90be 9533 a23e 2026 72be 8087 d5bd
00000350: 1178 b7b7 8d53 04be 5500 e4bb 7274 363e
00000360: af99 c23d 0686 613e 2a20 5cbc 534d 93bd
00000370: d618 06bd 5bab 3abe 5cce c33e 9f7d 983e
00000380: 83c8 d9bd adf0 0a3f 9561 6e3d 69cd dd3e
00000390: b852 84be 4d7e 09be b9fd 013d ce6a 7c3d
000003a0: fe69 de3e 2d42 c83e 01a5 693e 03a3 d23e
000003b0: b8fd ca3e 603e 6b3d 2229 b83e f5fd 973e
000003c0: e636 cc3e dedb ac3c cd1f 993e 824b ccbe
000003d0: 6d05 583e 6fa4 b7be 3d4e 943e f65b e8bc
000003e0: 8a0b 833e 510e acbe a2e6 723d d030 9b3e
000003f0: 90dd 1cbe e6a9 47bd 801c 0dbf ec23 87be

conv.bias f4 [16]
0.2758719 0.5081516 0.26873395 0.35666248 0.1207455 0.01039736 0.16497467 0.080979
0.16963099 1.2618434 0.22955833 -0.1069286 0.19759797 -0.02893819 -0.0009995768 0.5841883
00000000: 153f 8d3e 3916 023f 7f97 893e 779c b63e
00000010: 6b49 f73d b059 2a3c 1fef 283e 51d8 a53d
00000020: bfb3 2d3e 1684 a13f 5711 6b3e 62fd dabd
00000030: 1f57 4a3e c80f edbc 3b04 83ba 5d8d 153f

fc_hidden.weight f4 [128, 1024]
0.012425624 -0.178474 0.021293696 0.30254126 -0.08903428 -0.10546441 0.014867193 -0.10070995
-0.024996974 0.025850713 0.025534153 -0.11110511 -0.05963287 -0.09176842 -0.068279825 -0.024806466
0.1098837 -0.24164188 -0.0631295 -0.20395707 0.04147837 0.038963605 -0.043916546 -0.15305531
0.051657546 -0.03875895 -0.10599934 0.07533028 -0.11051474 0.013618918 -0.08329588 0.21899396
-0.033629674 0.16594248 0.02006055 0.057772312 -0.12943786 -0.061292812 -0.08289851 0.10850292
0.03915328 0.18098667 0.042865846 -0.063990176 0.19152223 -0.113825046 -0.038166918 0.035768397
-0.0090990905 0.048164625 -0.121050075 -0.111268245 0.010110639 0.010946701 -0.105457835 -0.14781035
0.107176416 -0.092160426 -0.009499716 0.09525486 -0.01892905 0.049686242 0.069197 0.032896522
0.15704088 0.03037807 -0.058880482 -0.16080074 0.114582255 0.012677801 0.058527358 0.050074793
-0.022551594 -0.035853066 -0.037889678 -0.10072554 -0.11513006 -0.044414934 0.039340027 -0.011878937
0.018600345 0.0178858 0.07215148 -0.027910026 -0.096523166 0.055197712 0.01697937 -0.12992361
-0.02651423 0.10080796 -0.049995594 0.009868453 -0.07274677 0.17012142 0.02381003 0.16387115
0.005933803 -0.06532354 0.020744476 -0.035363555 0.12895933 -0.06793449 -0.08567772 0.041620124
0.0004217674 -0.14028294 0.01906849 -0.07210309 0.14416146 0.13776255 -0.017519824 -0.22116262
-0.024179427 -0.02173646 -0.009951825 0.14967543 0.22168316 -0.10466904 -0.10798149 0.054490652
0.036264315 0.19656715 -0.10273128 -0.07456725 -0.12551922 -0.18130626 0.017278146 -0.03217393
-0.076853015 -0.009616578 -0.05486636 -0.042981386 -0.054335847 0.08149685 0.0069367746 -0.096000515
0.028327685 0.06538255 -0.18680522 -0.21157514 0.036373828 0.0018489045 0.037510063 0.117022134
-0.06870832 -0.046225283 -0.07802777 -0.109837435 -0.093937665 -0.03402903 0.0422124 -0.14530705
0.023593953 0.057683975 0.09370074 -0.22594483 -0.03348782 0.14364633 -0.045018934 0.07090659
0.050865926 -0.1616945 -0.1887339 -0.002267958 0.10360244 0.03286743 -0.022335337 -0.015527029
0.0027039044 -0.08145264 0.009606158 0.08296241 -0.1343497 -0.06734701 -0.037489954 -0.04477921
-0.0028620088 -0.12130201 -0.042104386 0.027772283 0.08010479 -0.06020972 0.043897532 0.05077134
-0.07407999 -0.012876879 0.00044320617 -0.07557158 -0.13664503 -0.058852945 -0.010678633 0.081499785
-0.13161387 0.09100027 0.015612522 -0.069108 -0.015564159 0.08630081 -0.011413552 -0.04143134
-0.014946095 -0.22641072 0.027070398 -0.054297272 -0.024635952 -0.0544724 0.107877105 0.09599363
-0.14337952 0.17697696 -0.0067222114 -0.0092900125 0.023611462 0.06636041 0.015647093 -0.030963987
0.112151414 0.03461364 0.07357985 -0.03735185 -0.031062325 -0.07524316 -0.032006163 -0.068071805
-0.10487653 -0.077949494 0.07358509 -0.074989066 -0.0025821698 -0.023066193 0.118182555 0.029073436
0.028168296 -0.0466093 -0.09601277 -0.08655878 0.036733948 -0.036801238 -0.092348985 -0.08145623
0.07615158 0.005974389 -0.115642 -0.016496636 -0.0066910884 0.16902874 0.10985051 0.1241013
-0.02508741 0.046233803 -0.047417846 -0.11497647 -0.14393806 -0.16692784 0.04592191 0.099196345
00000000: d894 4b3c e3c1 36be 1e70 ae3c b0e6 9a3e
00000010: 9b57 b6bd b9fd d7bd 8795 733c 0541 cebd
00000020: 74c6 ccbc e0c4 d33c 002d d13c 138b e3bd
00000030: 9941 74bd 15f1 bbbd 4bd6 8bbd ee36 cbbc
00000040: b50a e13d f870 77be 0a4a 81bd 1fda 50be
00000050: 39e5 293d 4d98 1f3d d6e1 33bd 88ba 1cbe
00000060: dd96 533d b4c1 1ebd 2f16 d9bd c346 9a3d
00000070: 8d55 e2bd e221 5f3c 0897 aabd f43f 603e
00000080: 45bf 09bd d3ec 293e 0656 a43c a9a2 6c3d
00000090: 5c8b 04be 2c0e 7bbd b2c6 a9bd c736 de3d
000000a0: 315f 203d 9254 393e 1994 2f3d 480d 83bd
000000b0: 671e 443e 1b1d e9bd ea54 1cbd e281 123d
000000c0: 5a14 15bc 4548 453d 1ae9 f7bd 9be0 e3bd
000000d0: 18a7 253c cb59 333c 47fa d7bd 995b 17be
000000e0: 4f7f db3d 9bbe bcbd b2a4 1bbc fb14 c33d
000000f0: 1811 9bbc cd83 4b3d 28b7 8d3d 81be 063d
00000100: 53cf 203e 6edb f83c a92c 71bd f3a8 24be
00000110: 1aaa ea3d 8db6 4f3c 62ba 6f3d 3a1b 4d3d
00000120: 1fbe b8bc aada 12bd 3532 1bbd 3149 cebd
00000130: 4fc9 ebbd 6fec 35bd 0223 213d df9f 42bc
00000140: c05f 983c 3e85 923c 28c4 933d 91a3 e4bc
00000150: f0ad c5bd ff16 623d 5218 8b3c b20a 05be
00000160: 5f34 d9bc 6774 ce3d 2ec8 4cbd 4baf 213c
00000170: 42fc 94bd 4f34 2e3e 410d c33c d7cd 273e
00000180: 5970 c23b 59c8 85bd 52f0 a93c 60d9 10bd
00000190: ea0d 043e 3d21 8bbd cd77 afbd dd79 2a3d
000001a0: aa20 dd39 55a6 0fbe 8635 9c3c c9aa 93bd
000001b0: 109f 133e a011 0d3e bc85 8fbc 7478 62be
000001c0: ef13 c6bc a910 b2bc fb0c 23bc 8444 193e
000001d0: e900 633e b95c d6bd 6625 ddbd 9731 5f3d
000001e0: e489 143d e648 493e c764 d2bd b7b6 98bd
000001f0: 1c88 00be 59a8 39be e68a 8d3c d0c8 03bd
00000200: 1d65 9dbd da8e 1dbc 8cbb 60bd 400d 30bd
00000210: 448f 5ebd d2e7 a63d e24d e33b eb9b c4bd
00000220: 760f e83c 49e7 853d de49 3fbe 27a7 58be
00000230: b9fc 143d f156 f23a 27a4 193d 4da9 ef3d
00000240: f3b6 8cbd b956 3dbd 06cd 9fbd 73f2 e0bd
00000250: 6462 c0bd 0662 0bbd e9e6 2c3d 5fcb 14be
00000260: 1b48 c13c 0846 6c3d 2ce6 bf3d 155e 67be
00000270: 862a 09bd 0618 133e c665 38bd 7937 913d
00000280: ca58 503d 3e93 25be 7643 41be 05a2 14bb
00000290: 842d d43d 00a0 063d 99f8 b6bc 1465 7ebc
000002a0: fd33 313b a4d0 a6bd 2663 1d3c 32e8 a93d
000002b0: f892 09be 3bed 89bd 118f 19bd 686a 37bd
000002c0: 8a90 3bbb 306d f8bd a675 2cbd b382 e33c
000002d0: fb0d a43d 789e 76bd e6cd 333d 9cf5 4f3d
000002e0: 40b7 97bd 8cf9 52bc 205e e839 46c5 9abd
000002f0: adec 0bbe c90f 71bd 6ff5 2ebc 5ce9 a63d
00000300: c9c5 06be 595e ba3d aacb 7f3c 7f88 8dbd
00000310: d000 7fbc 7bbe b03d e8ff 3abc e9b3 29bd
00000320: 77e0 74bc 36d8 67be bdc2 dd3c d166 5ebd
00000330: 56d1 c9bc 741e 5fbd acee dc3d 4f98 c43d
00000340: 15d2 12be 7339 353e ff45 dcbb 2335 18bc
00000350: d36c c13c f7e7 873d 552e 803c 30a8 fdbc
00000360: a4af e53d 08c7 0d3d 08b1 963d 41fe 18bd
00000370: 6b76 febc 1619 9abd e518 03bd 3b69 8bbd
00000380: 82c9 d6bd fca3 9fbd c8b3 963d de93 99bd
00000390: 9f39 29bb 50f5 bcbc b209 f23d 6a2b ee3c
000003a0: 33c1 e63c 65e9 3ebd 58a2 c4bd bb45 b1bd
000003b0: 5676 163d e5bc 16bd 7721 bdbd 86d2 a6bd
000003c0: 5cf5 9b3d cfc4 c33b b7d5 ecbd f423 87bc
000003d0: eb40 dbbb df15 2d3e 4ef9 e03d d328 fe3d
000003e0: 1d84 cdbc a85f 3d3d 3739 42bd c978 ebbd
000003f0: 8064 13be 22ef 2abe 9d18 3c3d 7427 cb3d

fc_hidden.bias f4 [128]
-0.009690378 -0.009321034 -0.010474138 -0.012706711 -0.0061190813 -0.013958999 -0.0126188435 -0.023520863
-0.01566516 -0.013626256 -0.014756857 -0.017199814 -0.020173304 -0.0008783312 -0.009437318 -0.013179834
-0.009118725 -0.012167651 -0.008619557 -0.0051966994 -0.014291437 -0.007410948 -0.0155850155 7.919e-42
-0.015999552 -0.030035075 -0.016498215 -0.0040673744 -0.0043144654 -0.019529222 -0.009834224 -0.009381256
-0.0048608254 -0.014375277 -0.004393536 -0.011275362 -0.022474933 -0.015079563 -0.010951891 -0.0051562795
-0.0107197855 -0.022406455 -0.018521998 -3.016e-41 -0.010476613 -0.0050988654 -0.012502931 -0.016925063
-0.011961878 -0.0072059836 -0.016303457 -0.013515872 -0.009240972 -0.00985148 -0.004121221 -0.012024364
-0.010177731 -0.011229248 -0.012854927 -0.005665234 -0.01120287 -0.012332421 -0.0094246445 -0.013646037
-0.0028326446 -2.936e-42 -0.020718623 -0.014090538 -0.007240302 -0.0045158626 -0.0098422915 -0.014934807
-0.018321775 -0.013075756 -0.0036057984 -0.012940664 -0.009522969 -0.015233401 -0.009690981 -0.014176439
-0.0031060912 -0.012392432 -0.0058212443 -0.005374282 -0.003512389 -0.0033277601 -0.0070653195 -0.018502228
-0.013178719 -0.017473068 -0.013823214 -0.0035366765 -0.015728028 -0.017588368 -0.004760261 0.028369928
-0.010528433 -0.016091371 -0.0022123146 -0.0036910945 -0.01643483 -0.01591695 -0.007280247 -0.01298843
-0.011300073 -0.00039480813 -0.017381134 -0.019503936 -0.015633484 -0.019433256 -0.024547372 -0.017761024
-0.009382056 -0.015884336 -0.002709441 -0.020159017 -0.0147411525 -0.012103229 -0.009435755 -0.012044665
-0.018246587 -0.023122868 -0.017936857 -0.008366552 -0.007700765 -0.016660862 -0.000254477 -0.0012130192
00000000: 64c4 1ebc 40b7 18bc b89b 2bbc cf2f 50bc
00000010: 9382 c8bb 49b4 64bc 44bf 4ebc d3ae c0bc
00000020: 3954 80bc a940 5fbc bfc6 71bc a0e6 8cbc
00000030: 7c42 a5bc cf3f 66ba fb9e 1abc 3bf0 57bc
00000040: b466 15bc d45a 47bc 0b39 0dbc 1349 aabb
00000050: a226 6abc 8ad7 f2bb 4b58 7fbc 1316 0000
00000060: 7e11 83bc 1e0c f6bc 4427 87bc 9c47 85bb
00000070: 5c60 8dbb bffb 9fbc ba1f 21bc d7b3 19bc
00000080: 8f47 9fbb 4886 6bbc a7f7 8fbb 4cbc 38bc
00000090: 5a1d b8bc 4510 77bc 8f6f 33bc 02f6 a8bb
000000a0: 0aa2 2fbc be8d b7bc 72bb 97bc 1354 0080
000000b0: 1aa6 2bbc 6214 a7bb 18d9 4cbc 6ea6 8abc
000000c0: c1fb 43bc 2c20 ecbb d48e 85bc ad71 5dbc
000000d0: 7267 17bc 1a68 21bc 4f0b 87bb d701 45bc
000000e0: 7fc0 26bc e1fa 37bc 799d 52bc 6da3 b9bb
000000f0: 3e8c 37bc ec0d 4abc d369 1abc a193 5fbc
00000100: e4a3 39bb 2f08 0080 1aba a9bc 00dc 66bc
00000110: 0e40 edbb cdf9 93bb 9041 21bc 1fb1 74bc
00000120: 8c17 96bc b23b 56bc 424f 6cbb 1405 54bc
00000130: 3a06 1cbc 8495 79bc ecc6 1ebc 4b44 68bc
00000140: 908f 4bbb a109 4bbc 23c0 bebb bf1a b0bb
00000150: 1c30 66bb 8d16 5abb 3284 e7bb fc91 97bc
00000160: 8eeb 57bc ae23 8fbc c37a 62bc 96c7 67bb
00000170: 11d8 80bc 7b15 90bc f7fb 9bbb 0d68 e83c
00000180: 737f 2cbc 0dd2 83bc 7bfc 10bb 4ae6 71bb
00000190: 56a2 86bc 4364 82bc 238f eebb 6dcd 54bc
000001a0: f123 39bc 40fe ceb9 e162 8ebc b8c6 9fbc
000001b0: cb11 80bc 7e32 9fbc 9217 c9bc 917f 91bc
000001c0: 32b7 19bc de1f 82bc e090 31bb 8624 a5bc
000001d0: e084 71bc 9f4c 46bc 6d98 1abc fd56 45bc
000001e0: de79 95bc 2b6c bdbc 51f0 92bc dd13 09bc
000001f0: b356 fcbb 5c7c 88bc 536b 85b9 2cfe 9eba

output.weight f4 [300, 128]
-0.1407988 0.11241042 -0.08968238 -0.18951494 -0.34445465 -0.16085537 -0.13874623 0.015094121
0.20743531 -0.033935197 0.01955366 0.20163777 0.2631374 0.09042809 0.17991367 0.09365387
0.15675014 -0.14571631 0.27999333 0.15142569 0.2609409 -0.16290388 0.05700849 -0.057718664
0.13790378 0.20667681 -0.268408 0.026114414 -0.15969591 0.1842775 -0.008933637 -0.0686375
0.3210325 -0.17049803 0.14394967 -0.11952947 -0.5206796 0.20620005 -0.2349484 -0.25907093
-0.13196608 -0.13331042 -0.17337042 0.31478012 0.15947306 -0.023783399 0.010128297 -0.15415464
0.19041252 -0.053556368 -0.04159005 0.24771738 0.024721803 -0.11479156 0.01762393 0.14665084
0.0513129 0.101154506 -0.3206054 0.03601393 -0.11477727 -0.25710896 0.036382414 0.09224685
0.10172441 -0.040849183 0.20427881 -0.07263537 -0.0011667251 -0.12790781 0.20034152 0.0671455
0.06810821 -0.21427923 -0.24162816 0.084367834 0.09019046 -0.016310303 -0.07189559 -0.15585554
0.13057515 0.32130998 -0.04579387 -0.3821721 -0.20957783 0.033038538 0.19139844 -0.27090946
-0.14751956 0.04267466 0.0024313529 0.12782176 -0.052504793 0.025845263 0.14738385 0.22452736
-0.08391746 -0.06786188 0.11993014 0.13666667 -0.032146987 0.03868506 -0.31367573 -0.16420746
0.27276665 0.16754872 0.14515449 -0.027519708 0.21339048 -0.15377359 -0.038257286 0.019040653
-0.007876268 0.023383336 0.16205446 -0.30602622 -0.015921222 -0.2378843 -0.37552145 -0.26853436
-0.24178094 -0.053507846 0.43361703 0.015415027 -0.14506496 0.02919489 -0.089403495 0.20513855
0.31248093 -0.39450538 0.05563278 0.090064615 -0.13535698 0.0868212 -0.037688155 0.027007494
-0.22829579 0.19164577 0.27503216 0.06487335 0.1659568 0.016012313 -0.12754185 0.21297172
0.28931412 0.17244102 -0.052456867 -0.3994816 0.13082448 -0.22005856 -0.09866902 -0.1361005
0.44251913 0.14431065 -0.13165258 0.123746134 0.16024208 -0.35274914 0.013559803 0.2127429
-0.099015154 -0.010029676 0.23088437 -0.1596602 -0.500921 -0.116575785 0.1972814 0.021136127
0.25799453 -0.082314916 -0.13827951 0.02289202 -0.058767952 -0.030938717 0.080886796 0.14506099
0.23977917 -0.29145446 0.16938913 0.07712542 0.1564987 -0.09593555 0.054010596 0.16237642
-0.19311479 0.057665855 -0.17669733 -0.12661421 0.06802939 0.4032363 -0.18306366 0.0016008057
-0.052464537 0.0788263 0.33075517 0.19458888 -0.116140656 0.0075077238 0.03981994 -0.0065184026
-0.3171969 -0.13414496 -0.0024016737 -0.16501456 -0.07937164 -0.117303796 0.008528779 -0.10699181
-0.06015189 0.23171136 0.12619796 -0.05715902 -0.12521954 0.2243493 -0.015868418 0.23804244
-0.24083512 0.27052745 -0.13214123 0.054348096 -0.022842225 0.3052107 0.19466001 0.25256234
-0.43654588 -0.07637617 -0.15722765 -0.013093372 -0.11320965 0.09454656 -0.110976525 0.14182347
-0.00966128 0.055264875 0.0023452975 -0.14170472 -0.17482884 0.17267102 -0.36127716 0.003132823
-0.23753698 -0.267131 -0.14105178 0.004815441 -0.11982295 0.1488369 -0.15737757 0.03836333
-0.059084058 -0.015830424 0.013164194 -0.091186345 -0.06273351 0.21767323 -0.043848064 0.1607335
00000000: 902d 10be 6f37 e63d 65ab b7bd 3410 42be
00000010: 5c5c b0be 45b7 24be 7e13 0ebe 554d 773c
00000020: ec69 543e a2ff 0abd ff2e a03c 227a 4e3e
00000030: f2b9 863e 5d32 b93d 4a3b 383e 9acd bf3d
00000040: 1c83 203e a836 15be 495b 8f3e 560f 1b3e
00000050: 0c9a 853e 46d0 26be bc81 693d 686a 6cbd
00000060: a636 0d3e 16a3 533e c66c 89be e5ed d53c
00000070: 5387 23be 3eb3 3c3e 645e 12bc d191 8cbd
00000080: 5f5e a43e 0997 2ebe 8b67 133e decb f4bd
00000090: 424b 05bf 1b26 533e 5096 70be f2a4 84be
000000a0: 1e22 07be 8782 08be 0488 31be dc2a a13e
000000b0: e84c 233e 67d5 c2bc 28f1 253c b7da 1dbe
000000c0: 80fb 423e ec5d 5bbd 545a 2abd a0a9 7d3e
000000d0: 6185 ca3c d617 ebbd 0f60 903c a32b 163e
000000e0: 7a2d 523d 182a cf3d 6426 a4be 5883 133d
000000f0: 5810 ebbd c9a3 83be ba05 153d ebeb bc3d
00000100: e354 d03d 7951 27bd 772e 513e dac1 94bd
00000110: ccec 98ba 44fa 02be 5426 4d3e 9483 893d
00000120: 517c 8b3d 046c 5bbe 5f6d 77be 0bc9 ac3d
00000130: c7b5 b83d 2f9d 85bc ff3d 93bd 9898 1fbe
00000140: 7eb5 053e be82 a43e 5a92 3bbd 10ac c3be
00000150: 929b 56be 6b53 073d f4fd 433e a5b4 8abe
00000160: 5e0f 17be a0cb 2e3d 5557 1f3b b5e3 023e
00000170: 440f 57bd 72b9 d33c cbeb 163e 80ea 653e
00000180: ebdc abbd 2bfb 8abd ef9d f53d 59f2 0b3e
00000190: 8fac 03bd 3a74 1e3d 1b9a a0be 0026 28be
000001a0: 12a8 8b3e e491 2b3e 61a3 143e 0371 e1bc
000001b0: 0983 5a3e d376 1dbe acb3 1cbd 25fb 9b3c
000001c0: 760b 01bc 698e bf3c 9bf1 253e 78af 9cbe
000001d0: 396d 82bc f197 73be 5944 c0be 567d 89be
000001e0: 6c95 77be 0b2b 5bbd 0d03 de3e 4f8f 7c3c
000001f0: e98b 14be 1f2a ef3c 2e19 b7bd d70f 523e
00000200: 80fd 9f3e 9cfc c9be 33df 633d cc73 b83d
00000210: 059b 0abe 50cf b13d e55e 1abd d23e dd3c
00000220: 5fc6 69be ca3e 443e 04d1 8c3e 52dc 843d
00000230: 94f0 293e 412c 833c 559a 02be 4215 5a3e
00000240: fb20 943e 6194 303e 03dd 56bd da88 ccbe
00000250: daf6 053e 0857 61be fc12 cabd ee5d 0bbe
00000260: de91 e23e 2cc6 133e efcf 06be 9d6e fd3d
00000270: 8016 243e 899b b4be f029 5e3c 46d9 593e
00000280: 75c8 cabd 8353 24bc f46c 6c3e f77d 23be
00000290: 5c3c 00bf 49bf eebd 2304 4a3e ac25 ad3c
000002a0: dc17 843e b994 a8bd 2599 0dbe 0c88 bb3c
000002b0: aab6 70bd 3173 fdbc faa7 a53d de8a 143e
000002c0: ac88 753e 8539 95be 5874 2d3e eff3 9d3d
000002d0: 3241 203e dc79 c4bd 373a 5d3d 0146 263e
000002e0: e2bf 45be 0833 6c3d 25f0 34be 28a7 01be
000002f0: fe52 8b3d fd74 ce3e 0a75 3bbe 20d2 d13a
00000300: 0ee5 56bd af6f a13d be58 a93e 4f42 473e
00000310: 27db edbd 5a03 f63b 3c1a 233d 5398 d5bb
00000320: a267 a2be 4c5d 09be 6665 1dbb 94f9 28be
00000330: 998d a2bd f93c f0bd 4bbc 0b3c 861e dbbd
00000340: d461 76bd be45 6d3e 0a3a 013e 941f 6abd
00000350: 8d39 00be d3bb 653e 7cfe 81bc 66c1 733e
00000360: 7b9d 76be 9382 8a3e 0850 07be 1c9c 5e3d
00000370: 9e1f bbbc 9444 9c3e f454 473e da4f 813e
00000380: f182 dfbe 1c6b 9cbd 4900 21be 9585 56bc
00000390: 76da e7bd a0a1 c13d a947 e3bd 2c3a 113e
000003a0: 584a 1ebc 6c5d 623d 90b3 193b 0b1b 11be
000003b0: 5506 33be acd0 303e 52f9 b8be 0c50 4d3b
000003c0: e53c 73be 65c5 88be e16f 10be d9ca 9d3b
000003d0: bc65 f5bd b368 183e 9627 21be de22 1d3d
000003e0: 2002 72bd ceae 81bc a2ae 573c e8bf babd
000003f0: 6d7a 80bd bbe5 5e3e 079a 33bd 5397 243e

output.bias f4 [300]
0.010987959 0.0063719186 0.02527478 0.0017741892 0.018603357 0.00782737 0.0117212115 0.032222703
0.014335854 0.021863863 0.020077744 0.008164876 0.014455827 0.0077731884 0.0033149596 -0.005285751
-0.0121323755 -0.010039676 -0.010137784 -0.02264326 -0.01350799 -0.018161312 -0.011294139 -0.0075107226
-0.0017130178 -0.0043646856 -0.0066828923 -0.013887298 0.0033386392 -0.0033951623 -0.00624439 0.0047019986
0.011987318 0.011042134 0.0030915798 0.012224571 0.007571504 0.035400435 0.01767623 0.013844445
0.026524017 0.030078292 0.035122342 0.0315269 0.035229854 0.027435346 0.041552536 0.025338477
0.02616964 0.016640788 0.007466376 0.016208434 0.015804116 0.017862393 0.008756659 0.015827322
0.012685504 0.0148871485 0.013923569 0.020646857 0.016156942 -0.002969322 0.010818861 0.00015523557
0.010134469 0.008495132 0.009845778 0.0010213477 -0.0002740025 0.0039198906 -0.007623589 -0.005794443
-0.0011316008 0.0251721 0.008911827 -0.005603614 0.0049869707 -0.008632909 -0.021601496 0.013448311
-0.0146281915 0.0055469815 0.010430883 -0.0052966136 0.0007888936 -0.001184999 -0.0038564785 0.015491258
0.002966402 0.0096102115 0.017550794 0.008805005 0.0285356 0.016136544 0.01251915 -0.0007942457
0.008055678 0.01918798 0.0041152635 0.011540237 0.005434323 -0.00033856547 -0.0108898515 -0.011880404
0.002069275 -0.008225255 0.00092688185 -0.012055179 -0.022486234 0.0030677945 -0.0058449893 -0.012385569
-0.0061946753 -0.019720346 -0.013869238 -0.025831878 -0.022608217 -0.023428004 -0.01896239 -0.024193436
-0.026384836 -0.032053594 -0.02858372 -0.019759754 -0.02481746 -0.023159347 -0.014184658 -0.022252403
-0.004808597 -0.017947022 -0.007800031 -0.015122469 -0.004192769 0.0076684277 -0.007952037 0.0047189533
0.0007583874 0.0057273665 0.017781585 0.013808128 0.013065666 0.01898869 0.018609915 0.020441191
0.034346312 0.030224742 0.030456357 0.016858738 0.022360792 0.022507928 0.010110769 0.004934522
0.013420664 0.011164223 0.007850637 0.012395599 0.010875317 0.020955127 0.0007628261 0.001221897
0.019955369 0.023528928 0.003989174 0.0108400015 0.011147879 0.010740418 0.002711257 0.008537845
0.0077848597 0.01897955 0.0025138145 0.0019581593 0.016035527 0.01638566 0.015635103 0.011348112
0.012518739 -0.0022009758 0.0050088856 0.018562254 0.0034917458 -0.00041756983 0.0100022955 0.013388305
-0.0028816795 0.009673551 0.008839837 0.012601273 0.018239684 0.0080992235 -0.0042804764 0.013498235
0.014645236 0.024451114 0.015807146 0.0151067795 0.01895231 0.00886643 0.02101404 0.014604474
0.018729199 0.0034174838 0.00036302657 0.008880843 -0.0018673852 0.010654435 -4.9709553e-05 -0.0006950727
-0.0062122783 -0.003377197 -0.010460802 -0.010427325 -0.005582313 -0.01656156 -0.029226845 -0.033302613
-0.027098577 -0.03465831 -0.035560507 -0.045859996 -0.05197697 -0.050783206 -0.05766711 -0.050569784
-0.044444054 -0.043423012 -0.038915966 -0.032046903 -0.019191347 -0.029620247 -0.021145979 -0.025590051
-0.015610458 -0.014737431 -0.00085077924 -0.0018752542 -0.003964884 0.001729323 0.0032721101 0.008543521
0.01429714 0.02699263 0.021435227 0.02366627 0.013998274 0.03304675 0.03890289 0.031274684
0.02511073 0.030895777 0.0062913173 -0.012412296 0.012205426 0.009436582 0.012995306 0.009735356
00000000: d706 343c 87cb d03b 0e0d cf3c e98b e83a
00000010: 1166 983c 5f3e 003c 530a 403c f4fb 033d
00000020: eee0 6a3c d81b b33c 157a a43c f9c5 053c
00000030: 22d8 6c3c 3bb6 fe3b cb3f 593b 1834 adbb
00000040: dfc6 46bc 747d 24bc f318 26bc 5c7e b9bc
00000050: 9e50 5dbc 08c7 94bc 0d0b 39bc 821c f6bb
00000060: 5787 e0ba a305 8fbb 2afc dabb 8d87 63bc
00000070: 12cd 5a3b 5f81 5ebb bd9d ccbb 3913 9a3b
00000080: 7566 443c 11ea 343c 1a9c 4a3b 9149 483c
00000090: 611a f83b 0c00 113d becd 903c d0d3 623c
000000a0: e548 d93c c066 f63c 72dc 0f3d 5a22 013d
000000b0: 2e4d 103d 17c0 e03c fe32 2a3d a392 cf3c
000000c0: b661 d63c 4352 883c 80a8 f43b 8dc7 843c
000000d0: a277 813c 2754 923c 1778 0f3c 4da8 813c
000000e0: dcd6 4f3c 3ae9 733c ae1f 643c 9923 a93c
000000f0: 905b 843c f598 42bb 9841 313c bbc6 2239
00000100: 0b0b 263c 2b2f 0b3c 3050 213c bede 853a
00000110: fea7 8fb9 6d72 803b 4dcf f9bb 50df bdbb
00000120: 3952 94ba b835 ce3c e902 123c 859e b7bb
00000130: be69 a33b 0b71 0dbc 9ff5 b0bc 4e56 5c3c
00000140: 15ab 6fbc 74c3 b53b 4be6 2a3c 378f adbb
00000150: c1cd 4e3a f851 9bba f9bc 7cbb 0ccf 7d3c
00000160: f867 423b 2674 1d3c afc6 8f3c de42 103c
00000170: 7ec3 e93c c930 843c 1f1d 4d3c ed34 50ba
00000180: f6fb 033c 1c30 9d3c 55d9 863b 4313 3d3c
00000190: 6812 b23b 7d81 b1b9 596b 32bc 07a6 42bc
000001a0: ac9c 073b 38c3 06bc fdf9 723a 1683 45bc
000001b0: 0d35 b8bc 0d0d 493b 5387 bfbb d7ec 4abc
000001c0: b4fc cabb 908c a1bc cd3b 63bc 609d d3bc
000001d0: de34 b9bc 16ec bfbc 0457 9bbc 5031 c6bc
000001e0: 0325 d8bc a14a 03bd 6828 eabc 35df a1bc
000001f0: fc4d cbbc acb8 bdbc c566 68bc ac4a b6bc
00000200: 6f91 9dbb a205 93bc 6797 ffbb 3bc4 77bc
00000210: 7f63 89bb 6f47 fb3b 4349 02bc 73a1 9a3b
00000220: 84ce 463a a2ac bb3b b0aa 913c 7d3b 623c
00000230: 6011 563c 2b8e 9b3c d273 983c 4974 a73c
00000240: b8ae 0c3d e199 f73c 9c7f f93c 561b 8a3c
00000250: fb2d b73c 8c62 b83c a4a7 253c c5b1 a13b
00000260: 58e2 5b3c 25ea 363c f59f 003c e916 4b3c
00000270: 632e 323c 16aa ab3c 65f8 473a 0f28 a03a
00000280: 7179 a33c bdbf c03c 9eb7 823b 439a 313c
00000290: 98a5 363c 94f8 2f3c 58af 313b 51e2 0b3c
000002a0: 2318 ff3b 007b 9b3c cfbe 243b 7654 003b
000002b0: f05c 833c 383b 863c 3015 803c 6eed 393c
000002c0: 661b 4d3c 3f3e 10bb 9421 a43b de0f 983c
000002d0: c6d5 643b 46ed dab9 abe0 233c 9f5a 5b3c
000002e0: 8fda 3cbb d07d 1e3c f7d4 103c 9275 4e3c
000002f0: 646b 953c 9bb2 043c 3d43 8cbb b327 5d3c
00000300: 92f2 6f3c b44d c83c fd7d 813c 6d82 773c
00000310: e041 9b3c 8144 113c a325 ac3c 9b47 6f3c
00000320: fa6d 993c ddf7 5f3b 9a54 be39 f580 113c
00000330: 0dc3 f4ba f08f 2e3c 3a7f 50b8 8a35 36ba
00000340: 5e90 cbbb f753 5dbb c963 2bbc 5fd7 2abc
00000350: d6eb b6bb 1cac 87bc 236d efbc 5268 08bd
00000360: d6fd ddbc dff5 0dbd e5a7 11bd b1d7 3bbd
00000370: cee5 54bd 0d02 50bd 5934 6cbd 4322 4fbd
00000380: f80a 36bd 54dc 31bd 5966 1fbd 9d43 03bd
00000390: 2c37 9dbc 29a6 f2bc 553a adbc 3aa2 d1bc
000003a0: 02c3 7fbc 4475 71bc d406 5fba 17cb f5ba
000003b0: dceb 81bb 73aa e23a e670 563b 20fa 0b3c
000003c0: 8d3e 6a3c a61f dd3c ee98 af3c c4df c13c
000003d0: 0459 653c 075c 073d a358 1f3d e219 003d
000003e0: 05b5 cd3c 2419 fd3c 6527 ce3b f15c 4bbc
000003f0: 44f9 473c e59b 1a3c 44ea 543c 0b81 1f3c
