figs2-3_rl/results/seaquest-UADQN/network_posterior2.pth (torch_old, 686556 bytes, 6 tensors)

conv.weight f4 [16, 10, 3, 3]
00000000: eaee 693e 0d4b abbe 0afb 58be 6deb 35be
00000010: 5575 253e 8a02 433d 8345 64be 465b fa3d
00000020: 888b 533f 1024 023e dc74 ae3c b158 83be
00000030: b727 c6be bbbc 19be 0695 003e 03b9 58be
00000040: 7d3b 963e e3c3 b9be 358b 783e 8eb4 f3bb
00000050: fe74 873d bec5 1d3e 3318 b43e eae8 d5be
00000060: a2d9 6ebe 8da9 fc3c 33a8 09be 9f54 aa3d
00000070: 1748 f43d a519 03be d572 08be 67b5 68be
00000080: 47f1 aebe e55b c7bd 4162 1fbf 45d4 2abf
00000090: e6ce 1c3f 5182 163c 2832 39be bc99 d23d
000000a0: 0e4e 9a3e 9f70 a83d c132 843c 27f2 e53d
000000b0: eb9e f73d 455e f0bd f7be ea3e eb84 023e
000000c0: b7bf 303f 32e5 16be dfe1 903e 5911 d63d
000000d0: 3f46 36be 4f50 913e 7f87 143e 8165 783e
000000e0: dce8 e23e f36e 263e 44cd 993e 1e8b a6bc
000000f0: b988 013f 1238 8b3e 9a09 c7be 0edf 723c
00000100: 5468 95be 9040 12be 3e24 afbe 516a 96bd
00000110: e660 eebd bd65 633d 9f74 8cbe 4a1d c7bf
00000120: 9ab2 58bf 86a1 13be 4bb9 fd3e 6b44 08be
00000130: cef5 da3d 4c82 36bd 4a38 cdbd f2de ff3d
00000140: 6817 b03f 3945 3bbe 03ac 193e 6eba 8e3e
00000150: a895 12bd 7fbe 8b3e 1b31 6b3e 064b 163f
00000160: 8d7c 2a3d 8e25 033f a667 973e b69c 7f3e
00000170: 39a4 86be a65e fd3e 7737 a23d f56a 2f3d
00000180: 9e76 2f3f f80d 423d 1b6d 1fbe ee4c e23e
00000190: 7999 823d 3086 15be a09b 303e b054 86be
000001a0: 13ff 7abd 8342 d63e 8886 15be 004b 123e
000001b0: 46a6 2a3e 1f04 943c 916d 9c3d 9083 ed3d
000001c0: b3af 46be 55ec 29bd b9e8 583e bfba 043f
000001d0: 3176 b4bd 53d7 ae3e 5e08 cfbd 34e8 9f3d
000001e0: 9049 953d 6f6f 283d 826f d03e b5c8 8c3e
000001f0: 2708 883d 9038 7b3e c79e d3bc 5109 debe
00000200: d24a 3a3d 3cf3 5dbd 5e3e d03e ba8f fcbd
00000210: 17d1 e63e 7e5f 5ebe 9a73 913e c627 233f
00000220: e495 f13d c822 dc3e 71d6 173f 87f5 973e
00000230: e9b9 133f 4bdd 183f 41eb 073f 3a1b 333f
00000240: 1131 3e3f 9ea7 58be 0e77 983f dcbd 803f
00000250: ad2d b73d 613b 2e3f 0a6f b63e ee96 563f
00000260: 659b 3b3f 2080 cb3e 8eff d8be fd1f f43d
00000270: 635b a9be 9314 9cbd 10d8 e8be eec8 b8be
00000280: 2071 5a3e 1d93 b23d aa70 313e 6730 05bf
00000290: c2af a33e cbe0 323f cd65 acbe 604a fc3c
000002a0: 1ffe 953e 418f 823e 0309 d83e fa7e 4cbe
000002b0: 5610 d0bd 9ff2 c33e 4f72 f0bd e559 783d
000002c0: a349 3bbd a3bd 2f3f f885 f8be f28f 46bd
000002d0: e0c3 15be 8f17 2a3e 1fb4 c53d 8e88 40be
000002e0: c108 82bd 0c8a 893d 4e95 133f b2c6 e7be
000002f0: 5a86 b8bd e8cc 6abd ca29 dc3d 3e7d debe
00000300: 68a2 693e 28fe 653b a47d b43e 001c c0be
00000310: 3c9a 13be 65ef 0b3d 57f1 453e cf69 2d3e
00000320: d512 b93d 40f2 81be 1242 8fbe e411 033e
00000330: 4495 77be 9505 b7bc b553 0b3e dad8 f13e
00000340: 26a7 2e3e 3b34 4ebd 3d24 2c3f eae5 763f
00000350: c4b8 c63d cc49 a13e 0621 b0be 1a30 35be
00000360: dc70 24be e7fd 633e 2a3e e3be d066 513d
00000370: 3cae 813f bbc0 bf3e f6fc 643e 9c2b d93e
00000380: d426 623e ae82 29bd 7ee5 8bbe 02ae 2a3e
00000390: 61a0 16bc 69f9 003e 7821 2eba 2d0a 1ebd
000003a0: 46d0 67be 8cf3 983e 3088 0e3e 62b2 aebe
000003b0: 6271 ad3b 1bcf 64be 5b8e f5be 0247 65be
000003c0: ef15 a6be ddd5 c6be 2d2d dcbe a066 493e
000003d0: c374 303f dfce 10be fd69 f83e 9762 d83c
000003e0: a75f adbc 2422 223f 30a5 2abd 0268 22bf
000003f0: 36aa a13e 9e34 36bd a96d 243f ca06 c2be
0.22845045 -0.33455697 -0.21189514 -0.17765589 0.1615804 0.047609843 -0.22292142 0.1222444
0.8263478 0.12709069 0.021295957 -0.25653604 -0.38702175 -0.15013401 0.12556848 -0.21164326
0.2934226 -0.36282262 0.24271853 -0.0074372953 0.06614111 0.15407464 0.35174713 -0.41779262
-0.23325208 0.030842567 -0.13443069 0.083169214 0.119278125 -0.12802751 -0.13325055 -0.2272545
-0.34168455 -0.09734324 -0.622593 -0.6673015 0.612532 0.009186343 -0.1808554 0.10283229
0.30137676 0.08224606 0.016137483 0.112278275 0.12090858 -0.117367305 0.4584882 0.12746017
0.69042534 -0.14735869 0.28297326 0.104525276 -0.17800234 0.28381583 0.14504813 0.2425747
0.44318283 0.16253261 0.30039418 -0.020330008 0.5059925 0.27191216 -0.38874513 0.014823688
-0.2918116 -0.14282441 -0.34207338 -0.07344497 -0.11639576 0.055516947 -0.27432725 -1.5555813
-0.84647524 -0.14417085 0.4955543 -0.1330735 0.10691415 -0.044557855 -0.10020502 0.12493695
1.3757143 -0.18288125 0.15007024 0.2787661 -0.035787255 0.27293774 0.22967951 0.58708227
0.041622687 0.5122918 0.29571265 0.24962124 -0.26297167 0.49486274 0.07920735 0.04282661
0.6854037 0.047376603 -0.15568964 0.44199318 0.06376929 -0.1460197 0.17246866 -0.26236486
-0.061278414 0.4184762 -0.14602101 0.14286423 0.16664991 0.018068371 0.07638086 0.11597359
-0.19402961 -0.04148515 0.21182527 0.5184745 -0.08811606 0.34148654 -0.10109018 0.07807961
0.072894216 0.041121896 0.40710074 0.27496877 0.0664218 0.24533296 -0.025832547 -0.43366483
0.04548151 -0.054187045 0.40672582 -0.12332101 0.45081398 -0.21716115 0.2840851 0.63732564
0.117961675 0.42995286 0.59311587 0.2967951 0.5770555 0.59712666 0.53093344 0.6996342
0.7429362 -0.21157691 1.1911333 1.005794 0.08944259 0.68059355 0.3563159 0.8382405
0.7328399 0.3974619 -0.42382473 0.11920164 -0.33077535 -0.07621112 -0.45477343 -0.36090797
0.21332216 0.08719466 0.17328134 -0.5202698 0.3197003 0.69874257 -0.33671418 0.030797184
0.29295442 0.2549992 0.42194375 -0.19970313 -0.10159366 0.38271043 -0.11740553 0.060632605
-0.045724522 0.6864874 -0.4853971 -0.04847712 -0.14625502 0.1661055 0.09653496 -0.18802091
-0.06349326 0.067157835 0.57649696 -0.4526878 -0.090100005 -0.05732432 0.10750158 -0.43454927
0.2281586 0.0035094116 0.35252106 -0.37521362 -0.14414304 0.03416385 0.19330345 0.16934894
0.09036795 -0.25380135 -0.27980095 0.12799793 -0.24178034 -0.022341529 0.1360615 0.47235757
0.1705595 -0.05034278 0.67242795 0.9644457 0.0970321 0.31501615 -0.34400195 -0.1769413
-0.16058677 0.22264825 -0.44383365 0.05112344 1.0131297 0.3745173 0.22362122 0.42416084
0.22085124 -0.04138439 -0.27323526 0.16667941 -0.009193511 0.12595142 -0.00066425605 -0.038583923
-0.22638044 0.29873312 0.13919139 -0.3412047 0.0052930573 -0.2234463 -0.4796017 -0.22390369
-0.3243861 -0.3883504 -0.43003216 0.19668055 0.68928164 -0.14141415 0.48518363 0.026414199
-0.021163775 0.63333344 -0.04166144 -0.63439953 0.31575173 -0.044483773 0.6422983 -0.37895805

conv.bias f4 [16]
00000000: 9b9a 973e bcc9 713e 8adc 1a3d 25d3 ae3e
00000010: 0672 93ba 0b55 5dbe 4ac5 703e d21f cc3e
00000020: bce6 9c3f dc2e a8bd 6e7c 503e ac44 383f
00000030: 4101 083f 75e9 cd3e 1342 8b3c c9c0 05bb
0.29610142 0.23612112 0.03780798 0.34145465 -0.0011249192 -0.21614473 0.2351276 0.39868027
1.2257915 -0.08212063 0.20359966 0.71979785 0.53126913 0.40217176 0.01699928 -0.0020409098

fc_hidden.weight f4 [128, 1024]
00000000: e0fb b63d 3480 c83b 1eba efbc e9ed 033e
00000010: 026a 563d 641f 333d 7a2a a7bd 8c90 ee3d
00000020: 5c9b 01be 0cc9 55be 3483 cbbd 4b09 8a3e
00000030: 8ef2 403e 70e5 9e3d 111d 17bd a4b7 f93c
00000040: 8641 16bd 6ceb 49bc d9bf ed3c 113b ce3c
00000050: a89d a23d 427e 2fbe ed79 f83d b5c3 0c3e
00000060: aa61 06bd 801d 11bd 1ceb d83d ce52 1dbe
00000070: 1a7e 83bd 88c0 a53c 72e6 863c 70c3 cc3d
00000080: 581c dcbd f939 c0bc a42b 3b3d 77e5 84be
00000090: 2f8a cd3d 027d 8e3d efda 913b 238e 52bc
000000a0: 0a69 b3bd d03b 39bd 10c1 0c3e 7ee2 253c
000000b0: 3eac 95bc 342f 2d3d 80bd eabc f797 53be
000000c0: cc12 e73c 53aa 753d de73 cf3d b0e3 933d
000000d0: c0ed 48bd be5f 9ebd b10f a13d e321 10be
000000e0: d51e 06bd 49f0 60bd 244f bbbb a936 57bd
000000f0: 1aa6 643d ae3e a1bd 6972 013e 6624 483d
00000100: 86ce b5bd 1dde ae3d fec8 913d 2590 42be
00000110: 4cfc bcba 8b76 913d 1f12 963d 5906 96bc
00000120: 50cf d23d 262c 27be d7e0 233d ba9d 793b
00000130: 4c80 dfbd 721b 8bbd d05e 9fbd 28af b33d
00000140: 3832 413d ef0e dabc 22c8 2dbe cd94 ca3c
00000150: 1875 4b3d 3cb1 3d3d 8421 b3bb a6c1 1bbd
00000160: 562c 3dbe 36dd 8f3c dc88 90bc 360f d43d
00000170: 20c7 a0bd b49c e3bd 3d38 a2bd f49f 753c
00000180: b875 e3bd e5b0 0b3b 22f3 983e b273 2ebe
00000190: 276a b4bd 8a5f e93d 802d afbc b667 383c
000001a0: a3c1 e2bc e877 4ebd 4f7a a43c 94a7 bfbd
000001b0: ce01 62bd b291 c4bd c314 83bd 2ac0 b43a
000001c0: 9e98 4e3e 8c57 87bc c636 61ba 0eef 3abd
000001d0: f802 d6bc 503e 2cbd 30aa 313e 451f 86bd
000001e0: bfa6 2bbd 5a5f acbb e231 c73c 0e7b ba3d
000001f0: 195c d83d fe72 423d 7263 2bbd 11cb 07bd
00000200: f64a c9bd c0dd 623d 0b14 81bd a0af 073e
00000210: c285 563d c053 a23c 6eab c53d 64fb 21be
00000220: 8a04 fe3d 75b1 4c3d 4a60 45be 55da 6a3d
00000230: 281d febc 059c 7abd f881 f73c bdc8 f73d
00000240: fa87 5f3d 025d be3d f45c 7cbd 0cf1 96bc
00000250: 5ceb 64bd 98a7 9b3d e71c 373d b5d9 e8bc
00000260: 7707 a1bd e07d 41be fc84 1b3d 2e0e 88bd
00000270: ef5b 5bbd d13f 1e3e 4408 2ebd 5d25 e6bd
00000280: b153 293e 7865 c0bd 59db b5bc 14a3 eebc
00000290: 8612 f3bd c43a 24be 9edb 02be e81e 0d3d
000002a0: b08a 703d 92be 03bd c982 03be ca36 08be
000002b0: 686c 183d 6499 90bc 702a 8bbd 54c0 ee3c
000002c0: 2e3f d2bd 84b9 0dbe 64a4 3c3e eb27 543d
000002d0: 9a3a 243e 03c9 f0bd 8b1f 9fbd 389c 803d
000002e0: 5cd9 8f3d b2ee bdbd feb3 59bd 2a3a b43b
000002f0: 026b 04be ea08 15be 5236 0d3b b98b ba3c
00000300: 5ea4 843c 5e0c 913d e331 9dbb d86d 4bbd
00000310: e5c6 bc3c 6bce 073d 90d0 98bd 6083 51bd
00000320: fb0a abbd f25e 41bc 0073 373d 14c8 96bd
00000330: fc4a 07be 3e9b 1c3e 8064 bc3c 48b0 ac3d
00000340: 087e 5c3e 83d2 9d3d 9b5a 563d 4907 003e
00000350: 8c70 6f3c 685a ffbc 5cca 2abc 264c 153c
00000360: 00de df3d af9d 0f3d 2261 223e 12fa 523e
00000370: c5c3 8d3b bee1 4cbe 5a0c c03d c8c3 d7bd
00000380: 4632 c53b 704b 703d 50a8 103d 4058 9ebc
00000390: a644 05be e01a 8bbd 4ee3 4b3e 12e0 743d
000003a0: f4e6 e9bd 63f8 313c 17f9 d03c 532d c43d
000003b0: 11eb 12be 4666 b73d 1740 0fba a6d3 853d
000003c0: 4eef b0bd 10ae e43c e95e 033e 9a2b 6e3d
000003d0: d1f6 0dbe 8496 d9bd 223e 943d 7217 62bc
000003e0: f9ce 3dba 43e1 293e c623 bb3c 0b0a 9c3d
000003f0: 7b57 9c3c dcc0 2b3d 0526 d7bc 70b4 85bd
0.0893476 0.0061187986 -0.029263552 0.12883724 0.05234719 0.04373111 -0.08162399 0.11648664
-0.12656921 -0.20877475 -0.099371344 0.26960215 0.18842527 0.077586055 -0.036892954 0.030483074
-0.03668358 -0.012324195 0.029022144 0.02517465 0.07940227 -0.17138007 0.121326305 0.13746531
-0.032807983 -0.035428524 0.105917186 -0.15363619 -0.06420536 0.020233408 0.016467307 0.09998214
-0.10747594 -0.023465144 0.045695916 -0.25956318 0.10036122 0.06957437 0.0044511477 -0.012851271
-0.08760269 -0.045223057 0.13745522 0.010124801 -0.018270608 0.042281345 -0.028654814 -0.20663439
0.028207205 0.059976887 0.10129522 0.07221162 -0.04905486 -0.07733105 0.07864321 -0.14075427
-0.032744247 -0.054916654 -0.0057162214 -0.052542362 0.05582247 -0.07873283 0.126413 0.048862837
-0.08877282 0.085384585 0.07118414 -0.190003 -0.0014418452 0.071026884 0.07327675 -0.018313574
0.10293448 -0.16325435 0.040009346 0.0038088397 -0.109131426 -0.06792344 -0.07781756 0.08773643
0.047167033 -0.026618449 -0.16970876 0.024729157 0.049672216 0.046311602 -0.005466642 -0.038026474
-0.18473944 0.017561536 -0.017643385 0.10354464 -0.0785048 -0.11113873 -0.07920883 0.014991749
-0.111064374 0.0021315154 0.29872996 -0.17036322 -0.088093095 0.11395176 -0.021384 0.011255195
-0.027680224 -0.05040732 0.020077853 -0.09358135 -0.055177502 -0.09598102 -0.06400444 0.001379018
0.20175406 -0.016521238 -0.0008591231 -0.045638137 -0.026124462 -0.042051613 0.17350078 -0.06548933
-0.04190707 -0.00526039 0.024315778 0.09105502 0.10564441 0.047472946 -0.041842885 -0.033152644
-0.09828751 0.05538726 -0.06302651 0.1325059 0.052373655 0.019815326 0.09651838 -0.15818554
0.124032095 0.049973924 -0.19275013 0.057337124 -0.031019762 -0.061183948 0.030213341 0.12098835
0.054573037 0.092950836 -0.061612085 -0.018425487 -0.05588852 0.07600325 0.044705298 -0.028424123
-0.07862752 -0.18895674 0.03796862 -0.066433296 -0.05355447 0.15454032 -0.04248835 -0.11237595
0.16535832 -0.09394354 -0.02219932 -0.029130496 -0.118687674 -0.16038042 -0.1277909 0.034453303
0.058726013 -0.032164164 -0.1284286 -0.1330215 0.03721276 -0.017651267 -0.06795204 0.029144444
-0.10265957 -0.138403 0.18422085 0.05179588 0.1603798 -0.1175709 -0.07769688 0.06279796
0.0702388 -0.09274043 -0.05315017 0.0055000978 -0.12931445 -0.14554182 0.002154727 0.022771703
0.016191658 0.07082437 -0.0047972067 -0.049665302 0.023044059 0.03315584 -0.07461655 -0.05115068
-0.08351704 -0.011802422 0.044787407 -0.073623806 -0.13212198 0.15293595 0.02299714 0.084320605
0.21532452 0.077061675 0.0523325 0.12502779 0.014614236 -0.031171039 -0.010424223 0.0091123935
0.10931015 0.03506249 0.15857366 0.20603207 0.004326316 -0.20007989 0.09377356 -0.10535389
0.006017956 0.058665693 0.035316765 -0.01932919 -0.13014469 -0.067922354 0.19910929 0.059784003
-0.11421004 0.010862443 0.0255094 0.095789574 -0.14347483 0.08955054 -0.0005464567 0.06534509
-0.08639394 0.02791503 0.12829174 0.05814705 -0.13863684 -0.10624412 0.072384134 -0.013799535
-0.0007240619 0.16589837 0.022844207 0.07619103 0.019084683 0.041931972 -0.026263246 -0.06528556

fc_hidden.bias f4 [128]
00000000: 8514 0080 2b41 78bc 95ad 17bc 8a09 38bc
00000010: 64f0 debb de02 97bc 6dd1 4abc c0f9 6bbc
00000020: d461 02bc 66f1 1cbc e169 14bc 8b98 63bc
00000030: c82f 76bc dd6e ecba 4767 83bc 2847 0080
00000040: 885d 83bb a0bf 07bc 7969 74bb ad1a 29bc
00000050: d065 9bbc 36d3 1abc 799b 073d 11a3 5abc
00000060: fd52 f7bb 9025 30bc 0186 cebb 3883 3abc
00000070: 9fbd 9ebc 8792 c9bb 88cd 4ebb 1c74 16bc
00000080: d123 4cbc b99f b1bb bfd5 46bc 9b08 54bc
00000090: bae3 89bc 36be 34bb 553d 73bb 8868 42bc
000000a0: 933b 93bc 19f0 673c 4c6e 21bc c003 60bc
000000b0: 7162 8abc 6802 1dbb 20c9 f8bb 2398 f3bb
000000c0: a3e2 02bc 17c4 6abc b000 eabb 5e03 14bc
000000d0: c810 8abc 5fa3 63bc 9507 52bc 2a94 dbbb
000000e0: b71c 49bc 0113 0000 9fce 80bc 5db5 ccbb
000000f0: 01dc 3abc f304 69bc 6090 60bc b945 a5bc
00000100: fd29 c9bb d826 ccbb 9961 61bc 4dfb 0bbc
00000110: 8639 68bb e8db a8ba 1548 46bc bbfd e2bb
00000120: 1795 8dbb 1721 e8bb be29 a8bb 964d 49bc
00000130: c044 87bc 7512 d5bb ab50 00bc bb54 afbb
00000140: 7dbc 8bbc bb5d 7abc 625f a8bb 1479 d2bb
00000150: 939f 57bc 5d67 6cbc 88cf b5bb ca2b 18bc
00000160: fb46 bebc 82cc 7fbb 34a3 4ebd 4f1b 44bc
00000170: da65 e4bb 0ba3 38bc 525e 8fbc a49d 4cbc
00000180: 7fb9 23bb 29dd 61bc cd04 3bbb 7a46 3cbc
00000190: 3e35 5bbc 3b40 6cbc f65d 21bc 4d71 9bbc
000001a0: 4141 f1bb 601e b9bb 4d8a c6bb aab6 56bc
000001b0: 7de4 a4bb 7a37 0000 72fc 4dbc 1c81 7fbc
000001c0: bc6a beaf 6f3a 59bc 56ac c9bb f524 01bc
000001d0: 46d8 4cbc 059f f1bb 9d2c 20bc d966 c5bc
000001e0: 52c4 10bc 5a7f 37bc 8e21 84bc e17c 94bb
000001f0: 8acc d1bb 4b10 76bc 9e33 19bc a4d6 90bc
-7.361e-42 -0.015152256 -0.009257694 -0.011232743 -0.006803559 -0.018433984 -0.012379033 -0.014402807
-0.007957894 -0.009579038 -0.009058447 -0.01389135 -0.01502604 -0.0018038411 -0.016040457 -2.5526e-41
-0.0040089525 -0.008285433 -0.0037294312 -0.010321301 -0.018969446 -0.009449771 0.033107255 -0.013344542
-0.007547735 -0.010751143 -0.0063025956 -0.011383824 -0.019377528 -0.0061515006 -0.0031555612 -0.009182956
-0.012459711 -0.0054206518 -0.012135922 -0.012941505 -0.016832221 -0.0027579195 -0.0037115414 -0.0118657425
-0.017972743 0.014156365 -0.009852957 -0.013672769 -0.016892644 -0.0023957733 -0.0075923353 -0.0074339076
-0.007988605 -0.014328978 -0.0071411952 -0.009034006 -0.016853705 -0.013893931 -0.0128191905 -0.006701012
-0.012274913 6.817e-42 -0.015723525 -0.006247206 -0.011404992 -0.014222371 -0.013706297 -0.020174848
-0.0061390386 -0.0062302165 -0.013756179 -0.0085438015 -0.0035434677 -0.001288292 -0.012102147 -0.0069272197
-0.0043207514 -0.0070840227 -0.005131929 -0.012286564 -0.016512275 -0.0065024444 -0.007831733 -0.005350677
-0.017057652 -0.015281136 -0.0051383236 -0.006423125 -0.013160604 -0.014428941 -0.0055484213 -0.009287784
-0.023227206 -0.0039031808 -0.05044861 -0.0119694015 -0.0069701495 -0.011269341 -0.01750103 -0.012488756
-0.002498239 -0.013785639 -0.0028536797 -0.011491412 -0.013379393 -0.014419611 -0.009849062 -0.018974924
-0.007362515 -0.005649373 -0.006058967 -0.013105074 -0.0050321207 1.9901e-41 -0.012572395 -0.015594747
-3.4636638e-10 -0.013258561 -0.0061545772 -0.007882346 -0.0125027355 -0.007373693 -0.009776262 -0.024096893
-0.008835869 -0.011199797 -0.016129281 -0.0045314883 -0.006402557 -0.015018533 -0.009350685 -0.017680474

output.weight f4 [300, 128]
00000000: d0dd ab3d bdd1 de3d 1a16 a0be 6d71 d43c
00000010: 282b a73d 7502 863e df07 4cbd 7339 973e
00000020: 9d5a 1bbe cb2f 893d 9dc9 e5bd e530 89be
00000030: 5c33 52be 62af 49bd 254c 113e aa68 4bbe
00000040: 6479 17be b8b2 8c3d ffe7 923b 2b09 973d
00000050: 00fc 22bc 99ff e4bd 2f71 863e efce 7cbd
00000060: 49c2 95be f369 40bd a7f9 8a3e 4d06 2c3d
00000070: 92f3 d33c cbad 013e cc4f a93e de79 9fbd
00000080: 027c a5bc 59a2 313e eb45 f53d 5403 b43e
00000090: 8fe5 00bc 6d20 e1bd 3d85 83be 1aad 003d
000000a0: 747d 12bd af07 c2be b09f 0d3e 1b92 823d
000000b0: 99ce fa3d aac8 a6bc 56cc a73d 495e 833d
000000c0: c2c4 24be d817 8d3c b105 3b3d b69e e23d
000000d0: 3862 3ebe 715a 453f 80a3 86bb d187 f1bc
000000e0: c432 5d3d 1857 8bbe 1af8 363e ca2d 47be
000000f0: 2b04 3fbe 2e64 39be 1441 f13d e884 b13e
00000100: 6209 a3be 59d7 3ebe f92e 0d3c 3d3e 283e
00000110: d77d 773e 3599 b1be a31e 53be d6aa 953e
00000120: 32fa da3d 031b 2dbe 94e2 b63d d8a1 613e
00000130: 7525 b5bd ca84 84be 57b8 2abd 5dd6 66bd
00000140: 2fa2 d5be 9ed7 24be 21cc b1bd b39f 50bd
00000150: 0e16 8a3c 81a8 f4bd e708 983c 7a7c e8bd
00000160: f383 373e 6e88 a53d 856a 83be 006f 923d
00000170: cf66 21be 3281 12bd 64ab 313e f448 cf3d
00000180: 9904 f7bc ab7c 56bd 395e 93bd f772 253e
00000190: d736 24be 4346 6a3e 5df8 fdbc fa44 333e
000001a0: c804 17bd 12f8 923e 8b03 5cbe 2d82 ddbd
000001b0: 2fa5 643d 23d8 5f3e 3465 aabe 6fc8 743e
000001c0: bf7e dcbd 4d48 4d3a cc2c b7bd 5037 9b3c
000001d0: 319c 5f3e db8c e53e b3c8 1abe a407 793d
000001e0: 009a 1a3e 01f6 80bd c162 29be 039e e7bd
000001f0: 6581 9c3d 75d1 e73d 74e2 6dbd 0698 213e
00000200: c2b9 bebe c97f 4e3e 0d4f 233d 3a20 16bc
00000210: 82ab e3bd 9071 34bd 1815 ee3b 5fb0 b73d
00000220: 4273 13be 0a24 b53e ea69 0fbe 8b5d a93d
00000230: 10a1 833e dfd7 42be 1b46 8f3e 9a6c 1cbe
00000240: 75f2 133d 0b39 fa3d 092f b6bd e525 a73e
00000250: b2d9 81bd 5523 2ebe ea46 9d3e 09d0 b03c
00000260: 1fe7 24be 3320 5dbe 14b9 863d 6856 04bd
00000270: e907 053e 8d75 cf3e 8bc2 23be c696 b13e
00000280: d9e5 1d3e acc7 90bd c149 37be 8c93 56be
00000290: 98a5 f0bd 9886 113e 30dc 613e 1a8d 2dbe
000002a0: 45d5 403e 8e09 d9be 4f00 5bbc 9575 88bd
000002b0: c9e6 31be 9dff a3bc b949 223e 816d 303e
000002c0: f6e9 6abd e0f7 753e 10e0 b2bd 9367 92be
000002d0: 3714 7f3e 62fb 4d3e f02a a5be d083 b93c
000002e0: 888c 3fbd 2689 edbc 3641 d5bd e95d 573d
000002f0: dc28 a33d 69c2 a9bd f0b5 6b3d 88fe bdbd
00000300: 2b11 88bd 83b0 053e e966 cd3d 229d 083e
00000310: 1322 8d3c 8b50 67be 9c0c 1cbe 37b1 213e
00000320: 1d77 3f3e 4607 483b c6a3 8cbe a523 44be
00000330: 7d40 9f3e 64bc b73d 8e46 5cbe 05ac bcbe
00000340: 72f2 6d3e f3eb 3cbe a16b 3f3e 1ef1 ac3d
00000350: 5fe4 8ebd 270d 99bb e588 f2bd 7de9 b73e
00000360: fed7 fe3d 1a14 283c 4be0 66be a630 853e
00000370: e1af 7c3d 3254 813c 22be a03e 6636 133e
00000380: 1ef5 293e 52d4 64bd 21d6 5f3e 2b11 083d
00000390: b94d f53d 2500 563e f0a4 70bd 2cc9 ef3d
000003a0: 6d90 80be ce93 653e 51f1 c9bc a854 9e3e
000003b0: b569 e1bd 1288 813e 6c70 9f3d 9218 4b3d
000003c0: 2541 633e b095 7ebd 9229 efbc b817 bc3d
000003d0: ece0 50bd 5008 d3bd 6bce 533e c9c3 ebbd
000003e0: ae27 10bd 4021 05bd beb4 71be e12a d53d
000003f0: 02f2 c73e f4f3 fdbd 6b00 6fbe 1bf9 c03d
0.08391917 0.10879848 -0.31266862 0.025932992 0.08162528 0.2617375 -0.049812194 0.29536018
-0.15171285 0.06698569 -0.11220095 -0.26795116 -0.20527405 -0.049239524 0.14189203 -0.19864145
-0.147924 0.068700254 0.0044832225 0.073747955 -0.009947777 -0.11181564 0.26258227 -0.061720785
-0.2924979 -0.04697604 0.27143595 0.041998196 0.02587298 0.12663953 0.33068693 -0.07786916
-0.020200733 0.17347087 0.119762264 0.3515879 -0.007867231 -0.10992513 -0.2568759 0.031415083
-0.035764173 -0.37896487 0.13830447 0.06375524 0.122464366 -0.020359356 0.08193271 0.06414468
-0.16090682 0.017223284 0.045659725 0.11065428 -0.18592155 0.7709113 -0.004108846 -0.029483708
0.054003492 -0.27214885 0.1786808 -0.19451061 -0.18653934 -0.18104622 0.11779991 0.34671712
-0.31843096 -0.18636836 0.008617156 0.16429992 0.24169098 -0.346872 -0.20617156 0.292319
0.10692252 -0.16904835 0.08929935 0.22034395 -0.08845035 -0.2588256 -0.041679706 -0.056356777
-0.417253 -0.16097876 -0.086815126 -0.05093355 0.01685622 -0.11946202 0.018558932 -0.11351867
0.17921428 0.080826625 -0.25667205 0.07150078 -0.15761875 -0.03576774 0.17350537 0.101213366
-0.03015356 -0.052364986 -0.07195706 0.16157137 -0.16036545 0.22878365 -0.031002218 0.17506781
-0.036869794 0.28704888 -0.21485727 -0.10815845 0.055821594 0.21859793 -0.33280337 0.23904584
-0.107663624 0.0007830903 -0.08944091 0.018947273 0.21836926 0.44834027 -0.15115623 0.060798302
0.15097809 -0.062969215 -0.16541578 -0.11309435 0.076418675 0.11319248 -0.05807729 0.15780649
-0.37251097 0.20165934 0.03987031 -0.009162957 -0.11116697 -0.044053614 0.007265698 0.08969187
-0.14399436 0.35379058 -0.14005247 0.08269795 0.25708818 -0.19027661 0.27983174 -0.15275803
0.036119897 0.12217911 -0.0889569 0.326461 -0.0634035 -0.17005666 0.30718166 0.021583574
-0.1610379 -0.21594314 0.065782696 -0.032308966 0.12991299 0.40519372 -0.15992181 0.34685344
0.15419711 -0.070693344 -0.17899229 -0.20954722 -0.117503345 0.142115 0.22056651 -0.16948357
0.18831356 -0.42390102 -0.013366773 -0.06663052 -0.17373194 -0.020019347 0.15848435 0.17229272
-0.05735203 0.24020338 -0.08734143 -0.28594646 0.24910055 0.20115426 -0.3225932 0.02264586
-0.04676488 -0.028996062 -0.104128286 0.052579794 0.07966778 -0.08289034 0.057546556 -0.092770636
-0.066438995 0.13055615 0.10029394 0.13341191 0.017228162 -0.22589318 -0.15239185 0.15790258
0.18697782 0.0030521913 -0.274687 -0.19154222 0.31103888 0.089714795 -0.2151129 -0.3684999
0.23237017 -0.18449382 0.18693401 0.08444427 -0.06977152 -0.0046707573 -0.11842517 0.35920325
0.12443541 0.010258699 -0.22546498 0.26013678 0.06169117 0.015787218 0.3139506 0.1437622
0.16597411 -0.055866547 0.21859027 0.033219498 0.11977715 0.20898493 -0.058751047 0.11708292
-0.25110188 0.22419664 -0.024651201 0.30923963 -0.1100649 0.25299126 0.07785115 0.04958398
0.2219282 -0.062154472 -0.029194627 0.091842115 -0.050995752 -0.1030432 0.20684211 -0.115119524
-0.03519409 -0.032502413 -0.23604104 0.10408569 0.39051825 -0.12400046 -0.23340003 0.09422513

output.bias f4 [300]
00000000: aa9f 713c 9c4b d43c c0b9 af3c 4f74 d83c
00000010: ebf8 983c cd8b 0b3d ff43 be3c 7f06 a03c
00000020: ade8 dd3b 482d de3c 14be 4f3c 4db1 e63b
00000030: 068a feba 8c57 ebbc 4d75 90bb 1e98 00bd
00000040: bb9b 1dbd cb84 47bd 538f 08bd 043a c1bc
00000050: b303 67bd 3790 83bd a61d 21bd 80d6 2dbd
00000060: ae87 f0bc f648 eabc 54a2 28bd 4040 c5bc
00000070: f640 71bc c214 edbc 1ec5 1cbc b535 b2bc
00000080: 3a50 1fbc d7d9 76bc 9f0b b0bc db3e 823c
00000090: 8cf3 573c d3cd 0fbc 8b23 0cbb 1015 803c
000000a0: 1395 b93c 64cb c43c affa b63c 0a52 b93c
000000b0: cedd 373d 49c8 0b3d bf75 da3c fd74 f73c
000000c0: dd96 803c 246c 193d eca8 043c 2b52 bcba
000000d0: cff1 253c 2add 9a3c d556 193c 2067 a03c
000000e0: 8cc7 b63c 40b4 e63c 4e85 e23c 9be0 cb3c
000000f0: 727c e53c 6d65 963c 1ce4 1f3c 1102 943c
00000100: 5d3a 073d d24c 8b3b 8b67 423c c51c 1a3c
00000110: 53c1 18bc 3204 5bbc 971e b43c 2b5c 0cbc
00000120: d13e d83c 92b7 f9bb 1935 883a 1dd4 9cbc
00000130: 981d 60bc 945d a23b b347 613b 344c 3a3c
00000140: 7a77 f3bb f098 0bbc 5f98 ff3b 3005 183c
00000150: daaf e33b 876b ec3a b6fd 983c 180d 933c
00000160: cb80 183c d68b 0b3d a3d6 9a3c 6d0b 823b
00000170: 822f fc3b ed19 be3c be6f e83c fe5c a83c
00000180: d48d 783c c599 cd3c 5e54 ae3c 0e53 2f3c
00000190: 19b1 1c3c f015 bfbb 968b 59bc 4d94 183c
000001a0: f4be 31bc 9d64 daba e367 94bc 9807 f43a
000001b0: d704 d7bc c118 593c 5909 ecbb 100f 34bc
000001c0: 21e2 44bc 0cdc c93b 240c 60bd 22d2 e1bc
000001d0: a652 a5bc d987 2bbd 4548 43bd 6246 a7bc
000001e0: a00f 35bd 4aa7 e7bc d453 9cbc d874 32bc
000001f0: 9bd8 78bc c502 98bb 4001 debc 016b 17bc
00000200: d550 a2bc 4a71 f33b c4e4 d3bb 6445 2cbc
00000210: 28a7 ec3a 1374 ee3b f30b 443c f744 1b3c
00000220: ad87 703c be2c d83c c4ce 3e3c d7c2 f13c
00000230: 259b 0c3d 542e 153d 7b68 333d 50e2 173d
00000240: 3b39 823d c5a1 813d c4e8 633d 15b8 4d3d
00000250: 88d2 0b3d 066d e93c e07c 943b b5d7 873c
00000260: 9b69 7f3c a9d9 d1ba 49ca a33c e731 d73c
00000270: 5ec9 0b3d 6127 673c ed93 923c 5384 db3c
00000280: 9a42 c33c 93cf bc3c f05d 9b3c e77a 743c
00000290: 1cc3 cb3c d4ce 413c 383c 5f3c 18bc 083c
000002a0: 3072 213c b7e9 10bc c02d c03c dbdf ca3c
000002b0: 1246 f83c 51dc 843c 9995 823c b366 0a3c
000002c0: daed 7d3c b80f a33c dd95 253b 6a1c c33c
000002d0: c6d1 7a3c 0ff3 c13c 126e a43b 099f 743c
000002e0: c053 563c ee44 2d3d 5423 a13c 9d08 c03c
000002f0: 79ef db3c d353 bd3c 3c9c 953c 11df 013d
00000300: 215c 713c b432 ba3c b225 213b 7a75 023d
00000310: 0231 a43c 1eaa 873c 7970 773c 5807 a03c
00000320: 2816 e93b e995 023c 183f a6bb eaed d03a
00000330: 5f49 9b3a 9ef4 a13c 2e8d a6bb ad04 ae3c
00000340: cb9b b63a 256a 3abc 251e 95bb 01f1 553c
00000350: 6f2c 2b3b d170 52bc 4a35 56bc 1f19 1dbd
00000360: cb05 1abd 05fe f2bc 8d00 5abd e013 50bd
00000370: abd1 27bd b70c 40bd 6137 ccbc 2b8f 4dbd
00000380: be3b 18bd 0422 51bd 27ac bdbc 9aa7 29bc
00000390: 77b6 22bd 1c0c 07bd 5067 72bc 21ea 64bc
000003a0: 5860 0fbc 59b3 d3bb 8377 d0bb c2e2 323c
000003b0: f4e6 e6bb 7684 9d3b 267f 893c cd40 843c
000003c0: 00b3 c73c 37a6 fe3c c1d5 2b3d ffac dd3c
000003d0: 54d0 8e3c b3f1 143d 3b0c 2c3d eae2 013d
000003e0: 0821 013d bb9f ac3c 17ca 013c 9f69 87bc
000003f0: 170e 38bc ebaa 8f3a 1e6a 173c 2e1a 61bb
0.01474754 0.02591496 0.021450877 0.026422648 0.01867338 0.03406887 0.023225782 0.019534348
0.006772122 0.027121201 0.0126795955 0.007040179 -0.0019419796 -0.028728269 -0.0044085146 -0.03139507
-0.038478594 -0.048710626 -0.03333981 -0.023587234 -0.056400012 -0.06423991 -0.039334916 -0.04244089
-0.029361572 -0.028599244 -0.041170433 -0.024078488 -0.014724961 -0.028940562 -0.009568481 -0.021754125
-0.009723717 -0.0150665855 -0.021489916 0.015899112 0.013180625 -0.0087771 -0.002138349 0.015635043
0.022654092 0.024022765 0.022336332 0.022622127 0.044889264 0.034126554 0.026667474 0.030207152
0.015696937 0.037456647 0.008096915 -0.001436775 0.010128452 0.018904287 0.009359081 0.019580424
0.022311948 0.028162122 0.027651455 0.024887374 0.028013442 0.01835891 0.009758975 0.018067392
0.033014644 0.004251101 0.011865507 0.009406273 -0.009323436 -0.013367699 0.021987243 -0.008566896
0.02639714 -0.0076207602 0.0010391801 -0.019144112 -0.013678931 0.004955003 0.0034375011 0.011370707
-0.007430014 -0.00852035 0.0078001465 0.009278581 0.0069484534 0.0018037417 0.018675666 0.01795058
0.00930805 0.034068905 0.018901175 0.003968647 0.007696093 0.023205722 0.028373595 0.020552155
0.015170533 0.025097737 0.021280464 0.010700954 0.009563708 -0.0058314726 -0.013277909 0.009312701
-0.010848749 -0.0016662065 -0.018115943 0.0018617986 -0.026247425 0.013250531 -0.0072032628 -0.010989919
-0.012016804 0.006160265 -0.05469908 -0.02756602 -0.020181011 -0.0418776 -0.047676343 -0.020419303
-0.044204354 -0.028278012 -0.019082941 -0.0108921155 -0.0151883615 -0.004639002 -0.027100205 -0.00924182
-0.019813934 0.0074292766 -0.00646648 -0.010514591 0.0018055188 0.0072770207 0.01196574 0.009476892
0.014680785 0.026388522 0.011645976 0.029511852 0.034327645 0.036421135 0.043800812 0.037081063
0.06358572 0.06329683 0.055641904 0.050224382 0.034136325 0.02849437 0.004531488 0.01658235
0.015589143 -0.0016010302 0.019993918 0.026268912 0.034127586 0.01410851 0.017892802 0.026796496
0.023835469 0.023048198 0.018965691 0.01492188 0.024873309 0.011829097 0.013625197 0.008345626
0.009853885 -0.008844784 0.023459315 0.024764946 0.03030685 0.016218336 0.015940474 0.008447337
0.015498603 0.019904956 0.0025266327 0.02381726 0.015308803 0.02367547 0.005018004 0.014930495
0.013081491 0.042302065 0.019670166 0.023441607 0.026847588 0.02311126 0.018262975 0.031706873
0.014731438 0.022729255 0.0024589119 0.031850316 0.0200429 0.01656061 0.015102499 0.019534752
0.007113237 0.007970312 -0.0050734393 0.0015940045 0.0011847428 0.019769963 -0.005082748 0.021242464
0.0013931928 -0.011377846 -0.0045507126 0.013057948 0.0026119014 -0.01284428 -0.013074229 -0.038354035
-0.03760318 -0.029662142 -0.05322318 -0.050800204 -0.04097144 -0.046887126 -0.02492875 -0.050185364
-0.03716635 -0.05105783 -0.023153378 -0.010354901 -0.039724793 -0.032970533 -0.014795139 -0.013971836
-0.0087509975 -0.006460589 -0.006361903 0.010918321 -0.0070465747 0.0048070503 0.016784262 0.01614418
0.024377346 0.031085117 0.0419519 0.02706003 0.017433323 0.036363315 0.04200385 0.031710543
0.03152564 0.02107226 0.007921717 -0.016529856 -0.011233828 0.0010960972 0.009241609 -0.003434788
