figs2-3_rl/results/freeway-DQN/network.pth (torch_old, 533121 bytes, 6 tensors)

conv.weight f4 [16, 7, 3, 3]
-0.5130596 -0.0064690155 -0.369544 0.04685541 -0.70623714 -0.5382918 0.081691176 0.06941726
0.084720775 0.023333482 0.004435213 0.014319214 0.16834123 0.08908258 0.10708624 -0.010344874
0.022469947 0.025383517 0.016727043 -0.087197915 -0.027089566 -0.40677446 -0.46856865 -0.27615383
0.06115752 0.07947214 -0.038165428 -0.05566993 -0.06244142 -0.014770777 -0.0049615386 -0.28362224
-0.033190615 0.012042177 -0.011118867 -0.03861194 0.03324259 -0.01638161 -0.002759215 -0.019060671
-0.16170447 -0.019986182 0.00784367 -0.0015262752 0.010243243 -0.024183491 -0.0035149665 0.03679923
-0.05833968 -0.060591154 0.039105218 0.007188092 0.020307563 0.007114041 0.016493656 0.02079343
0.005339922 -0.25572792 -0.07922115 -0.45965275 -0.0512178 0.035533216 -0.03360634 -0.57653624
-0.564637 0.026303418 0.03410607 -0.36072645 -0.643122 0.17451882 -0.01352222 -0.5601542
-0.038303178 -0.0006547329 -0.010511914 -0.33747885 0.25381768 0.06648687 -0.014288256 -0.009104586
-0.08587915 -0.56779003 -0.03305137 0.03341021 -0.56734335 -0.60363245 -0.6624058 0.044893384
0.019089837 -0.050611187 0.028277317 -0.029850751 -0.04644468 -0.78884506 -0.7558667 -0.6788577
0.026875379 0.056126446 0.011909615 0.05488594 0.021629391 -0.16845216 -0.34320834 -0.3961435
-0.5015185 0.038847446 0.011026471 -0.036993016 0.08253013 0.12320312 0.042098884 -0.15367961
-0.026177544 -0.24404593 -0.0020662835 0.011561849 -0.013909779 0.04565201 -0.015750274 -0.061877895
0.037348893 0.07927583 -0.08290832 -0.15956071 0.006957614 -0.13949588 -0.29188588 1.266054
0.0034548838 0.16508365 -0.8505947 0.09214428 0.039051548 -0.005679493 0.11167346 -1.1118138
-0.0029742806 -1.1241678 0.1471416 0.010202598 0.17643219 0.014602167 -0.014482243 0.019691939
0.02691387 1.1375159 0.03166167 -0.019326545 -0.17247415 -0.03353339 -0.0071619796 -0.011443007
0.008270432 0.02133635 1.1364659 0.010635584 -5.766772e-05 -0.20652708 -0.020549232 -0.010292046
-0.018294258 0.021618612 0.01449947 1.1354873 0.010329995 -0.010297329 -0.10977634 -0.01895664
-0.020841908 -0.0438443 -0.03121691 0.030233497 1.1218263 0.008963801 -0.0057763057 -0.20941022
0.0058324556 -0.021892266 -0.040692244 -0.032381874 0.018097367 1.1214434 0.04277141 0.0022596663
-0.15351686 0.005237669 -0.021139368 -0.04377842 -0.0017047214 0.16620985 0.08830299 0.06035573
0.07267795 0.007244357 0.101481594 0.24161044 0.17853957 0.033435855 -0.022261245 0.016985662
-0.005433585 -0.07213712 0.030461404 0.14581701 0.015782632 -0.0069611855 -0.00483525 0.08071767
0.12612182 0.12468786 0.05135555 0.12175226 0.27266815 -0.02454087 0.058020767 -0.019548237
-0.055667177 0.07266878 0.040375877 0.059391297 0.0022168297 0.035306826 0.019157281 0.0035040926
0.040961083 0.033358328 -0.010971085 0.027100068 0.2723951 -0.11326195 0.038728338 -0.017488359
-0.06035914 0.009590707 0.05585007 0.045769647 0.030586384 0.094391465 -0.15160324 0.14383727
0.018906703 0.059316445 0.00088046025 0.15840694 0.071277544 0.023700302 0.053357862 -0.6656889
-0.18006012 0.08773326 0.024626117 0.1225227 0.66710997 -0.34499213 -0.011709914 0.39027792
00000000: e057 03bf 09fa d3bb df34 bdbe 75eb 3f3d
00000010: f5cb 34bf 7ecd 09bf b44d a73d a32a 8e3d
00000020: 1682 ad3d dc25 bf3c 4355 913b 239b 6a3c
00000030: a561 2c3e ed70 b63d 0850 db3d 8c7d 29bc
00000040: e512 b83c 18f1 cf3c 2707 893c d294 b2bd
00000050: f0ea ddbc be44 d0be 3be8 efbe 0964 8dbe
00000060: 4f80 7a3d 4ac2 a23d 5a53 1cbd 2706 64bd
00000070: 93c2 7fbd 2101 72bc 6794 a2bb ef36 91be
00000080: e2f2 07bd 8d4c 453c e92b 36bc 8e27 1ebd
00000090: 6229 083d ba32 86bc f2d3 34bb 2025 9cbc
000000a0: db95 25be 10ba a3bc bd82 003c 4c0d c8ba
000000b0: 46d3 273c 751c c6bc 5a5b 66bb caba 163d
000000c0: 97f5 6ebd 6e2e 78bd cb2c 203d 168a eb3b
000000d0: 0c5c a63c e71c e93b b41d 873c fc56 aa3c
000000e0: 83fa ae3b c5ee 82be b33e a2bd 9b57 ebbe
000000f0: c1c9 51bd 478b 113d cda6 09bd e197 13bf
00000100: 0d8c 10bf 447a d73c ceb2 0b3d 23b1 b8be
00000110: a5a3 24bf 10b5 323e 4d8c 5dbc 4466 0fbf
00000120: cbe3 1cbd 62a2 2bba 2a3a 2cbc 07ca acbe
00000130: 64f4 813e 452a 883d 4a19 6abc 672b 15bc
00000140: 68e1 afbd b05a 11bf e060 07bd 25d9 083d
00000150: 6a3d 11bf a887 1abf 6d93 29bf 20e2 373d
00000160: 4a62 9c3c ad4d 4fbd d5a5 e73c 9089 f4bc
00000170: c73c 3ebd c0f1 49bf 7b80 41bf 9ec9 2dbf
00000180: c129 dc3c d8e4 653d 8c20 433c 14d0 603d
00000190: 1f30 b13c b97e 2cbe 01b9 afbe 52d3 cabe
000001a0: 8463 00bf 801e 1f3d 5fa8 343c fd85 17bd
000001b0: 8f05 a93d eb51 fc3d e16f 2c3d 305e 1dbe
000001c0: 4a72 d6bc 2de7 79be 7c6a 07bb e96d 3d3c
000001d0: d7e5 63bc 9afd 3a3d b806 81bc ad73 7dbd
000001e0: 27fb 183d 5e5b a23d d6cb a9bd e263 23be
000001f0: b2fc e33b 02d8 0ebe 1172 95be 0f0e a23f
00000200: 556b 623b b00b 293e 93c0 59bf 24b6 bc3d
00000210: 84f4 1f3d 0a1b babb 0eb5 e43d ea4f 8ebf
00000220: 26ec 42bb bbe4 8fbf 4aac 163e cc28 273c
00000230: a4aa 343e ed3d 6f3c ee46 6dbc fd50 a13c
00000240: 7a7a dc3c 1f9a 913f abaf 013d b452 9ebc
00000250: 109d 30be 4f5a 09bd 0aaf eabb 737b 3bbc
00000260: b580 073c 92c9 ae3c b777 913f df40 2e3c
00000270: 3ee0 71b8 d67b 53be dd56 a8bc f89f 28bc
00000280: d7dd 95bc 8419 b13c 2f8f 6d3c a657 913f
00000290: 243f 293c 21b6 28bc 6bd2 e0bd f54a 9bbc
000002a0: a6bc aabc 1596 33bd 9bba ffbc 3dac f73c
000002b0: 0198 8f3f e8dc 123c 2a47 bdbb a26f 56be
000002c0: 2f1e bf3b 6957 b3bc e9ac 26bd dba2 04bd
000002d0: ee40 943c 758b 8f3f 1331 2f3d e916 143b
000002e0: 8633 1dbe c1a0 ab3b 782c adbc 0051 33bd
000002f0: f570 dfba ea32 2a3e 33d8 b43d 9237 773d
00000300: 2dd8 943d 1262 ed3b 95d5 cf3d ba68 773e
00000310: 14d3 363e 09f4 083d 375d b6bc 8425 8b3c
00000320: 370c b2bb a0bc 93bd 328a f93c 0e51 153e
00000330: 944a 813c a81a e4bb 0471 9ebb 4e4f a53d
00000340: 1426 013e 595c ff3d 325a 523d 4059 f93d
00000350: 299b 8b3e ef09 c9bc 2fa7 6d3d a023 a0bc
00000360: 4403 64bd 5fd3 943d 2d61 253d 4a44 733d
00000370: 3b48 113b e49d 103d bbef 9c3c eba4 653b
00000380: cfc6 273d bea2 083d 11c0 33bc f600 de3c
00000390: 5f77 8b3e e2f5 e7bd 9ba1 1e3d bf43 8fbc
000003a0: 253b 77bd 5722 1d3c 0bc3 643d f478 3b3d
000003b0: 4c90 fa3c 5050 c13d e13d 1bbe 144a 133e
000003c0: 3be2 9a3c cdf5 723d b0ce 663a 6e35 223e
000003d0: f6f9 913d 2327 c23c c68d 5a3d 966a 2abf
000003e0: ae61 38be 7fad b33d b6bc c93c 2eed fa3d
000003f0: b8c7 2a3f cfa2 b0be f0da 3fbc 82d2 c73e

conv.bias f4 [16]
-0.019800814 -0.013141715 -0.11021697 -0.1646098 -0.0056239422 0.18735784 -0.05590964 0.064099014
0.0682883 -0.05014541 -0.06534332 -0.052370984 -0.09780816 -0.20044728 -0.08275677 0.014832202
00000000: 5135 a2bc 5950 57bc 6fb9 e1bd 798f 28be
00000010: 0c49 b8bb bcda 3f3e 8201 65bd 5846 833d
00000020: bcda 8b3d 4665 4dbd b8d2 85bd f582 56bd
00000030: a54f c8bd 0d42 4dbe 627c a9bd c402 733c

fc_hidden.weight f4 [128, 1024]
-0.16980831 -0.07257695 -0.1888432 0.15133554 -0.46493542 0.007242496 -0.21812673 -0.053345654
-0.581407 -0.055827137 0.43206152 0.08535038 0.012311349 0.027789366 0.4261635 0.38757443
-0.0401522 -0.13548788 -0.19018066 -0.19510965 -0.17594168 -0.15060534 -0.04649843 0.23897283
-0.12885082 -0.21416806 0.24229914 -0.51831245 0.05175047 0.18652087 0.08038289 0.1618791
0.23606975 -0.3778926 -0.28541818 0.057924278 0.059305448 0.048266824 0.2193768 0.07837857
-0.3059334 0.06791359 0.4790742 0.051142745 -0.21128939 0.062826246 -0.09791414 -0.12544681
-0.014481135 0.26849243 0.07941702 -0.120099135 -0.1292013 -0.01982475 -0.20566416 -0.048448138
0.3762064 -0.14340496 0.17585404 -0.11629813 -0.1086976 -0.17698579 0.40401924 0.011728029
0.14680459 0.20021951 0.39095998 -0.09096182 0.12746029 0.30072078 -0.252654 0.43559992
0.06130485 -0.15897323 0.17311381 -0.085854806 -0.20980352 -0.122432336 0.30800095 0.45439082
-0.020416982 0.044871558 -0.37421274 0.3718776 0.1910495 0.55980253 -0.05145782 0.6663427
-0.12091174 0.296367 -0.14151016 0.23019212 0.2826745 -0.004208237 -0.66033256 -0.06664928
-0.025552262 0.30718732 -0.11199319 -0.40331817 -0.27989006 0.4357226 0.3517798 0.56492263
-0.17479847 0.34976715 -0.02457197 0.057169124 0.007340674 -0.1556165 -0.058890462 0.18372051
0.21857539 -0.11836089 -0.02259559 -0.09875481 -0.4773045 -0.27859756 -0.013450908 0.40076682
0.10140942 -0.039566997 0.3480992 -0.0022761626 -0.2013093 0.39043424 -0.0153103 -0.29143485
0.01868192 0.2095803 0.6847481 -0.12196898 -0.2812175 0.029876132 -0.124244384 0.43614492
0.28059247 -0.041615687 -0.31757075 -0.50587946 0.47560903 0.13834459 0.33971477 0.2666558
0.4276117 0.25271007 -0.31794307 -1.5804653 0.057028458 0.24586587 -0.1154729 0.41264683
0.17999843 -0.31294674 -0.5878341 -0.91315764 0.07814591 -0.0763756 0.34473428 0.044990763
0.40743443 0.09508842 -0.41006076 -0.84046924 0.2483316 0.5928288 0.3551714 0.42276585
0.26433784 0.28416994 0.60648024 -0.4879865 0.21323246 -0.056215648 0.50044274 0.34066805
0.42961848 -0.44450244 0.48563573 -0.20693086 -0.029303921 0.17211542 0.23683482 0.3372521
0.13155277 0.32709765 0.24485645 -0.2559756 -0.0862629 0.34312287 0.48717928 0.15448071
0.128392 0.17193767 0.061128423 -0.0944001 -0.1984922 -0.1407542 0.06700809 -0.4246627
-0.11265698 0.5460035 -0.35113758 0.32844076 0.067376524 0.52063864 -0.05304765 0.39100012
0.1424834 -0.0059000524 0.21565525 0.32662237 -0.007828939 -0.07527165 0.17803797 0.32993197
-0.11421656 0.017711971 0.013141453 -0.00435224 -0.17885235 -0.56054074 0.23706256 0.20797695
-0.3291365 0.16804999 0.22183166 0.00010247591 0.044831924 0.101353444 0.009823539 0.017841592
-0.3664082 0.04413638 0.02903501 0.5574766 0.10168816 -0.01653104 -0.023406625 -0.013681437
0.026443874 0.17663357 0.21097651 0.24399906 -0.06045734 0.44143867 0.36990356 0.21257043
-0.022463204 0.4844663 0.27226818 0.14168032 0.1051154 -0.08488634 0.20214294 0.015813567
00000000: 3be2 2dbe 39a3 94bd 1d60 41be b4f7 1a3e
00000010: 040c eebe 7652 ed3b 9d5c 5fbe f980 5abd
00000020: 17d7 14bf ffaa 64bd 2b37 dd3e 2ecc ae3d
00000030: 8ab5 493c 86a6 e33c 1a32 da3e 2870 c63e
00000040: a276 24bd 56bd 0abe b8be 42be d3ca 47be
00000050: 0e2a 34be 4938 1abe 2375 3ebd 4bb5 743e
00000060: 78f1 03be df4e 5bbe 441d 783e 20b0 04bf
00000070: 4df8 533d 54ff 3e3e c99f a43d a3c3 253e
00000080: 45bc 713e 247b c1be 5522 92be 0242 6d3d
00000090: 45ea 723d 6fb3 453d 50a4 603e f284 a03d
000000a0: 4da3 9cbe 4816 8b3d 3749 f53e 0e7b 513d
000000b0: 3f5c 58be 0cab 803d 3587 c8bd 2175 00be
000000c0: 4842 6dbc d777 893e 64a5 a23d 89f6 f5bd
000000d0: 584d 04be 8467 a2bc a099 52be 8e71 46bd
000000e0: 209e c03e c0d8 12be 1513 343e b72d eebd
000000f0: d99c debd c33b 35be 9cdb ce3e eb26 403c
00000100: f153 163e 5806 4d3e e82b c83e 314a babd
00000110: f384 023e 13f8 993e dd5b 81be f406 df3e
00000120: cb1a 7b3d e1c9 22be bf44 313e a5d4 afbd
00000130: bcd6 56be cebd fabd 4db2 9d3e eaa5 e83e
00000140: 8441 a7bc 3dcb 373d d098 bfbe be66 be3e
00000150: 7ba2 433e 384f 0f3f 6fc5 52bd 6f95 2a3f
00000160: 93a0 f7bd 6abd 973e 0ae8 10be 7cb7 6b3e
00000170: b6ba 903e 40e5 89bb 8e0b 29bf 6b7f 88bd
00000180: fa52 d1bc a847 9d3e b05c e5bd b87f cebe
00000190: c04d 8fbe 0817 df3e 7b1c b43e c59e 103f
000001a0: 5ffe 32be ae14 b33e 284b c9bc 2c2a 6a3d
000001b0: 098a f03b ef59 1fbe 2037 71bd 3b21 3c3e
000001c0: 3ad2 5f3e 3267 f2bd 631a b9bc f63f cabd
000001d0: 4161 f4be 57a4 8ebe 3261 5cbc 4f31 cd3e
000001e0: beaf cf3d 0111 22bd 0f3a b23e ac2b 15bb
000001f0: 0624 4ebe ffe6 c73e 0dd8 7abc f336 95be
00000200: d30a 993c 389c 563e a74b 2f3f dfca f9bd
00000210: bdfb 8fbe cabe f43c d773 febd 634e df3e
00000220: d1a9 8f3e 3675 2abd a298 a2be 5181 01bf
00000230: 0783 f33e 34aa 0d3e 18ef ad3e 1c87 883e
00000240: ecef da3e 3763 813e 6fc9 a2be b04c cabf
00000250: ac96 693d 43c4 7b3e 0e7d ecbd 7246 d33e
00000260: 8251 383e 8e3a a0be 4c7c 16bf b3c4 69bf
00000270: f60a a03d d06a 9cbd 0381 b03e 3c48 383d
00000280: 3f9b d03e b8bd c23d 7cf3 d1be fe28 57bf
00000290: a44a 7e3e a1c3 173f 07d9 b53e c474 d83e
000002a0: 4a57 873e b97e 913e 4a42 1b3f 5ed9 f9be
000002b0: 9c59 5a3e 6142 66bd 041d 003f 0b6c ae3e
000002c0: f4f6 db3e d395 e3be 3fa5 f83e afe5 53be
000002d0: c70e f0bc 063f 303e d484 723e 4fac ac3e
000002e0: c5b5 063e 5879 a73e a6bb 7a3e 3c0f 83be
000002f0: 9aaa b0bd cdad af3e 906f f93e 3130 1e3e
00000300: 3179 033e 6e10 303e cc61 7a3d d754 c1bd
00000310: 8a41 4bbe de21 10be 8a3b 893d 646d d9be
00000320: b4b8 e6bd e3c6 0b3f 4ec8 b3be 6329 a83e
00000330: b4fc 893d 9348 053f 7e48 59bd 2b31 c83e
00000340: 2be7 113e 3a55 c1bb bbd4 5c3e 0c3b a73e
00000350: f344 00bc 0628 9abd 964f 363e d8ec a83e
00000360: 5fea e9bd b218 913c 404f 573c 3c9d 8ebb
00000370: 1225 37be 997f 0fbf 87c0 723e e9f7 543e
00000380: 9484 a8be 4c15 2c3e d727 633e 56e8 d638
00000390: aea1 373d 6592 cf3d e9f2 203c 8828 923c
000003a0: db99 bbbe 59c8 343d d4da ed3c c9b6 0e3f
000003b0: e241 d03d 1b6c 87bc 40bf bfbc 1b28 60bc
000003c0: d3a0 d83c 6edf 343e 3a0a 583e e4da 793e
000003d0: 1ea2 77bd 4004 e23e 0064 bd3e 10ac 593e
000003e0: c104 b8bc f80b f83e bc66 8b3e a514 113e
000003f0: be46 d73d e4d8 adbd 8ffe 4e3e 748b 813c

fc_hidden.bias f4 [128]
0.024923 -0.23040476 0.18078662 0.26597372 -0.03412223 -0.012534177 0.27035946 0.085435115
-0.09598996 -0.021039663 -0.15739295 0.0511555 -0.006845227 0.6879692 -0.00792903 0.055511173
0.030242113 -0.027380336 -0.05346276 0.011468028 0.30021167 -0.18126975 -0.0202097 0.1712747
-0.09712208 0.0040406114 -0.17019473 -0.3649564 -0.09256917 -0.19578654 0.043586977 -0.14244527
-0.2899876 0.08680867 0.016571168 -0.25456563 -0.034873985 -0.032404047 0.13455413 -0.25113353
-0.04976172 -0.27599144 0.100963965 0.049399734 0.46975777 -0.07056754 -0.14746352 -0.16256975
-0.023592431 -0.061662775 0.080520526 0.07813936 0.32675257 0.039056767 -0.046372373 -0.008813608
-0.026539441 -0.05311439 -0.025653392 -0.37117195 -0.017344197 -0.36957932 0.039988108 0.019414946
-0.3639991 -0.09269039 -0.11751832 0.8108838 -0.09914256 -0.006980363 -0.019673044 -0.23597851
-0.10588019 -0.117810935 0.0989583 0.005536586 -0.043173507 0.032736562 -0.044875883 0.1011317
-0.1626973 0.045524135 0.39176318 0.20388994 0.7407471 -0.1764312 -0.07258688 -0.26505968
-0.04170157 0.12740886 0.19692804 0.18396942 -0.006152182 -0.010851774 -0.035481904 0.16700447
0.08367778 0.34225154 0.02437173 0.20247594 0.062784 0.3592435 -0.29712406 -0.053078245
-0.08893563 0.078237325 -0.29914436 -0.32634324 0.027117804 -0.01808704 -0.003712353 0.036796346
0.039334483 -0.07277219 0.055989776 0.25460285 -0.3744882 0.0055887913 0.021448236 0.035445776
-0.0005745206 -0.12499529 -0.082036056 -0.2594236 0.31789333 -0.05144899 0.014258845 -0.16690172
00000000: 522b cc3c 3aef 6bbe 2120 393e b52d 883e
00000010: c0c3 0bbd 265c 4dbc 8e6c 8a3e 9bf8 ae3d
00000020: 6296 c4bd 5f5b acbc 9e2b 21be 6e88 513d
00000030: ed4d e0bb c01e 303f c3e8 01bc af5f 633d
00000040: 4fbe f73c ba4c e0bc c4fb 5abd 65e4 3b3c
00000050: 58b5 993e c79e 39be d08e a5bc a362 2f3e
00000060: f1e7 c6bd 1b67 843b 8747 2ebe 91db babe
00000070: e894 bdbd 447c 48be 4288 323d 2cdd 11be
00000080: 4179 94be bec8 b13d 42c0 873c 6d56 82be
00000090: 06d8 0ebd 1bba 04bd 8fc8 093e 9394 80be
000000a0: f2d2 4bbd c04e 8dbe 32c6 ce3d 6057 4a3d
000000b0: 1784 f03e b785 90bd ad00 17be af78 26be
000000c0: ea44 c1bc 1b92 7cbd f2e7 a43d 8707 a03d
000000d0: 1d4c a73e fdf9 1f3d f5f0 3dbd f466 10bc
000000e0: 3e69 d9bc 798e 59bd 1027 d2bc 400a bebe
000000f0: 6b15 8ebc 8039 bdbe 92ca 233d 180c 9f3c
00000100: 175e babe 76d4 bdbd 72ad f0bd 1596 4f3f
00000110: 410b cbbd 87bb e4bb 5d29 a1bc 5aa4 71be
00000120: b7d7 d8bd dc46 f1bd a6aa ca3d 406c b53b
00000130: b4d6 30bd c616 063d c6cf 37bd 231e cf3d
00000140: 1f9a 26be 8477 3a3d 2f95 c83e 86c8 503e
00000150: 9aa1 3d3f 61aa 34be 6ea8 94bd e7b5 87be
00000160: 44cf 2abd 7877 023e 81a7 493e 7b62 3c3e
00000170: 3e98 c9bb a4cb 31bc 7955 11bd 3803 2b3e
00000180: 425f ab3d 983b af3e 39a7 c73c da55 4f3e
00000190: e694 803d c4ee b73e a520 98be 9368 59bd
000001a0: e223 b6bd e43a a03d 7329 99be 7616 a7be
000001b0: 2826 de3c 462b 94bc f34a 73bb c4b7 163d
000001c0: 321d 213d 9609 95bd 8955 653d 4e5b 823e
000001d0: ebbc bfbe 2e22 b73b 36b4 af3c 972f 113d
000001e0: 6d9b 16ba 88fd ffbd 8502 a8bd 2cd3 84be
000001f0: eac2 a23e 2dbc 52bd ee9d 693c 49e8 2abe

output.weight f4 [6, 128]
0.5866199 0.49323416 0.041975476 -0.015319456 -0.5092739 0.21732716 0.05196463 0.1022158
-0.34528878 0.03837385 0.6998355 -0.482828 -0.3050694 0.1577933 0.29627764 -0.49511057
-0.32836968 -0.35945392 0.62092805 -0.5243133 0.07423793 0.6256562 -0.2896015 0.0828288
-0.4018139 0.40169674 0.40411076 0.64052147 0.26848736 0.5844294 -0.5241998 0.55672336
0.67398083 -0.619454 -0.44461596 0.5748843 -0.39403194 0.46357152 0.058625545 0.44768682
0.27032444 0.59109133 0.10216573 0.46824053 0.11780657 0.45669997 0.5112116 -0.21936977
0.2808531 -0.2739843 -0.38237098 0.6595996 0.07781588 -0.47993624 -0.34212914 -0.3429681
-0.31091213 -0.35069853 -0.34372854 0.46627656 0.61250395 0.67238206 0.077016845 -0.44284648
0.5307538 0.27927017 0.59610623 0.11856331 -0.37150165 -0.11936564 0.6208958 0.62396824
-0.37916696 -0.35895133 -0.47510988 0.61944795 -0.41293037 0.5399467 -0.37007746 0.053003952
0.4575403 -0.40213656 0.49222773 0.26862657 0.14762783 0.46635014 -0.47850865 0.67802787
0.42283553 0.08974585 0.077939875 0.089763194 -0.535822 0.28961256 -0.27759618 0.048516236
-0.66109407 0.065423876 -0.39120972 0.05449298 0.12104333 0.54068655 0.63020915 -0.5229931
0.46447837 0.08455925 0.6406611 0.59551466 -0.37653 0.5285731 0.101125486 -0.43277037
0.11608746 -0.36089018 -0.7195749 -0.054624658 0.7720916 -0.5794184 0.4499447 0.15056686
-0.37492573 0.35318518 -0.3046957 0.5293517 0.19055203 -0.33957034 -0.4732337 0.4447523
0.566315 0.5936448 0.04838597 -0.013885192 -0.2656457 0.2331038 0.044597685 0.095863216
-0.3960845 -0.000923546 0.6472481 -0.547963 -0.4310313 0.15870434 0.29557338 -0.5423095
-0.40895677 -0.31334463 0.7277468 -0.47881296 0.07343953 0.4875905 -0.34333438 0.080148034
-0.3983202 0.33407837 0.5260109 0.65416634 0.4873759 0.5530636 -0.5123462 0.5848666
0.6108277 -0.6632872 -0.457931 0.51814854 -0.39569393 0.6443428 0.057116833 0.52585125
0.28493074 0.5293253 0.10042684 0.5586896 0.11196498 0.64940333 0.53731173 -0.44833866
0.26361734 -0.29180157 -0.46829107 0.57983106 0.07747674 -0.47774813 -0.4506073 -0.3618117
-0.34724578 -0.34654835 -0.16351219 0.5802955 0.50630885 0.66636 0.07794726 -0.473503
0.6246407 0.27469328 0.63549846 0.1197918 -0.2643032 0.07419517 0.47827598 0.5854582
-0.3541371 -0.5264734 -0.44931823 0.3914684 -0.30590278 0.56908524 -0.44864497 0.037876897
0.5602871 -0.45293576 0.43393844 0.20732614 0.14424264 0.47281313 -0.5629892 0.65154654
0.5012593 0.08497048 0.082006514 0.09583387 -0.45686913 0.3818049 -0.49924543 0.054812115
-0.7700791 0.06709574 -0.38333264 0.051763467 0.12084663 0.5264289 0.6377551 -0.3603996
0.12263742 0.07441369 0.6477149 0.5543686 -0.33642098 0.56335926 0.023427552 -0.4510656
0.1113023 0.2641688 -0.45868134 -0.04822407 0.6723227 -0.38601556 0.49860412 0.15452465
-0.34102967 0.51483583 -0.32204938 0.53576416 0.17093495 -0.32488987 -0.53706795 0.5135544
00000000: b92c 163f 3089 fc3e 7aee 2b3d 75fe 7abc
00000010: c65f 02bf 038b 5e3e ddd8 543d 8456 d13d
00000020: b1c9 b0be e62d 1d3d 6b28 333f 3b35 f7be
00000030: 0e32 9cbe 9194 213e b4b1 973e 227f fdbe
00000040: 1220 a8be 580a b8be 24f5 1e3f 6539 06bf
00000050: 0e0a 983d 012b 203f a646 94be 25a2 a93d
00000060: 8dba cdbe 32ab cd3e 9be7 ce3e 37f9 233f
00000070: 2d77 893e 2a9d 153f f531 06bf 6c85 0e3f
00000080: 028a 2c3f 8a94 1ebf b4a4 e3be 9e2b 133f
00000090: 8ebe c9be 3f59 ed3e 5721 703d 3537 e53e
000000a0: f767 8a3e c351 173f 443c d13d 39bd ef3e
000000b0: 9244 f13d 94d4 e93e c3de 023f 78a2 60be
000000c0: facb 8f3e ac47 8cbe 21c6 c3be 85db 283f
000000d0: ef5d 9f3d 34ba f5be 8d2b afbe 8499 afbe
000000e0: e02f 9fbe c28e b3be 30fd afbe cdbb ee3e
000000f0: 0fcd 1c3f 3b21 2c3f 02bb 9d3d c6bc e2be
00000100: 7bdf 073f 80fc 8e3e 6b9a 183f 52d1 f23d
00000110: 7735 bebe f975 f4bd 07f3 1e3f 62bc 1f3f
00000120: 2c22 c2be 78c8 b7be 9a41 f3be 2494 1e3f
00000130: 9c6b d3be f239 0a3f cb7a bdbe ac1a 593d
00000140: b942 ea3e d8e4 cdbe 4605 fc3e 6c89 893e
00000150: c02b 173e 72c5 ee3e 16ff f4be 3c93 2d3f
00000160: e67d d83e accc b73d f19e 9f3d c4d5 b73d
00000170: a12b 09bf 1948 943e 1621 8ebe f6b8 463d
00000180: 763d 29bf f4fc 853d a44c c8be 0834 5f3d
00000190: 91e5 f73d 6f6a 0a3f 6355 213f e0e2 05bf
000001a0: 1cd0 ed3e 662d ad3d 5e02 243f a673 183f
000001b0: 8ac8 c0be 9150 073f e11a cf3d 1494 ddbe
000001c0: 43bf ed3d 99c6 b8be 1036 38bf 1bbe 5fbd
000001d0: cca7 453f c454 14bf 275f e63e 332e 1a3e
000001e0: 44f6 bfbe b0d4 b43e 1301 9cbe 9883 073f
000001f0: 1220 433e 2adc adbe b04b f2be 93b6 e33e
00000200: 05fa 103f 1bf9 173f 5e30 463d b77e 63bc
00000210: b702 88be c3b2 6e3e 10ac 363d ef53 c43d
00000220: 96cb cabe 1f1a 72ba 0db2 253f 4e47 0cbf
00000230: 22b0 dcbe 6483 223e 6555 973e ccd4 0abf
00000240: c862 d1be b56e a0be 9d4d 3a3f f926 f5be
00000250: 7767 963d 76a5 f93e 86c9 afbe a724 a43d
00000260: a0f0 cbbe 520c ab3e a6a8 063f 7277 273f
00000270: 5589 f93e 9395 0d3f 1f29 03bf d1b9 153f
00000280: 345f 1c3f 31cd 29bf ef75 eabe 62a5 043f
00000290: 6598 cabe a6f3 243f 57f3 693d 309e 063f
000002a0: 71e2 913e dd81 073f 96ac cd3d 4806 0f3f
000002b0: e54d e53d 4c3f 263f 438d 093f a58c e5be
000002c0: daf8 863e 0467 95be d9c3 efbe cf6f 143f
000002d0: 20ac 9e3d 679b f4be 00b6 e6be 623f b9be
000002e0: 33ca b1be c96e b1be bd6f 27be 3f8e 143f
000002f0: 759d 013f 9296 2a3f d0a2 9f3d fc6e f2be
00000300: 74e8 1f3f 99a4 8c3e 07b0 223f 6755 f53d
00000310: c052 87be a3f3 973d 97e0 f43e 97e0 153f
00000320: 7551 b5be f6c6 06bf 0a0d e6be 8c6e c83e
00000330: 4a9f 9cbe 92af 113f cbb4 e5be ce24 1b3d
00000340: fa6e 0f3f 32e7 e7be 2e2d de3e 4e4d 543e
00000350: 58b4 133e 9014 f23e 0f20 10bf c1cb 263f
00000360: 8852 003f 0105 ae3d 08f3 a73d 8c44 c43d
00000370: c0ea e9be ef7b c33e 199d ffbe ab82 603d
00000380: e723 45bf 7e69 893d 2d44 c4be ee05 543d
00000390: 707e f73d 0bc4 063f eb43 233f 4c86 b8be
000003a0: 5429 fb3d 3466 983d a5d0 253f 1aeb 0d3f
000003b0: 5f3f acbe 5038 103f 23eb bf3c 12f2 e6be
000003c0: 76f2 e33d 2241 873e 48d8 eabe 9a86 45bd
000003d0: 571d 2c3f d5a3 c5be 0a49 ff3e b63b 1e3e
000003e0: 719b aebe 48cc 033f a8e3 a4be d727 093f
000003f0: 9209 2f3e f757 a6be 497d 09bf 4d78 033f

output.bias f4 [6]
0.5554319 0.56147754 0.7586034 0.5655423 0.44610348 0.56571573
00000000: c930 0e3f febc 0f3f d533 423f 61c7 103f
00000010: ad67 e43e bfd2 103f
