figs2-3_rl/results/seaquest-QRDQN/network.pth (torch_old, 686556 bytes, 6 tensors)

conv.weight f4 [16, 10, 3, 3]
000000 e7 25 ec 3d 8d 39 8e 3c 25 23 1b 3e b8 fb 39 3e
       0.11530667 0.017361427 0.15150125 0.1816243
000010 21 58 44 3c d4 1c f6 3c a8 3a 7d 3d 4e d3 38 bc
       0.011983902 0.030043043 0.061823517 -0.011280848
000020 e2 c6 4c bc 13 cf 2d 3e c1 8c 61 bd 6c 02 16 3e
       -0.012498589 0.16973524 -0.055065874 0.14649361
000030 5d fe 38 3e 8e 90 42 3d 8c 18 74 3d 1a 52 a3 3d
       0.18065782 0.04750114 0.059593722 0.07974644
000040 56 38 0b 3c 59 90 18 3d 5b b8 10 bd c6 8e 2b bd
       0.008497318 0.037247036 -0.035332065 -0.041884206
000050 da 3a 2a be da f5 ea b8 1e 03 ce bf 6b 69 9a bf
       -0.16624013 -0.00011203783 -1.6094701 -1.2063421
000060 b9 1d 9e bc fe 5b 0c 3d dd 33 66 bd 52 e5 e5 3d
       -0.019301282 0.034267418 -0.056201804 0.1122538
000070 13 61 2b 3e 16 d9 00 bd 6f aa 88 3d 75 3f 9f bf
       0.1673625 -0.03145703 0.06673133 -1.244124
000080 93 7e 3a be 36 9f e3 3d 61 b6 46 bd 2c 91 5c bd
       -0.18212347 0.111143515 -0.048513774 -0.053849384
000090 c5 b1 35 bd 37 ec 81 bd 1e a5 94 bd df 9c 56 bd
       -0.044358987 -0.063438825 -0.07258056 -0.052395698
0000a0 6c 25 66 bd ad 5d 07 3d 4e 9a 90 3d 84 70 a9 bc
       -0.056188032 0.03304832 0.07060681 -0.020683534
0000b0 da fc 02 3e 58 f2 99 bd a5 54 d5 bc 85 80 7b 3e
       0.12791768 -0.075169265 -0.026041338 0.24560745
0000c0 44 7f 5d 3f af 7e cf be bb 18 94 3e 6c 28 f8 bc
       0.86522317 -0.4052634 0.28925118 -0.030292712
0000d0 67 56 af bc a1 c7 95 3d 44 66 ba 3d 59 cf 33 bd
       -0.021403505 0.07313467 0.09101537 -0.043898914
0000e0 1a eb 9f 3e 10 ec 60 3f 2e bf 57 3e 8e b2 bb 3e
       0.31234056 0.878602 0.21069023 0.36659664
0000f0 a4 59 1a be 81 e4 22 be a1 0b 62 bc 4f 16 97 bd
       -0.15073258 -0.1590748 -0.013796718 -0.07377302
000100 3c 91 61 be d6 49 f9 3e 2e f8 a0 bb b2 34 32 3d
       -0.22028059 0.48689145 -0.004912398 0.043507285
000110 1c 43 45 3e 74 91 bb be 75 84 3a 3e 3f 16 94 bd
       0.19263881 -0.3663441 0.18214591 -0.072308056
000120 02 c5 39 3e c2 00 2d 3f c0 55 9a 3e 95 eb 43 be
       0.18141559 0.6757928 0.30143547 -0.19132836
000130 a8 f7 b9 bd 2a 0d ac 3e 1d 2e 39 3a f7 96 ff bd
       -0.0908044 0.33603793 0.00070640614 -0.12479966
000140 27 05 03 3f ac c8 e6 bd 56 d8 b8 bd 1c 8e e0 bd
       0.51179737 -0.11268744 -0.09025638 -0.10964605
000150 b3 63 cf bc d4 9d cd be 9f 47 cf be de 87 62 bd
       -0.025316095 -0.40159476 -0.4048433 -0.055305354
000160 52 11 01 bd 34 f1 89 3d 8f bb 0b 3e 93 9a de 3d
       -0.03151066 0.06735459 0.13645767 0.108693264
000170 55 fd 31 3f 0e f9 fa 3e 20 6c 2f 3d 80 e7 ec 3e
       0.6952718 0.4901814 0.042827725 0.4627037
000180 eb 29 2c 3e b2 1b 31 be 75 9c cf 3e 81 38 88 3e
       0.16812865 -0.17295721 0.40549055 0.2660561
000190 ba d0 00 bd 1c 82 4e bd 32 3e ca 3d 6d 1a c3 be
       -0.031449057 -0.05041705 0.09875144 -0.381061
0001a0 bf 26 80 3c 29 dd ca 3d 3e 4b 68 be 1b c7 08 3e
       0.015643476 0.09905464 -0.22684953 0.13357203
0001b0 8e 0c d9 bc eb ec 78 bd 0e 4b 23 bb 74 3c 59 3d
       -0.026495244 -0.060772818 -0.0024916562 0.05303617
0001c0 63 56 2c 3d fe 96 4a 3d 1f 8e 5e bd b4 45 05 be
       0.042074572 0.049460404 -0.054334756 -0.13014871
0001d0 e6 ef 0a be 26 ee 85 bb 11 19 0e be 22 07 99 bc
       -0.13568076 -0.0040872274 -0.1387675 -0.018680159
0001e0 b0 dc a7 bc d4 41 37 3d 4c aa e0 bc 85 24 ce bc
       -0.020490974 0.044740513 -0.027424954 -0.025163898
0001f0 40 b2 6e 3c ff e4 dc bd 57 b6 7f 3b da ae 6d bd
       0.014568865 -0.10785865 0.0039018595 -0.05802808
000200 54 dc 62 bd 87 37 0c be 28 3a 6d bd d8 91 05 bd
       -0.055385903 -0.13693057 -0.05791679 -0.03260979
000210 6f f1 6e 3d d0 bc 4a bd 81 dd 90 bd d6 14 2a bd
       0.058335718 -0.049496472 -0.070734985 -0.041523777
000220 c7 c6 ec bd 2e ab 9b be 94 cd 03 bd 64 02 2b 3d
       -0.11561351 -0.30404037 -0.032178476 0.041750327
000230 d9 f7 a1 bd 8f 62 ae bd 5b 17 8f bd 2a 37 0a be
       -0.07908601 -0.08514892 -0.069868766 -0.13497606
000240 3d 56 cb bd d4 51 95 bd bb c2 a8 be 5e ef 13 be
       -0.09928558 -0.07290998 -0.32961068 -0.1444678
000250 9a 66 1d bc 02 bb 64 bd 2c 79 e5 bd d4 3c 7e bd
       -0.009606982 -0.055842407 -0.11204752 -0.06206973
000260 b5 86 c8 bd a7 f5 51 be 7f 17 01 3d b9 da 92 be
       -0.09791318 -0.20503865 0.03151655 -0.28682497
000270 66 49 23 3e 90 f5 e2 3c c1 83 b3 3e 68 61 80 be
       0.15945968 0.027704984 0.35061458 -0.25074315
000280 2d c8 b0 3c 15 7b 2f bb de fe 1c bf f5 5d bf bd
       0.021579826 -0.0026776243 -0.61326396 -0.09344093
000290 72 f7 cd 3e 7b c8 39 bd ad 79 db 3d d0 b8 a5 bd
       0.40227848 -0.04535721 0.10716567 -0.08091891
0002a0 9f e8 18 3f 48 18 3b 3f b5 20 35 3f 7c ca 6d 3e
       0.5972995 0.73083925 0.7075303 0.23221773
0002b0 de 32 de bc 0d ce 7b 3d fe 43 1d 3d 8e b1 96 3e
       -0.027123865 0.061475802 0.03839492 0.29432338
0002c0 81 17 ee bd 20 03 7d bb 2d 45 ac bd dc 92 d6 bd
       -0.11625577 -0.00386066 -0.08411632 -0.1047723
0002d0 f8 0e e4 bc 1a fa 96 bc 14 cf 63 bd c0 b3 1a bd
       -0.027839169 -0.018429805 -0.055617407 -0.03776908
0002e0 db 92 55 bd 3a bc 08 be f5 98 c1 be ea 91 20 3d
       -0.052142005 -0.13353053 -0.3781201 0.039201654
0002f0 f2 05 00 bc 6f 75 52 bc 35 54 e7 3c e9 00 3e bd
       -0.0078139175 -0.012845381 0.028238395 -0.046387587
000300 4c 06 30 bd 29 e6 4d 3d a8 e5 24 bd 73 ca 4c be
       -0.042974755 0.050268326 -0.04025808 -0.19999103
000310 a6 53 71 be a0 93 86 3c 9f 72 41 3c 98 3d f6 bb
       -0.23567066 0.016427815 0.011807113 -0.0075146668
000320 36 d7 fc bc 9f 48 d0 3c ac 4a 2e 3d 13 b8 9b 3d
       -0.03086434 0.025425253 0.04255168 0.07603469
000330 a1 de af bc ba 75 8b bd c4 86 c6 bd a2 f6 76 3c
       -0.021468462 -0.06809564 -0.09693673 0.01507345
000340 fa 35 b2 bb 1c f7 78 bc 7b 82 68 3d e7 6b 9e 3a
       -0.0054385634 -0.015195634 0.05676506 0.0012086601
000350 b4 ec e5 3c ef de a9 bd 14 b8 38 bf 70 6e 57 bd
       0.02806697 -0.08294474 -0.7215588 -0.052595556
000360 62 b2 0f bc 4b d7 18 3c 2b d5 35 bd f1 77 26 3c
       -0.008770557 0.009328674 -0.044392746 0.010160432
000370 3d 5b c1 3b e3 cc ca bc e5 cb ac 3c bf 8a 70 bc
       0.005900769 -0.0247559 0.021093318 -0.014681517
000380 84 14 05 be 39 38 db 3c 95 e8 11 3e 74 24 cc 3d
       -0.12996107 0.026760207 0.14248879 0.099678904
000390 06 ba 30 3e 82 d0 07 3e 1e bc 3e 3e 53 4a 71 3e
       0.17258462 0.13263133 0.18626449 0.23563509
0003a0 b0 da 00 bf b3 09 89 3e 58 86 b2 bd 43 b2 9b 3d
       -0.5033369 0.26765212 -0.0871703 0.0760236
0003b0 03 1d 41 3d 98 2c e9 3d d4 05 de 3d 8d 6d e8 3d
       0.04714681 0.11385459 0.108409554 0.1134902
0003c0 01 b6 70 bf c6 8f bd be 60 00 81 3e dc 93 4e 3e
       -0.94027716 -0.37023753 0.251956 0.20173591
0003d0 58 04 69 be e5 9f 90 be 52 da af 3d 1a dd 0a 3d
       -0.22755563 -0.2824699 0.08586563 0.033902265
0003e0 c1 fc b4 3e 8e f2 52 3f 36 ab a6 bf bc 5f d1 bf
       0.35349086 0.8240136 -1.3021 -1.6357341
0003f0 72 02 90 bd 7c 4b 7e 3e c4 14 b0 3a d3 00 92 3e
       -0.070317164 0.24833483 0.0013433923 0.28516254

conv.bias f4 [16]
000000 67 49 94 be 08 31 aa 3d 57 70 ac bd a5 17 43 bd
       -0.28962252 0.08310133 -0.084198646 -0.04762997
000010 a7 81 98 be 33 b5 16 be 25 8b 8c be db f6 0d be
       -0.29786417 -0.1471756 -0.2744991 -0.13863699
000020 7a f1 14 3d 03 f3 29 bd ca 7e a2 bd 3b 2c ba be
       0.036363102 -0.04149152 -0.07934339 -0.3636187
000030 b0 38 c6 bc 73 c1 64 be a2 c4 25 be c7 f2 3b 3f
       -0.024196953 -0.2233942 -0.1618829 0.73417324

fc_hidden.weight f4 [128, 1024]
000000 78 c4 85 3d c1 b8 df 3e e4 14 c3 3e 23 92 a4 3e
       0.06531614 0.43695644 0.38101876 0.32142743
000010 5e 26 6d be 7a e9 cd 3d b5 35 3f 3c f8 aa 66 3e
       -0.23159167 0.10054298 0.01167052 0.22526157
000020 72 49 67 bd 65 67 f7 3c 75 7d 93 3d 02 e1 f9 3c
       -0.056466527 0.03020067 0.072016634 0.0305028
000030 43 da 5a 3e 9b 50 d5 bd 7e 0e 61 3e cb 94 38 3e
       0.21372323 -0.10415765 0.21978185 0.1802551
000040 8a d3 17 be de 4e 17 be b2 dc ab 3e e4 22 7c 3e
       -0.1482679 -0.14776179 0.33566815 0.24622685
000050 06 4d 15 3e 7f fe c8 3e 43 bb 0a 3e 38 1a 5c 3e
       0.14580163 0.39256665 0.13547997 0.21494377
000060 53 3f 85 3e 3d bf 03 be 02 11 f9 bd 74 8c 81 3d
       0.26024875 -0.1286592 -0.12161447 0.063256174
000070 9d 96 44 be 26 31 56 3f 6c 89 97 3e 77 9b 5f 3e
       -0.1919808 0.83668745 0.29597032 0.21836649
000080 da c6 83 be 56 bf 87 be 84 92 f2 3e 57 1c f4 be
       -0.2573765 -0.26513165 0.47377408 -0.47677872
000090 37 f5 c5 3e 65 94 a6 3e a6 9a 11 bf da 9c b1 3e
       0.38663647 0.3253509 -0.568766 0.3468998
0000a0 3b dc cd 3e f4 98 97 3e 8c 85 17 be 6c 34 3a 3e
       0.40207085 0.2960888 -0.14797038 0.1818406
0000b0 05 21 f4 3d a3 22 55 be ca 50 63 3e cd 96 8e bd
       0.119203605 -0.20813994 0.22198787 -0.06962357
0000c0 a3 4a 08 bd a5 f9 35 3e 6d 10 42 3e 9c a9 48 3f
       -0.033274304 0.17771013 0.18951578 0.78383803
0000d0 f3 87 80 be 57 59 55 3c 81 3d ae bd 2a 8a a1 3d
       -0.2510372 0.013021789 -0.08507825 0.07887681
0000e0 f0 76 b8 3d 16 48 b1 3d 6c 1e 02 be 6d 3d 48 be
       0.090070605 0.086563274 -0.12706918 -0.19554682
0000f0 43 fb d3 3e 5f 30 6a 3e 87 da ee 3d d1 4f f3 be
       0.41402635 0.22870015 0.116627745 -0.47521833
000100 60 4a ce be 23 44 a9 bd 77 81 ac bd bb 7f 8d 3e
       -0.4029112 -0.08264949 -0.08423131 0.27636513
000110 8a 7d 58 be 49 ad 8d be 4b 88 4b be 06 e1 3a be
       -0.2114164 -0.2767127 -0.1987621 -0.18249902
000120 dc 85 0b 3e 74 1e f4 bd 4e a3 e0 3c 5a 19 23 be
       0.13625282 -0.11919871 0.02742162 -0.1592764
000130 26 35 60 be 70 8b a0 bd a7 a3 2f be bf eb 3b 3d
       -0.21895275 -0.078390956 -0.17152272 0.045879122
000140 2f df 85 be 22 6e ef bc 63 e0 15 3e f8 bd 19 3d
       -0.26146838 -0.02922732 0.14636378 0.037534684
000150 81 9f 0b be 6e 3d 89 be 45 e4 0c be 5e b4 46 3e
       -0.13635065 -0.2680468 -0.13758953 0.19404742
000160 6b 66 d9 3d 14 1a 4f 3e 7c 47 e7 bd fc f0 1d 3d
       0.10615238 0.20224792 -0.112929314 0.0385599
000170 6d 04 82 be e7 2e c4 3d 1d e0 39 be 49 61 9a be
       -0.25394002 0.095792584 -0.18151899 -0.30152348
000180 c4 9b a5 be 15 f4 d6 be dd 22 2e 3e 6d 03 0d 3e
       -0.32345402 -0.41983095 0.17005487 0.13770838
000190 8d ce a0 bd ec 22 a5 bd 42 b5 00 be 8a 42 21 be
       -0.078518964 -0.080633014 -0.12569144 -0.15748039
0001a0 90 71 5c bd 18 f9 1e 3d 75 17 06 3d 94 5b 83 3e
       -0.05381924 0.038811773 0.032737214 0.25655806
0001b0 a6 ed 1d be b7 32 14 be eb e3 83 3c 96 6e 9f 3e
       -0.15422687 -0.14472471 0.01609989 0.31139058
0001c0 f8 2e e2 3d f6 16 b4 be f3 c0 93 3e c3 28 86 3e
       0.11044115 -0.35173768 0.28858146 0.26202974
0001d0 b3 60 d9 3a 6d c2 4c be 02 20 b6 3c ac cb 6d bd
       0.0016584605 -0.19996043 0.02223206 -0.058055565
0001e0 df a5 bd bd 42 68 c6 bc e2 7a 6c 3d a1 c5 d1 bb
       -0.09260153 -0.024219636 0.057734378 -0.006401733
0001f0 0c c4 28 be 18 32 8d 3e df 71 91 3c ca 41 9c 3d
       -0.16481036 0.2757728 0.017754493 0.07629736
000200 d8 b2 00 3e fb f2 a3 3e a8 d0 13 be 52 2f 1a be
       0.12568223 0.32021317 -0.14435065 -0.15057114
000210 f4 59 e9 3e 82 80 ce 3e 35 0e ac bd c7 59 49 3e
       0.4557644 0.4033242 -0.08401147 0.19663154
000220 74 ab 81 3e 14 e9 84 3e 53 bc f7 3e 02 77 26 bd
       0.2532612 0.25959074 0.48385867 -0.04064084
000230 77 d3 67 3e 57 ae 83 3e bc 09 43 3f 57 84 e5 3e
       0.22639261 0.25718948 0.7618673 0.4482753
000240 40 c5 2f 3d ab 3c 16 3f d3 d1 4b 3d 5f 82 e1 be
       0.04291272 0.5868632 0.04976065 -0.44044778
000250 b0 b7 a5 be 92 77 af be 77 13 18 bf a3 ba 1b bf
       -0.32366705 -0.34270912 -0.594047 -0.6083166
000260 9c 11 1a 3e b1 db 37 be b9 c0 66 be 15 e2 03 bf
       0.1504578 -0.179549 -0.22534455 -0.5151685
000270 54 e7 13 bf f8 26 e4 3e 0c 9b d8 bd d2 5a 8c be
       -0.57774854 0.4456098 -0.10576448 -0.2741304
000280 74 00 9d 3e 3e 0c 03 3d 55 22 b2 3d 24 37 04 3c
       0.30664408 0.031994097 0.086979546 0.008069787
000290 a9 81 3a be 1e bb c4 3e 3a 1a 05 bd fa 77 16 3d
       -0.18213524 0.3842401 -0.032495715 0.036735512
0002a0 4e 3c 1c bf 4d 4e 66 bd a4 9b d7 be fa b4 9f be
       -0.6102952 -0.056227017 -0.42110932 -0.31192762
0002b0 a7 21 49 3c 3c e0 77 be d2 0c c7 3d dd ed 48 3e
       0.01227609 -0.24206632 0.09719242 0.19621988
0002c0 1a 8a 91 be b2 40 fd 3e 0a d8 b5 3e b5 85 ed bd
       -0.28425676 0.4946342 0.35516387 -0.11597768
0002d0 15 aa 01 bd c6 4f 07 bf ea 83 be be 83 15 9b 3d
       -0.031656343 -0.528561 -0.37210017 0.075724624
0002e0 e4 dd 32 be 47 32 2d 3e 21 e4 bd be b8 cb 6f bd
       -0.17467457 0.1691371 -0.3708811 -0.05854389
0002f0 a3 b0 06 be fc 7c 82 be 5f 0f a6 be 75 da dc be
       -0.13153319 -0.2548598 -0.32433602 -0.4313542
000300 ea 5d 9a be 72 39 5d bd dc c6 b3 3d 6c 9b 37 be
       -0.30149776 -0.054009862 0.08778164 -0.17930382
000310 0c 82 14 3f da 01 80 3e 3e 63 c5 be 3e 45 9f 3e
       0.58010936 0.25001413 -0.38552278 0.31107515
000320 b6 84 29 3d 75 01 1b 3f 52 75 e0 3e 69 27 b8 3e
       0.04138633 0.605491 0.43839508 0.35967568
000330 7f da 45 3e 41 99 3a 3d 1b 2a a0 3e 01 e7 89 3d
       0.19321631 0.04555631 0.31282124 0.067335136
000340 0b 2e 04 be 35 72 9e 3d 0d f7 10 bc 87 31 9a 3e
       -0.12908189 0.07736627 -0.008847964 0.3011591
000350 53 0b 3e 3e 93 3a 3a bc fb ee f1 be 3d bb 0a 3f
       0.18559007 -0.011366504 -0.4725264 0.5419195
000360 4f b4 47 bd 99 15 22 3e 7e 59 3b 3e 65 ac 68 3e
       -0.04875594 0.15828551 0.18295857 0.22722013
000370 57 1f 2d 3b bf 78 89 3e be 30 a5 be 35 b2 58 3e
       0.0026416385 0.26849934 -0.3226375 0.2116173
000380 c4 ee 21 bc ae 2f bf 3e 48 d8 1a 3e 9e ef b6 3e
       -0.009883586 0.37341064 0.15121567 0.35729688
000390 3b 10 c0 3e e1 67 d8 be f8 5d e5 3d e9 3c ab 3e
       0.37512383 -0.42266753 0.11199564 0.33444908
0003a0 04 46 2e be fa 62 7e 3e 7e 11 53 bd 10 b3 6f 3e
       -0.17018896 0.24842444 -0.051530354 0.2340815
0003b0 e2 24 94 3d 90 59 97 be a0 97 23 be 97 38 33 3c
       0.07233597 -0.29560518 -0.15975809 0.010938785
0003c0 01 f1 d2 be bc 14 e3 be 0d 2d 81 3e eb 33 91 3e
       -0.41199496 -0.44351757 0.25229684 0.28359923
0003d0 e0 36 1f 3f 7d 27 de 3e f8 3c bf bd 06 87 da 3e
       0.6219311 0.43389502 -0.09337801 0.4268114
0003e0 f6 0f b2 be 63 c9 53 be ee 00 7f be 14 be 47 be
       -0.34777802 -0.20682292 -0.24902698 -0.19506103
0003f0 85 28 12 3e f5 98 35 3e 7a 01 2b 3e 0c ee 4f bf
       0.1427327 0.1773413 0.16699782 -0.81222606

fc_hidden.bias f4 [128]
000000 b2 37 8f bd 87 02 68 be b5 ba 0f bd 90 28 03 be
       -0.06993045 -0.22657214 -0.035090167 -0.12808442
000010 f8 f4 aa be c4 d6 6e be 79 a3 ab be db a0 27 be
       -0.3339002 -0.23324114 -0.33523157 -0.16369955
000020 c9 6f 4c be 7b 5f 73 3f 6d e4 78 bd 04 59 3c be
       -0.19964518 0.95067567 -0.06076472 -0.18393332
000030 e2 93 8b bd d0 d0 93 be 0b c0 2c be 92 0d 8c bd
       -0.06815316 -0.2887025 -0.16870134 -0.06838526
000040 cb cc 59 bd 2d e0 4b be fe 40 41 bc c5 e1 a1 be
       -0.05317382 -0.19909735 -0.0117952805 -0.3161756
000050 92 d7 4b be 04 ee 52 be 77 73 84 bd fe df 99 bd
       -0.19906452 -0.20598608 -0.06467336 -0.07513426
000060 87 5e 9d be db 16 d8 bd e5 2a 8f be 91 22 03 be
       -0.3073618 -0.10551234 -0.27962413 -0.12806155
000070 55 6f ee bd 94 f8 74 3f fd 4d cc bd d2 9b 10 be
       -0.11642329 0.956918 -0.099758126 -0.1412194
000080 eb 61 10 bd 83 79 d0 3d c7 97 36 be 4b 62 72 be
       -0.03524963 0.101794265 -0.17831336 -0.23670308
000090 7e 8d aa be f4 0f 7d be 8e c0 58 3f b6 81 be be
       -0.33311075 -0.24713117 0.84668815 -0.37208337
0000a0 ab 3b a9 be 38 0f 71 be bc 6f c3 bd ec fb d3 bd
       -0.33053336 -0.23540962 -0.09542796 -0.10350785
0000b0 22 c7 d0 bd b6 98 ad be 58 70 47 be a2 37 30 be
       -0.101942316 -0.33905572 -0.1947645 -0.17208722
0000c0 5e af 23 be 5e 4c b6 3f 00 72 ac be f6 d9 af bd
       -0.15984866 1.4242055 -0.33680725 -0.085864946
0000d0 d0 12 7f be bf ee 82 bd 3a a1 02 bc 52 e3 ca bd
       -0.2490952 -0.063931935 -0.00797301 -0.09906639
0000e0 14 ad f4 3e 5e 9d 43 be 2a ad 58 bd fd c3 64 be
       0.47788298 -0.19103 -0.052899517 -0.22340389
0000f0 d0 ed 4c be 33 01 a6 bd 22 97 ad be 4b af f0 3d
       -0.20012593 -0.081056975 -0.33904368 0.117521845
000100 58 40 09 bd 9b dc 1f be 12 80 04 bd e8 47 8b bd
       -0.03350863 -0.15611498 -0.0323487 -0.068008244
000110 e5 bf 05 bd 39 3a f4 bd 47 4c d6 bd 50 91 b3 bd
       -0.032653708 -0.119251676 -0.104637675 -0.087679505
000120 90 0e 8b be 13 8e 05 3e 4b 68 75 be e6 53 70 be
       -0.27159548 0.13042478 -0.23965566 -0.23469505
000130 c9 41 6c bd ac 1a 14 be ee ec 5b 3e b3 66 96 be
       -0.057679925 -0.144633 0.214771 -0.29375228
000140 4d d4 6b be 31 c0 2d be 6c 2a 47 be ee 9c a3 be
       -0.23030205 -0.16967846 -0.19449776 -0.31955665
000150 32 d0 04 be 72 f5 8b be 73 7e 33 bd 6d 46 80 be
       -0.12970045 -0.27335697 -0.043821763 -0.2505373
000160 29 3e ef be 98 5a 62 be 4c 7d 73 be 21 fa 38 be
       -0.46727112 -0.22104871 -0.23778266 -0.18064167
000170 67 ab 88 be 81 5a 70 be d3 9d e1 3e 60 77 5a be
       -0.2669327 -0.23472025 0.44065723 -0.213346
000180 67 63 6b be 49 36 0b be de e1 90 bb e8 cb 6d be
       -0.22987138 -0.13594927 -0.0044214567 -0.23222315
000190 d3 f7 db bd 7f 93 74 be 22 66 86 be 40 1d 73 be
       -0.10740628 -0.2388439 -0.26249796 -0.23741627
0001a0 70 7c d3 be 0d 49 53 bd 5d b4 43 be e3 ec 63 be
       -0.41305876 -0.05158334 -0.19111772 -0.22258334
0001b0 06 e5 8a be 29 7e 69 be b7 6b 58 be 5e 27 1a 3d
       -0.27127856 -0.22802033 -0.2113484 0.0376352
0001c0 16 f9 74 be 03 ee 54 be ec a8 06 bf 82 5b b2 bd
       -0.23923144 -0.2079392 -0.52601504 -0.0870886
0001d0 b3 5c 2a be 54 a5 6a 3d fc f9 73 be c8 23 23 bd
       -0.16636924 0.057286575 -0.2382583 -0.039829046
0001e0 ed e6 46 be 6a 65 47 be 31 0c b2 be 33 98 51 be
       -0.19424029 -0.1947228 -0.34774926 -0.20468216
0001f0 dd 8c 4a 3f 6c f5 8c be 2b 5b 4a 3e 7e 49 24 be
       0.7912119 -0.27530992 0.1976134 -0.1604366

output.weight f4 [300, 128]
000000 ae 81 ab 3f 58 33 d0 3f 18 10 16 bd d7 89 fa 3d
       1.339895 1.6265669 -0.036636442 0.12233322
000010 2b a8 80 3f e4 31 f6 3e b6 92 ab 3f 24 87 67 3f
       1.0051321 0.4808494 1.3404148 0.90440583
000020 34 4d b3 3e 34 db 39 be 99 05 23 3f 7d a3 d3 3f
       0.3501984 -0.18150026 0.63680416 1.6534268
000030 18 64 35 be 94 c8 81 3f 02 86 ff 3f f1 88 1e be
       -0.17713964 1.0139337 1.9962771 -0.15481927
000040 53 6f 1c 3f 72 f8 a2 3e 84 60 cc 3d f2 4a c4 3f
       0.6110737 0.31830174 0.099793464 1.5335371
000050 07 73 e2 3f 53 40 05 3f e7 8b 4d 3f f0 f8 83 3f
       1.7691354 0.52051276 0.802916 1.0310345
000060 52 f0 04 3f 71 7d d0 3d 0c ce 80 3f bc 2a 1c 3e
       0.519292 0.10180176 1.006288 0.15250677
000070 73 4a 00 3f 09 42 51 be a0 37 a4 3f 03 e7 ce 3e
       0.501136 -0.20435347 1.2829475 0.40410623
000080 f7 d8 4a 3f fb 2c d5 3f fe 77 91 3f 72 04 6a 3f
       0.7923731 1.6654352 1.1364744 0.91413033
000090 f8 de 85 3f 1d 9e 8e 3f a2 4d 23 be 9f 5d 70 3f
       1.045867 1.1142002 -0.15947583 0.93892854
0000a0 e7 0b f8 3f 89 1e 90 3f 8e f7 8c 3f e6 a7 b3 3e
       1.9378632 1.1259319 1.1013048 0.35089034
0000b0 93 b0 4d 3e fc 7f 90 3e 55 85 b9 3f 00 59 bb 3f
       0.20086889 0.28222644 1.4493815 1.4636536
0000c0 a3 d7 0c 3f 43 56 9f be a0 e2 66 3f c2 07 93 3e
       0.55016536 -0.311205 0.9018955 0.28716856
0000d0 df a4 bf 3f 02 94 c8 3d 4d a8 32 bc d8 b9 b6 3e
       1.497219 0.09793855 -0.010904384 0.35688663
0000e0 0c b9 9b 3e 6f 34 a6 3f 41 27 99 be de 02 12 3f
       0.30414617 1.2984751 -0.2991276 0.57035625
0000f0 ef c2 fe 3f 8c ef 16 bd 35 9e b3 3f e2 70 eb 3d
       1.9903239 -0.036849543 1.4032656 0.1149614
000100 94 ac 1e 3f 77 2e 7b 3f c0 5e b2 3f 9b b4 0b 3f
       0.61982083 0.98117775 1.3935165 0.5457246
000110 da 44 87 3e 2f 3f 36 3f 1e 87 08 3f 59 35 96 3e
       0.26419717 0.7119016 0.5333117 0.29337576
000120 d8 a6 43 3f 1d d8 75 be e0 1a 86 3f 50 3f 92 3f
       0.7642646 -0.24008222 1.0476952 1.1425571
000130 c4 3a 49 be 2a f7 8f 3f 55 e7 9f 3d 69 4b b3 3f
       -0.19651324 1.1247303 0.07807795 1.4007388
000140 b1 43 ac 3f ad fc 83 3f e4 58 92 3e 7d d4 7f 3f
       1.3458158 1.0311486 0.28583443 0.99933606
000150 b5 61 8b 3f da 68 1e 3f 54 44 df 3e 94 5c 98 3f
       1.0889193 0.6187874 0.43606818 1.1903253
000160 81 15 a5 3f bf 99 27 3f 6f 97 06 3f 0e 66 e7 3e
       1.2897187 0.6546897 0.5257482 0.4519505
000170 a5 dc f0 3f 60 2c 16 3f 56 23 c0 3e d7 1e 89 3f
       1.8817335 0.5866146 0.3752696 1.0712537
000180 10 25 70 3f f2 4f 10 3e 04 b4 b1 3f 24 af 88 3f
       0.9380655 0.14092997 1.3883061 1.0678449
000190 60 d5 69 3f 06 5e 80 3e c2 47 a6 3f 81 9a 8c 3f
       0.9134121 0.25071734 1.2990649 1.0984651
0001a0 cd 7e 85 3e 9c 3a ce 3e 49 37 05 3f da e2 cb 3f
       0.26073304 0.4027909 0.52037483 1.5928605
0001b0 2a c9 90 3f 75 51 2b 3f 12 3a a5 3f 5e b2 0d 3f
       1.131139 0.6692117 1.2908347 0.5535029
0001c0 55 31 70 3f 9c 07 96 3f a6 a4 a5 3f 4e 1d 85 3e
       0.93825275 1.1721072 1.2940872 0.2599892
0001d0 f5 ef ac 3f 1c 33 57 3f 3d 4f 97 3f e9 9f 2f 3f
       1.3510729 0.8406236 1.1821057 0.6860338
0001e0 ea c3 16 3f 2c 19 9d 3f cb d7 05 40 f5 dc 9a 3e
       0.5889269 1.2273307 2.091296 0.30246702
0001f0 ca f2 c3 be 52 63 aa 3f 7d f0 69 3e 3e ae ed 3e
       -0.3827117 1.331156 0.22845645 0.46422
000200 58 a2 a8 3f e1 51 d7 3f 7d ea 98 bd 8e 07 07 3e
       1.3174543 1.6821862 -0.074666 0.13186476
000210 25 89 84 3f b9 fe e6 3e 61 c8 ae 3f 4c 64 6f 3f
       1.0354353 0.45116213 1.3654901 0.93512416
000220 5f d6 c5 3e 10 e6 31 be bf d1 1b 3f ab 2e dc 3f
       0.38640115 -0.17372918 0.6086692 1.7201742
000230 62 7e f3 bd d3 a3 87 3f 18 30 02 40 0e 1a 58 3d
       -0.1188934 1.059687 2.0341854 0.052759223
000240 98 06 3b 3f d9 9a af 3e 8f 9e 0f 3e 72 50 cc 3f
       0.73056936 0.34297827 0.14025329 1.596205
000250 b0 f7 de 3f ea 5c fa 3e 86 4d 59 3f af 70 7d 3f
       1.7419338 0.48899013 0.84883916 0.99000067
000260 56 1e 00 3f 16 aa 06 3e 1f 1b 7c 3f f3 c5 21 3e
       0.5004629 0.1315082 0.98478884 0.15798168
000270 fb 62 1a 3f 3c ca 2f be 60 d5 a2 3f 55 10 f6 3e
       0.6030728 -0.1716699 1.2721367 0.48059335
000280 76 de 3a 3f 4c 0f c3 3f d7 a4 95 3f c7 e9 67 3f
       0.729957 1.5239043 1.169093 0.9059109
000290 85 3b 8b 3f 0c 23 8c 3f 1d d0 0f be 5e 7d 81 3f
       1.0877539 1.0948195 -0.14044233 1.0116384
0002a0 d6 0f fa 3f 4a e8 95 3f eb 2b 8f 3f 8b d3 dc 3e
       1.9536083 1.1711514 1.1185278 0.43130144
0002b0 06 df 64 3e a3 19 a0 3e bf d6 b8 3f 7b b8 bd 3f
       0.22350702 0.3126956 1.4440535 1.4821924
0002c0 b4 d4 15 3f 5c 82 80 be 18 db 5b 3f bc dc b4 3e
       0.58527684 -0.25099456 0.85881186 0.35324657
0002d0 9c a0 b8 3f 6b 88 72 3d fe 9a e9 bc 92 4d cc 3e
       1.4424014 0.05921213 -0.028516289 0.3990293
0002e0 7f 69 93 3e 22 b0 9f 3f 07 bd 36 bd 72 ba 0e 3f
       0.28791425 1.2475626 -0.044613864 0.5575324
0002f0 1b 2d ff 3f 4e a5 59 3e 8a 41 b7 3f 09 4c e9 3d
       1.993564 0.21254465 1.4316876 0.11391456
000300 ae d6 26 3f 1f 46 61 3f 38 9a ae 3f df 84 13 3f
       0.65171325 0.8799762 1.3640814 0.5762462
000310 d2 48 89 3c 5a 26 47 3f 0a a9 0f 3f 73 f2 d0 3e
       0.016758356 0.77792895 0.5611731 0.40809974
000320 25 79 48 3f e9 f6 82 be b4 90 88 3f a7 50 95 3f
       0.7830985 -0.25579002 1.066916 1.1665238
000330 21 68 a2 3e ec 4a 8c 3f 55 bd 3f 3d df f9 b3 3f
       0.3172007 1.0960364 0.04681142 1.406063
000340 32 49 ad 3f cb 1b 8c 3f 58 13 76 3e 6a 48 87 3f
       1.3537962 1.0945982 0.24030817 1.0568974
000350 31 83 99 3f bb 32 22 3f 07 fd d2 3e 19 0b 9e 3f
       1.1993161 0.6335866 0.4120867 1.2347137
000360 f5 4a ab 3f 1c 2b 27 3f 96 b8 1c 3f 29 af 06 3f
       1.338225 0.65300155 0.61219156 0.52611023
000370 2c 8a f3 3f 14 fd 17 3f 0f 5f 96 3e 07 73 8e 3f
       1.9026542 0.5937054 0.293694 1.1128854
000380 53 c8 75 3f 05 d9 20 3e 11 e7 b7 3f 75 5d 8c 3f
       0.96008795 0.15707786 1.4367391 1.0966021
000390 a7 21 69 3f 60 0c 8b 3e bf 00 9b 3f 96 d5 99 3f
       0.91066974 0.2715788 1.2109603 1.2018306
0003a0 fd 3a 9a 3e 75 d1 f5 3e 88 fa f3 3e 8b ad df 3f
       0.3012313 0.48011366 0.47652078 1.7474836
0003b0 4f 02 93 3f 8d 02 34 3f 1e 63 98 3f d4 60 0d 3f
       1.148508 0.7031639 1.1905248 0.55225873
0003c0 0f c9 85 3f f0 53 a7 3f 1a 66 a9 3f ae 7e 90 3e
       1.0451983 1.3072491 1.3234284 0.2822165
0003d0 37 ef a9 3f 6d fa 51 3f 9f 9d a6 3f ea 88 35 3f
       1.3276128 0.82022744 1.3016852 0.7091204
0003e0 d5 7e 14 3f 0b 80 9d 3f f0 64 f9 3f 98 8d b2 3e
       0.5800603 1.2304701 1.9483929 0.34873652
0003f0 40 b8 a8 be 4f 8b a8 3f f2 99 60 3e ae e7 0d 3f
       -0.32953072 1.3167514 0.21933725 0.5543164

output.bias f4 [300]
000000 19 be 6e bf 68 1c 55 bf 77 ca 3d bf 1f b6 2a bf
       -0.93258816 -0.8324647 -0.7413706 -0.66684145
000010 f2 f5 18 bf 72 ca 09 bf 48 f0 fc be 9b 11 eb be
       -0.5975028 -0.5382453 -0.4940207 -0.4591187
000020 69 a7 dd be 27 ed d2 be 85 4b c9 be b3 24 bf be
       -0.43291786 -0.41196558 -0.3931543 -0.37332687
000030 8e db b3 be 71 07 a7 be b5 cd 98 be ba 1a 8a be
       -0.35128444 -0.32622865 -0.29844442 -0.26973516
000040 08 12 75 be ba 42 55 be ee 86 33 be 44 90 11 be
       -0.2393266 -0.20826235 -0.1753194 -0.14215189
000050 98 1f dd bd 0b 6f 96 bd 0d 6c 1d bd 3f 11 32 bb
       -0.10797042 -0.073453985 -0.038433123 -0.0027170924
000060 27 58 0a 3d cb 66 91 3d cd 20 df 3d 59 24 17 3e
       0.033775475 0.07099684 0.10894928 0.1475996
000070 d8 4e 3f 3e 3d c5 67 3e 68 70 88 3e 35 28 9d 3e
       0.1868242 0.22633834 0.2664826 0.30694738
000080 4d 33 b2 3e d6 9b c7 3e 29 56 dd 3e e4 80 f3 3e
       0.34804764 0.3898608 0.43229797 0.47559273
000090 27 07 05 3f 60 8f 10 3f 4f 68 1c 3f 9f ab 28 3f
       0.5196404 0.5646877 0.6109666 0.65886873
0000a0 91 6a 35 3f 9c a8 42 3f 67 63 50 3f e1 7b 5e 3f
       0.7086573 0.7603853 0.81401676 0.86907774
0000b0 b1 d9 6c 3f 6e 0b 7b 3f 48 3c 84 3f 6a fc 89 3f
       0.9251967 0.98064315 1.0330896 1.0780156
0000c0 2a b1 8d 3f 4f 0d 8c 3f 5e ab 49 bf 66 59 28 bf
       1.1069691 1.0941561 -0.7877711 -0.6576141
0000d0 e9 dc 0e bf d9 16 f8 be 4f b3 dc be d3 5f cb be
       -0.5580583 -0.4845493 -0.43105552 -0.39721546
0000e0 2b 67 bc be 27 83 b2 be 2d 1d ac be b8 c6 a8 be
       -0.3679746 -0.34865686 -0.3361601 -0.3296411
0000f0 9d c3 a9 be 12 13 a9 be 39 0b a5 be 56 89 9f be
       -0.33157054 -0.33022362 -0.32235125 -0.31159467
000100 f9 bb 97 be 90 e4 8d be ba 5c 83 be 0d ae 6f be
       -0.296356 -0.27713442 -0.25656682 -0.23406239
000110 59 ae 55 be bb 43 3a be fd e8 1b be 7f b5 f6 bd
       -0.2086729 -0.181899 -0.15225597 -0.120463364
000120 7d 2d b2 bd 12 ae 5a bd 49 4e 95 bc 6c 38 91 3c
       -0.087000825 -0.053388663 -0.018225806 0.0177271
000130 ec 01 62 3d 4f 62 bf 3d 89 40 08 3e 81 3d 31 3e
       0.055177614 0.09344923 0.13305868 0.17308618
000140 8b 7f 5b 3e a8 b4 82 3e 4a ea 97 3e 57 ab ad 3e
       0.21435373 0.25528455 0.29670936 0.33919784
000150 27 ca c3 3e de 97 da 3e 6d 6e f1 3e 1a 6c 04 3f
       0.38240167 0.4269399 0.4715456 0.5172745
000160 a8 ae 10 3f 1c 43 1d 3f 3e 2f 2a 3f 24 9e 37 3f
       0.56516504 0.61430526 0.66478336 0.7172568
000170 55 3c 45 3f 1b 68 53 3f d8 16 62 3f f2 e6 70 3f
       0.77045184 0.8258073 0.88316107 0.94102395
000180 4a 63 7f 3f 60 49 86 3f d0 3a 8b 3f ad 36 8b 3f
       0.9976088 1.0491142 1.0877323 1.0876061
000190 ed e6 51 bf 67 a7 1b bf 01 e4 f6 be b4 a8 c9 be
       -0.8199299 -0.6080231 -0.48220828 -0.39386523
0001a0 e7 0a aa be c6 0c 97 be 2b eb 8e be ba 13 8c be
       -0.33211443 -0.29501933 -0.27913794 -0.273588
0001b0 e1 e9 8c be e8 49 8e be 75 bb 8e be 2f f3 8c be
       -0.27522185 -0.2779076 -0.27877393 -0.27529284
0001c0 4e 2a 88 be 3b c1 80 be ad 90 6d be 73 c9 55 be
       -0.26594776 -0.25147423 -0.2319972 -0.20877628
0001d0 7b 86 3a be 48 79 1d be 01 4a fc bd ad 20 bb bd
       -0.18215363 -0.15378296 -0.123188026 -0.09137092
0001e0 13 7a 70 bd e1 0c cd bc fa 23 25 3c 93 aa 3b 3d
       -0.05871017 -0.025030555 0.010079378 0.04581697
0001f0 1e 66 a8 3d 0d f5 f3 3d cb 73 20 3e 0f 1a 47 3e
       0.08222602 0.11911974 0.15669172 0.19443534
000200 ce 4a 6e 3e 1a 15 8b 3e 51 44 9f 3e f5 b3 b3 3e
       0.23270723 0.27164537 0.3110681 0.35098234
000210 49 70 c8 3e a8 63 dd 3e 10 dd f2 3e 9e 49 04 3f
       0.39148167 0.43240094 0.47434282 0.5167483
000220 76 55 0f 3f 22 a7 1a 3f 8a 5d 26 3f 3b 5e 32 3f
       0.5598978 0.60411274 0.6498648 0.69675034
000230 21 e3 3e 3f 16 df 4b 3f 24 5a 59 3f b8 3d 67 3f
       0.7456532 0.7963728 0.8490317 0.9032855
000240 bc b9 75 3f 93 58 82 3f be d0 89 3f d1 09 91 3f
       0.95986533 1.0183281 1.0766828 1.1331121
000250 18 ac 97 3f cd d5 9b 3f d5 ab 5a bf 25 1e 3a bf
       1.1849394 1.2174622 -0.85418445 -0.72702247
000260 de 27 24 bf 5b 08 14 bf 89 24 02 bf 98 aa e4 be
       -0.6412333 -0.5782525 -0.50837 -0.44661403
000270 ae a8 cc be 85 b6 ba be 86 5b ae be a2 0d a3 be
       -0.39972442 -0.36467376 -0.34054202 -0.3184634
000280 cd 77 98 be c5 5c 8d be ec d4 82 be 0d 61 6e be
       -0.297789 -0.2760984 -0.25553071 -0.2327921
000290 0c 67 54 be 61 4b 39 be b8 e8 1a be 28 0c f9 bd
       -0.20742434 -0.18095161 -0.15127838 -0.12160522
0002a0 59 4d b9 bd 43 a7 6d bd 45 28 c9 bc af 1e 27 3c
       -0.09047956 -0.05802084 -0.024555335 0.010200187
0002b0 9e 64 3e 3d 90 c6 a9 3d 6b da f4 3d 80 4a 21 3e
       0.046482675 0.08289826 0.119557224 0.15751076
0002c0 f7 ca 48 3e 7f 6e 71 3e c5 b2 8d 3e 63 96 a2 3e
       0.19608675 0.23577307 0.27675453 0.3175536
0002d0 b9 a9 b7 3e 71 0b cd 3e 27 3e e2 3e 06 e9 f7 3e
       0.35871676 0.40047792 0.44188043 0.4841997
0002e0 7d ea 06 3f 7f 16 12 3f a5 92 1d 3f db 66 29 3f
       0.5270155 0.57065576 0.61551887 0.6617257
0002f0 e8 52 35 3f bc a1 41 3f 3a 5e 4e 3f df 89 5b 3f
       0.7082963 0.7563741 0.8061253 0.8575725
000300 b1 27 69 3f 96 2b 77 3f 60 c6 82 3f 56 36 8a 3f
       0.9107619 0.9655088 1.0216789 1.0797832
000310 b3 90 91 3f a7 64 98 3f 37 1f 9e 3f 68 6e a0 3f
       1.1372284 1.1905717 1.2353276 1.2533693
000320 93 81 4e bf 5c db 2b bf 38 fc 0e bf 36 74 ee be
       -0.80666465 -0.6713159 -0.55853605 -0.46573037
000330 de 6c c7 be d8 19 ac be a8 44 9b be da e4 93 be
       -0.38950247 -0.33613467 -0.30325818 -0.28885537
000340 a9 98 93 be 42 13 97 be 6f f6 9c be d6 c7 a1 be
       -0.28827408 -0.2950688 -0.30656764 -0.31597775
000350 54 20 a5 be f8 cf a5 be d9 e3 a4 be 8a 45 a1 be
       -0.32251227 -0.3238523 -0.32205084 -0.31498367
000360 63 0f 9c be 22 ca 94 be 5a 7e 8c be 3d d3 82 be
       -0.3048049 -0.29060465 -0.2744015 -0.25551787
000370 80 ec 70 be 1e 48 59 be 2d 02 40 be ee 10 25 be
       -0.23527718 -0.21218917 -0.1875083 -0.1611974
000380 48 4d 08 be 58 ad d4 bd 03 bb 95 bd 62 fd 29 bd
       -0.1331073 -0.10384625 -0.0731106 -0.04150141
000390 17 2c 0a bc db 78 cf 3c b2 2c 78 3d 76 c9 c5 3d
       -0.008433363 0.025326183 0.0605895 0.09657566
0003a0 2f c2 08 3e 9f e4 2f 3e a2 0a 58 3e 2e c7 80 3e
       0.13355325 0.17177056 0.21097806 0.25151962
0003b0 ce f4 95 3e d7 ed ab 3e d6 73 c2 3e f7 e6 d9 3e
       0.29288334 0.33579895 0.37979 0.42559025
0003c0 5a 71 f2 3e aa 02 06 3f b0 32 13 3f 29 e4 20 3f
       0.47352105 0.52347815 0.5749922 0.62848145
0003d0 c4 02 2f 3f c6 47 3d 3f ef 47 4b 3f c1 c3 57 3f
       0.68363595 0.7393764 0.79406637 0.8428307
0003e0 e2 36 60 3f 15 5a 5c 3f ed 10 74 bf 1b a1 56 bf
       0.87583745 0.86074954 -0.95338327 -0.8383958
0003f0 4a 84 40 bf 67 37 2d bf 44 17 1d bf 8e f4 0f bf
       -0.7520186 -0.6766266 -0.61363626 -0.56232536
