figs2-3_rl/results/space_invaders-UADQN/network.pth (torch_old, 684252 bytes, 6 tensors)

conv.weight f4 [16, 6, 3, 3]
0	0x3d9dbd74	0.07702151
1	0xbe151bf9	-0.14561452
2	0x3c888f84	0.016669996
3	0xbdba8272	-0.09106912
4	0xbe9648df	-0.2935247
5	0xbcfd04e7	-0.030886127
6	0x3e1d1f0e	0.15343878
7	0x3d945504	0.07242778
8	0x3dea307d	0.1143503
9	0xbe52d3a9	-0.20588554
10	0xbe61f5f6	-0.22066483
11	0xbf0758f0	-0.5287008
12	0xbeace485	-0.33768097
13	0xbeca0cc7	-0.39462873
14	0xbeea193e	-0.45722383
15	0xbe6fe6b7	-0.23427854
16	0xbeab7c0e	-0.33493084
17	0xbea35567	-0.31901094
18	0x3cbf5180	0.023354292
19	0x3e8fd816	0.28094548
20	0xbf05b033	-0.52221984
21	0x3eb66b2f	0.3562865
22	0x3eea3352	0.4574228
23	0xbe4a31d9	-0.19745578
24	0x3ed559f7	0.416702
25	0x3f1403ab	0.57818097
26	0x3e2a24db	0.16615622
27	0x3e54ac3f	0.20768832
28	0x3ec00364	0.37502587
29	0xbe8d941d	-0.27652064
30	0x3ebba2fb	0.36647782
31	0x3f008a9a	0.5021149
32	0xbdf9273f	-0.12165689
33	0x3e71ed76	0.2362574
34	0x3ebeceab	0.3726705
35	0x3e30e555	0.17274983
36	0xbd025575	-0.03181978
37	0xbd05debd	-0.032683123
38	0xbbc31c30	-0.005954288
39	0xbd1e6933	-0.038674545
40	0xbe417de7	-0.18895684
41	0x3c6812d4	0.014164645
42	0xbc89b9ab	-0.016812166
43	0xbde9a7dd	-0.114089705
44	0x3f1a4e30	0.60275555
45	0x3b1f2b15	0.0024287154
46	0x3cc38a01	0.023869516
47	0xbd140eed	-0.036147047
48	0x3d8da81f	0.06916832
49	0xbd88776f	-0.06663405
50	0x3d0cab54	0.03434308
51	0xbcbfe00d	-0.023422265
52	0xbc59f27a	-0.01330244
53	0x3d075c67	0.033047106
54	0x3e0bf80c	0.13668841
55	0x3e07128c	0.13190669
56	0x3d8f6fb0	0.070037246
57	0xbd9d7531	-0.07688368
58	0x3d36531d	0.044512857
59	0xbd1ebbd6	-0.038753353
60	0x3de79924	0.11308506
61	0xbf9fceeb	-1.2485021
62	0x3e8d622e	0.27613968
63	0xbe5c201e	-0.21496627
64	0xbe2d79b2	-0.16940954
65	0xbf7651ed	-0.9621876
66	0xbdfb0ff9	-0.12258906
67	0xbd920869	-0.0713051
68	0x3c2e5b96	0.010641953
69	0xbdecaecf	-0.115567796
70	0xbd71d53b	-0.059041243
71	0xbe8a2aad	-0.26985684
72	0x3e0f9848	0.14022934
73	0x3dfe0137	0.124025755
74	0xbf684aee	-0.90739334
75	0xbe223347	-0.15839873
76	0xbddcc310	-0.10779393
77	0x3f1e6a38	0.61880827
78	0x3e53d9a2	0.20688489
79	0x3d958fb1	0.073027976
80	0x3eedf205	0.4647371
81	0x3e90d57c	0.28287876
82	0xbe8d4d4c	-0.27598035
83	0xbe287abb	-0.16453068
84	0x3e3a647d	0.18202396
85	0x3dab3437	0.083595686
86	0xbe03055f	-0.12795018
87	0x3ecb3ffb	0.3969725
88	0xbfc7d1c3	-1.5610889
89	0xbe4b0215	-0.19825013
90	0x3ccb2c63	0.024801439
91	0x3c7545a6	0.014970219
92	0x3c0385b5	0.008027484
93	0xbdd231dc	-0.10263416
94	0xbd241830	-0.04006213
95	0x3ec5783b	0.3856829
96	0xbdd7c3cb	-0.105353914
97	0xbd35d4d2	-0.044392414
98	0x3e8f7a83	0.28023157
99	0x3c4107a7	0.01178161
100	0x3e8d9459	0.27652243
101	0xbdf0dd2f	-0.117609374
102	0x3dae8347	0.08521133
103	0x3dfad58f	0.12247764
104	0xbd232344	-0.039828554
105	0x3c68ffcc	0.014221143
106	0x3b8f7cc3	0.0043788864
107	0xbb9f1586	-0.0048548607
108	0xbe2356e6	-0.15951118
109	0xbe2971a6	-0.1654726
110	0xbc322b52	-0.010874586
111	0xbd9bebe7	-0.07613354
112	0x3e09c0e0	0.13452482
113	0x3e970911	0.29499105
114	0x3f5c25ad	0.8599499
115	0x3f3b85a0	0.7325077
116	0x3ee4f1a4	0.44715607
117	0xbe2f1797	-0.17098843
118	0xbe8838c1	-0.266058
119	0xbe54d1e6	-0.20783195
120	0xbe4fa3c4	-0.20277315
121	0xbf193161	-0.5984097
122	0xbe63d5a4	-0.22249466
123	0xbe629c55	-0.22129948
124	0xbec297a4	-0.38006318
125	0x3e8cee4e	0.27525562
126	0xbdb465dc	-0.08808491
127	0x3eecc0fd	0.46240988
128	0xbe4ee66f	-0.20205091
129	0x3ecbbd4f	0.39792868
130	0x3dae8d11	0.08523
131	0xbe750f86	-0.23931703
132	0xbdf9b480	-0.12192631
133	0x3e5e9d15	0.2173961
134	0x3f198ac8	0.5997739
135	0x3df60e80	0.120144844
136	0x3ea5b9b8	0.32368255
137	0x3dc1efec	0.094695896
138	0xbe84c79f	-0.2593355
139	0x3eeeb61c	0.46623313
140	0x3f0a1da4	0.5395148
141	0x3ea6815b	0.32520565
142	0x3ec334f1	0.3812633
143	0x3ec1cb18	0.3785026
144	0xbd0ce7ee	-0.034400873
145	0x3cb9a98c	0.022663854
146	0x3e28c712	0.1648219
147	0xbd3c21d9	-0.045930717
148	0xbc9f4a76	-0.019444685
149	0xbd81e4a6	-0.06342439
150	0x3ee3913e	0.44446748
151	0x3e7de83e	0.24795625
152	0xbe05d009	-0.1306764
153	0xbcfa9aeb	-0.030591449
154	0x3c01a565	0.007912968
155	0xbe065230	-0.1311729
156	0xbd3b50b6	-0.04573127
157	0xbeeca097	-0.4621627
158	0xbe32444d	-0.17408867
159	0xbb83ccff	-0.00402224
160	0x3c49e849	0.0123234475
161	0xbcf6b89a	-0.030117322
162	0x3deae062	0.11468579
163	0x3eb470f3	0.35242423
164	0x3e5c6220	0.21521807
165	0x3e8c5f04	0.2741624
166	0x3c1bd7e2	0.00951192
167	0x3e653fbc	0.22387594
168	0x3fa4735c	1.2847705
169	0x3c9074e4	0.017633863
170	0xbfc41ddf	-1.5321616
171	0x3d847d4d	0.06469212
172	0xbee1b8cc	-0.440863
173	0xbdf7e32a	-0.12103875
174	0xbe936c0c	-0.2879337
175	0xbe78baac	-0.2428996
176	0xbe1f2b90	-0.15543962
177	0xbe41190c	-0.18857211
178	0xbe191d79	-0.14952649
179	0xbef95e06	-0.48704547
180	0xbdffcb95	-0.12490002
181	0x3edcfecb	0.43163142
182	0xbd84fb5c	-0.064932555
183	0x3e9ecc68	0.31015325
184	0x3e17c48e	0.14821073
185	0xbf425eea	-0.7592608
186	0xbf27ae91	-0.6550074
187	0xbfb03813	-1.3767112
188	0xbf7ba9ed	-0.9830616
189	0x3d1b7a12	0.037958212
190	0x3db1f4f1	0.08689297
191	0x3dcfaa97	0.10139959
192	0xbd61b870	-0.055107534
193	0x3e23d73e	0.16000077
194	0x3dfed8d3	0.124437
195	0x3cff3ab4	0.031155922
196	0x3eddcc60	0.43319988
197	0xbef96068	-0.48706365
198	0x3dd3cb92	0.10341562
199	0x3dc461bd	0.095889546
200	0x3ea3a0af	0.3195853
201	0x3e725467	0.2366501
202	0x3e5dd130	0.2166183
203	0x3e8f19d2	0.27949387
204	0x3f09f02b	0.5388209
205	0x3d09b2f6	0.033617936
206	0x3ec9a849	0.39386204
207	0xbe2767d3	-0.163482
208	0x3e1241e4	0.14282948
209	0x3de42e3c	0.11141631
210	0xc0166aae	-2.3502612
211	0x3e18b768	0.14913714
212	0x3eb0a9b8	0.34504485
213	0x3c01d3fe	0.007924078
214	0xbc6a5fbc	-0.014305051
215	0x3c83bcc8	0.016081229
216	0x3dcf7745	0.10130171
217	0xbd02fe12	-0.03198058
218	0x3d9d9845	0.07695059
219	0xbd6be173	-0.057588052
220	0x3cda1fb8	0.026626453
221	0xbcca8784	-0.024722822
222	0x3e82e39e	0.25564283
223	0x3eb3a4f2	0.3508678
224	0x3e30c158	0.17261255
225	0x3df8f6d9	0.121564575
226	0xbe373817	-0.1789249
227	0x3c106a26	0.00881437
228	0xbdb95451	-0.09049285
229	0xbe42a639	-0.19008721
230	0xbf1e3ae3	-0.61808604
231	0xbd225d86	-0.039639972
232	0xbde62da3	-0.11239173
233	0xbf05f829	-0.5233179
234	0x3eb41a63	0.3517638
235	0x3e29b0ce	0.16571352
236	0x3db28cbe	0.08718251
237	0x3ea7f016	0.3280036
238	0x3db7c5ad	0.089732505
239	0x3ea03d20	0.31296635
240	0xbf2e7cfb	-0.68159455
241	0xbf4a9900	-0.7913971
242	0x3ee21ec5	0.441641
243	0xbe215a7e	-0.15757176
244	0x3e215c80	0.15757942
245	0xbd5c1753	-0.05373318
246	0x3d7283bd	0.059207667
247	0x3e601b83	0.21885495
248	0x3edbc1b2	0.42921215
249	0x3f586ffb	0.8454587
250	0xbe57cbca	-0.21073833
251	0xbf10763f	-0.5643043
252	0x3d3f961e	0.046774022
253	0x3cac913f	0.021065352
254	0x3cbf763a	0.023371805
255	0x3c90c369	0.017671304

conv.bias f4 [16]
0	0xbdfa67eb	-0.12226852
1	0xbe292f34	-0.16521913
2	0xbf0a596b	-0.5404269
3	0xbd0c3287	-0.034227874
4	0xbeb6dadd	-0.35713854
5	0x3eb60422	0.35550028
6	0xbee16197	-0.44019768
7	0xbc1f4267	-0.009720421
8	0xbed472b7	-0.4149377
9	0x3ede3610	0.4340062
10	0x3dad4d16	0.084619686
11	0xbdc28c77	-0.09499448
12	0xbd8baa3a	-0.068195775
13	0xbe25297f	-0.16129111
14	0x3eacdfde	0.33764547
15	0x3f3144cb	0.69245595

fc_hidden.weight f4 [128, 1024]
0	0xbc3cc28f	-0.011520996
1	0xbddfbe43	-0.109249614
2	0xbb2fd52a	-0.0026829937
3	0x3e0e2a86	0.13883409
4	0x3c7aad3e	0.015300093
5	0xbcb19219	-0.02167611
6	0x3e0b6ea4	0.13616425
7	0x3d90679b	0.07051011
8	0xba1dafa3	-0.00060152466
9	0x3edb9314	0.4288565
10	0x3e959b90	0.29220247
11	0x3e5fc183	0.21851163
12	0xbeb812b4	-0.3595177
13	0xbc7d650f	-0.015465989
14	0xbda7ad37	-0.08187335
15	0x3df626b2	0.12019099
16	0xbe6dd5a0	-0.23226023
17	0xbeaa6a60	-0.33284283
18	0x3f3b4d82	0.7316514
19	0x3dc8196e	0.09770475
20	0x3d2b77ef	0.041862424
21	0xbdb941fb	-0.09045788
22	0x3d6c4e07	0.0576916
23	0x3bda8b0b	0.0066694072
24	0xbed57be3	-0.4169608
25	0x3ce87f46	0.028381001
26	0x3f565671	0.8372565
27	0xbf4cf3a3	-0.8005926
28	0xbd322101	-0.043488506
29	0xbe1dfeba	-0.15429202
30	0xbe3a9c64	-0.18223721
31	0xbe7e3380	-0.24824333
32	0x3eae1dce	0.34007114
33	0x3e87d6fb	0.26531205
34	0x3ee51f8b	0.44750628
35	0x3f332972	0.69985116
36	0xbdcc5a12	-0.09978117
37	0xbf03de28	-0.5151086
38	0x3e917b9e	0.28414625
39	0x3ea07bd3	0.3134447
40	0x3eed2b96	0.46322316
41	0xbe93bf04	-0.2885667
42	0x3efe33fa	0.4964903
43	0x3ec71e0a	0.38890105
44	0x3ebdf7b1	0.37103036
45	0x3e84d3f3	0.25942954
46	0xbd4391a5	-0.04774632
47	0x3e80b0d9	0.25134924
48	0x3e9a6f9f	0.30163285
49	0xbf234988	-0.63784075
50	0x3f1fd831	0.62439257
51	0x3f499db5	0.78756267
52	0x3f347707	0.7049412
53	0x3ed57670	0.41691923
54	0xbe732b2f	-0.23746942
55	0x3ebdad23	0.37046155
56	0xbde8e17c	-0.11371133
57	0xbe96db24	-0.29464066
58	0x3ee92aa4	0.45540345
59	0x3e3a67da	0.18203679
60	0x3f541c6c	0.8285587
61	0xbf0fd888	-0.56189775
62	0xbeb637b9	-0.35589388
63	0xbf20857d	-0.62703687
64	0xbeb73e46	-0.35789698
65	0xbd4f030c	-0.050540015
66	0x3e8ee07c	0.27905643
67	0x3e37dc13	0.17955045
68	0xbe315722	-0.17318395
69	0x3d80dfa5	0.06292657
70	0x3ee30852	0.44342285
71	0xbe6ea5c1	-0.23305418
72	0x3dc0ba80	0.09410572
73	0x3daf9cd0	0.085748315
74	0x3e4f38a9	0.20236458
75	0x3e96e870	0.2947421
76	0xbd785d30	-0.060635746
77	0xbe5ce6dc	-0.21572441
78	0xbea45aaa	-0.3210042
79	0xbdbfaf46	-0.09359603
80	0xbee9ef93	-0.45690593
81	0xbe615e0f	-0.22008537
82	0x3ef6e733	0.48223266
83	0x3eab37ac	0.33440912
84	0x3de805b0	0.1132921
85	0x3e2fc8dc	0.17166466
86	0xbe1a728f	-0.15082763
87	0x3e02282e	0.1271064
88	0xbec60e8c	-0.38682973
89	0xbf2858c0	-0.6576042
90	0x3f0699a0	0.52578163
91	0xbe9a8ae1	-0.3018408
92	0xbdd71542	-0.105021015
93	0x3d0ec415	0.034854967
94	0xbec72ec4	-0.38902867
95	0x3da2d066	0.07949905
96	0xbe815a90	-0.25264406
97	0xbddec076	-0.10876553
98	0x3e999bb3	0.30001602
99	0x3db135bc	0.08652827
100	0xbee1cf56	-0.44103497
101	0xbe3e07f4	-0.18557721
102	0x3e164480	0.14674568
103	0xbf0a56e4	-0.54038835
104	0x3e9cddfc	0.3063811
105	0x3f0f5c1b	0.55999917
106	0x3e39ddf2	0.18151072
107	0x3eb3f357	0.3514659
108	0x3f1567e6	0.5836166
109	0x3eb230e8	0.34802938
110	0x3d57dad6	0.052698933
111	0xbe0091b6	-0.12555584
112	0xbdab7f40	-0.083738804
113	0x3ea513a2	0.3224154
114	0x3edf94a8	0.43668103
115	0x3dd3c527	0.10340338
116	0x3eadbaaa	0.33931476
117	0x3deeab6b	0.11653789
118	0x3ef03047	0.46911833
119	0x3eb6badb	0.35689434
120	0xbdbd4a32	-0.09242667
121	0xbe70ac79	-0.23503293
122	0xbf38a27a	-0.7212292
123	0xbeae3428	-0.34024167
124	0xbe7c374a	-0.24630466
125	0xbe20510f	-0.15655921
126	0x3ea38339	0.31936052
127	0x3d9ded4c	0.077112764
128	0xbe69255c	-0.22768158
129	0xbee29c35	-0.44259802
130	0xbecbf60d	-0.3983616
131	0x3e381ed0	0.17980504
132	0x3e601eae	0.21886703
133	0xbbbdf1ef	-0.005796663
134	0x3e22d92e	0.1590316
135	0x3d84dcf5	0.06487457
136	0xbd3dc0d3	-0.04632647
137	0xbe1a8df6	-0.15093216
138	0x3ee1df21	0.44115546
139	0x3e56673b	0.20937817
140	0x3dc21c46	0.09478049
141	0x3df696a3	0.120404504
142	0x3e333f05	0.17504509
143	0xbaf22cb2	-0.0018476455
144	0xbee0cd67	-0.4390671
145	0xbe880ec5	-0.26573768
146	0xbe3281d6	-0.17432341
147	0x3ece5916	0.40302342
148	0x3e924ab6	0.28572625
149	0xbe300bb0	-0.17191958
150	0xbe1bb021	-0.15203907
151	0x3e931c6c	0.28732622
152	0x3e28c56b	0.16481559
153	0xbe3a752a	-0.18208757
154	0xbe397621	-0.18111469
155	0x3ec0ab78	0.3763082
156	0x3ecfc0c5	0.4057676
157	0xbf028d21	-0.50996596
158	0xbe77befe	-0.24193951
159	0x3e7e9faf	0.24865602
160	0xbf1d31d9	-0.61404186
161	0x3f0d3deb	0.55172604
162	0x3d966ec3	0.07345345
163	0xbe586d9a	-0.2113556
164	0xbe92050c	-0.28519475
165	0xbea483f9	-0.32131937
166	0x3f02e56f	0.5113134
167	0xbe489984	-0.19589812
168	0x3e500a89	0.20316519
169	0x3ec308a1	0.3809252
170	0x3f37c8cb	0.7179076
171	0x3ef97130	0.48719168
172	0x3dcfb364	0.10141638
173	0x3e610f07	0.21978389
174	0x3eb85446	0.36001796
175	0x3f57af6d	0.84252053
176	0xbee860af	-0.45386264
177	0x3f73094d	0.94936067
178	0x3e75119f	0.23932503
179	0x3e9cc693	0.3062025
180	0x3ed1fed6	0.41014737
181	0xbebfad90	-0.37437105
182	0x3ddd7185	0.10812668
183	0x3f28b2d6	0.6589788
184	0xbd53f5e7	-0.051748183
185	0xbeaca8f9	-0.33722666
186	0x3d32c3a0	0.043643594
187	0xbeaf5a22	-0.34248453
188	0xbe9890e9	-0.29798058
189	0xbf2aee72	-0.6677009
190	0x3db35d0e	0.08757983
191	0xbc6db62a	-0.014508763
192	0xbf1340e8	-0.57520914
193	0xbd7f07ab	-0.062263172
194	0xbe1f32c3	-0.15546708
195	0x3ecfff79	0.40624598
196	0x3da88a24	0.08229473
197	0xbe297e57	-0.16552101
198	0x3b98ac96	0.0046592457
199	0xbe2ffa0f	-0.17185234
200	0xbe8f823f	-0.28029057
201	0x3e26fe19	0.16307868
202	0x3e1cd108	0.15314114
203	0x3e96f01c	0.29480064
204	0x3e6581b4	0.22412759
205	0xbbe81929	-0.0070830774
206	0xbd9d1237	-0.0766949
207	0x3dd5e059	0.104431815
208	0xbe4bbeaf	-0.19896959
209	0xbe3241ca	-0.17407909
210	0x3d149358	0.03627333
211	0xbc183cec	-0.009291869
212	0x3e8874f7	0.26651737
213	0x3dc865f2	0.097850695
214	0x3dc67523	0.09690311
215	0xbe05a338	-0.13050544
216	0xbb774992	-0.003773306
217	0xbe7d7299	-0.24750747
218	0x3c930799	0.017947959
219	0xbc4f401f	-0.012649565
220	0x3ed30b13	0.41219386
221	0xbe2f1ecc	-0.17101592
222	0x3db049aa	0.086078
223	0x3e31b72f	0.17355035
224	0xbeb9d83c	-0.36297786
225	0xbf1097e3	-0.5648176
226	0x3eb0dda3	0.34544095
227	0xbe0697b8	-0.13143814
228	0x3e67c39c	0.22633213
229	0xbe83c24f	-0.25734183
230	0xbe911d44	-0.2834264
231	0xb98760a1	-0.000258212
232	0xbee1a4ba	-0.4407099
233	0xbf15f153	-0.58571357
234	0xbf4c047b	-0.79694337
235	0x3ec6fc82	0.38864523
236	0xbe1cf773	-0.1532877
237	0xbea6776d	-0.3251299
238	0x3c09c7e7	0.008409477
239	0xbea4394e	-0.3207497
240	0xbd9e820f	-0.077396505
241	0xbf6282b4	-0.8848069
242	0xbf061cfd	-0.5238798
243	0x3ebdb5d2	0.3705278
244	0x3db879f6	0.09007637
245	0xbe198cf1	-0.14995171
246	0xbea05682	-0.31316
247	0x3d73ce11	0.059522692
248	0xbcae1c54	-0.021253742
249	0xbd05fcae	-0.032711677
250	0x3eb3121e	0.3497476
251	0x3e8ffc95	0.28122392
252	0x3ef8ed39	0.48618487
253	0xbebdaa88	-0.37044168
254	0xbe5a138d	-0.2129652
255	0xbd65522d	-0.055986572

fc_hidden.bias f4 [128]
0	0xbce4bdc5	-0.02792252
1	0x3a21b39d	0.0006168427
2	0xbe909600	-0.2823944
3	0xbe1d4190	-0.15357041
4	0xbd79f596	-0.061025225
5	0xbf4a3ca1	-0.7899876
6	0xbe8b7553	-0.2723795
7	0x3d9c8a22	0.07643534
8	0xbed6e294	-0.4196974
9	0x3dfc290e	0.12312518
10	0xbe00c8cb	-0.12576596
11	0x3dd5249f	0.104073755
12	0xbd0077ab	-0.031364124
13	0xbdbf9320	-0.09354234
14	0xbe0f1676	-0.13973412
15	0xbe277f00	-0.1635704
16	0xbd83c02e	-0.0643314
17	0x3d82c837	0.06385844
18	0xbf27f7f8	-0.65612745
19	0xbe4e0d1a	-0.20122185
20	0x3fb713e5	1.4302946
21	0x3f450502	0.76960766
22	0xbdaf1d9a	-0.08550568
23	0x3d58c3ae	0.05292099
24	0xbe55500a	-0.20831314
25	0xbe9acbb6	-0.30233544
26	0xbc9fc874	-0.019504763
27	0xbdf8d6da	-0.12150355
28	0x3e338d1f	0.17534302
29	0xbda28321	-0.07935167
30	0x3ee3a199	0.44459227
31	0xbd9b8845	-0.07594351
32	0x3dadce5c	0.084866256
33	0xbd4973e2	-0.04918278
34	0x3c13562c	0.008992713
35	0xbf12d711	-0.57359415
36	0xbe298e79	-0.16558255
37	0xbe11a5da	-0.14223424
38	0xbc680793	-0.014161962
39	0xbd369cc5	-0.0445831
40	0x3dbafe00	0.09130478
41	0xbdd8ce10	-0.10586178
42	0x3d4b9f20	0.0497123
43	0xbf3b7041	-0.7321816
44	0xbda85bfe	-0.08220671
45	0x3d00b46d	0.031422067
46	0xbd3b8e4a	-0.045789994
47	0xbcdbf8cd	-0.026852036
48	0xbde4d5a1	-0.11173559
49	0x3d846a2f	0.064655654
50	0xbc1a7973	-0.00942837
51	0x3d88f4f0	0.06687343
52	0xbf150c47	-0.5822186
53	0xbf052c38	-0.520206
54	0xbd707a32	-0.058710285
55	0xbe8de25f	-0.2771177
56	0x3e0871eb	0.13324706
57	0xbc07f0f1	-0.008297191
58	0xbca9e235	-0.020737747
59	0x3cc3aadd	0.023885185
60	0xbcf5c499	-0.030000972
61	0x3d965e05	0.073421516
62	0xbdf7b171	-0.12094391
63	0xbd788be7	-0.060680296
64	0xbc7f8149	-0.015594789
65	0xbc51030f	-0.012757077
66	0xbda9fa1d	-0.082996584
67	0xbd67c129	-0.056580696
68	0xbe38d8b4	-0.18051416
69	0xbeaed2c3	-0.34145173
70	0x3de6776b	0.11253246
71	0xbe4df5f4	-0.20113355
72	0xbed2db27	-0.41182825
73	0xbf3060ce	-0.6889771
74	0xbd5bf30a	-0.053698577
75	0xbe600fcd	-0.21881028
76	0x3e1750e1	0.14776947
77	0x3d9dc030	0.077026725
78	0x3e5f5c7b	0.21812622
79	0xbf03b6e1	-0.51450926
80	0x3de742f7	0.112920694
81	0xbc9a8079	-0.018860089
82	0x3e23d892	0.16000584
83	0xbe9789e3	-0.29597387
84	0xbe35a4d5	-0.1773866
85	0x3f19a279	0.6001354
86	0xbd417bb1	-0.047237102
87	0x3e5c22d2	0.21497658
88	0x3f522026	0.82080305
89	0x3f0b598b	0.54433507
90	0x3ee78844	0.4522115
91	0xbdca4055	-0.098755516
92	0xbe4a7ba7	-0.19773732
93	0xbf490bd4	-0.78533673
94	0xbf3eb2dd	-0.74491674
95	0x3e037c83	0.12840466
96	0xbc99a23f	-0.018754123
97	0xbf16ce80	-0.58908844
98	0xbe4425e1	-0.19155075
99	0x3e21a669	0.15786137
100	0xbe8e157f	-0.27750775
101	0xbde194fc	-0.11014745
102	0xbf340152	-0.70314515
103	0xbe2cf87a	-0.16891661
104	0xbe61b3b1	-0.22041203
105	0xbe7e433e	-0.24830338
106	0xbe0bbb6c	-0.13645715
107	0x3cfc49c7	0.030796899
108	0xbccd08ea	-0.025028665
109	0xbccb2723	-0.024798935
110	0xbe62d681	-0.22152139
111	0x3dbe7c19	0.093010135
112	0xbe58a599	-0.2115692
113	0x3ae26165	0.0017271457
114	0xbc539d75	-0.012915959
115	0xbd12fa7b	-0.035883408
116	0xbe2e514d	-0.17023201
117	0xbded959a	-0.116008
118	0x3e7a605f	0.24450825
119	0xbeabff80	-0.3359337
120	0x3d426202	0.04745675
121	0x3f0da4c8	0.5532956
122	0xbe5c7af0	-0.21531272
123	0x3e2139b3	0.15744667
124	0x3df8c940	0.121477604
125	0x3ddca4f9	0.107736535
126	0xbcfda612	-0.030962978
127	0xbe41cbd5	-0.18925412

output.weight f4 [300, 128]
0	0x3fec92de	1.848232
1	0x3f0fd6a4	0.5618689
2	0x3e7cebb0	0.24699283
3	0x3e9420c1	0.2893124
4	0x3fb0349b	1.3766054
5	0x3ff6a552	1.9269202
6	0x3f383061	0.7194882
7	0x3f65c581	0.8975449
8	0x3f0174bd	0.50568753
9	0x3f9da3d9	1.2315627
10	0x3fc197cc	1.512445
11	0xbf6e6665	-0.9312499
12	0x3e2acdb5	0.16680034
13	0x4009314e	2.1436343
14	0x403d9bda	2.9626374
15	0x3ffc4c91	1.9710866
16	0x3f96cc47	1.178109
17	0x3e332847	0.17495833
18	0x3faab4ff	1.3336486
19	0xbd1ebfe7	-0.03875723
20	0xbf17ef8f	-0.5934991
21	0xbf3a7be2	-0.7284528
22	0x3eeea165	0.4660751
23	0x3ee2f685	0.44328704
24	0x3f4f729d	0.8103426
25	0x401f737d	2.4914238
26	0x3d0730a3	0.033005368
27	0x3f50649e	0.8140353
28	0x3fb88237	1.4414738
29	0x3efe0b60	0.49618053
30	0x3eddde2e	0.43333572
31	0x3fbdde2b	1.4833425
32	0x3d390eb1	0.045180026
33	0x3ee44784	0.44585812
34	0x3f274782	0.6534349
35	0x3e862d53	0.26206455
36	0x3fb75984	1.4324193
37	0x3f233a4f	0.63760847
38	0x3b6e80cc	0.0036392687
39	0x3fef541a	1.8697541
40	0xbd9c4c84	-0.07631782
41	0x3f5a9bfa	0.8539425
42	0x3f95c287	1.169999
43	0xbd72a1ab	-0.05923621
44	0x3f944697	1.1584042
45	0x3fcbe514	1.5929284
46	0x3fcd1573	1.6022171
47	0x3eaed9cd	0.34150544
48	0x3ee6cdcf	0.45078894
49	0x3ec3fbef	0.38278148
50	0x3f0485da	0.5176674
51	0x3ef1bf72	0.47216374
52	0x3f165e18	0.58737326
53	0x3fe2027e	1.765701
54	0x3f855c43	1.0418781
55	0x3e0005a8	0.12502158
56	0x3f3c0473	0.7344429
57	0xbf1d118f	-0.6135492
58	0x3d9153f7	0.07096093
59	0x3ed29c4f	0.4113488
60	0xbee4b4e9	-0.44669273
61	0x3de6c55e	0.112681136
62	0x3fcd531e	1.604099
63	0x3f5b5237	0.85672325
64	0x3f8e29ca	1.1106503
65	0x404150f2	3.0205655
66	0x3f59c9e9	0.85073715
67	0x3e945436	0.28970498
68	0x3f01a1ac	0.50637317
69	0x3f69afc1	0.91283804
70	0x3f1d8f6c	0.6154697
71	0x401c498b	2.4419887
72	0xbe9b5987	-0.3034174
73	0x3f1ce3dd	0.6128519
74	0x3e9a92e2	0.30190188
75	0x3fe67e83	1.8007358
76	0x400073f1	2.0070765
77	0x3f846322	1.0342753
78	0x3f89f755	1.0778605
79	0x401618de	2.3452678
80	0x3f75a067	0.9594788
81	0x3dc583ae	0.096442565
82	0x3f23d45c	0.6399591
83	0x3e7302d9	0.23731555
84	0x3e8b6bb5	0.2723061
85	0xbe90c0df	-0.2827215
86	0x3f536d75	0.82588893
87	0xbe324649	-0.17409624
88	0x3e438a23	0.19095664
89	0x3ebda682	0.37041098
90	0xba4cfb4a	-0.00078194274
91	0x3f9d76f1	1.2301923
92	0x3e3facbf	0.18718241
93	0x3fd431aa	1.6577656
94	0x3fc33dc3	1.5253223
95	0x3ebc27a8	0.36749005
96	0x400dd5f7	2.2161844
97	0x3f7c87fd	0.98645
98	0xbcec197a	-0.028820742
99	0x3e493362	0.19648507
100	0x40158fa5	2.3368924
101	0x3eb6e5bc	0.35722148
102	0x3ec4be87	0.3842661
103	0x403388d1	2.8052256
104	0x3f5aa281	0.8540421
105	0x3fb31f71	1.399397
106	0x3d03698b	0.032083075
107	0x3fb749eb	1.4319433
108	0x3ec6de0e	0.3884129
109	0x3f8bc9da	1.0920975
110	0x402f182c	2.7358503
111	0x3d5a3a6b	0.053278368
112	0xbd13d305	-0.036089916
113	0x3e47b54f	0.19502757
114	0x3f6a05b5	0.9141496
115	0x3d6b2753	0.05741055
116	0x3feb5eb6	1.8388278
117	0x3fc08f1d	1.5043675
118	0x3e4a732d	0.19770499
119	0x3f5c0c88	0.8595662
120	0x3ee77a5f	0.4521055
121	0xbe8c5967	-0.2741196
122	0x3f8e7525	1.11295
123	0xbf3fc212	-0.749055
124	0x3f8f6849	1.12037
125	0x3e344434	0.17604142
126	0x3fde9bba	1.7391274
127	0x3e040cbd	0.12895484
128	0x3fd0167a	1.6256859
129	0x3f047448	0.5173993
130	0x3e3f3aa9	0.18674721
131	0x3e6717b5	0.22567637
132	0x3f9eb9e7	1.2400483
133	0x3fe1c1da	1.7637284
134	0x3f170ba4	0.5900214
135	0x3f2b8608	0.6700139
136	0x3ecf54c6	0.40494365
137	0x3f818da6	1.0121353
138	0x3f9102de	1.1329
139	0xbf7a87d7	-0.97863525
140	0x3e2b4ada	0.16727772
141	0x3ff75b7d	1.9324795
142	0x4037b63a	2.8704972
143	0x3feea200	1.8643188
144	0x3f838a5c	1.0276599
145	0x3e448084	0.1918965
146	0x3fadb8c7	1.3572015
147	0xbd139f20	-0.036040425
148	0xbed730a5	-0.420293
149	0xbf1a207e	-0.6020583
150	0x3ecb0af7	0.39656803
151	0x3ec48343	0.38381395
152	0x3f5850c9	0.8449827
153	0x4013ef3b	2.3114765
154	0xbe10110f	-0.14069007
155	0x3f2b2d5d	0.66866094
156	0x3fad4c92	1.3538992
157	0x3ee111ee	0.43958992
158	0x3f050eb9	0.5197559
159	0x3f93a893	1.153582
160	0x3dd2ef39	0.10299534
161	0x3ecc9209	0.39955166
162	0x3f2da8ca	0.67835677
163	0x3e275cb8	0.16343963
164	0x3fb9d849	1.451913
165	0x3f14c5b7	0.5811419
166	0xbc95450d	-0.018221403
167	0x3fb32d33	1.3998169
168	0xbd840374	-0.06445971
169	0x3f63c177	0.8896708
170	0x3f572c02	0.84051526
171	0xbd801ba6	-0.062552735
172	0x3f86ed4c	1.0541167
173	0x3fc5993d	1.543739
174	0x3fa19a08	1.2625132
175	0x3e993afc	0.29927814
176	0x3ecf92f8	0.40541816
177	0x3ea99c21	0.3312693
178	0x3f14a7ce	0.5806855
179	0x3eda260b	0.4260715
180	0x3ec2a366	0.38015288
181	0x3fec258c	1.8448958
182	0x3f395525	0.72395545
183	0x3dbb6498	0.09150046
184	0x3f2ba585	0.6704944
185	0xbf1db88c	-0.6160972
186	0xbd86e2f1	-0.065862544
187	0x3ec53ceb	0.3852304
188	0xbf13ac84	-0.5768511
189	0xbc049c32	-0.0080938805
190	0x3faa66d4	1.3312631
191	0x3f2e815d	0.6816614
192	0x3f84b5e1	1.0368005
193	0x4021bcbb	2.5271442
194	0x3f4216ae	0.75815856
195	0x3e8d0d15	0.27549043
196	0x3f2f465b	0.6846673
197	0x3f595ad3	0.8490421
198	0x3f11a017	0.568849
199	0x40006420	2.0061111
200	0xbe7b965f	-0.24569081
201	0x3ef14fe1	0.47131255
202	0x3e95068a	0.2910655
203	0x3fb520cc	1.4150634
204	0x3fb562f8	1.4170828
205	0x3f70d6cb	0.9407775
206	0x3f5d529b	0.8645417
207	0x40149557	2.321615
208	0x3f41944d	0.75616914
209	0x3d836930	0.06416547
210	0x3f1a6161	0.6030484
211	0x3e7d0e7c	0.24712557
212	0x3e83aa1a	0.25715715
213	0xbe5548ab	-0.20828502
214	0x3f493909	0.78602654
215	0xbe05f3f3	-0.1308134
216	0x3e6d2d1c	0.23161739
217	0x3ea7e493	0.32791576
218	0x3c3386e1	0.010957451
219	0x3fa64bd0	1.2991886
220	0x3e38abb4	0.1803425
221	0x3fc3eded	1.5306984
222	0x3fb48780	1.4103851
223	0x3eb7490b	0.35797915
224	0x3ff16ead	1.88619
225	0x3f44b003	0.7683107
226	0xbc7e5174	-0.01552235
227	0x3e53e122	0.2069135
228	0x4005ccf4	2.0906343
229	0x3ea788f9	0.3272169
230	0x3eb7b52e	0.35880417
231	0x40042637	2.0648324
232	0x3f4fc1fd	0.8115538
233	0x3fa48fed	1.2856423
234	0x3d166187	0.036714103
235	0x3fa037d4	1.2517037
236	0x3ec4fc15	0.38473573
237	0x3f913c93	1.1346611
238	0x4004cae8	2.0748844
239	0x3d88195b	0.06645461
240	0xbd13a2b7	-0.03604385
241	0x3e93f118	0.28894877
242	0x3f370e10	0.7150583
243	0x3cd6f7c8	0.026241198
244	0x3fdbbbec	1.7166724
245	0x3f936993	1.1516594
246	0x3e543c2a	0.20726076
247	0x3f32b58d	0.69808275
248	0x3f122b7b	0.57097596
249	0xbe80038f	-0.25002715
250	0x3f5c81d9	0.8613563
251	0xbf28f7a6	-0.6600288
252	0x3f8c68f4	1.0969529
253	0x3e5099ee	0.2037122
254	0x3fb98378	1.4493246
255	0x3da249f9	0.079242654

output.bias f4 [300]
0	0xbebc03a1	-0.3672152
1	0xbd9931eb	-0.07480224
2	0x3cf9b969	0.030483918
3	0x3dcd03c5	0.100104846
4	0x3ded3b06	0.115835235
5	0x3defa788	0.11701876
6	0x3e176bf5	0.14787276
7	0x3e0c42bb	0.1369733
8	0x3e0b6f4f	0.1361668
9	0x3e16e184	0.14734465
10	0x3e156b09	0.14591612
11	0x3e1cb50a	0.15303436
12	0x3e059cde	0.13048121
13	0x3dfbbf62	0.12292363
14	0x3e0b9d1e	0.13634154
15	0x3e048981	0.12943079
16	0x3dfdc1ac	0.123904556
17	0x3e002255	0.12513097
18	0x3e0cb33b	0.13740246
19	0x3df3eb5e	0.11910127
20	0x3df48048	0.1193853
21	0x3e060ded	0.1309125
22	0x3e0caa86	0.13736925
23	0x3e0be565	0.13661726
24	0x3e0ce02b	0.13757388
25	0x3e07617a	0.13220778
26	0x3dfdcbb8	0.12392372
27	0x3dd618be	0.10453938
28	0x3e034585	0.12819488
29	0x3de54b38	0.111959875
30	0x3dd27090	0.10275376
31	0x3df087ce	0.11744653
32	0x3de5a342	0.112127796
33	0x3dc175c7	0.09446292
34	0x3df4e1f0	0.11957157
35	0x3de8567c	0.113446206
36	0x3db96085	0.09051613
37	0x3dc4b6f1	0.09605206
38	0x3de02f5b	0.10946532
39	0x3ddff3ff	0.109352104
40	0x3ddd7373	0.10813036
41	0x3dfdf52b	0.12400278
42	0x3e253f98	0.1613754
43	0x3e52ad38	0.2057389
44	0x3e8ac708	0.27104974
45	0x3ebbfe73	0.36717567
46	0x3eee6898	0.46564174
47	0x3f206b5e	0.6266383
48	0x3f4ae831	0.79260546
49	0x3f75312e	0.9577817
50	0xbf96eb60	-1.1790581
51	0xbf5b82b4	-0.8574631
52	0xbf3555e5	-0.7083419
53	0xbf0f4074	-0.5595772
54	0xbef87be9	-0.48532036
55	0xbeec96d7	-0.46208832
56	0xbeca892a	-0.39557773
57	0xbeb9a39f	-0.36257645
58	0xbeaf2dbf	-0.3421459
59	0xbea7e18a	-0.3278926
60	0xbe841a23	-0.2580119
61	0xbe5ac6d7	-0.21364914
62	0xbe52e431	-0.2059486
63	0xbe397cc0	-0.18113995
64	0xbdc04406	-0.093879744
65	0xbdddb4a1	-0.10825468
66	0xbd93707b	-0.07199188
67	0xbd11c43f	-0.035587545
68	0x3b942f69	0.0045222533
69	0x3d13e973	0.036111306
70	0x3d9f243b	0.07770582
71	0x3d360bdf	0.044444915
72	0x3dd7255f	0.10505175
73	0x3e1ca529	0.15297379
74	0x3e452760	0.19253302
75	0x3e493f81	0.19653131
76	0x3e43ea37	0.19132315
77	0x3e89b17d	0.26893225
78	0x3e84c6ab	0.25932822
79	0x3e91d7f0	0.2848506
80	0x3e8e0596	0.27738637
81	0x3ebe4bea	0.37167293
82	0x3eb633a2	0.35586268
83	0x3eccdbc9	0.40011433
84	0x3ebe5072	0.3717075
85	0x3edb96b3	0.42888412
86	0x3edce65e	0.43144506
87	0x3f00a3ec	0.50250125
88	0x3f020424	0.5078757
89	0x3f155ece	0.58347785
90	0x3f211a17	0.62930435
91	0x3f2486e5	0.6426833
92	0x3f2ee546	0.68318594
93	0x3f3a79d5	0.7284215
94	0x3f4ce15c	0.8003137
95	0x3f5d4f73	0.86449355
96	0x3f6cde0f	0.92526335
97	0x3f84066f	1.0314463
98	0x3f8dde95	1.1083552
99	0x3f92fcf4	1.1483445
100	0xbee391ea	-0.4444726
101	0xbec491c9	-0.38392475
102	0xbeb62b29	-0.35579804
103	0xbe96c1d6	-0.2944476
104	0xbe83e065	-0.25757137
105	0xbe584bf3	-0.21122722
106	0xbe590816	-0.21194491
107	0xbe1e2b50	-0.1544621
108	0xbe0c8ff1	-0.13726784
109	0xbe0256e7	-0.12728463
110	0xbdacbb62	-0.08434178
111	0xbdc1e552	-0.094675675
112	0xbd94c277	-0.07263654
113	0xbd913285	-0.07089714
114	0xbd2167b0	-0.039405525
115	0xbd45611c	-0.048188314
116	0xbca469ef	-0.020070044
117	0x3b91b518	0.004446637
118	0x3d06c6e2	0.032904513
119	0x3ce96438	0.02849017
120	0x3d278b6a	0.04090444
121	0x3d6d7bc3	0.057979356
122	0x3d51e1bc	0.051240668
123	0x3daa3b4f	0.083120935
124	0x3da3c261	0.07996059
125	0x3deacdb4	0.11465016
126	0x3dea7b1d	0.11449263
127	0x3dc8c40f	0.0980302
128	0x3e1bbe25	0.15209253
129	0x3e1adc42	0.15123084
130	0x3e27562a	0.16341463
131	0x3e28f62b	0.16500156
132	0x3e5438a7	0.20724736
133	0x3e6c0e14	0.23052245
134	0x3e8bd41f	0.27310273
135	0x3e9cbb3f	0.30611607
136	0x3e9c0257	0.30470535
137	0x3ea909f6	0.33015412
138	0x3eaff3d4	0.34365714
139	0x3ed7171a	0.42009813
140	0x3ee0ef1c	0.43932426
141	0x3ef92a43	0.48665056
142	0x3f0a1612	0.53939927
143	0x3f193083	0.5983965
144	0x3f267286	0.650185
145	0x3f3989d2	0.7247592
146	0x3f4a4e36	0.7902559
147	0x3f5e636e	0.8687047
148	0x3f751574	0.9573586
149	0x3f82718e	1.0190904
150	0xbf6e1c40	-0.93011856
151	0xbf361118	-0.71119833
152	0xbf0125f0	-0.50448513
153	0xbef6e74d	-0.48223343
154	0xbeaf2f52	-0.3421579
155	0xbe80f44c	-0.25186384
156	0xbe4c7565	-0.19966657
157	0xbe456d39	-0.19279946
158	0xbe202023	-0.15637259
159	0xbdd54b90	-0.10414803
160	0xbd0d6638	-0.03452131
161	0xbd0f1984	-0.034936443
162	0xbbb00c17	-0.005372535
163	0xbcd2b707	-0.02572204
164	0x3cf866c7	0.030322446
165	0x3d376fc8	0.044784337
166	0x3d0d4afc	0.03449534
167	0x3db88c12	0.09011091
168	0x3db1cc43	0.08681538
169	0x3df76e32	0.12081565
170	0x3ddc76a0	0.107648134
171	0x3e13bd21	0.14427616
172	0x3e3f6000	0.18688965
173	0x3e3642fe	0.17798993
174	0x3e412e37	0.18865286
175	0x3e52cd15	0.20586045
176	0x3e7285e0	0.23683882
177	0x3e8c7417	0.2743232
178	0x3e92876c	0.28618944
179	0x3ea08643	0.31352434
180	0x3eb50222	0.3535319
181	0x3eb8ff28	0.3613217
182	0x3ed0986a	0.40741283
183	0x3edba7a0	0.42901325
184	0x3ee952b4	0.4557091
185	0x3ef78a93	0.4834791
186	0x3f0b8dda	0.54513323
187	0x3f0a40f3	0.54005355
188	0x3f0ecae7	0.55778354
189	0x3f1d9854	0.6156056
190	0x3f2b498b	0.6690909
191	0x3f339dd6	0.70162714
192	0x3f4586b7	0.77158684
193	0x3f49c2a6	0.78812635
194	0x3f5c095d	0.8595179
195	0x3f657cd2	0.89643586
196	0x3f740236	0.95315874
197	0x3f81f554	1.0152993
198	0x3f8ba37c	1.0909266
199	0x3f9087fb	1.1291498
200	0xbef1d9ee	-0.4723658
201	0xbeccb285	-0.3997995
202	0xbea1ad7d	-0.31577674
203	0xbe90e517	-0.28299782
204	0xbe71a2c1	-0.23597242
205	0xbe4e348f	-0.20137237
206	0xbe133f21	-0.1437955
207	0xbe13d284	-0.14435774
208	0xbe0a3a46	-0.13498792
209	0xbdda9905	-0.106737174
210	0xbdb7ec40	-0.08980608
211	0xbd8db690	-0.06919587
212	0xbd6a0aa8	-0.05713907
213	0xbcb462f0	-0.022019833
214	0xbcf58936	-0.029972654
215	0xbd335e82	-0.0437913
216	0xbc88ce21	-0.016699852
217	0x3b5673ae	0.003272276
218	0x3c89af29	0.016807156
219	0x3c94399c	0.018093877
220	0x3d04219f	0.032258626
221	0x3cc222c3	0.023698216
222	0x3ca26d1d	0.01982742
223	0x3d34eb9a	0.04417
224	0x3dc5b131	0.09652937
225	0x3de36614	0.11103454
226	0x3dbdebff	0.09273528
227	0x3def818c	0.11694631
228	0x3e06ea62	0.13175347
229	0x3e1b463c	0.15163511
230	0x3e4546c6	0.19265279
231	0x3e3f94cc	0.18709105
232	0x3e48f121	0.19623233
233	0x3e512198	0.20422971
234	0x3e6ba6d5	0.2301286
235	0x3e8755db	0.2643269
236	0x3e8331de	0.25623983
237	0x3ea144cf	0.3149781
238	0x3eae2936	0.34015816
239	0x3ecb6b2d	0.39730206
240	0x3ee04251	0.43800595
241	0x3ee9901c	0.4561776
242	0x3f01f934	0.5077088
243	0x3f0f511d	0.55983144
244	0x3f1c4bb8	0.6105304
245	0x3f310071	0.691413
246	0x3f40b33c	0.7527349
247	0x3f610602	0.8789979
248	0x3f721ffb	0.9458005
249	0x3f7b063d	0.98056394
250	0xbf0e51a5	-0.5559333
251	0xbee640b3	-0.44971237
252	0xbeb8073f	-0.35943028
253	0xbe982277	-0.29713795
254	0xbe64659b	-0.22304384
255	0xbdf7b43d	-0.120949246
