figs2-3_rl/results/space_invaders-UADQN/network_posterior1.pth (torch_old, 684252 bytes, 6 tensors)

conv.weight f4 [16, 6, 3, 3]
000000 c8 4c c3 3e 20 c0 94 3e 83 bd 07 3f d5 7c 2e 3e
       0.38144517 0.2905283 0.53023547 0.17039807
000010 8e e1 56 3f 52 40 59 3b a6 81 45 3f 4e e1 bb 3e
       0.8393792 0.003314991 0.7715095 0.3669533
000020 1e 8d 06 bf ca a1 02 3f d4 c8 92 3e f3 23 1a bb
       -0.5255908 0.5102812 0.28668845 -0.0023519963
000030 7c 42 d3 3f aa 5a 37 3f 98 74 bc bd 96 41 e8 3f
       1.6504664 0.7162272 -0.09201926 1.8145015
000040 7d cf f4 3e ee fd d0 3f 5a 06 bf 3f 86 98 9a 3e
       0.4781455 1.6327493 1.4923813 0.3019449
000050 13 71 ec 3e 98 f7 04 3f cb 56 13 3f f2 a1 cf 3d
       0.4618002 0.519403 0.5755431 0.101383105
000060 c7 7e 48 3f db 76 a0 3f 42 a0 dc 3f 57 3e ad be
       0.78318447 1.2536272 1.7236407 -0.33836624
000070 20 51 57 3e b8 e1 f9 be e5 f4 55 3f 82 04 8c bd
       0.2102704 -0.48805022 0.83576804 -0.06836797
000080 cb 45 97 3f 3c 06 a2 3f 75 b5 b5 be 63 0d 18 3e
       1.1818174 1.2658153 -0.35490003 0.14848857
000090 ff e1 b0 be c2 7e 6f be 81 ea de bd b2 6f 9d 3e
       -0.3454742 -0.23388198 -0.10884572 0.3074928
0000a0 ad b2 06 bf b9 72 ea be 9e b1 2e be 0d dc 7b be
       -0.5261639 -0.4579065 -0.17059943 -0.24595661
0000b0 7b b7 25 bf e0 ad 7f 3b 59 d0 d6 3d f2 d8 bd bc
       -0.64733094 0.003901355 0.10488958 -0.023174737
0000c0 b3 70 a2 bd 77 ec 6c 3e 9a 80 07 bf d6 7c 63 bd
       -0.07931652 0.23137079 -0.52930605 -0.055538975
0000d0 89 f7 a8 3d f5 41 21 bf ce 53 5d 3e a7 ec 6f 3e
       0.082503386 -0.6299127 0.21614 0.2343012
0000e0 4c e3 f3 3e 29 a6 99 bd 9d ff a3 3d f9 ca f5 be
       0.4763435 -0.07502396 0.08007739 -0.48006418
0000f0 f9 30 cb 3d 2e 87 01 3e 4c 6e 91 3e 7d 52 44 bc
       0.0992145 0.12649223 0.28404462 -0.011982557
000100 94 25 81 bc cc 1a f5 be e6 b7 a0 3f ee a7 97 be
       -0.015764989 -0.47872007 1.2556121 -0.29620308
000110 ad 1d 28 3f d8 25 4c 3f 58 9e 5d 3f 99 01 c5 3e
       0.6567028 0.79745245 0.8656974 0.3847778
000120 39 47 cd 3e 68 a1 36 3d 39 c8 41 bf 6e 4b 17 40
       0.400934 0.044587523 -0.7569614 2.3639789
000130 ba 9e 56 3f b7 ad c6 3e ab 2d 2f 3e e8 13 64 bf
       0.8383595 0.3880441 0.17107265 -0.89092875
000140 10 d7 00 3e 70 db ef 3d 47 c5 00 3d 49 3c 11 3e
       0.1258204 0.11711776 0.03143814 0.14183153
000150 b2 e6 72 bf 48 72 c7 3e 46 04 1a bf f7 62 f3 3f
       -0.94883263 0.38954377 -0.6016277 1.9014577
000160 bd f8 94 3f 9c 3b 0b 3f 23 25 b9 3e 8b 2c a3 3e
       1.1638409 0.5438783 0.36161146 0.3186992
000170 66 ff 13 3f 50 df 07 3f 2a 60 18 3f cb a3 2b bd
       0.5781158 0.5307512 0.59521735 -0.041904252
000180 09 9f 2b 3f 24 99 b8 3e b7 9e 49 bf c1 89 2a be
       0.67039543 0.36054337 -0.78757805 -0.16654111
000190 27 67 c0 3e 11 5f 3c bd 9d 8b 60 3e 1f a1 0e be
       0.375787 -0.0459891 0.21928258 -0.1392865
0001a0 ae a7 f9 3c de df 18 3e da 98 10 be e8 3c 35 be
       0.030475464 0.14929149 -0.14120808 -0.17699015
0001b0 cd 7d b1 bd 65 22 a1 3c a8 22 81 3e 4f 86 e7 3e
       -0.08666573 0.01966972 0.25221753 0.45219657
0001c0 9a 7c a2 be 9d d1 c9 bc 30 96 2a be ab 21 25 bc
       -0.31735688 -0.024636084 -0.16658854 -0.010078828
0001d0 3a c1 09 3e f1 a3 a5 3c 48 fc c3 3e 97 89 57 3f
       0.13452616 0.020219775 0.38278413 0.8419432
0001e0 f4 5e ea be 90 19 18 bf 82 11 e6 3e 2d 98 2a 3f
       -0.45775568 -0.59414005 0.44935232 0.6663845
0001f0 f8 c3 af 3f f4 69 f8 3f e1 a5 5c 3e 3d 8f fd 3e
       1.373168 1.9407334 0.21547653 0.49523345
000200 e5 cf f1 bd 44 31 d2 bd b3 d4 0b bf fa 28 9c bf
       -0.11807231 -0.10263303 -0.5462143 -1.2200005
000210 d9 d0 17 3f 60 69 d6 3e 3e 0d 8b 3f 35 a7 36 3f
       0.5930305 0.4187727 1.0863416 0.7134889
000220 8d 03 17 3e 85 60 92 be 73 f1 9e be c1 09 c0 be
       0.14747448 -0.28589264 -0.31043586 -0.37507442
000230 b1 25 79 3f 01 6e 98 be f8 ef a9 be dc b1 d0 3f
       0.9732314 -0.29771426 -0.33190894 1.6304278
000240 a1 fc ac 3e e4 dc d7 ba 1d a8 4c 3f 12 5d 7c bd
       0.3378649 -0.0016469029 0.7994402 -0.061612196
000250 c0 45 48 bf 1f c8 16 bf 04 27 c6 bd 6c 76 35 3f
       -0.7823143 -0.5889911 -0.096754104 0.7088382
000260 7f bc 1e bf b6 e3 80 3f 8c 67 2b bd da d1 82 bd
       -0.6200637 1.0069492 -0.041846797 -0.06387682
000270 87 10 81 bd 72 c7 b9 be cb 85 58 bd dd d7 c5 bd
       -0.063019805 -0.36284977 -0.05286197 -0.09660313
000280 76 65 9b bc 0d 45 f8 3c f1 e7 bf be 26 45 71 3e
       -0.018969279 0.030306363 -0.37481645 0.23561534
000290 49 7e 91 3c d5 5a 52 3e 54 86 77 3f 5c eb 2a 3d
       0.017760413 0.20542462 0.96689343 0.041728362
0002a0 3f 3a 66 be eb 8b 69 be d3 ea 63 3f 57 c2 c4 3e
       -0.22483157 -0.2280728 0.8903019 0.3842952
0002b0 e4 4c dc 3e b9 f9 8b 3f 26 b8 2b 3f 82 aa 5f 3f
       0.43027413 1.0935584 0.67077863 0.8736955
0002c0 07 b1 db 3f 72 f3 fe 3f 1c 82 ea 3f 8d d4 2b 40
       1.71634 1.9918044 1.8320956 2.684848
0002d0 12 96 aa be d3 22 46 be 10 b2 24 be 7f f6 58 bf
       -0.3331762 -0.19349222 -0.1608355 -0.84751123
0002e0 33 e0 0d bf af 35 7f bf 2a ca 08 3f 26 e3 d6 3e
       -0.55420226 -0.9969129 0.5343348 0.41970176
0002f0 b6 28 09 40 a9 34 67 be 34 c4 58 3e ca 7b 09 3f
       2.1431098 -0.22578682 0.21168596 0.5370451
000300 b6 ee 95 3f 68 5a 89 3f fa d1 df 3f ff f7 91 3f
       1.1713474 1.0730715 1.7485955 1.1403807
000310 da bd 93 3f 7e f7 84 3e 62 34 9e 3d f9 a6 88 3d
       1.1542313 0.25970072 0.07724835 0.066724725
000320 bb a1 51 bd 8f b2 c9 bc 26 fe 12 bf f2 44 c8 3e
       -0.05117963 -0.024621276 -0.5741905 0.391151
000330 34 68 a6 bd ac e0 5d bf 43 da a8 3d 21 ef 3c be
       -0.08125344 -0.8667095 0.08244755 -0.18450595
000340 59 fd 0b bd a3 69 16 bd 02 b2 21 be f5 69 c7 bd
       -0.034177158 -0.036721837 -0.15790561 -0.097370066
000350 56 c6 57 3e 14 f1 b7 3c 7d 1d 00 3c d2 9e 6c 3e
       0.21071753 0.022453822 0.007819531 0.2310746
000360 21 4b 2e 3e 67 e9 32 3d 18 76 50 bd 27 c5 ac 3e
       0.17020847 0.04367962 -0.050893873 0.33744165
000370 2b f6 97 be 92 ff 1a 3f 6e f1 4b bd de 61 90 be
       -0.2968 0.6054622 -0.049790792 -0.28199667
000380 8c 8c 3e be 0d d3 5f 3f 99 5a ca 3e 9d ed ca 3e
       -0.18608302 0.8743141 0.39522246 0.3963441
000390 49 ca 6b 3f ea 7c 6d 3f 6f 53 e6 3a 28 f5 22 be
       0.9210554 0.9276873 0.0017572473 -0.15913832
0003a0 72 f2 64 3d 51 97 a3 bc 7c e0 4c 3f 78 b0 86 3f
       0.055895276 -0.019969614 0.80030036 1.0522604
0003b0 ae 0c 32 3f 9f 4d 6b 3f 59 c8 37 3f f5 51 cc 3e
       0.695506 0.91915315 0.7179008 0.39906278
0003c0 1d f9 1d 3f 94 3b 5a bf cc 4f 17 bf 24 3b 52 bf
       0.6170824 -0.8524716 -0.59106135 -0.8212149
0003d0 4c 9a 6f bd 44 1b b1 ba 3f 47 20 3e 9b bf 3b bf
       -0.05849676 -0.0013512154 0.15652178 -0.7333924
0003e0 2a 10 0f bf 59 fc e6 3e 87 78 06 be 44 d0 9d 3e
       -0.5588404 0.451144 -0.13131915 0.30822957
0003f0 05 ab b5 be df 15 3a 3f b0 70 e5 3e d8 30 8c bd
       -0.3548204 0.7268962 0.44812536 -0.06845254

conv.bias f4 [16]
000000 ac 47 07 3f dc 10 39 3e 81 b0 79 3d 2e f1 1e 3e
       0.5284374 0.18072838 0.060959343 0.1552169
000010 8d f0 e8 3e 2c 75 92 3f c0 91 43 3f b1 7b 34 bb
       0.45496026 1.1442008 0.7639427 -0.0027539546
000020 c2 34 2c b9 61 5b 7d bb b2 5f 8d 3f d9 4e 0a 3e
       -0.00016422852 -0.0038659202 1.1044829 0.1350664
000030 7e c8 7d 3f ee 3c 74 3b 35 f9 5c 3f 13 8d a9 3a
       0.9913405 0.0037267762 0.8631776 0.001293572

fc_hidden.weight f4 [128, 1024]
000000 69 91 c3 bd 10 1c 41 3d 8b a3 60 bd 1f 5c 37 be
       -0.09549219 0.047145903 -0.054843467 -0.17906235
000010 0b 84 e8 bc ac 5c 9e bd 73 77 bb 3c 39 13 9c 3d
       -0.028383275 -0.077325195 0.022884106 0.07620854
000020 17 2a 69 bd 12 53 09 bc 48 76 ac bd 44 67 d4 bd
       -0.056924906 -0.008381622 -0.08420998 -0.10371259
000030 af 5e f8 39 68 bc 0b 3e f4 88 a6 bd f2 04 e3 3c
       0.0004737279 0.1364609 -0.081315905 0.027712319
000040 11 42 2c 3e dc 52 de 3b fa 86 2f bc bc 96 09 3d
       0.16822077 0.00678478 -0.010713333 0.033591017
000050 a0 d0 da bd 0c 4a d2 bb 87 51 5f 3c 7a 28 82 bb
       -0.10684323 -0.0064175185 0.0136302775 -0.0039721103
000060 3d 64 8e bc 0a 2c d2 bc d7 6f a8 3d 55 e0 5b bd
       -0.017381782 -0.025655765 0.08224457 -0.053680737
000070 83 d7 6a 3d 74 44 0d 3e 03 70 d0 bd 93 e4 53 be
       0.057334434 0.13795644 -0.101776145 -0.20692663
000080 9c e6 d6 bd cc 0c 53 be 70 1b 5e bd b6 f7 8b bd
       -0.10493204 -0.2061035 -0.054225385 -0.068343565
000090 01 3c 7d 3c 6c 4c fa bd 77 d9 f4 3c 49 8c fe bd
       0.015456201 -0.122216076 0.029888852 -0.12429101
0000a0 71 57 a1 bd b3 9c 51 3b 18 80 ea 3c 22 3d d6 bd
       -0.07878006 0.003198427 0.028625533 -0.10460879
0000b0 95 75 dc 3b 8e a0 8a bc 19 75 73 bd 3e d2 a4 3d
       0.006727884 -0.016922262 -0.059437845 0.08047913
0000c0 4c 88 33 3c 05 09 a9 3c 7b 3a b9 3c 83 a3 5f bd
       0.010957789 0.020634184 0.022610893 -0.054599296
0000d0 24 8c 7f 3d 8c a7 e6 bd c7 39 23 3e c8 51 1e 3d
       0.062389508 -0.11262426 0.15940009 0.03865221
0000e0 9a d5 a6 3d 02 3c d4 3b 89 cd 23 be bf 60 83 bd
       0.0814621 0.00647688 -0.15996374 -0.06414937
0000f0 47 2f be bc db ff 28 be a2 e5 2c be ca 48 3c 3d
       -0.023215903 -0.16503851 -0.16884473 0.045967855
000100 1b d7 52 bd 24 11 78 3d b0 0d c8 bd 3f 42 1c 3e
       -0.05147467 0.06056322 -0.09768236 0.15259646
000110 0a 1b f8 bc 6d 1a 9a 3c 50 fb 17 3d 77 d5 f1 3d
       -0.03028633 0.018811429 0.037104905 0.11808293
000120 49 04 76 3d cb 9c 8d 3d 50 6c f9 3d 6e b7 15 3d
       0.06006268 0.069146715 0.12178862 0.036551885
000130 1b c9 62 bd 58 91 eb bc c5 8e 27 bd 99 87 49 3e
       -0.05536757 -0.028755829 -0.04090764 0.19680633
000140 9f ee be 3d 97 a4 94 bd b5 5a c4 3c 91 61 4c 3d
       0.09322857 -0.072579555 0.023969034 0.049897734
000150 33 56 3b bc 2c e9 87 bd f8 b6 f3 bc 3b 2b de bd
       -0.011434126 -0.06636271 -0.029750332 -0.10848089
000160 11 49 1d be fd e1 32 bc 14 8e bd bd e9 f0 d7 bc
       -0.15359904 -0.010918138 -0.09255615 -0.026359992
000170 ad 2d 44 3d db 35 50 bd 46 e6 ac bc af bf d7 3c
       0.047895122 -0.05083261 -0.021105897 0.026336519
000180 46 01 86 bd 74 06 12 3e 5d b1 db bc 54 7b 8e bd
       -0.06543212 0.14260274 -0.026817972 -0.06957117
000190 94 a6 17 bd 19 4c e4 bd f8 b5 9d 3d 36 11 f1 3c
       -0.037024096 -0.11147327 0.077007234 0.029427152
0001a0 21 b0 1a be a1 99 c7 bd e7 9c e9 3d 73 17 09 bd
       -0.1510625 -0.09746099 0.1140688 -0.03346963
0001b0 3f 39 ea 3c 9e e3 c5 3c 8b 07 d0 bb 75 0c c0 bc
       0.02859175 0.024156388 -0.0063485554 -0.02344344
0001c0 ba d0 36 be 57 ba ec bd 90 8b a7 bc f1 48 04 bd
       -0.1785306 -0.11558979 -0.02045229 -0.032296125
0001d0 c1 7a be bd f1 86 8e 3d a4 70 a8 3d b5 5b 6c 3c
       -0.09300757 0.06959332 0.082246095 0.014426162
0001e0 3b 42 38 3c 4c d6 85 3d 91 04 37 3d d3 32 0a be
       0.011246259 0.065350145 0.04468209 -0.1349595
0001f0 dc cd 81 bc ac 38 da 3d 56 e3 9e 3d 6b 80 49 bd
       -0.015845232 0.106553406 0.07758205 -0.049194735
000200 5d 7c 5a bd c1 8c fd 3d 8e 2e bd 3d da 2f 62 3d
       -0.05334126 0.12380362 0.09237395 0.055221416
000210 6f 78 35 bd df 56 5d 3c b0 1f fb 3b a8 7a 86 bc
       -0.044304308 0.013509481 0.0076636896 -0.016415909
000220 c0 ef b6 3d 86 b5 ba 3d 2b 81 57 3d bb 54 89 bd
       0.089324474 0.09116654 0.05261342 -0.06705614
000230 22 be 73 be ac 9b a9 bd d7 57 6e be 81 57 f1 3d
       -0.23802999 -0.08281645 -0.23275696 0.11784268
000240 68 4b a2 3d cb 73 23 3e b5 cb 17 be 4a b8 e6 bd
       0.07924539 0.1596214 -0.14823802 -0.11265619
000250 7c 47 84 bd 67 a0 f9 3d 83 c0 14 bd 06 32 12 bd
       -0.06458947 0.121887974 -0.036316406 -0.035692237
000260 82 0d 24 bd fe 6d 00 3c 14 91 69 3d f8 92 d4 3d
       -0.040051945 0.007838724 0.057023123 0.103795946
000270 ec 59 eb bd ce 79 f2 bd 4f 3a 5c 3d 57 fe 06 be
       -0.114917606 -0.11839639 0.053766545 -0.1318296
000280 1c 66 b7 bc 14 13 84 bb fd 67 7b 3d b5 27 f4 3d
       -0.022387557 -0.0040305946 0.061378468 0.11921636
000290 80 8a dd 3d 74 6d 53 bd c8 c6 9d 3d 6c f9 d9 bd
       0.108174324 -0.051618055 0.0770393 -0.106432766
0002a0 89 bc 30 be f2 3c 04 3e c4 1b b8 3c 89 ab 2c 3d
       -0.1725942 0.12913874 0.022474177 0.042155776
0002b0 c9 41 fc b9 08 e6 89 bd 3a 36 48 3d c0 4e 24 3d
       -0.000481142 -0.06733328 0.04887984 0.040114164
0002c0 9c f1 01 3e d1 11 41 bd 28 d4 7d bd 9e 42 12 3c
       0.12689823 -0.04713613 -0.061969906 0.008927016
0002d0 43 a4 26 bd ce 2c b2 bd e7 33 a4 3d 80 eb 3b bd
       -0.040683996 -0.08699952 0.08017712 -0.045878887
0002e0 4e 70 25 bd b7 14 c0 bd a3 81 53 be da 93 c6 bb
       -0.040390305 -0.09378951 -0.20654921 -0.0060601057
0002f0 b1 d4 00 3e 02 be fd bd c4 b6 02 bc e7 28 33 3d
       0.12581135 -0.12389757 -0.007978145 0.04374018
000300 67 40 fb bd 6c 95 17 bc 58 f4 c1 bd f3 53 e5 3d
       -0.12268143 -0.009251934 -0.09470433 0.11197653
000310 89 d3 00 3e c9 1a 87 3d 48 99 17 be df 2e 92 3d
       0.12580694 0.06596906 -0.14804566 0.07137846
000320 d9 64 70 3d 1b a1 31 bc 36 8f 9a bd f2 fa 64 be
       0.058689926 -0.010841633 -0.075468466 -0.22361353
000330 fa 08 1c bd 3f d0 ee bc 76 84 e5 3d 36 2b d1 bd
       -0.0380945 -0.029152034 0.112069055 -0.1021332
000340 b4 8f 94 3d 98 b1 db bd 47 12 74 bd 15 a4 59 bd
       0.07253972 -0.10727233 -0.059587743 -0.053134996
000350 38 17 13 3e 56 90 f3 3c f5 b9 d6 3d 6a 35 ca 3c
       0.14364326 0.02973191 0.10484687 0.024683673
000360 60 d1 ca 3c 01 9d c3 bd 5e 40 8a bd b9 de bd bc
       0.02475804 -0.095514305 -0.06750558 -0.023177492
000370 f1 c3 0b bd 49 a4 2a be d4 b2 17 bd 59 f4 a2 bd
       -0.03412241 -0.16664232 -0.03703578 -0.07956762
000380 06 54 80 3d 39 24 ea 3c d8 a1 4b 3a 5d 29 6e 3d
       0.06266026 0.028581725 0.0007767952 0.058144916
000390 93 5f 39 bd de dc 3c 3e 0b 29 00 3e 59 c7 34 3e
       -0.045257162 0.18443629 0.12515657 0.1765417
0003a0 27 a0 01 be b2 ab 10 be 70 29 70 3d be cd 83 bc
       -0.1265875 -0.14127997 0.058633268 -0.016089316
0003b0 c4 e3 69 3c 0f 8b 32 3e 8d 2d 56 be 23 f5 bf 3d
       0.014275495 0.17435859 -0.20915814 0.09372928
0003c0 64 96 7f bd a8 93 c8 3d 8a a7 3d bd a3 a8 35 bc
       -0.062399283 0.09793788 -0.046302356 -0.011087569
0003d0 ba ec f0 bc c9 47 87 3d 25 3c 09 bd e5 9c 1c 3d
       -0.029409755 0.06605489 -0.033504624 0.038235564
0003e0 b3 55 06 be 3c bc 93 3c e5 44 3d 3d 78 82 cc bd
       -0.13118629 0.018034093 0.04620828 -0.099858224
0003f0 0d 92 03 bc 94 d7 00 bd 67 4c 48 bd 06 85 93 bd
       -0.008030427 -0.03145559 -0.048900988 -0.072031066

fc_hidden.bias f4 [128]
000000 a6 ca 2c bc 19 f5 24 bc ab a3 07 bc 3b 0a d6 bb
       -0.010546362 -0.010068201 -0.008278768 -0.0065319813
000010 86 dc 8c bb f7 0f 51 bc b1 08 0a bc 40 35 12 bc
       -0.0042987494 -0.012760154 -0.008424924 -0.008923829
000020 2f 95 35 3d d6 e0 24 bc 30 01 e8 ba 35 86 56 bc
       0.044331726 -0.010063371 -0.0017700549 -0.013093521
000030 74 5f b2 bb ca 15 2d bc 0c 7f eb bb 22 97 91 bc
       -0.005443508 -0.010564277 -0.007186776 -0.017772261
000040 3a ca 2f bc 56 da 60 bb 59 4b 3d bc ed c4 3d bc
       -0.010729367 -0.0034309826 -0.011553609 -0.011582595
000050 5c 3d 3e bc 6f 76 a5 bb 3d 5d 24 bc 98 dc 28 bc
       -0.011611309 -0.005049519 -0.010031995 -0.0103065
000060 e9 0d 38 bc a7 3e 04 bc 15 33 30 3c c1 f4 13 bc
       -0.011233785 -0.008071578 0.010754366 -0.009030522
000070 81 86 0d bc 9b f3 6a bc b4 54 88 bc 12 e3 dc bb
       -0.008638025 -0.014340307 -0.016641952 -0.006740936
000080 20 44 1b bc fa ba d8 3c c7 14 2d bc 04 b7 56 bc
       -0.0094766915 0.026456345 -0.010564036 -0.013105158
000090 d3 05 35 bc bf 10 99 3c 5a 85 16 bc b2 cd cb bb
       -0.011048752 0.018684743 -0.009187067 -0.006219589
0000a0 92 86 95 bc ed 29 17 bc 06 ef f8 bb f4 60 59 bb
       -0.018252645 -0.0092263045 -0.007596853 -0.003316936
0000b0 8f 1f 4b bc 68 65 21 bc 68 73 2b bc 17 e2 3c bc
       -0.012397661 -0.009850837 -0.010464527 -0.011528513
0000c0 8f 8d bb bb 24 22 37 bc 0d 8d 7d bb ec 65 89 bc
       -0.005723662 -0.011177573 -0.003868881 -0.016772233
0000d0 82 17 42 bc 32 a5 16 bc 5a 1d 5e bc 8b 74 76 bc
       -0.011846425 -0.009194659 -0.013556803 -0.015042434
0000e0 df 0c 28 bc 80 2e 5f bc c3 0d 94 bb af dc 58 bc
       -0.010256975 -0.013621926 -0.004518242 -0.013236209
0000f0 46 19 2d 37 9b 17 7f bb 83 3e e5 3a ef b9 53 3e
       1.0317488e-05 -0.0038923982 0.0017489943 0.20676397
000100 15 4d ad bb 5f de 41 bc 0d 25 1c bc f4 29 6d bc
       -0.00528873 -0.011832803 -0.009530318 -0.014475334
000110 69 59 50 bc 2b a0 c3 bb 52 d2 1c bc 76 70 37 bb
       -0.01271663 -0.0059700212 -0.009571629 -0.0027990616
000120 45 71 0f 3b 7b c1 5e 3c f1 dd e5 bb b9 3b 6c bc
       0.0021887582 0.013595934 -0.007014983 -0.014418536
000130 3e 26 65 bc f6 69 3c bc 3b 93 4f bc e7 e6 57 bb
       -0.013986168 -0.011499872 -0.01266938 -0.0032944025
000140 02 00 65 bc 4b a8 50 3b ce 1b de bb 4b 20 81 3b
       -0.013977053 0.0031838592 -0.006778217 0.003940617
000150 35 eb 4d bc 77 bb 1f bc a0 17 25 bc 4d fe 89 bc
       -0.012568285 -0.009749285 -0.010076433 -0.016844893
000160 14 1c b2 bb df f6 3a bc fd be 3f bc 6d fe 20 bc
       -0.005435476 -0.011411398 -0.01170325 -0.009826285
000170 42 06 65 bc 9a 16 54 bc 4c e1 7c bc 3e 4b 43 bc
       -0.013978543 -0.012944842 -0.015434574 -0.011919795
000180 da 1e 3e bc a3 3b dc bb bc 3c a2 bb f8 02 37 bc
       -0.011604035 -0.0067209764 -0.0049510878 -0.011170141
000190 af 9f 0c bc 63 3f ce bb ca e9 1d bc f5 00 31 bc
       -0.008582993 -0.0062941774 -0.009638259 -0.010803451
0001a0 34 1d 98 bb 69 5e f0 bb 79 19 28 3b df 67 00 bc
       -0.004642153 -0.0073354733 0.0025649949 -0.007837265
0001b0 3f ca 2e 3c 1e c4 73 bc 3a 2d ee bb e2 a2 a0 bb
       0.010668336 -0.014878301 -0.007268575 -0.0049022296
0001c0 b7 72 22 bc 89 3b eb bb 2b 39 3e bc 02 81 a9 bb
       -0.009915045 -0.007178728 -0.01161031 -0.0051728496
0001d0 07 6b 2c bb f8 0a c2 bb 6b bb d2 bb f5 2d 84 bc
       -0.002630891 -0.0059217177 -0.0064310334 -0.016135195
0001e0 cc 72 7f bb 48 7b b9 bb 22 f1 ba bb 8f 44 29 bc
       -0.0038978336 -0.005660448 -0.005705015 -0.010331287
0001f0 36 b8 0e bc 9c 8e 35 bc c3 b1 37 3d 5b 12 b3 bb
       -0.0087109115 -0.011081364 0.04484726 -0.0054648346

output.weight f4 [300, 128]
000000 29 72 2c 3b 17 90 ac bd 23 86 bb bd e6 02 10 be
       0.0026313162 -0.084259205 -0.09156444 -0.14063606
000010 3b 51 2b 3e 98 06 53 be 03 a3 e0 3c a1 27 bb 3d
       0.16730206 -0.20607984 0.02742148 0.09138418
000020 5c 7d ea 3e 9e 1b 13 be e5 a3 17 3e 9d 88 16 3e
       0.45798767 -0.14366004 0.14808615 0.14700551
000030 ac 23 77 be 51 ad 96 be 39 e1 8f 3e 3a a5 4e 3e
       -0.24134701 -0.29429105 0.2810152 0.20180216
000040 ea a8 83 be 50 db 3e be b3 4a 1e bc d4 74 61 be
       -0.2571481 -0.18638349 -0.009661364 -0.22017223
000050 fc 83 c7 bd 3e 7c 4f 3e c9 b3 8b 3e a6 24 ca 3d
       -0.09741971 0.20262238 0.27285603 0.098702714
000060 28 5e 6c 3e 5c 96 06 3e 27 5f 3c be 19 da 91 bd
       0.23082793 0.13143295 -0.18395673 -0.07121677
000070 3a 5f 65 be e0 a5 d0 be 94 b8 8e bc df f4 30 bd
       -0.22399607 -0.40751553 -0.017421998 -0.043202277
000080 c8 4d 45 bd c9 38 89 be 1e d2 b9 3d 4e 38 97 be
       -0.04816988 -0.26801136 0.0907328 -0.29535145
000090 12 65 a7 3d 4a 8c 86 3e d0 5e 64 bd a7 01 34 3d
       0.081735745 0.26278907 -0.055754483 0.04394689
0000a0 2b e3 8f 3e 5a ce a7 bd 0a 98 1d 3e 67 1b 47 3e
       0.28103003 -0.08193655 0.1539003 0.19444047
0000b0 e2 e7 b6 be cd a6 ae bd f5 43 15 bf 1d 1e 92 3e
       -0.35723788 -0.085279085 -0.5830682 0.285386
0000c0 1e 8d 36 3e d7 5a aa bd f3 4b 97 be 53 5d ff 3d
       0.1782727 -0.083181076 -0.29550132 0.12468972
0000d0 e2 e3 5a 3c a9 1e 14 be 92 c6 6c 3e 18 25 b9 3d
       0.013359996 -0.14464821 0.23122624 0.09040278
0000e0 0e db 02 be 1b 1c 66 3d 01 9a 08 3d 18 9f 4e bd
       -0.12778875 0.056179147 0.033349995 -0.050444692
0000f0 85 69 df bd bf da b4 3d ab ad 0c 3e 14 df 60 be
       -0.10908798 0.08830785 0.13738124 -0.21960098
000100 fc 98 cd bb 32 d2 36 3d a3 c6 19 3e 96 41 4c bd
       -0.0062743407 0.04463405 0.1501718 -0.049867235
000110 1f 0a b4 3e 80 57 e4 bc 21 49 92 bd 57 42 bd bd
       0.35163972 -0.027873755 -0.071428545 -0.09241169
000120 18 cc 98 be b7 84 05 3e 4b 9f 19 be 2c d8 c3 3d
       -0.2984321 0.13038908 -0.15002172 0.09562716
000130 8b be 7f 3e 3d 5e d1 3d 99 c1 0b bd 3d 27 5f 3c
       0.2497503 0.10223053 -0.034120176 0.013620195
000140 e3 ed 3b bd cd 4a 7f 3e f5 0a 2c 3c da d7 ad 3d
       -0.045881163 0.24930878 0.010500659 0.08488436
000150 53 a2 86 bc f3 1e ef bc 95 ba 88 3e e4 f4 4d 3d
       -0.016434824 -0.029189562 0.2670485 0.050282374
000160 a7 d0 a8 be ec d0 12 be f8 b9 87 bd a9 f3 36 3e
       -0.3297169 -0.1433751 -0.066272676 0.17866386
000170 81 9b fa bd 45 c7 34 3e f4 b2 39 3e 49 06 63 3c
       -0.12236691 0.1765414 0.18134671 0.013856479
000180 39 46 3d 3b a3 cd 32 bd 86 f0 94 3d 95 75 03 bc
       0.0028880967 -0.04365314 0.07272439 -0.008023639
000190 df 5a b5 bc 59 14 81 3c 5b 25 c7 3d 05 98 00 3d
       -0.022138057 0.015756773 0.09723922 0.031394977
0001a0 26 e8 7d 3d fe 60 4f 3e 22 cf 5f 3e e2 0c fd bc
       0.061988972 0.20251843 0.21856359 -0.030889932
0001b0 4e 94 b8 3e 9d ab 97 be 8b c2 dc 3d db f2 9c 3c
       0.36050647 -0.29623118 0.107792936 0.019158771
0001c0 4a 87 79 3d 0e 24 d0 3c 06 f9 bb be a0 94 43 be
       0.060920037 0.025407817 -0.36713427 -0.19099665
0001d0 0a 86 ad bd 23 0f 8c be c7 0c 53 3e bd 8b 39 3e
       -0.084728315 -0.27355298 0.20610343 0.18119712
0001e0 bd f5 3a be 9d 69 0e 3e 9c 25 3a 3e 7d 5b 44 3d
       -0.18257804 0.13907476 0.1817841 0.047938813
0001f0 8d ab a9 3d 2a 93 e7 3b a3 2f b0 3e 45 58 4c be
       0.08284674 0.007067104 0.34411344 -0.19955547
000200 17 a5 7e 3d f1 ad 88 be 01 78 2b 3e a1 63 05 3e
       0.06216916 -0.26695207 0.16744997 0.13026287
000210 9a be 69 3e bc 44 91 3e 69 01 a9 be 27 27 8a be
       0.22826615 0.28372753 -0.33008888 -0.26982996
000220 ac ed 0c 3f 96 a9 0b be 51 39 59 3c 4d db 8d bd
       0.5505016 -0.1363891 0.013258294 -0.06926594
000230 8f 6d 87 be 14 38 af be 30 e3 b2 3e a9 07 5e bb
       -0.26450774 -0.34222472 0.34938955 -0.0033879078
000240 1b d2 41 bd 8e a3 54 be ab 1b 85 3c 73 83 c8 bd
       -0.047319513 -0.20765516 0.016248545 -0.09790697
000250 df 14 14 3e c5 68 8b 3d b1 5c eb bb e0 8d 47 bd
       0.14461087 0.068070926 -0.0071826805 -0.048719287
000260 de e5 15 bd 5e 34 bc be ca 6f 24 3e 74 86 14 bd
       -0.03659617 -0.36758703 0.16058269 -0.036261037
000270 46 76 c9 3e d8 f0 95 3e a5 4e 1b 3c af 23 5a 3e
       0.39348048 0.29285312 0.0094792 0.21302675
000280 2c db a2 3c c9 6b b6 3d 9b a2 2b be 69 ef b1 3d
       0.0198799 0.08907277 -0.16761248 0.08688242
000290 34 a6 90 3d 27 d6 2c 3e 65 6b 2a 3e 45 fe 81 be
       0.07062951 0.16878568 0.1664253 -0.25389305
0002a0 28 dd 3f 3e e9 a6 38 be c3 4a e0 be d4 86 85 3e
       0.18736708 -0.18032421 -0.4380704 0.26079428
0002b0 ad 48 dd be 15 a1 e4 bd b5 74 c6 3e 3c 4f 6c 3c
       -0.4321951 -0.111635365 0.38760915 0.014423188
0002c0 62 3b 2f 3e 0c c0 43 3e a5 66 d3 3e 09 90 01 be
       0.17112496 0.19116229 0.4128925 -0.12652601
0002d0 c0 4d 43 be 60 47 6c 3e 8b 00 98 3d 25 9b f5 ba
       -0.19072628 0.23074102 0.074219786 -0.0018738253
0002e0 cc 90 5a 3d f3 b4 23 3e 4c aa 56 3b ca 6a 9e bd
       0.053360745 0.15986995 0.0032755313 -0.07735212
0002f0 aa c1 6d be 59 2b d5 bd 60 e3 8e 3d b4 a2 36 be
       -0.23218408 -0.104086585 0.06976962 -0.17835504
000300 b4 7f 28 3e b5 53 86 bd 61 72 ab bd b1 1f 43 be
       0.16454965 -0.065589346 -0.083714254 -0.19055058
000310 4b 7e 11 3d 32 22 c0 bd c4 98 00 bb 9e 13 75 bd
       0.035520833 -0.09381522 -0.0019622305 -0.05983316
000320 74 61 3f be 9c 02 3c 3e f7 14 3c 3d c6 2e 08 be
       -0.18689519 0.1836037 0.04591843 -0.13299093
000330 12 38 23 3b 08 c6 91 bd c5 51 a9 bd 41 50 62 3c
       0.0024905247 -0.071178496 -0.082675494 0.013813079
000340 d8 ab 35 3e 09 2e d9 3d b8 78 74 bd 4d 45 4e 3d
       0.17741334 0.10604484 -0.05968544 0.05035906
000350 40 f2 79 3e 36 ac 67 3e e9 d7 9d 3e 27 d5 b5 3d
       0.24408817 0.22624287 0.3082879 0.08878546
000360 b2 5e 95 3e 4b 56 81 bd 92 cb 09 be 4f 02 1c be
       0.2917381 -0.06315287 -0.13456562 -0.15235256
000370 77 01 be bd 77 00 cc 3d e7 0d 03 be ee b0 3b 3e
       -0.09277623 0.09961026 -0.12798272 0.18329212
000380 38 b9 60 be a9 9a 3d bd 15 a4 a3 be 8e ae ff 3d
       -0.21945655 -0.046290074 -0.31961122 0.124844655
000390 58 47 b5 3d 21 e3 ff bd 12 c9 42 be 6a d3 8b bd
       0.08851498 -0.12494493 -0.19022015 -0.068274334
0003a0 05 ea b8 bd 9d 4f 32 3e 49 83 b9 3c 92 d0 62 bd
       -0.09029011 0.17413183 0.02264561 -0.05537469
0003b0 1d e5 36 3d 17 82 2b 3c 9d 30 d2 3d 6e 84 ca bd
       0.044652093 0.010468028 0.102631785 -0.0988854
0003c0 d3 1c f0 3e 42 fc 82 3e d3 e3 9c be a3 5e f8 3d
       0.4689699 0.25583082 -0.30642566 0.121274255
0003d0 1a 26 4e bd a1 a6 38 be 92 e0 04 be d5 70 1a 3e
       -0.050329305 -0.18032314 -0.12976292 0.15082105
0003e0 98 43 94 bc a7 d1 1a be 04 1d 81 bd 83 ce 8a 3e
       -0.018098637 -0.15119039 -0.063043624 0.2711068
0003f0 c9 cf a9 3c 1c 6a 87 3b 0e b9 8d 3e 9d 10 ed bb
       0.020728962 0.0041325223 0.27680248 -0.0072346465

output.bias f4 [300]
000000 f6 b6 81 3b eb 1f b9 3b 9a 76 3d 3c 54 f3 ac 3c
       0.003958578 0.005649557 0.011563921 0.021112122
000010 56 d7 48 3c 30 b7 d6 3c 7d 59 9a 3c 31 b1 43 3b
       0.012258371 0.026210397 0.0188415 0.0029860253
000020 43 f0 55 3c 9f d2 33 3b ab 86 83 3c 04 01 5a 3c
       0.013057771 0.0027438772 0.016055426 0.013305906
000030 32 2b 38 3c 3c 03 5b 3c 26 59 49 bb 2b fe 97 3c
       0.011240767 0.01336747 -0.0030723303 0.018553814
000040 58 b1 c3 bb 47 8b 9d 3c 98 19 d0 3b 44 aa fe 3b
       -0.0059720688 0.019231452 0.0063507073 0.007771762
000050 a2 09 86 39 0d 9b 82 3b 50 b6 b8 3b b2 d5 05 bc
       0.0002556565 0.0039857686 0.0056369677 -0.008168625
000060 c7 b1 a4 3b e7 47 a0 3b 11 ac 91 bb 71 c3 91 bb
       0.0050260755 0.004891384 -0.0044455607 -0.0044483473
000070 30 25 84 3c a0 2a e3 3b c6 d5 69 3c c8 e1 05 3c
       0.016131014 0.0069325715 0.014272159 0.008171506
000080 d6 90 18 3c 0a 6b 33 3c c5 7d b6 3b 7e 87 14 3c
       0.009311875 0.010950813 0.005569192 0.009065507
000090 1b 34 cf 3c 58 72 05 3c a3 73 81 3c 40 61 7c 3c
       0.0252934 0.008144937 0.01580221 0.015404046
0000a0 8a 23 e6 3b 52 77 5a 3c 57 ce 74 3c f5 c8 90 3c
       0.0070232796 0.013334112 0.014941773 0.017673949
0000b0 00 45 c5 3c 24 44 e4 3c 21 0c 12 3d 5b ea fc 3c
       0.024080753 0.027864523 0.0356561 0.030873468
0000c0 e7 ea d1 3c 35 9d 92 3c 8a 42 f4 3b 98 2c 0f 3c
       0.025624705 0.017897228 0.007454221 0.008738659
0000d0 96 a1 74 3c 40 0f 8a 3c ba 26 f1 3b 6b 79 84 3c
       0.014931103 0.016852975 0.007359353 0.016171178
0000e0 16 0d 32 3c cb e4 01 3b 00 29 c6 3b c9 c8 55 3b
       0.010867378 0.001982021 0.006047368 0.0032620898
0000f0 0a c7 21 3c 0f 52 fc 3b be 9a 1a 3c 65 f5 f1 3b
       0.009874115 0.007700212 0.0094363075 0.0073839896
000100 ce c5 1b 3b 9e c7 29 bb dc 84 ff 3b 87 60 ac 3b
       0.0023769024 -0.0025906335 0.0077978205 0.0052605304
000110 1b 8b 94 bc a3 97 c0 bb 3a b9 8f 3b 30 23 72 bb
       -0.018132737 -0.0058774515 0.0043860944 -0.0036947243
000120 1a b5 05 3b 9c eb 15 bc 1f a2 6f bc 22 9f df bb
       0.0020402134 -0.009150412 -0.014626055 -0.00682439
000130 83 ad 3e bc d4 2c 13 ba 8c bd 39 bc d6 e3 18 bc
       -0.011638048 -0.0005614285 -0.011336695 -0.009331664
000140 fd 66 77 bb 0e 29 28 bc 45 c7 93 3b 52 7c 15 bb
       -0.0037750595 -0.010263694 0.0045098388 -0.0022809696
000150 53 db bb bb fd f6 d8 3a e9 5c bf 3b b3 6c dc ba
       -0.0057329326 0.00165531 0.005839933 -0.0016817063
000160 12 76 c3 bb ce 00 4b 3b 9d 54 ba 3c f5 2a cd 3b
       -0.005965003 0.0030975821 0.022745425 0.0062612244
000170 be 72 a5 3b b5 ee b0 3c 8f f5 aa 3c e3 1b 8e 3c
       0.0050490787 0.0215982 0.020869045 0.017347282
000180 cd 84 8b 3c 35 55 98 3c 6f d1 b9 3c 82 22 ba 3c
       0.017031098 0.018595317 0.022682874 0.022721533
000190 93 72 29 3c 7d 23 5b 3c 93 41 c3 3b 6d 4d 9a 3c
       0.010342258 0.01337516 0.005958745 0.018835748
0001a0 a8 57 43 3c 5a 94 25 3b 12 17 82 3c 79 57 b4 3b
       0.011922754 0.0025265426 0.015880141 0.0055035916
0001b0 9b 27 e3 3b aa 1a 08 bb 50 6d af 39 b3 56 04 3c
       0.0069322116 -0.0020767846 0.00033460045 0.008077311
0001c0 64 d7 a6 bb 6c 1f 9d bc aa a8 85 3b 53 23 5e bc
       -0.0050915945 -0.019180022 0.004078944 -0.013558227
0001d0 a6 5e 22 bb 56 03 61 bc 5b 9c ca 39 f9 af 41 bc
       -0.0024775653 -0.0137337055 0.00038644936 -0.01182174
0001e0 83 f3 6c bc 86 4b 7d bc d0 c1 64 bc c1 a6 9d bc
       -0.014462355 -0.015459901 -0.013962224 -0.019244554
0001f0 1f 40 87 bc 06 80 98 bc 1c 5a 9a bc a3 93 8d bc
       -0.016510068 -0.018615734 -0.018841796 -0.017282313
000200 78 cb 4b bb d3 6f 61 bc 18 b5 13 bc 7c 96 57 bb
       -0.0031096619 -0.013759571 -0.009015344 -0.0032896092
000210 74 78 5c bc 24 48 16 bb 24 a8 34 bc 38 42 b1 bc
       -0.013456453 -0.0022931183 -0.011026416 -0.02163802
000220 a6 e1 dd 38 2e 8a 0e 3a e6 58 65 bb 6c dd 86 3c
       0.000105801315 0.00054374605 -0.0034995615 0.016463004
000230 23 89 80 3c 86 ef c3 3c d0 51 8c 3c eb a9 8f 3c
       0.015690392 0.023917925 0.017128855 0.017537078
000240 18 25 4f 3c 52 c1 87 3c 0d 22 c1 3c 83 0f 94 3c
       0.012643121 0.016571674 0.023575807 0.018073803
000250 28 ef c8 3c 13 d3 99 3c e3 96 32 3b 54 04 68 39
       0.024528101 0.018777406 0.002725058 0.00022126856
000260 72 0b 88 3c f0 0e 49 3c ad 5e 04 3b db b1 40 3c
       0.01660702 0.012271628 0.0020198033 0.011761154
000270 75 29 49 3c 34 1a 90 3b 52 ca 79 3c 8f 5d 17 3c
       0.0122779505 0.004397655 0.015245991 0.009238615
000280 7a 46 50 3b 44 cf 37 3c c0 c5 22 3c e0 02 c4 3a
       0.0031780289 0.01121885 0.009934843 0.001495447
000290 5e 7d 0a bb 92 22 78 3b f0 d3 db 3a ee bf 4b bc
       -0.0021131854 0.0037862402 0.0016771536 -0.012435896
0002a0 b4 45 90 b7 19 94 2b bb 04 4e 17 ba 14 91 98 bc
       -1.7198596e-05 -0.0026180802 -0.0005771818 -0.018623866
0002b0 4d 84 1e bb 96 ae 5d bc 67 c2 c1 ba 2b c5 11 bc
       -0.0024187744 -0.013530394 -0.0014782668 -0.008897106
0002c0 48 9b 1d bb 28 5e 6e bc 8f 55 44 bc 78 3d cf bb
       -0.0024048854 -0.014548816 -0.011983289 -0.0063244663
0002d0 70 3a 29 bc 01 a4 2a bc 95 a9 a3 bb 87 5a 4a bb
       -0.010328874 -0.010415078 -0.004994581 -0.0030876712
0002e0 42 07 20 bb ff ff 67 3b b2 bb 9e bb 00 d9 17 bc
       -0.0024418388 0.0035400388 -0.0048441524 -0.009268045
0002f0 32 e4 90 ba 40 59 fd 3b 0f 53 e9 3b 02 bc eb 3b
       -0.0011054336 0.0077315867 0.007120497 0.007194043
000300 10 62 dd 3b 99 1c 4a 3c 1d a7 1e 3c bd f2 6e 3c
       0.0067560747 0.01233592 0.009683398 0.0145842405
000310 88 2e e9 3c d5 be b9 3c ea 8b 50 3c b4 18 7a 3c
       0.02846457 0.022674004 0.012728671 0.015264679
000320 ae 9d c6 b6 9c b4 cd bb ae 43 aa 3b 06 70 95 bb
       -5.919216e-06 -0.006277634 0.0051960563 -0.0045604734
000330 67 93 2a 3c dd fe 70 ba 8b ba 1f 3b 34 f7 8e 3b
       0.01041112 -0.0009193251 0.0024372663 0.004362965
000340 ff dc 3c bc ed 43 bc 39 92 d6 11 3b 9b 10 ab 3a
       -0.011527299 0.00035908763 0.0022253138 0.0013051213
000350 cf 6a 16 bc 50 7b 7d bb 57 a5 5a bb 52 9f 18 bc
       -0.009180739 -0.0038678236 -0.003336271 -0.009315329
000360 4a 21 97 bc 1a d9 34 bc a5 36 b8 bc 32 c8 08 bc
       -0.01844849 -0.011038089 -0.022486994 -0.0083485115
000370 55 42 87 bc c6 80 82 bc 5d fd 18 bc 68 55 91 bc
       -0.016511122 -0.015930545 -0.00933775 -0.01774092
000380 61 28 cc bc ec 14 37 bc 31 b3 8a bc e2 be f1 bc
       -0.024921598 -0.011174422 -0.016931148 -0.029509965
000390 cd 6d b5 bc fb 09 ae ba 67 0c 6b bc 03 7f 24 bc
       -0.022147084 -0.0013278121 -0.014346219 -0.010040048
0003a0 30 a0 a1 bb a0 3d 96 bc 09 03 81 bc dd b1 0c bc
       -0.004932426 -0.018339932 -0.015748518 -0.008587328
0003b0 0c a0 84 bb c3 cd 04 3b 67 0e 71 bc 2b 69 03 3b
       -0.0040473994 0.0020264245 -0.014712906 0.0020051699
0003c0 10 56 52 3a ac 89 d5 3b c5 6e a2 3c ef 18 91 3a
       0.00080236886 0.006516656 0.01982821 0.0011070053
0003d0 5f ac 11 3c b1 bb 8f 3b b8 16 a1 3c 89 44 96 3c
       0.008891194 0.004386388 0.019664153 0.018343227
0003e0 5c bd af 3c 92 75 b6 3c e4 80 6f 3c c1 aa 0f 3c
       0.021452598 0.022272859 0.014618132 0.008768738
0003f0 66 c3 e9 3c 6a a3 d4 3c 76 2a 95 3c 2d 66 b6 3c
       0.028535556 0.025956828 0.018208724 0.022265518
