figs2-3_rl/results/space_invaders-UADQN/network_posterior2.pth (torch_old, 684252 bytes, 6 tensors)

conv.weight f4 [16, 6, 3, 3]
000000 80 70 1c be dc 7c 87 be 92 69 0c 3f 2c 13 78 be
       -0.1527729 -0.26462448 0.5484859 -0.24226063
000010 64 de 67 be 2e de c6 3d 13 5a 8d be 0d 68 4f 3e
       -0.22643429 0.09710346 -0.27607784 0.20254536
000020 d1 fe a9 bc f0 88 f8 3e ac b5 46 be a8 db 82 3f
       -0.020751389 0.48541975 -0.1940524 1.0223284
000030 98 52 a7 3e c0 e4 37 3e 92 8f be 3e f5 c0 5c bf
       0.32680202 0.17958355 0.3721891 -0.8623193
000040 ed 2e 9e 3f ac fc 02 3f c6 04 f5 3e fc 1d ab bf
       1.2358071 0.51166797 0.47855204 -1.3368526
000050 14 db 3c bd 44 f2 3b 3f 7e 0d a1 3e a9 05 27 be
       -0.046107367 0.73416543 0.31455606 -0.16310753
000060 b1 8d ea be ba bc 5f 3f e3 97 49 3f 92 4c 34 bf
       -0.45811227 0.8739735 0.78747386 -0.7042934
000070 e8 d4 dc 3e 2e ad 7d 3f f9 b6 4b 3e 83 05 60 3f
       0.43131185 0.99092376 0.19894017 0.8750841
000080 61 f4 3e 3f 42 8c 31 3f 1e c8 72 3f db 96 a3 3d
       0.7459164 0.6935464 0.94836605 0.07987758
000090 8b 49 07 be 96 74 4e be ec 88 98 bd a5 b6 28 3f
       -0.13211648 -0.20161662 -0.07447991 0.65903693
0000a0 91 a1 3d 3d 90 46 c8 be e1 fa 40 be c8 fe 9b be
       0.04629666 -0.39116335 -0.18845703 -0.3046782
0000b0 19 07 49 3d 78 ca 35 3d a5 b7 ae bd e3 ff 38 3d
       0.049079034 0.044382542 -0.08531121 0.045165908
0000c0 50 71 69 be 87 ea 02 3f 4d 3a e6 3e 9b e8 2d be
       -0.22797132 0.5113911 0.44966355 -0.16983263
0000d0 af e4 1b 3f 06 b4 c5 bd 02 8b 27 3f 46 7c 7a 3b
       0.6089582 -0.09653477 0.65446484 0.0038221045
0000e0 cc 15 17 3f de e7 c7 3e bb be d6 be 02 49 22 3d
       0.59017634 0.39044088 -0.4194239 0.039620407
0000f0 07 32 78 be a9 8d 5a bf 60 39 77 be bc 96 28 bd
       -0.24237834 -0.85372406 -0.2414298 -0.041159377
000100 a0 14 02 3f 9e 85 36 3e 7d 16 1e 3f 72 18 24 3f
       0.5081272 0.17824408 0.61753064 0.640998
000110 52 1d 61 3f 6a fe 56 bf 10 08 6d bf 59 7c 3c 3f
       0.87935364 -0.83981955 -0.9259043 0.7362724
000120 97 59 01 bf 0b b3 81 3e fd 60 32 be b6 4a a0 be
       -0.5052733 0.2533191 -0.1741981 -0.31307
000130 da 50 0f bf 33 61 16 be e2 c0 97 3e 2a c5 8e 39
       -0.55982745 -0.14685516 0.29639345 0.0002723125
000140 8d c2 92 3e 5d 7f 6d 3e 42 19 82 3f 4c ca f3 3d
       0.28664055 0.23193116 1.0163958 0.119038194
000150 52 5e 6d 3f e0 45 51 3f 6f f0 43 3f d2 22 0f be
       0.92722046 0.81747246 0.7653875 -0.13978127
000160 7f 15 0c bf 07 9a b5 be 1b 3f 5b 3c d6 bf 01 3f
       -0.547203 -0.35469076 0.013381745 0.50683343
000170 95 ba f9 3e 5c 2b 00 3f 3e 76 a4 3f a9 74 07 3f
       0.48775163 0.5006616 1.2848585 0.52912384
000180 cf ae 89 3f c0 c5 e9 3e 0a cb 63 3f df 23 b1 be
       1.0756472 0.45658684 0.8898169 -0.3459768
000190 c9 df 79 be fd ff 81 bd 2e 1e 65 be 08 d6 ee b9
       -0.24401774 -0.06347654 -0.22374794 -0.00045554363
0001a0 72 0e 3c be 19 8d 04 3c a1 4c b3 3e c8 b6 06 be
       -0.18364885 0.008090281 0.350194 -0.13155663
0001b0 b0 ce a3 bc 84 ad c3 bd 22 a8 6c 3e b4 ff 30 3f
       -0.019996017 -0.0955458 0.23111013 0.6914017
0001c0 e8 3e ce 3e 2e 46 5e 3e 99 f8 82 bf c2 db c6 bd
       0.4028237 0.21706459 -1.0232116 -0.09709884
0001d0 b8 05 a8 3e 3a 1c 65 bd 8a 19 80 3e 44 c7 92 bf
       0.32816863 -0.055935122 0.25019485 -1.1467061
0001e0 c2 a7 fd 3d 20 d7 95 bd bc 4a 31 bf d8 e9 a9 3e
       0.12385513 -0.073164225 -0.6925466 0.3318622
0001f0 d3 4e 06 3f 78 d1 46 bf 49 ed e2 3c 4b 78 aa 3e
       0.52464026 -0.77663374 0.027701037 0.332949
000200 44 f0 19 bf 97 09 fd bd 56 4b 86 3d 5a a8 af be
       -0.6013224 -0.12355345 0.06557338 -0.3430813
000210 70 eb 43 bd e5 5e 01 3d 3c 7e 97 3e ff 41 93 3e
       -0.047831953 0.03158464 0.29588497 0.2876129
000220 32 2e a5 be 65 e1 ed be 13 6a 12 bf dd 5e b8 3e
       -0.32261807 -0.46461025 -0.57193106 0.36009875
000230 a1 2f 91 be 51 f4 1a be 5e a8 75 be fe 82 1b 3f
       -0.2835665 -0.15132262 -0.23990008 0.60746753
000240 63 85 e3 3e fc 66 a4 be 01 0a 9e bd c4 5c 0c bc
       0.44437703 -0.3210982 -0.07716752 -0.008567039
000250 82 93 cf 3d 96 ab b2 3f 68 ee ba bd 67 bc a0 be
       0.10135557 1.3958614 -0.09127504 -0.3139374
000260 8f fc 92 3f e5 93 8b be cf ec 97 be 02 be 11 be
       1.1483325 -0.27261272 -0.29672858 -0.14232638
000270 a4 cf f3 3d ae 09 ac 3d cf 28 33 3d db ea d6 3d
       0.11904839 0.08400284 0.04374009 0.10494014
000280 45 dc 2b 3e 36 0c d4 3d b0 e9 81 3f 36 67 64 bf
       0.16783245 0.103538916 1.0149441 -0.8921999
000290 a0 b4 70 3e e8 64 09 be 00 29 c8 be 6a cb 5e bf
       0.23506403 -0.13417399 -0.3909378 -0.87029135
0002a0 07 90 ac 3e 92 84 3f 3f 6a ba 9f 3e 2e 8e 49 3e
       0.33703634 0.7481166 0.3119691 0.19683143
0002b0 05 42 77 3e 3d cc 96 be e0 0b 09 bd 4f 9c e4 be
       0.24146278 -0.29452696 -0.03345859 -0.44650504
0002c0 05 1c 99 3e 45 b8 37 bc 9d 53 95 3d 7e 76 d9 3d
       0.2990419 -0.011213367 0.072913386 0.10618304
0002d0 4d d1 1e bf 4d f7 d5 3e 75 17 92 be 86 b4 03 3f
       -0.6203812 0.41790238 -0.2853352 0.5144733
0002e0 d9 d0 38 3f 7f a3 06 3f 77 78 d3 be 9e f9 ff be
       0.72193676 0.52593225 -0.41302845 -0.4999513
0002f0 c8 63 04 bf a9 e9 99 3e 6f fa 08 bf 37 cb c2 3e
       -0.51714754 0.3006108 -0.5350713 0.38045666
000300 5b 6a 35 bf 18 ea 47 bf 90 c4 76 bf 2e bf 06 3f
       -0.7086541 -0.78091574 -0.9639368 0.5263547
000310 24 bf 40 3f 93 bb 3b 3e 51 a7 01 be 54 28 9c be
       0.7529166 0.18333273 -0.12661482 -0.30499518
000320 1c 23 bd 3e 21 ee fd 3e 8e 1d 71 3d 32 9f 3f 3f
       0.3694085 0.4959574 0.058866076 0.7485229
000330 d9 4c 59 3e 1d fb a0 3e 94 a7 9e 3f 81 6c b9 bd
       0.21220721 0.31441584 1.2394891 -0.090538986
000340 6d 05 07 be c6 02 46 3e 7c c1 79 be e5 5e cb 3e
       -0.13185664 0.19336995 -0.24390215 0.39720836
000350 83 ff b0 3e 8e aa 96 3d 72 d5 1e 3d 82 51 8c be
       0.3456994 0.073567495 0.038777776 -0.27405936
000360 5f 3e 84 3e 54 07 cb 3c 3e e9 ae be f0 f0 84 3e
       0.25828835 0.024783768 -0.34162325 0.2596507
000370 6c 57 ca be 0c 2c a8 3e 7a 71 65 3e ad 68 78 3e
       -0.39519823 0.32846105 0.22406569 0.2425868
000380 07 f2 4f bf a9 60 5d bd 8e 25 8d be 48 c2 9c be
       -0.8122868 -0.05404726 -0.27567714 -0.30616975
000390 3c 74 bb be 07 a5 05 bf 21 d4 2c be bf 2c 56 bf
       -0.36612117 -0.52204937 -0.16877796 -0.8366203
0003a0 56 d2 3c bf 45 29 79 bf 1d 69 24 3f 28 3b 05 3f
       -0.7375845 -0.973286 0.6422289 0.5204339
0003b0 be aa 2f 3f 1f dd ae 3f 06 d6 53 3f 26 c2 5b 3f
       0.68619907 1.3661231 0.8274845 0.8584312
0003c0 c7 d5 be 3e b9 9f f6 3e ab 85 78 bf 5c a3 12 bf
       0.37272474 0.48168734 -0.9707896 -0.57280517
0003d0 a3 5a 50 bf e1 7c 52 bf ce d9 27 bf 28 94 30 bf
       -0.813883 -0.822218 -0.6556672 -0.6897607
0003e0 f0 a1 85 bf ce 50 c2 be dc e3 3f bf 00 0a 78 be
       -1.0440044 -0.37952274 -0.7495706 -0.24222565
0003f0 1b a0 e7 bd d5 e7 2f be d0 67 21 3f 35 b8 e2 bc
       -0.113098346 -0.1717828 0.6304903 -0.027675727

conv.bias f4 [16]
000000 d2 93 6b 3e e6 4e 79 3e 08 b4 03 3c fa 72 d8 3e
       0.23005608 0.24346504 0.008038528 0.4227522
000010 f8 a6 9b 3f fd d1 65 3f 0f 01 71 3e 84 33 96 3f
       1.216033 0.8977354 0.2353556 1.1734471
000020 2f 1e 8a 39 1d eb dd 3d cd 87 29 3f 23 18 30 3e
       0.000263439 0.1083586 0.6622284 0.17196707
000030 a1 fe 05 3f ca 6c 22 3f a6 2a 02 3d ce ac ca 3e
       0.5234166 0.6344725 0.031778954 0.39584965

fc_hidden.weight f4 [128, 1024]
000000 24 19 00 bd 41 32 96 ba f3 a5 c1 3d 00 f5 ea 3c
       -0.031273976 -0.0011459069 0.094554804 0.028681278
000010 59 6b 81 3d 7b 50 7a 3d 92 f9 1a bd ca 1f 44 bd
       0.06319303 0.06111191 -0.037835665 -0.04788188
000020 4b a3 35 3e 97 b5 69 bd 3d ec c3 bd 77 0c c5 3b
       0.17738073 -0.057057943 -0.09566543 0.006013449
000030 1a 8e 4f 3d 4d a1 c2 3d 7f 36 0c be 7b 5a 96 3d
       0.050672628 0.09503422 -0.13692664 0.073414765
000040 98 12 50 bd 7b d4 bd 3b c5 a0 bd 3d 12 95 c2 bd
       -0.050798982 0.005793152 0.0925918 -0.09501089
000050 29 a2 08 be 74 c0 a7 bc 7c 22 90 bc bf 10 85 3d
       -0.13343109 -0.020477511 -0.017594568 0.06497335
000060 16 27 31 be c3 61 e1 bc 1f e0 9b 3d 59 2e f5 bc
       -0.17300066 -0.027512437 0.07611107 -0.029929327
000070 8d 47 07 3c 95 28 a9 bd dd 9a 6d bc ce 9e 66 3d
       0.008256805 -0.082596935 -0.014502254 0.05630379
000080 99 98 6b 3d 97 e8 22 3d fd 05 53 3e 41 f0 96 3d
       0.057518575 0.039772596 0.20607753 0.073700435
000090 3e 0b eb 3d 81 ba 35 3d e3 91 d0 bc 44 d3 ce bd
       0.11476754 0.044367317 -0.02546019 -0.100988895
0000a0 13 36 25 be 7a 40 24 be 19 e2 ec 3d 28 b5 e7 3c
       -0.16133909 -0.16040221 0.11566562 0.028284624
0000b0 de 0f 84 bc 0f ba ef bc ce d7 0e be 38 d5 68 bc
       -0.016120847 -0.029263524 -0.1394951 -0.014210992
0000c0 81 bd bf bb af 25 f1 3d 70 f5 ab 3d 07 f0 e2 3c
       -0.005851448 0.11774766 0.08396423 0.027702345
0000d0 19 93 7a 3c f9 79 ec 3b a5 3b a1 3c 53 93 36 bd
       0.01529386 0.0072166887 0.019681761 -0.044574093
0000e0 53 b2 b7 3d 6f fb b4 3c 68 de 18 be 31 a1 c1 3c
       0.089695595 0.02209255 -0.14928591 0.023636432
0000f0 de 30 26 3d 19 fa 44 bd 92 72 65 be c7 13 51 bc
       0.040573947 -0.048090074 -0.22406986 -0.012761063
000100 f3 09 78 bd 0e a2 88 bc 3e b2 4d 3e c2 4e 32 3e
       -0.060556363 -0.016678836 0.20087525 0.17412856
000110 54 8f 1e be 18 29 74 3d d9 8b 24 3d 7f 68 cb 3c
       -0.15484363 0.059609503 0.04017243 0.024830101
000120 31 b4 51 3d 94 05 66 bd 29 16 bf bc 2a d8 cb bd
       0.051197235 -0.056157663 -0.023325996 -0.099533394
000130 3d ef 9c bd 05 54 cd bc 00 6f 4e 3d b5 48 1e 3e
       -0.076628186 -0.025064478 0.050398827 0.15457423
000140 be 3e 71 bd 8e b4 89 bd 5d ab 3d 3e f9 30 0a bc
       -0.058897726 -0.06723891 0.18522401 -0.008434528
000150 4c 25 87 3d af 29 22 bc 5f ad fc 3d ca 38 a7 bd
       0.06598911 -0.009897633 0.123377554 -0.081651285
000160 12 74 b9 3d 5a d6 ab bd 4e 3d 2c 3e 9d 0d a3 bd
       0.09055342 -0.08390494 0.16820261 -0.07961581
000170 5e 4c 8e 3c d4 9c 58 3e 5c ab 9b bc 9c 34 4a 3c
       0.0173704 0.21153575 -0.019002609 0.012341645
000180 a4 23 3c 3e f5 32 91 bd c7 fa 05 3d 87 c6 65 bd
       0.18372971 -0.070897974 0.032709863 -0.056097534
000190 bd cd e1 3b fa ae 21 bd 8e 71 28 3e 5b 3d c5 bb
       0.006890981 -0.03947351 0.16449568 -0.006019277
0001a0 ee a8 dc 3d 5b 57 c8 bd d3 27 e2 3d f9 83 4e bd
       0.10774408 -0.09782287 0.11042752 -0.050418828
0001b0 b7 01 04 bd 33 dd 03 be 5c d0 85 3c c1 d1 31 bd
       -0.032228198 -0.1287735 0.016334705 -0.043412928
0001c0 8b 9c 11 be d1 c6 95 bd 2f 20 6d 3b 38 14 ad bc
       -0.14219873 -0.07313312 0.0036182513 -0.021127805
0001d0 f9 a6 1d be 78 ef 63 bd 62 ba a6 bd 57 1a 09 bb
       -0.15395726 -0.055648297 -0.081410185 -0.002092024
0001e0 f2 3d 6a 3e 29 aa 2b be c2 64 8f 3c fe e7 97 bd
       0.22875193 -0.1676413 0.0175041 -0.07417296
0001f0 d6 5c 0f 3e fd ba c4 bd bc 7a 90 bd 8f 1b 6a 3d
       0.14000258 -0.09605978 -0.0705466 0.05715519
000200 c8 2e cb 3b ae b3 f2 bd 97 1b 4f 3d 69 84 f0 bc
       0.006200645 -0.118506774 0.05056342 -0.029360013
000210 47 5f cb 3d 02 e5 33 be e2 19 9a 3d 70 0f 49 3d
       0.09930282 -0.17567828 0.07524468 0.049086988
000220 31 09 08 bc 81 93 6c bd 48 ba 57 bc ab db 36 be
       -0.008302973 -0.05775786 -0.0131669715 -0.17857234
000230 dc 1a 08 3d ce d3 a0 3c 71 27 72 3d 66 a6 9a 3d
       0.03322874 0.019632246 0.059119646 0.07551269
000240 10 1a 70 3c ef 4a 55 3d 77 f0 99 3b 42 29 60 3c
       0.014654651 0.052073415 0.004697855 0.013681712
000250 30 b9 30 bd 84 0f ec 3d 78 c8 92 bd 96 50 88 bc
       -0.04314536 0.11526397 -0.07167143 -0.016639989
000260 af 8e 16 be 22 fd 0d 3c 3a cc 68 3d 07 b8 ea 3c
       -0.14702867 0.008666309 0.05683539 0.028652204
000270 37 6e 6d 3e 84 3d 00 be 38 f8 ee bc 49 b7 8d bd
       0.23186575 -0.12523466 -0.029171094 -0.069197245
000280 f9 66 1e be 6b 1f 55 be bf 63 1b be f1 bd 01 bd
       -0.15468968 -0.20812766 -0.15174769 -0.031675283
000290 6b ed 90 bd c5 fe 97 bd f7 d2 1f 3e 69 33 0a 3a
       -0.07076534 -0.0742164 0.1560782 0.0005271943
0002a0 53 40 21 bb 09 95 bc 3d 51 ec 96 3d 99 a3 7e 3d
       -0.002460499 0.09208114 0.073692925 0.062167738
0002b0 35 d3 10 3e 34 c6 ea bd 95 9d 08 bb 08 27 be 3c
       0.14143069 -0.114635855 -0.002084588 0.02321197
0002c0 db 4d 2a be 27 64 93 3d 43 39 97 3c ae 6e 40 bd
       -0.16631262 0.07196837 0.018459922 -0.046980552
0002d0 1f 8a 87 bc c2 7b 01 bd d1 50 39 bd 4e db cc 3d
       -0.016545353 -0.031612165 -0.04524309 0.100027665
0002e0 e9 21 d3 3d 69 0c 2d 3e 15 c3 22 bd 59 53 f6 3d
       0.10309202 0.16899265 -0.039736826 0.12027616
0002f0 f6 2f ad 3d ce 42 28 bd 4d 83 8f 3d 65 e4 a2 3d
       0.084564134 -0.041079335 0.070074655 0.07953719
000300 2c 9f e8 3d 3a be 5d 3d ad a6 83 bd ec e6 1f bd
       0.113584846 0.054136492 -0.06428275 -0.039038584
000310 c6 77 ab 3d cf ec 38 ba f4 22 c9 bd d4 d9 48 ba
       0.08372454 -0.000705433 -0.0982112 -0.00076618535
000320 31 50 04 3e db 31 ba 3d ee 74 54 3d 74 63 86 be
       0.12921216 0.090915404 0.051869325 -0.26247752
000330 4a 9f 3d 3e 99 c2 2b 3c e3 45 07 3c 1c 1e 33 3d
       0.18517795 0.010483407 0.008256408 0.043729886
000340 ea d7 7d bd df 30 a0 ba ed 1a 93 bd f3 bc a6 3d
       -0.06197349 -0.0012221596 -0.0718287 0.08141508
000350 e8 3b 09 bd c9 9c 59 ba 8e 33 d5 3c b8 bf 93 bd
       -0.033504397 -0.0008301256 0.02602556 -0.07214302
000360 a3 6e 4a 3b 15 4c 36 3e 54 fa be 3d 5b 42 d2 3c
       0.0030888699 0.1780246 0.0932509 0.025666406
000370 a0 40 30 bd d2 c0 1d 3d 15 3e ed bc fc 3d 8f 3d
       -0.04303038 0.038513966 -0.028960267 0.069942445
000380 87 2c 28 bc 1e 2a 90 3d 78 dc 3e 3e d9 4c 33 bd
       -0.010264522 0.07039283 0.1863879 -0.04377446
000390 5d 4c b7 3d 78 03 97 3d c4 41 38 bd 3a 65 bb ba
       0.08950112 0.073737085 -0.044984594 -0.0014297136
0003a0 de 3f 61 3d 03 55 9a 3d ea 6f 43 3e 1a b8 c5 3d
       0.05499255 0.07535746 0.1908566 0.09654255
0003b0 c8 23 8a 3c 44 c6 e0 bc e8 3e 59 be 32 27 19 3d
       0.016862765 -0.02743829 -0.21215403 0.037390895
0003c0 2b 43 33 bd 0c d3 05 bd d2 b8 1a bd 09 1a 92 3d
       -0.04376523 -0.032671973 -0.037773915 0.07133872
0003d0 8f f6 8e 3d 73 70 c7 3d 43 0b 2a bd f2 db fc 3c
       0.06980621 0.09738245 -0.041514646 0.030866597
0003e0 54 a2 a8 bd e7 f9 28 3e fa ed 06 bd 91 f0 81 bd
       -0.08234087 0.1650158 -0.032941796 -0.063447125
0003f0 c1 95 a8 3d 77 0c e0 3c 0e 69 88 bd 5b da 5d bd
       0.08231688 0.027349694 -0.066606626 -0.054163318

fc_hidden.bias f4 [128]
000000 f3 21 f4 bb 22 92 05 bc fd 1a e4 bb ea fc 2f bc
       -0.007450336 -0.008152517 -0.006961225 -0.010741452
000010 82 f9 2d bb bb e6 a8 bb a3 52 92 bb ab 67 38 bc
       -0.0026546423 -0.0051544583 -0.0044654175 -0.011255185
000020 60 4f 49 bc 76 ea 22 bc d6 c6 41 bc 54 a2 94 bb
       -0.012286991 -0.009943595 -0.011827191 -0.0045359526
000030 26 13 29 bc 72 a0 ea bb ee 30 10 bc 9b 66 1a bc
       -0.010319507 -0.00716024 -0.008800728 -0.009423877
000040 57 0d 44 bc db 20 90 bb 86 0d 2f bc 22 2f d6 bb
       -0.011966071 -0.004398448 -0.010684377 -0.0065363804
000050 50 0c 97 bc 5b fd 61 bc cb ae d1 bb 36 04 58 bc
       -0.018438488 -0.013793315 -0.006399011 -0.013184598
000060 93 91 ec bb 63 70 1f bc 68 91 23 bc bf 8c 04 bc
       -0.0072195022 -0.009731385 -0.009983398 -0.008090197
000070 46 a0 86 bc d3 bc e1 3c e7 e4 11 bc 88 fd c8 bb
       -0.016433846 0.027555859 -0.008904672 -0.006133739
000080 53 e0 4a bc 90 54 1c bc 0a 83 16 bc 38 33 d0 bb
       -0.012382585 -0.009541646 -0.009186516 -0.006353762
000090 8c e9 89 bc 34 26 6e bb 29 85 8d bc 82 40 34 bc
       -0.016834997 -0.0036338689 -0.01727541 -0.011001708
0000a0 d7 c7 c5 bb 33 51 a9 bb f6 ea c7 3b 79 ad 5d bc
       -0.0060357857 -0.0051671504 0.0061010076 -0.013530129
0000b0 8e 6c 6f bb da 15 65 bc 88 26 48 bc 9a 2c 23 bc
       -0.003653321 -0.013982261 -0.012216218 -0.009959364
0000c0 24 28 99 bc 42 10 37 bc e5 92 ca bb 40 86 12 bc
       -0.018695898 -0.01117331 -0.006182062 -0.0089431405
0000d0 5e a8 3f bc f0 17 0d bc 8e 0f b9 bb a5 c1 63 3d
       -0.011697857 -0.008611664 -0.005647606 0.055604596
0000e0 04 8f 31 bc 23 50 4f bc a9 3f dc bb e9 1f 37 bc
       -0.01083732 -0.012653383 -0.006721456 -0.011177042
0000f0 90 66 24 bc f0 12 3d bc 5b ed 35 bc 08 45 1e bc
       -0.010034218 -0.01154016 -0.011103953 -0.009660013
000100 ab 76 34 3d 37 40 3d bc e6 01 50 3a 1a 12 06 bc
       0.044058483 -0.011550955 0.0007934853 -0.008183027
000110 5a 84 07 bb 40 3d 4d bc 37 3e 5c bc 7a b1 53 bc
       -0.0020678253 -0.01252681 -0.013442568 -0.012920732
000120 eb 26 1e bc 7f 17 60 bb 8a c6 df bb ac d2 cf bb
       -0.009652833 -0.0034193692 -0.0068290876 -0.0063422527
000130 73 ff 87 bc fb 2b 34 bc 4d f4 30 bc a0 c3 35 bc
       -0.0166013 -0.010996814 -0.010800433 -0.011094004
000140 dc 07 a9 bb 54 fe fe bb 42 6b 63 bc b3 16 43 bc
       -0.0051584076 -0.007781783 -0.013880553 -0.011907267
000150 27 6f 1f bc 9d 60 b3 bb 2c a4 4c bc cc eb 7f bb
       -0.009731091 -0.0054741637 -0.0124903135 -0.0039050458
000160 8c 8b 22 bc fb 2e 19 bc 29 5f cf bb 28 31 2f bc
       -0.009920966 -0.00934958 -0.0063284826 -0.010692872
000170 21 b1 41 bc ee 4c 00 bc 0b 2c 42 bc 3b 36 af 3c
       -0.011822016 -0.0078308415 -0.011851321 0.021388164
000180 40 11 1a bc ee 08 bb 3c ea 70 e9 bb 03 b5 33 3e
       -0.009403527 0.022831406 -0.007124056 0.17549519
000190 f0 6d fa bb a0 50 46 bc c0 b1 78 3c 91 54 e6 bb
       -0.0076425 -0.012104183 0.015179098 -0.007029124
0001a0 30 8c e6 bb 89 61 a6 bb 72 72 a0 bc 21 ee 1a bc
       -0.0070357546 -0.005077545 -0.019585822 -0.009456188
0001b0 aa 70 1a bc 75 22 a3 bb 29 5e 39 bc 54 e9 66 bc
       -0.009426275 -0.004978473 -0.011313953 -0.014093716
0001c0 83 0e a8 bc 98 21 f3 bb 09 75 1f bc 72 0e f5 bb
       -0.020514732 -0.007419776 -0.009732493 -0.0074785287
0001d0 9c be 23 3a af e4 f3 bb 73 55 e3 bb c0 77 07 ba
       0.00062463596 -0.0074430327 -0.0069376766 -0.00051676854
0001e0 d9 87 51 bc 62 44 09 bc 09 6b 27 bc 67 78 c1 bb
       -0.012788736 -0.00837812 -0.01021839 -0.0059042457
0001f0 88 44 30 bc 46 5b 35 bc c4 86 3e bc 64 e1 16 bc
       -0.010758527 -0.011069125 -0.01162881 -0.009209011

output.weight f4 [300, 128]
000000 67 f3 6d 3e 21 e0 39 3d 7c 9d 45 3e dd 4f 6a bc
       0.23237382 0.04537976 0.19298357 -0.014301267
000010 72 4b 48 3e d5 f9 05 be 9e 16 3b 3e 7a ca c5 3e
       0.1956003 -0.13083585 0.18270347 0.3863104
000020 48 18 a6 bc 16 5d 0b be 29 06 80 3e bd 1b 97 3d
       -0.02027525 -0.13609728 0.250047 0.073783375
000030 25 cd 1e be 53 78 99 3e 6e 7c f8 3c 2e 59 70 3c
       -0.15507944 0.29974613 0.03033277 0.0146697
000040 d6 bc 23 bd 22 a2 ae bc 02 d7 07 3e 9a d1 33 3d
       -0.03997501 -0.021317545 0.13265613 0.043901064
000050 90 df b0 3d f4 cd 8c 3e a5 a5 40 3e df 7d 9f 3e
       0.08636391 0.2750088 0.18813188 0.3115072
000060 d7 71 c5 be 1b 24 df bd 39 c5 91 3c 3f b2 08 be
       -0.38563415 -0.108955584 0.017794238 -0.13349245
000070 d7 c2 a1 3e 7d 83 ca 3d b0 6a 5c bd be 1f 5c be
       0.31593964 0.09888361 -0.053812683 -0.21496484
000080 ce 6f 47 be 0c f6 14 3e fe 8c 11 3e 32 04 45 be
       -0.19476244 0.14546984 0.1421394 -0.19239882
000090 67 c3 6c bc f1 6a 47 be d9 41 24 bd 82 b4 2f 3e
       -0.014450884 -0.19474389 -0.04010186 0.17158702
0000a0 14 d0 cd 3b 47 59 03 be 06 5f ce bd c2 10 63 be
       0.0062809084 -0.12827025 -0.10076718 -0.22174361
0000b0 d1 1b d1 3a b1 47 57 3e 62 e4 4d 3e 83 4a 2d 3d
       0.0015953725 0.21023442 0.20106652 0.042307388
0000c0 c2 31 4d be e7 94 ce 3c 85 9b 58 3e 84 1e 15 bd
       -0.20038512 0.025217487 0.21153076 -0.036406055
0000d0 c2 d2 4a 3e 08 fd bf bd bc 53 bd be c9 18 e5 3e
       0.1980696 -0.09374434 -0.36977947 0.44745472
0000e0 ca 9e 9d bd 02 a4 74 be 7d f9 48 bc 57 2c 3f bb
       -0.07696302 -0.23890689 -0.012266514 -0.0029170716
0000f0 43 36 9f be b3 7e e9 3d c9 9c 95 bd 8b 08 89 bd
       -0.31096086 0.11401119 -0.07305295 -0.066910826
000100 63 d6 a6 3e a4 6e 2d 3e fb fd 0b 3c 50 6d f1 bd
       0.3258544 0.16936737 0.00854444 -0.11788428
000110 13 f4 84 3e b7 3c 47 3d 5f 85 34 be 43 0e 0e be
       0.25967464 0.048641887 -0.17629002 -0.13872628
000120 81 0e 27 be 15 fb 37 3d f9 7d 02 3e 16 36 95 bd
       -0.16314127 0.044917185 0.12743367 -0.07285707
000130 47 89 85 3d 59 2e bc 3d 9c 74 44 3d a4 81 a3 3e
       0.06520324 0.091885276 0.04796277 0.31934845
000140 b7 74 24 3b f4 7a 53 3d c4 dc 19 be d1 e3 ff bd
       0.0025093982 0.05163093 -0.15025622 -0.124946244
000150 4d c0 25 be 15 c5 bf be e6 81 fc bd 70 96 18 3d
       -0.16186638 -0.3745505 -0.12329464 0.037252843
000160 15 ab 95 3d ca c1 81 bc 8e 52 0f be 9c 54 90 3c
       0.07308022 -0.015839476 -0.13996336 0.01761847
000170 b1 b5 14 bd 44 6f b9 3d 8c 9b 3d 3e b4 6a f0 bd
       -0.036306087 0.09054425 0.18516368 -0.11739102
000180 c5 33 84 be f5 e4 b1 3b 7e 04 c8 be eb 43 88 be
       -0.25820747 0.005428905 -0.39065927 -0.26614317
000190 c1 1b a5 be 9c 6f 97 3c f1 b9 24 3e b8 fd 4b 3e
       -0.32247737 0.018485837 0.16086556 0.19921005
0001a0 1c 68 d9 3b c5 25 3f be ea 78 bd 3d 02 34 0a be
       0.0066347253 -0.18666752 0.09251578 -0.13496402
0001b0 38 90 39 be a9 64 6f bd f4 da 6a 3d 76 dc 35 3d
       -0.18121421 -0.058445606 0.057337716 0.0443997
0001c0 f3 c9 7e 3d 9f d9 93 3b 85 24 f7 bd 93 5d 95 3c
       0.062204313 0.0045120264 -0.120675124 0.018233096
0001d0 b5 6d 22 bd 78 08 36 3e ce fd b2 3c 44 1c 89 be
       -0.039655406 0.17776668 0.02184954 -0.26779377
0001e0 4f 3a 26 3e 79 da 5a bd d3 b0 15 3e c2 6e cb ba
       0.1623318 -0.053431008 0.14618234 -0.0015520679
0001f0 36 cc 61 3d 23 76 ea 3d 93 54 14 3e 1b 3a 9e 3e
       0.05512639 0.11448314 0.14485388 0.30903706
000200 2b 61 3d 3e ea 4e ae 3e 75 6b 29 be f7 13 c5 bc
       0.18494098 0.34044582 -0.16544898 -0.024057372
000210 8c 3e 32 3e cf 6b cb bd 6c 8b 80 bd d4 70 5b 3e
       0.17406672 -0.09932672 -0.062765926 0.2142976
000220 ea f6 13 be 85 2f 76 3e 7b 6c 59 3e 19 b7 15 3d
       -0.14449659 0.24041565 0.21232788 0.03655157
000230 9b fa ca bd a9 12 40 bc 4e fb 25 3e 3f 0a dc 3d
       -0.099110804 -0.011723199 0.16209146 0.10744142
000240 38 ae 53 3d 14 8b 28 3e 59 8e 19 be c8 f4 21 3e
       0.05167982 0.16459304 -0.14995708 0.15816033
000250 79 2f bc 3d f4 0a 01 3e b5 ac 8a bd dc 1d ab 3e
       0.09188742 0.12601835 -0.067712225 0.33421218
000260 94 a3 38 bb 2e 5c 8c 3e e2 80 8c be 8f e1 04 3d
       -0.0028173672 0.27414078 -0.2744208 0.032441672
000270 75 ef 9b bd aa 9e 2c 3e 53 b6 e4 bd 67 33 04 be
       -0.07614032 0.168574 -0.11167588 -0.12910233
000280 f9 3e cd bd c3 2d 98 3d 99 7d a8 bc 74 6f 6c 3e
       -0.10021777 0.07430603 -0.020567702 0.23089391
000290 86 1d ad bc 8c df 86 3e a5 1b ab 3d 3a 29 04 39
       -0.021132242 0.26342428 0.08354882 0.00012603859
0002a0 0d 90 75 3d 56 1c 40 3e 5d a0 22 be 09 55 57 be
       0.05995183 0.1876081 -0.15881486 -0.21028532
0002b0 8f 41 97 bd d1 b0 06 be 94 4e 7f 3e 63 fa c5 3c
       -0.07385551 -0.13153388 0.24932319 0.024167245
0002c0 fd 28 c2 bd 7d 31 9a 3c 44 f6 81 3d c5 8e 28 3e
       -0.09480474 0.018822426 0.063457996 0.16460712
0002d0 78 ee cd 3c 80 c4 a0 3e d2 d1 99 3e 77 36 d7 3e
       0.025138125 0.31399918 0.30042893 0.4203374
0002e0 60 4d 40 3e 4a 0d cd 3c 52 aa dc 3d bf a3 41 be
       0.18779516 0.02503075 0.107746735 -0.1891012
0002f0 a4 fa b1 3e 6b 47 79 be af b4 83 3e a3 53 b9 3e
       0.34761536 -0.2434365 0.25723788 0.36196622
000300 f9 48 b0 3e 0d de 8c 3d 74 3f 6e 3c 6a c0 a0 3e
       0.34430674 0.0687829 0.014541496 0.313968
000310 b7 95 9d be fe d7 2d be 54 d2 77 bd 21 b1 14 bd
       -0.30778286 -0.16976926 -0.06050332 -0.036301736
000320 cc b2 b1 be c0 7d 23 be 5f 8e 9e be c5 9c 14 be
       -0.34706724 -0.15965939 -0.30967996 -0.14512928
000330 e7 65 04 bd bb b0 88 3d 42 6e 24 bd 36 32 43 be
       -0.032323744 0.06674334 -0.040144213 -0.19062123
000340 2a b4 e1 3c 9b 7a 0d bd bf 4f c7 bd b2 b4 e9 bd
       0.02755173 -0.034540754 -0.09732007 -0.11411418
000350 8e b1 dd 3e 1c 06 d2 3d d8 bc 7f bd 04 58 72 3e
       0.43299526 0.102550715 -0.062435955 0.23666388
000360 81 b8 31 3e 65 0e 05 3e d1 c1 3e 3e f7 56 c3 bc
       0.17355539 0.12993772 0.18628623 -0.023845179
000370 ae d3 9d 3c 4e 7a 15 3e 0c fd 46 bc 5b 69 ae bd
       0.019265976 0.14597437 -0.012145292 -0.08516189
000380 ef 3a 30 be 53 d5 11 3e c1 8f 37 bd 0a 07 6d be
       -0.17209981 0.14241533 -0.04481483 -0.23147216
000390 37 f1 7e be b0 47 d8 bd 11 7c 53 3e 1c 92 cd 3d
       -0.24896704 -0.10560548 0.20652796 0.10037634
0003a0 c4 02 ca bd f1 be a1 bd 22 e1 3f be 27 7a 0a bd
       -0.09863809 -0.07897747 -0.18738225 -0.0338079
0003b0 de 4c a5 3d 47 28 2e be 6f 31 8f 3e 32 8f 44 bd
       0.08071302 -0.17007552 0.27967402 -0.047988124
0003c0 4e d4 b6 3d e2 2f 2c 3d 85 a9 4e 3e d2 15 b6 3d
       0.08927213 0.042037852 0.20181854 0.08890881
0003d0 a4 d6 04 be f1 d8 ed 3d 4a 19 50 3e 81 73 56 3e
       -0.12972504 0.11613644 0.20322147 0.20942499
0003e0 fb 85 39 3e 1d 88 a9 bc 28 f2 99 bd 99 3b 69 bd
       0.18117516 -0.020694787 -0.07516891 -0.056941602
0003f0 55 58 a0 bd cf e2 b5 3c 90 67 e9 bd b4 0f b2 3b
       -0.07829348 0.022202877 -0.11396706 0.005434001

output.bias f4 [300]
000000 16 68 ab 3b 11 96 d2 3a 63 1a 01 3c fc 71 ae 3c
       0.005230914 0.0016066452 0.007879826 0.021294586
000010 ce 2e 92 3c a5 f2 fe 3b 04 bf 17 3c 82 bd 7a 3c
       0.017844584 0.0077803903 0.00926185 0.015303971
000020 ba ea 11 3c 34 1c 9d b9 00 27 ac 3c 5f 50 17 bc
       0.008906061 -0.00029966387 0.02101469 -0.009235471
000030 68 c5 0f 3b 72 ec 1e 38 85 76 fd bb c1 6c 37 bb
       0.0021937732 3.7890342e-05 -0.007735076 -0.0027988406
000040 eb 5a f3 3b 1e 16 1e bc a8 53 b4 bb 84 93 60 bb
       0.0074266098 -0.009648828 -0.0055031367 -0.0034267614
000050 34 23 85 bb 04 0f 39 bc bf 98 8d 3a ee 73 92 3c
       -0.0040630344 -0.011295084 0.0010802968 0.017877545
000060 c2 1a df 3b 87 ff b9 bc 83 8e 3a 3c c8 ab 88 3a
       0.0068086097 -0.022704853 0.0113865165 0.0010427171
000070 a0 fd 86 3c d7 b7 c6 bb 5f e6 bf 3b 85 23 b8 3c
       0.01647836 -0.006064396 0.00585632 0.022477875
000080 a4 62 98 3c 55 e2 53 3c 9d 6f 3f 3c 09 a1 6f 3c
       0.018601723 0.01293238 0.0116843255 0.014625796
000090 68 ae 2d 3c 0c 57 d2 3c 87 8b 45 3c c2 ef 62 3a
       0.010600664 0.025676273 0.012057192 0.00086569425
0000a0 48 36 04 3d eb 9d 40 3c a3 f3 bd 3c 55 78 ec 3c
       0.03227833 0.011756401 0.023187464 0.028865973
0000b0 98 35 6e 3c 66 99 fa 3b c6 98 bd 3c 9d 0b 5d 3c
       0.014539145 0.007647681 0.023144137 0.013491538
0000c0 10 a9 70 3c 01 a0 ae 3c 4a d5 50 3b 58 05 62 3c
       0.014688745 0.02131653 0.0031865411 0.013795219
0000d0 7b 07 27 3c 8c 08 23 3c ea f2 29 3c 87 bb 0c 3c
       0.010194655 0.009950768 0.010372857 0.008589632
0000e0 6e 83 26 3c b5 a4 44 3c 30 8f b1 3b 00 a3 b1 3b
       0.010163171 0.01200216 0.0054186806 0.0054210424
0000f0 63 fc f6 3b d1 d6 1b 3b b8 c1 1f bb cc a8 dc ba
       0.007537411 0.0023779164 -0.002437694 -0.0016834973
000100 ad b3 f0 39 66 c4 c7 bb bf 56 42 3b 7b 48 a4 bb
       0.00045910236 -0.0060964106 0.0029653755 -0.005013523
000110 f2 f2 db bb 9b 9b 0b bc 85 ff 09 bc 0d 8f 08 bb
       -0.006712311 -0.008520986 -0.008422737 -0.0020837218
000120 03 5f 13 bc 88 88 14 bc d5 22 5e bc fd 4a b3 ba
       -0.0089948205 -0.009065755 -0.013558109 -0.0013678964
000130 c5 ef dd 3a e7 aa 02 bc b0 ae 01 bc 0f 9c 62 3b
       0.0016932419 -0.007975317 -0.007915184 0.0034577881
000140 31 24 0a bc 58 c0 d1 bb f0 51 1e ba 25 dd 7c bb
       -0.00843148 -0.006401103 -0.00060394313 -0.003858396
000150 40 11 da 3b a3 25 61 bb 8c 1b df 3b c8 e6 b0 bb
       0.0066548884 -0.0034354709 0.0068087038 -0.005398605
000160 1d 40 35 3c e6 15 2a 3c 6e a6 79 3b 2d 05 18 3c
       0.011062649 0.010381198 0.0038093585 0.009278578
000170 2e 68 8d 3c 6d dc 64 3c aa 61 b8 3c 54 37 e1 3c
       0.01726159 0.013968569 0.022507507 0.027492203
000180 6c 81 b9 3c 97 30 c5 3c 4e de 9c 3c 62 d9 9e 3c
       0.022644721 0.024071021 0.019148972 0.019390766
000190 0f fd 4f 3c 7e 86 c5 3b ae 00 1b 3c ff 94 39 3c
       0.012694611 0.0060279956 0.009460611 0.011327027
0001a0 53 59 98 3b 62 ee 5e 3c ac 5f 52 3c 7d 9b 5f 3c
       0.00464932 0.01360664 0.012840193 0.013647911
0001b0 52 63 b9 3b 49 6e 34 3c 36 18 ad 3b 13 71 5f 3b
       0.005657592 0.011012622 0.005282427 0.0034094497
0001c0 7b b9 dd bb 9e b9 03 bb 42 36 2a ba 44 a9 8a bb
       -0.0067664958 -0.002009965 -0.00064930704 -0.004231604
0001d0 ef 43 7a bc f0 0b 5f bc b7 67 0f bc 4d b6 d1 bb
       -0.015274986 -0.013613686 -0.008752755 -0.006399906
0001e0 12 5a 57 bc cb 30 2d bc a8 c4 e7 bb 5d 9b 89 bc
       -0.013144033 -0.010570715 -0.007073004 -0.016797716
0001f0 cc 64 38 bc e0 48 3f bc ca 15 1f bc 90 b9 aa bc
       -0.011254501 -0.01167509 -0.009709785 -0.020840436
000200 4c 93 1d bc 35 b8 02 bc 31 87 75 bc 1d af 92 bb
       -0.009617638 -0.007978489 -0.014985845 -0.0044764415
000210 0e d0 90 ba 54 df 03 bc 10 bf 33 ba 38 05 69 3b
       -0.0011048333 -0.008048851 -0.00068567786 0.003555609
000220 ed 97 af 3b 9d 3f 98 3a 78 80 0a 3b 36 95 05 3c
       0.005358687 0.0011615638 0.0021133702 0.00815325
000230 5b b8 4c 3c 5c 26 8e 3c 94 d2 9e 3c 22 44 b4 3c
       0.012495126 0.017352276 0.01938752 0.022005145
000240 f9 3e d8 3c 28 89 b7 3c 1d 4d f3 3c df c7 a7 3c
       0.026397215 0.022404268 0.029699856 0.020481048
000250 34 a4 b8 3c 1f 33 d1 3c ab 43 23 bb 5e db 56 ba
       0.022539236 0.025537072 -0.002491216 -0.00081961404
000260 3e 8b 7a 3b 74 35 29 3b a1 15 28 3c dc 87 da b9
       0.0038229967 0.0025819214 0.010259063 -0.00041681423
000270 e7 3c 4c 3c 61 ed 9a 3b ef ad 65 3c fd f7 16 3c
       0.012465692 0.004728005 0.01401852 0.009214398
000280 ca 2f 3f 3c 6d fa 17 3b e8 56 27 bb 88 b8 c5 3b
       0.011669109 0.0023190037 -0.0025533978 0.0060339607
000290 d9 4a 8e 3b a5 12 a3 bb 84 1b 9f 3b 2b af 36 bb
       0.0043424186 -0.004976588 0.004855575 -0.0027875404
0002a0 0d 29 67 bb e7 b1 20 bc c9 de 03 bc 7c a0 a4 bb
       -0.003527227 -0.00980804 -0.008048722 -0.005024014
0002b0 ba 12 ae bb 42 c9 b9 bb b6 37 ee bb 47 a3 8b bc
       -0.005312291 -0.0056697438 -0.007269825 -0.01704563
0002c0 c1 ec 6d bc 08 55 d9 bb 66 6d 9d 3b fe d2 08 bc
       -0.014521779 -0.006632451 0.004804301 -0.008351086
0002d0 45 93 16 bc 2c b2 21 bc 8e be b6 3a 66 12 a2 bb
       -0.009190385 -0.00986914 0.0013942288 -0.004946041
0002e0 cb 92 00 bc 85 48 7d 3b d6 90 16 bb 94 94 b2 3b
       -0.007847498 0.0038647961 -0.0022974513 0.005449841
0002f0 48 9e 5a 3c 9c d5 25 3c 10 bb d3 3b 7a 9a 96 3c
       0.013343401 0.010121729 0.0064615086 0.018384207
000300 ed 3a 59 3c 5a 56 89 3c 19 52 8a 3c 13 78 dc 3c
       0.013258678 0.016764808 0.01688485 0.026912725
000310 40 80 c5 3c 2d fd de 3c b0 c2 de 3c 8e 13 88 3c
       0.024109006 0.027220333 0.027192444 0.016610887
000320 c0 b4 c8 ba 12 4d f3 3b 46 fb f1 3a 66 df 85 ba
       -0.0015312657 0.007424959 0.0018461726 -0.0010213673
000330 0b 96 22 3c 32 d1 90 bb f9 95 fc ba a2 f2 80 3b
       0.009923468 -0.0044194693 -0.001927077 0.003935174
000340 c2 82 36 bb 51 f3 92 3b 99 69 49 bc 8a ad 18 bb
       -0.0027848934 0.004484572 -0.012293243 -0.0023296797
000350 c0 54 0e bc e3 5d 37 bc ac 6e 22 bc f0 0b 30 bc
       -0.008687198 -0.011191818 -0.009914082 -0.010745034
000360 cb a3 ef bb 03 4a 54 bc 10 8f 77 bc 54 cf 89 bc
       -0.007313227 -0.012957099 -0.015109792 -0.016822495
000370 41 51 c9 bc f7 96 8a bc e0 33 a7 bc 45 6c 53 bc
       -0.024574878 -0.016917689 -0.020410478 -0.012904231
000380 7d 2c bf bc 31 e4 64 bc 82 a0 92 bc 8a a4 04 bc
       -0.023336643 -0.013970421 -0.017898802 -0.00809587
000390 39 57 97 bc 23 0e aa bc c0 dc 56 bc 57 cb 75 bc
       -0.018474208 -0.020758694 -0.013114154 -0.015002093
0003a0 1c 71 93 bc 0a 79 a5 ba 65 bc 2e 3a 6f 97 3b bc
       -0.01799827 -0.0012624573 0.0006665646 -0.011449679
0003b0 21 50 69 3a 58 a1 ae b8 74 b2 bd 3b 25 11 24 3c
       0.0008900185 -8.327019e-05 0.0057890955 0.010013853
0003c0 55 bc 29 3c 9b 1f 3b 3c 56 89 c7 3b 12 70 80 3c
       0.010359843 0.01142111 0.0060893698 0.01567844
0003d0 4e 68 eb 3c 06 56 bf 3c 09 fe b1 3c 29 90 d1 3c
       0.02873626 0.023356449 0.021727579 0.025581436
0003e0 b9 49 c3 3c 1b 57 c8 3c 55 fe 80 3c b2 4f 8b 3c
       0.023838865 0.024455598 0.015746275 0.017005775
0003f0 26 cd bf 3c 43 b0 b9 3c 7d cf a9 3c 14 2e bb 3c
       0.023413252 0.022667056 0.020728821 0.02284912
