figs2-3_rl/results/breakout-UADQN/network.pth (torch_old, 683100 bytes, 6 tensors)

conv.weight f4 [16, 4, 3, 3]
-0.32567695 0.19027895 0.30403233 0.13542177 -0.13054027 -0.1482575 -0.8390582 0.102851585
0.7975524 0.59243727 0.55886996 -0.067280374 -1.7361187 0.32310307 0.665609 0.3365971
-0.34044012 0.35001507 0.2778663 -0.068376936 -0.09772554 -0.38960436 0.19148023 0.4328393
0.24379478 0.65513796 0.53370947 0.4766762 -0.7614218 0.4780966 -0.47008666 0.32108623
0.19865951 0.41442704 -0.33173433 -0.1031142 0.10980525 0.08927079 0.37318072 -0.40782714
0.0039320155 0.14457573 -0.39990556 0.28716886 -1.1330112 0.2980135 0.40406337 0.88125545
0.53646535 -0.38937768 0.26992163 -0.7444995 -0.7393556 -0.079923466 0.056530308 -0.5944075
0.87271374 -0.44033438 0.394501 -0.36029798 -0.5169924 0.359928 0.29492632 -0.42004126
0.4643539 -0.29632792 0.54292995 -0.06598068 -0.105632395 -0.16218497 -0.31358224 0.06745478
0.26912278 0.069986254 0.08671404 -0.028860146 0.25538433 0.24655756 -0.13729736 0.47216228
-0.18245223 0.41831395 -0.20473109 0.17233512 -0.89740646 0.02013005 0.23694155 -0.531422
0.07740185 0.07716473 -0.2175867 0.020760017 -0.059202764 0.15441032 -1.1668134 0.05611748
-0.010162414 0.26967728 0.037862614 0.46026418 0.40067598 -0.3125505 0.29741135 -0.3823059
-0.75504214 0.2780187 0.18683836 0.20953147 0.11378567 -0.3863011 -0.08510464 0.4376869
-0.4165392 -0.0026411305 0.16072564 -0.36527732 -1.3777413 -0.032468032 -0.8214546 0.6514944
-0.6659081 0.954159 0.6773059 0.610093 0.77626646 -0.2237488 -0.7650006 -0.37664568
0.30683953 -0.71529067 0.11796079 0.14707586 0.34760785 0.23465247 -0.9406067 -0.12552251
0.04551727 0.24531452 0.1323837 0.19289732 -0.82024366 0.17106597 0.3837944 -0.41009748
0.062635735 -0.05480019 0.28153488 -0.24579422 -0.1080708 0.24230415 -1.0592688 0.12092871
0.44245392 0.32444483 0.6990384 -0.9126382 0.59254605 0.86018616 0.74711 0.54151374
0.16197543 -0.45612416 -0.3809615 0.21568307 0.5054514 0.11445411 0.27619794 -0.5487038
-0.57042193 -1.113719 -0.20565349 0.18301573 -0.030417154 0.09917143 0.2591119 -0.03279427
0.25932997 0.2198464 -0.11526118 -0.34247583 0.43036628 -0.119435474 -0.3098538 -0.30892193
-0.49618968 -0.46354672 0.41076165 0.35931647 -0.28514075 -0.104501426 0.059885412 0.5571563
0.109599575 0.31104776 0.535065 -0.2357037 -0.7054699 -0.8038465 -0.030904543 -0.6695242
-0.034481585 0.7869322 0.36515117 0.122175515 -0.31660414 0.26498964 -0.15243945 -0.21595392
0.27660596 0.29244056 -0.29862753 -0.23194122 0.31354102 0.21267591 -0.03920745 0.2927624
0.39251575 0.09325047 -0.01675955 0.3114951 -0.14502256 0.5519714 -0.8379381 0.034171637
0.1636967 1.0854688 -1.2096382 0.15125301 0.6313454 0.11639985 -0.37146363 -0.073804565
-0.42861983 0.2837126 0.42195892 0.119893864 0.14190145 1.1010226 0.39574462 0.63327134
-0.5404384 0.50381404 -0.6906314 -0.08893946 -0.25636208 -0.04863039 -0.011412309 0.35539404
0.13223477 0.048380796 0.22585171 -0.34083012 0.25996956 -0.43947753 0.11605812 -0.3364103
00000000: 21bf a6be 7cd8 423e 20aa 9b3e 01ac 0a3e
00000010: 59ac 05be d0d0 17be 85cc 56bf daa3 d23d
00000020: 652c 4c3f f8a9 173f 1a12 0f3f 4bca 89bd
00000030: 2339 debf c46d a53e 5a65 2a3f 7556 ac3e
00000040: 2b4e aebe 2d35 b33e 7e44 8e3e 3509 8cbd
00000050: 5424 c8bd 397a c7be 6513 443e 1d9d dd3e
00000060: 57a5 793e 1fb7 273f 2fa1 083f e70e f43e
00000070: 8aec 42bf 14c9 f43e 33af f0be 6a65 a43e
00000080: 666d 4b3e c82f d43e 15d9 a9be 8a2d d3bd
00000090: 93e1 e03d 9bd3 b63d 8b11 bf3e b8ce d0be
000000a0: 23d8 803b a90b 143e 6cc0 ccbe cc07 933e
000000b0: 8306 91bf 3a95 983e 65e1 ce3e f599 613f
000000c0: cb55 093f 835c c7be 2b33 8a3e 8597 3ebf
000000d0: 6946 3dbf eaae a3bd 538c 673d 172b 18bf
000000e0: 2b6a 5f3f 8273 e1be 09fc c93e fa78 b8be
000000f0: 9d59 04bf 7c48 b83e 9500 973e a60f d7be
00000100: cbbf ed3e 4bb8 97be 75fd 0a3f e120 87bd
00000110: cc55 d8bd d113 26be da8d a0be bb25 8a3d
00000120: 76ca 893e f454 8f3d 2197 b13d 1d6c ecbc
00000130: bcc1 823e 9679 7c3e ae97 0cbe 41bf f13e
00000140: c2d4 3abe 3f2d d63e 07a5 51be 9e78 303e
00000150: 6ebc 65bf c6e7 a43c cea0 723e 460b 08bf
00000160: dc84 9e3d 8b08 9e3d 0ccf 5ebe e910 aa3c
00000170: 997e 72bd bd1d 1e3e 245a 95bf 71db 653d
00000180: 4180 26bc 2413 8a3e d415 1b3d bfa7 eb3e
00000190: 6725 cd3e 9e06 a0be 4d46 983e 99bd c3be
000001a0: 714a 41bf 7858 8e3e 8e52 3f3e 6b8f 563e
000001b0: 7608 e93d 42c9 c5be 574b aebd 7f18 e03e
000001c0: a044 d5be d116 2dbb 4395 243e a105 bbbe
000001d0: d459 b0bf 33fd 04bd d94a 52bf 56c8 263f
000001e0: f478 2abf c443 743f eb63 2d3f 0e2f 1c3f
000001f0: 66b9 463f 681e 65be 14d7 43bf b4d7 c0be
00000200: 121a 9d3e 4a1d 37bf 6d95 f13d 0e9b 163e
00000210: a8f9 b13e bd48 703e 9acb 70bf f988 00be
00000220: 5170 3a3d bb33 7b3e 988f 073e e086 453e
00000230: 7dfb 51bf eb2b 2f3e b380 c43e 4cf8 d1be
00000240: 2a47 803d 2a76 60bd 5725 903e 7bb1 7bbe
00000250: 3954 ddbd 941e 783e 1f96 87bf 79a9 f73d
00000260: 5289 e23e a21d a63e 2ef4 323f a8a2 69bf
00000270: 19b1 173f 2935 5c3f 9a42 3f3f a5a0 0a3f
00000280: e3dc 253e 1b89 e9be 630d c3be 06dc 5c3e
00000290: 4365 013f eb66 ea3d d169 8d3e da77 0cbf
000002a0: 2c07 12bf 588e 8ebf d496 52be 7a68 3b3e
000002b0: 652d f9bc 641a cb3d 51aa 843e 4953 06bd
000002c0: e6c6 843e 6a1f 613e 0e0e ecbd fe58 afbe
000002d0: f858 dc3e 969a f4bd 28a5 9ebe 042b 9ebe
000002e0: 930c febe ff55 edbe 5a4f d23e 54f8 b73e
000002f0: f8fd 91be d804 d6bd 684a 753d cca1 0e3f
00000300: be75 e03d a741 9f3e 05fa 083f 505c 71be
00000310: ad99 34bf e2c8 4dbf 862b fdbc f065 2bbf
00000320: 903c 0dbd 6374 493f 18f5 ba3e 2837 fa3d
00000330: f019 a2be b9ac 873e 1619 1cbe 0623 5dbe
00000340: 4c9f 8d3e c5ba 953e b5e5 98be 0082 6dbe
00000350: 7388 a03e b7c7 593e fe97 20bd f4e4 953e
00000360: d3f7 c83e 1afa be3d 534b 89bc 497c 9f3e
00000370: cb80 14be ff4d 0d3f 1c83 56bf 8ff7 0b3d
00000380: 1ca0 273e a4f0 8a3f 6dd5 9abf 12e2 1a3e
00000390: da9f 213f 0b63 ee3d 7b30 bebe d926 97bd
000003a0: 0f74 dbbe c742 913e 000b d83e ea8a f53d
000003b0: 9d4e 113e 4fee 8c3f 0a9f ca3e 121e 223f
000003c0: 2c5a 0abf f5f9 003f 38cd 30bf e425 b6bd
000003d0: e441 83be a930 47bd b1fa 3abc 35f6 b53e
000003e0: 8d68 073e f12a 463d ac45 673e 4981 aebe
000003f0: bb1a 853e 3303 e1be e1af ed3d f93d acbe

conv.bias f4 [16]
-0.6018973 -0.3011966 -0.25909078 -0.2360888 -0.62487 -0.29854962 -0.32727242 -0.030339384
-0.17544925 -0.351722 -0.37776887 -0.46331304 -0.26187217 -0.49417573 -0.6337163 0.58111256
00000000: f115 1abf 7136 9abe 8ca7 84be 43c1 71be
00000010: 7bf7 1fbf 7fdb 98be 4090 a7be 4d8a f8bc
00000020: f8a8 33be e814 b4be ec6a c1be 5e37 edbe
00000030: 1c14 86be 9a04 fdbe 3b3b 22bf cbc3 143f

fc_hidden.weight f4 [128, 1024]
0.036390524 -2.4096487 0.38417092 0.3248708 0.47592893 -0.818285 -0.363347 -0.0071876347
0.23308754 0.12512296 -0.45130304 -0.42410526 0.14198135 0.16324984 -0.063697234 -0.44464052
0.2434332 0.25339305 0.05661309 -0.8022004 -0.24710244 0.36347985 -0.0041363593 -0.047490835
0.10967717 -0.51547635 0.056608196 -0.06913314 -0.3285788 0.23927438 -0.039244875 0.19624408
0.55805784 0.576762 0.24680422 0.28278777 -0.16429916 0.18255909 -0.4454789 -0.6364646
-0.0010444087 -0.0627583 0.39751735 0.30770653 0.52016604 -0.18243091 -0.1900571 0.5873823
0.3400315 0.37883836 0.6311552 0.06336832 0.37751734 0.4084798 -0.004868517 0.27470163
0.11068116 0.14368881 -0.0051749325 -0.49397057 -0.09698739 0.14650519 0.11913346 0.9271337
-0.06816975 -0.34280178 -0.089634195 0.12643743 0.31902424 -1.0413551 0.38612047 -0.08963192
-0.51804715 0.039805178 0.06472515 -0.25898445 0.019061591 -0.12286664 -0.3485252 0.23866253
0.040332876 -0.36175773 -0.6522817 0.04487348 0.07238115 -0.4198714 0.18375313 0.1499098
-1.1382592 0.8266459 -0.19121152 0.54152185 0.7010889 -0.25549173 0.24457967 0.6268351
0.52855587 -0.41748768 0.13089766 0.31117675 0.40074188 -0.031052893 0.25721207 -0.6048692
-0.05412995 0.34673497 0.064927116 0.37204826 0.10120622 0.25245538 -0.28949207 -0.68969464
0.09418457 0.13787411 0.31519544 0.15548904 -0.03630405 0.025830718 0.028960973 0.5239371
-0.17890105 0.14488094 0.14010148 -0.20477104 0.011288237 0.34747815 0.17520326 0.4168016
-0.06935562 0.0733458 -0.37876192 -0.028633116 -0.18008709 0.04200868 -0.24203959 -0.31248
-0.2990539 -0.09777294 0.0838861 -0.4905822 -0.38189974 0.14918427 -0.060948458 0.37151742
0.25720185 0.45648804 0.43968993 -0.7617587 0.0006943143 0.028375456 0.017197924 -0.008969374
0.10038213 0.4205273 -0.08864417 0.055235486 -0.083915405 -0.019088684 -0.055974316 -1.1295028
-0.76198196 -0.16652508 0.27462527 0.09401929 -0.2476799 0.12629785 0.06535291 -0.012014386
-0.22928879 -0.0054062945 0.35628816 0.030132076 0.11327228 -0.10315842 -0.25212252 -0.18848878
0.31065306 0.5144053 0.05148183 0.14324257 -0.21667351 -0.14494844 0.44396114 0.22612011
0.11213827 0.10584859 0.013206307 0.36858737 0.17076294 0.07697931 0.20258969 -0.0222306
-0.5324789 -0.3455911 -0.26243442 -0.12637818 -0.15097044 -0.48628813 -0.1644705 0.20428637
0.28075555 -0.06383924 0.13405603 -0.34418845 -0.035555422 -0.12660752 0.32060084 0.08377085
-0.4603348 0.42937943 0.37503704 0.64443564 -0.15450096 0.17793076 -0.09322335 0.3299594
-0.43234032 0.13167869 0.066906184 -0.02950914 0.25675508 0.39586857 0.14132175 0.6360879
0.1499233 -0.24747124 0.41679466 0.25360736 0.34116113 0.18611217 0.2565338 -0.8624848
-0.46007195 0.44418392 0.24146302 0.26517567 -0.089218 0.18018153 0.01493196 -0.6099585
-0.22307879 0.059757322 0.08145916 0.2538136 0.019060444 -0.3576567 0.19810583 0.095300555
0.30893764 0.05851355 -0.041760232 0.06280032 -0.020311268 0.34228563 -0.044026192 -0.060129978
00000000: 3b0e 153d af37 1ac0 0db2 c43e 7755 a63e
00000010: f5ac f33e 207b 51bf 9e08 babe 4086 ebbb
00000020: 80ae 6e3e 3c20 003e 3111 e7be 5324 d9be
00000030: 8f63 113e f72a 273e b273 82bd eca7 e3be
00000040: 8e46 793e bcbc 813e 21e3 673d 015d 4dbf
00000050: 6c08 7dbe 081a ba3e 4c8a 87bb c085 42bd
00000060: 6d9e e03d 42f6 03bf ffdd 673d ad95 8dbd
00000070: 7b3b a8be 5804 753e 3cbf 20bd 35f4 483e
00000080: e1dc 0e3f ada6 133f 3fba 7c3e 8fc9 903e
00000090: 0a3e 28be c5f0 3a3e cf15 e4be 58ef 22bf
000000a0: 8ae4 88ba 6c87 80bd 6587 cb3e b68b 9d3e
000000b0: 9a29 053f 2bcf 3abe 549e 42be b05e 163f
000000c0: 9c18 ae3e 1af7 c13e 6393 213f 40c7 813d
000000d0: f449 c13e 4424 d13e 1588 9fbb b1a5 8c3e
000000e0: ceac e23d 2923 133e 7b92 a9bb b6e9 fcbe
000000f0: 53a1 c6bd 7505 163e 3efc f33d a258 6d3f
00000100: 959c 8bbd b783 afbe 2292 b7bd d078 013e
00000110: 2557 a33e 204b 85bf 95b1 c53e f190 b7bd
00000120: bd9e 04bf c10a 233d 9f8e 843d 9c99 84be
00000130: 0e27 9c3c 81a1 fbbd e571 b2be f363 743e
00000140: 1634 253d 4f38 b9be effb 26bf 41cd 373d
00000150: 923c 943d 62f9 d6be c829 3c3e f481 193e
00000160: 7ab2 91bf 119f 533f f4cc 43be 2da1 0a3f
00000170: 907a 333f d0cf 82be 1873 7a3e 4478 203f
00000180: 704f 073f f2c0 d5be 090a 063e 8f52 9f3e
00000190: 0a2e cd3e a362 febc 4db1 833e b5d8 1abf
000001a0: 5eb7 5dbd 3f87 b13e 82f8 843d 1c7d be3e
000001b0: 3545 cf3d d541 813e 4e38 94be d48f 30bf
000001c0: d7e3 c03d df2e 0d3e 4c61 a13e 8538 1f3e
000001d0: 8eb3 14bd f19a d33c 903f ed3c be20 063f
000001e0: d631 37be ab5b 143e c376 0f3e 80af 51be
000001f0: 4cf2 383c a8e8 b13e 7c68 333e 0567 d53e
00000200: 520a 8ebd 5336 963d 15ed c1be ff8f eabc
00000210: c068 38be 4b11 2c3d 3ad9 77be 61fd 9fbe
00000220: 981d 99be 2e3d c8bd 7acc ab3d 972d fbbe
00000230: 5d88 c3be c3c3 183e 17a5 79bd 8837 be3e
00000240: f6af 833e cdb8 e93e 0a1f e13e 9e02 43bf
00000250: a502 363a a573 e83c a9e2 8c3c 48f4 12bc
00000260: 2595 cd3d 5b4f d73e 138b b5bd 9b3e 623d
00000270: d7db abbd df5f 9cbc 5345 65bd 8c93 90bf
00000280: 4011 43bf 8d85 2abe af9b 8c3e 2f8d c03d
00000290: cd9f 7dbe 3954 013e bfd7 853d fdd7 44bc
000002a0: aeca 6abe 4927 b1bb 676b b63e 8bd7 f63c
000002b0: 4cfb e73d b944 d3bd 3416 81be 3403 41be
000002c0: eb0d 9f3e 11b0 033f 9dde 523d 2eae 123e
000002d0: a9df 5dbe 5d6d 14be e04e e33e 088c 673e
000002e0: c0a8 e53d 25c7 d83d 445f 583c 7cb7 bc3e
000002f0: 7bdc 2e3e 54a7 9d3d ac73 4f3e f21c b6bc
00000300: 8a50 08bf 51f1 b0be ce5d 86be 4869 01be
00000310: ff97 1abe c2fa f8be f46a 28be 7230 513e
00000320: 31bf 8f3e 26be 82bd fc45 093e 7839 b0be
00000330: 90a2 11bd 67a5 01be cb25 a43e 0d90 ab3d
00000340: 01b1 ebbe 9fd7 db3e db04 c03e bcf9 243f
00000350: 8035 1ebe 7b33 363e e2eb bebd 70f0 a83e
00000360: b65b ddbe c7d6 063e 1c06 893d 27bd f1bc
00000370: 6775 833e 49af ca3e a6b6 103e a8d6 223f
00000380: 7e85 193e 1a69 7dbe 1c66 d53e d3d8 813e
00000390: acac ae3e 3094 3e3e 6658 833e cecb 5cbf
000003a0: 8d8e ebbe 136c e33e 1542 773e 1bc5 873e
000003b0: edb7 b6bd 8281 383e 2ea5 743c 3e26 1cbf
000003c0: c46e 64be 18c4 743d 0fd4 a63d dbf3 813e
000003d0: a624 9c3c c71e b7be 41dc 4a3e f02c c33d
000003e0: 132d 9e3e e7ab 6f3d c70c 2bbd 749d 803d
000003f0: d163 a6bc 1040 af3e cf54 34bd da4a 76bd

fc_hidden.bias f4 [128]
-0.04122036 -0.43014535 -0.6529708 -0.05261493 -0.05704858 -0.44656047 -0.8805026 -0.43979737
0.09510636 -0.5708576 -0.23096238 -0.14802335 -0.11406417 -0.2024685 -0.28609744 -0.16132553
-0.23236005 -0.02674687 -0.16752426 -0.19081138 -0.049128186 -0.1894885 -0.27033246 -0.02681769
-0.7794119 -0.25888103 0.8580839 -0.9609928 0.099062234 -0.14362343 -0.4794114 0.02114399
-0.027392391 -0.6749169 -0.0039979657 -0.22019911 -0.3035224 -0.07904389 0.2505026 -0.3332654
0.13144386 -0.28236765 0.120280914 -0.2692288 0.05059549 -0.05346021 -0.07119609 0.085774355
-0.07601663 -0.16173485 -0.20879784 -0.36982667 -0.2550548 -0.26239324 -0.16955774 -0.8609481
-0.42118016 -0.49382046 -0.71978766 -0.013463579 -0.02633284 -0.16137782 -0.16484424 -0.61040807
-0.016771195 -0.0913107 -0.19388612 -0.25034383 -0.5833937 -0.12992203 -0.07620851 -0.41741782
-0.059240405 -0.19096805 -0.016429389 -0.42933184 0.0020087105 -0.17975608 -0.20696938 -0.12174807
0.029059647 -0.625899 0.06943924 -0.7768483 -0.23389666 -0.022207728 -0.39058158 -0.8853021
-0.61389744 -0.5503634 -0.10332514 0.046754856 -0.01292903 0.036574557 -0.077109344 -0.22641954
-0.040353425 -0.51459104 -0.8247027 0.049938686 -0.6049523 -1.0264336 -0.5650527 0.78285724
-0.09418966 0.09650141 -0.05397759 -0.73885286 0.09432716 -0.21270275 -0.1150726 -0.22230624
0.0137684215 0.003332928 -0.09993874 -0.024512932 -0.12258641 -0.23823936 -0.01096465 -0.28214774
-0.2546583 -0.13845202 -0.19950376 -0.080831416 -0.41746986 -0.12163509 -0.4583345 -0.18848763
00000000: aed6 28bd 033c dcbe 1829 27bf c182 57bd
00000010: c6ab 69bd 93a3 e4be 9e68 61bf 1f2d e1be
00000020: 20c7 c23d b923 12bf 6781 6cbe 6f93 17be
00000030: 7a9a e9bd e753 4fbe 5d7b 92be 8532 25be
00000040: cbef 6dbe 401c dbbc 7b8b 2bbe 0f64 43be
00000050: a33a 49bd 4609 42be 0469 8abe c6b0 dbbc
00000060: 8a87 47bf 0e8c 84be 63ab 5b3f a003 76bf
00000070: 24e1 ca3d 0512 13be 6975 f5be 2936 ad3c
00000080: 0266 e0bc 5bc7 2cbf 5e01 83bb e07b 61be
00000090: 4a67 9bbe c3e1 a1bd e041 803e c3a1 aabe
000000a0: 3899 063e 7e92 90be d755 f63d 5bd8 89be
000000b0: 373d 4f3d 18f9 5abd 41cf 91bd 77aa af3d
000000c0: 9bae 9bbd d29d 25be 1acf 55be ec59 bdbe
000000d0: 8b96 82be 6858 86be 8ba0 2dbe 1867 5cbf
000000e0: eda4 d7be 09d6 fcbe 0144 38bf 5896 5cbc
000000f0: f8b7 d7bc 3a40 25be eecc 28be b443 1cbf
00000100: bf63 89bc 1b01 bbbd 158a 46be 112d 80be
00000110: 4a59 15bf 480a 05be 3513 9cbd cab7 d5be
00000120: 11a6 72bd 218d 43be ed96 86bc 62d1 dbbe
00000130: 92a4 033b fa11 38be c8ef 53be 0d57 f9bd
00000140: 7f0e ee3c eb3a 20bf 2936 8e3d 88df 46bf
00000150: 9b82 6fbe fbec b5bc 4ffa c7be 29a3 62bf
00000160: 6228 1dbf 9ee4 0cbf 229c d3bd 0582 3f3d
00000170: 48d4 53bc 34cf 153d 81eb 9dbd 86da 67be
00000180: a249 25bd 3dbc 03bf b71f 53bf 828c 4c3d
00000190: 27de 1abf 2d62 83bf 4ba7 10bf 5569 483f
000001a0: 82e6 c0bd 88a2 c53d 9b17 5dbd 7625 3dbf
000001b0: 992e c13d c0ce 59be 2fab ebbd 3fa4 63be
000001c0: f294 613c 416d 5a3b afac ccbd 58cf c8bc
000001d0: 950e fbbd 05f5 73be 13a5 33bc ab75 90be
000001e0: 9362 82be 5ec6 0dbe b74a 4cbe f18a a5bd
000001f0: 9cbe d5be d11b f9bd d2aa eabe e702 41be

output.weight f4 [300, 128]
0.44462982 1.8972454 4.864816 0.99864227 -0.27015036 1.5211018 4.706762 2.0844631
0.59178096 0.8315359 0.049022492 0.8475523 0.40860477 1.4001044 1.073989 1.0808598
1.9321264 -0.4528823 1.8336746 0.97862625 1.983457 1.2838482 0.12417911 0.07431554
2.6908424 0.69620615 -0.8345429 5.8116693 0.8441918 1.214289 1.2397376 0.14130968
-0.009729235 4.171787 -0.31546283 0.7656735 0.74346703 0.33267614 0.88444173 0.7836549
0.022965245 -0.026871687 0.48820332 1.4547609 0.56754214 1.1721417 0.6726693 0.38803828
0.84658515 0.9220953 1.9180486 1.3344473 1.2559971 0.80880684 1.5987748 3.0798469
1.8011228 1.0981559 1.0779382 0.6215914 1.17006 0.30514976 0.8998906 2.6105616
-0.053507157 0.49736756 1.3770304 1.2808135 1.6817898 0.4327478 -0.37704217 1.117421
0.7608966 1.2187612 -0.79037833 0.7696313 0.82252437 1.1306988 2.002944 1.2162831
0.55859375 1.5934515 -0.22210565 0.7855206 1.219987 -0.30923086 2.5029364 1.0791154
2.188586 3.6067226 1.0054153 -0.43880847 -0.63194627 0.43911096 -0.02691083 0.07925649
0.4992502 1.6863884 3.873376 0.6439975 2.7925065 0.9305772 1.052997 -0.97929686
-0.20550157 -0.25171733 1.1748147 6.3663325 0.6895973 1.3712227 0.90093666 1.3955904
0.83657277 0.6619959 -0.09086658 -0.089137875 0.7495333 1.5560131 -0.5816738 0.8994288
1.0239025 1.1613221 0.75640035 0.6751376 0.91007394 0.2031695 5.5189514 1.2847385
0.4677251 1.8738213 4.3789673 0.99543655 -0.29241022 1.3655446 4.1541657 2.0015283
0.57770884 0.73907197 -0.019883776 0.841662 0.42203495 1.4402828 0.98386794 1.0426333
1.8487456 -0.4994379 1.5503125 0.97319424 1.889978 1.2704864 4.028644e-05 0.12093605
2.6294253 0.67398274 -0.7181345 5.190077 0.78914833 1.1923726 1.2640611 0.10535724
0.00851969 3.4717183 -0.3303771 0.7280661 0.6488293 0.21123713 0.84613335 0.74765253
0.07338663 -0.123992495 0.49572325 1.3862373 0.5580374 1.1277224 0.62204325 0.39989826
0.8511163 0.92858565 1.8602121 1.2261049 1.3170198 0.78425705 1.5711997 2.6189072
1.7329713 0.94031066 1.0963864 0.59072626 1.13128 0.23026584 0.9034117 2.394837
-0.0058631855 0.45362157 1.3431162 1.2735245 1.5665522 0.301893 -0.41526002 1.1279325
0.73453444 1.1966264 -0.8191858 0.73891526 0.8532685 1.128786 1.9299823 1.1190608
0.52904767 1.6504303 -0.21846034 0.7590171 1.1665244 -0.3334621 2.3422115 1.0325705
1.9266073 3.2998326 1.0290917 -0.44243732 -0.592399 0.45545462 -0.053384546 -0.012402316
0.40099278 1.5624801 3.4696188 0.6385168 2.2544394 0.70127124 1.0287021 -0.8285941
-0.25994313 -0.27234325 1.1558245 5.2347136 0.6570753 1.3178887 0.6596175 1.3258426
0.8393836 0.6392922 -0.1191078 -0.07951245 0.58347803 1.500095 -0.59278977 0.8447268
0.9748476 1.1155581 0.7716806 0.67268246 0.89479727 0.20061791 5.0865154 1.2824461
00000000: 85a6 e33e f0d8 f23f 93ac 9b40 05a7 7f3f
00000010: 2651 8abe 77b3 c23f cb9d 9640 d867 0540
00000020: f57e 173f 89df 543f cfcb 483d 30f9 583f
00000030: a534 d13e 9f36 b33f 7978 893f 9d59 8a3f
00000040: eb4f f73f 30e0 e7be d9b5 ea3f 4087 7a3f
00000050: ebe1 fd3f 2355 a43f 9e51 fe3d bf32 983d
00000060: c336 2c40 913a 323f 9aa4 55bf 32f9 b940
00000070: f41c 583f d26d 9b3f b9af 9e3f 7cb3 103e
00000080: 5f67 1fbc 477f 8540 5884 a1be 2e03 443f
00000090: db53 3e3f 8754 aa3e c66a 623f 9c9d 483f
000000a0: 9c21 bc3c 0322 dcbc c9f5 f93e 9b35 ba3f
000000b0: 714a 113f bd08 963f 0e34 2c3f f4ac c63e
000000c0: ceb9 583f 700e 6c3f 9e82 f53f 2bcf aa3f
000000d0: 83c4 a03f f70d 4f3f a7a4 cc3f 361c 4540
000000e0: 318b e63f 5f90 8c3f e1f9 893f 9d20 1f3f
000000f0: 87c4 953f 973c 9c3e 3b5f 663f 7113 2740
00000100: 522a 5bbd f6a6 fe3e 8842 b03f b2f1 a33f
00000110: e344 d73f 1f91 dd3e ac0b c1be a707 8f3f
00000120: 1fca 423f 5e00 9c3f 3c56 4abf 8f06 453f
00000130: f590 523f bdba 903f 3c30 0040 2aaf 9b3f
00000140: 0000 0f3f 38f6 cb3f aa6f 63be e117 493f
00000150: 8928 9c3f 8253 9ebe 1c30 2040 7420 8a3f
00000160: cb11 0c40 8bd4 6640 73b1 803f 81ab e0be
00000170: 3bc7 21bf 27d3 e03e 1a74 dcbc 3a51 a23d
00000180: b99d ff3e 93db d73f 64e5 7740 05dd 243f
00000190: 6db8 3240 4f3a 6e3f 9bc8 863f 33b3 7abf
000001a0: 016f 52be 18e1 80be 5460 963f ffb8 cb40
000001b0: 7389 303f 3a84 af3f c9a3 663f b5a2 b23f
000001c0: a229 563f 9078 293f 4218 babd eb8d b6bd
000001d0: 6ae1 3f3f 702b c73f 93e8 14bf f740 663f
000001e0: 3d0f 833f 34a6 943f 74a3 413f d1d5 2c3f
000001f0: 9bfa 683f aa0b 503e 409b b040 5072 a43f
00000200: aa79 ef3e 60d9 ef3f 8020 8c40 eed4 7e3f
00000210: cbb6 95be 2aca ae3f edee 8440 0a19 0040
00000220: bae4 133f d233 3d3f 4de3 a2bc 2977 573f
00000230: f714 d83e 305b b83f c5de 7b3f 0275 853f
00000240: b2a3 ec3f 53b6 ffbe a470 c63f 4223 793f
00000250: cdea f13f 4c9f a23f 3cf9 2838 52ad f73d
00000260: 8148 2840 228a 2c3f aad7 37bf 1c15 a640
00000270: a005 4a3f aa9f 983f c1cc a13f 89c5 d73d
00000280: 2b96 0b3c a230 5e40 3027 a9be 8a62 3a3f
00000290: ad19 263f 8c4e 583e 329c 583f 2866 3f3f
000002a0: bb4b 963d c7ef fdbd 70cf fd3e 3970 b13f
000002b0: 8adb 0e3f 3559 903f 3a3e 1f3f 77bf cc3e
000002c0: c2e2 593f cab7 6d3f 6e1b ee3f 01f1 9c3f
000002d0: 1b94 a83f 12c5 483f 121d c93f 2d9c 2740
000002e0: 01d2 dd3f 33b8 703f 6456 8c3f d639 173f
000002f0: c8cd 903f cfca 6b3e fd45 673f 0245 1940
00000300: f71f c0bb 1641 e83e 3beb ab3f da02 a33f
00000310: c884 c83f b891 9a3e f69c d4be 1860 903f
00000320: 730a 3c3f 0e2b 993f 29b6 51bf 8d29 3d3f
00000330: ce6f 5a3f 0f7c 903f a909 f73f 623d 8f3f
00000340: ab6f 073f 4d41 d33f 11b4 5fbe f24e 423f
00000350: ac50 953f 8bbb aabe cbe6 1540 452b 843f
00000360: 119b f63f 7530 5340 47b9 833f 2587 e2be
00000370: 76a7 17bf 5931 e93e c1a9 5abd 1533 4bbc
00000380: ed4e cd3e 59ff c73f 3c0e 5e40 d675 233f
00000390: bc48 1040 8386 333f 83ac 833f be1e 54bf
000003a0: 4417 85be 9370 8bbe 0ff2 933f c682 a740
000003b0: 1636 283f 94b0 a83f b1dc 283f 36b5 a93f
000003c0: d8e1 563f a7a8 233f caee f3bd 6cd7 a2bd
000003d0: d15e 153f 1d03 c03f 12c1 17bf 0440 583f
000003e0: 9d8f 793f 9cca 8e3f dc8c 453f eb34 2c3f
000003f0: 6f11 653f c86e 4d3e bcc4 a240 3227 a43f

output.bias f4 [300]
-0.5374834 -0.22392805 -0.11534424 -0.053475868 -0.017314525 -0.0073393877 -0.00438771 -0.0030431666
-0.0027112905 -0.0024584394 -0.002211904 -0.0018243674 -0.0016358999 -0.0011993557 -0.00086698885 -0.0011453653
-0.0008990289 -0.0010521736 -0.00085502095 -0.0003503109 -0.00030859638 -0.00010362915 7.1497794e-05 -0.00015672015
0.00025623868 0.00046651516 0.00056063454 0.0002649874 0.000593936 0.00088345475 0.0012031457 0.0021121346
0.002724626 0.012863016 0.02698707 0.04694761 0.072203435 0.1013001 0.13782221 0.18021984
0.22883268 0.2866335 0.35355383 0.43135455 0.5255931 0.63747954 0.77695554 0.9534503
1.1860869 1.5128978 -0.5381268 -0.21029048 -0.100610085 -0.04773428 -0.017781992 -0.0059198197
-0.00078610383 -0.00013489593 -0.00029285057 -0.00013578651 0.00012689896 0.00044337384 0.0007428026 0.001028211
0.0011170271 0.0013322539 0.0012995148 0.0014194836 0.0016542487 0.0017736697 0.0012827965 0.0016821305
0.0018896805 0.0020099035 0.002261882 0.002350563 0.0028878397 0.004447257 0.007118126 0.011159948
0.016764797 0.024343336 0.03508946 0.04888152 0.06657454 0.08757517 0.11479777 0.14652535
0.18475321 0.22805472 0.28045526 0.34088156 0.4153238 0.5022982 0.602645 0.7217891
0.8682498 1.04997 1.2857687 1.6280596 -0.5683447 -0.23778507 -0.11804497 -0.057860624
-0.028358307 -0.013796113 -0.0047391094 -0.003638558 -0.0020816843 -0.0014778046 -0.0011730529 -0.00067579286
-0.00042417418 -0.000262926 -0.0005886475 -0.00055370375 -0.00041575628 -0.00016467561 -0.00023010469 -0.000165402
-4.0014053e-05 0.00021237778 0.00028752926 0.0004071013 0.0005518578 0.00045759082 0.0005343144 0.00081116037
0.0009646119 0.0010913971 0.0019288923 0.0028368628 0.005204045 0.013420878 0.028553192 0.0492038
0.071574554 0.0994007 0.13601106 0.17693889 0.22575411 0.2833306 0.3504972 0.43137813
0.52278525 0.6353423 0.7739229 0.9493296 1.1791515 1.5087657 -0.75052005 -0.3979566
-0.24183707 -0.17803769 -0.12235834 -0.08820801 -0.057242636 -0.042757574 -0.028664256 -0.021018432
-0.014377126 -0.01034666 -0.006783596 -0.003744212 -0.002178433 -0.0024060577 -0.0024454587 -0.002607417
-0.0029681788 -0.0057462608 -0.0072826664 -0.007250174 -0.0068311687 -0.006182225 -0.0051803696 -0.003990219
-0.0027552678 -0.0019365832 -0.0011470178 -0.00039259935 -0.00013143371 0.00034031045 0.0009196013 0.003130889
0.011220202 0.025631791 0.037742104 0.05178615 0.08122761 0.116165176 0.16052604 0.21746194
0.28449312 0.36194378 0.45975077 0.5790427 0.7212454 0.9020778 1.1528087 1.5295801
-0.5382472 -0.21561816 -0.09500441 -0.030163802 -0.0053520724 -0.0018622085 -0.00019252746 0.00040270944
-2.5268608e-05 0.00028525855 0.0003283026 0.0001116773 8.745642e-06 -2.2968088e-06 -6.521486e-05 -0.00016810604
-0.00028335428 -0.00012968856 -0.00023113693 1.8008226e-05 -5.2374016e-06 2.671652e-06 -7.989838e-05 8.2194674e-05
0.00012683497 0.00015478385 0.0004321826 0.0003172281 0.00055501366 0.0007183264 0.0010666695 0.0026439717
0.006674828 0.017030593 0.03333128 0.05519132 0.081910044 0.11349978 0.14915828 0.19152938
0.24124752 0.29650512 0.36042187 0.4401229 0.535003 0.6493291 0.7904318 0.96556824
1.1972909 1.5256122 -0.54198575 -0.22156726 -0.10387917 -0.045321282 -0.014926124 -0.004482799
00000000: 8398 09bf 654d 65be 9a39 ecbd 8309 5bbd
00000010: 31d7 8dbc 3f7f f0bb c7c6 8fbb dd6f 47bb
00000020: e8af 31bb c51d 21bb 97f5 10bb 9d1f efba
00000030: b16b d6ba b333 9dba a346 63ba 1520 96ba
00000040: cfac 6bba 16e9 89ba 7c23 60ba efa9 b7b9
00000050: 1bcb a1b9 7a53 d9b8 16f1 9538 3f55 24b9
00000060: c657 8639 9b96 f439 8cf7 123a 02ee 8a39
00000070: 5fb2 1b3a a597 673a dfb2 9d3a bd6b 0a3b
00000080: a48f 323b 66bf 523c fd13 dd3c 234c 403d
00000090: 65df 933d 6d76 cf3d 4421 0d3e 8d8b 383e
000000a0: 1d53 6a3e a0c1 923e 0205 b53e 81da dc3e
000000b0: 458d 063f dc31 233f 8fe6 463f 5215 743f
000000c0: b2d1 973f a3a6 c13f aec2 09bf 6356 57be
000000d0: a90c cebd 0585 43bd 8aab 91bc 0cfb c1bb
000000e0: 8912 4eba da72 0db9 bd89 99b9 ea61 0eb9
000000f0: 2e10 0539 a174 e839 a3b8 423a 09c5 863a
00000100: 3669 923a 069f ae3a 7b54 aa3a f70d ba3a
00000110: 60d3 d83a 7b7a e83a 8223 a83a ef7a dc3a
00000120: 28af f73a 96b8 033b 153c 143b e70b 1a3b
00000130: e941 3d3b 4cba 913b 2b3f e93b 37d8 363c
00000140: 5456 893c ad6b c73c f7b9 0f3d fd37 483d
00000150: 3c58 883d 9c5a b33d 181b eb3d be0a 163e
00000160: f22f 3d3e 2d87 693e d597 8f3e 0788 ae3e
00000170: 52a5 d43e 9d96 003f f146 1a3f 2cc7 383f
00000180: 9e45 5e3f 6b65 863f 1294 a43f 4264 d03f
00000190: 0a7f 11bf ee7d 73be 90c1 f1bd 43ff 6cbd
000001a0: ae4f e8bc 1809 62bc 884a 9bbb e074 6ebb
000001b0: de6c 08bb e5b2 c1ba 20c1 99ba b127 31ba
000001c0: b263 deb9 55d9 89b9 774f 1aba 6e26 11ba
000001d0: ddf9 d9b9 c6ac 2cb9 4248 71b9 c36f 2db9
000001e0: c3d4 27b8 bab1 5e39 86bf 9639 3670 d539
000001f0: 8daa 103a cde8 ef39 3b11 0c3a 0da4 543a
00000200: 02de 7c3a 360d 8f3a e3d2 fc3a a9ea 393b
00000210: b286 aa3b 3ee3 5b3c 62e8 e93c ec89 493d
00000220: ae95 923d 9892 cb3d 7c46 0b3e 782f 353e
00000230: 162c 673e b510 913e 5e74 b33e 98dd dc3e
00000240: 41d5 053f cba5 223f d01f 463f 4407 733f
00000250: 70ee 963f 3c1f c13f 1522 40bf f8c0 cbbe
00000260: 23a4 77be 834f 36be 0297 fabd 67a6 b4bd
00000270: 4177 6abd 9122 2fbd 4dd1 eabc d92e acbc
00000280: 098e 6bbc 0a85 29bc ed48 debb 7461 75bb
00000290: 0ac4 0ebb f3ae 1dbb fd43 20bb 33e1 2abb
000002a0: c785 42bb 214b bcbb 6fa3 eebb de92 edbb
000002b0: ffd7 dfbb 4394 cabb 17c0 a9bb 62c0 82bb
000002c0: b991 34bb f3d4 fdba 8857 96ba cbd5 cdb9
000002d0: 78d1 09b9 b26b b239 6611 713a 9a2f 4d3b
000002e0: f0d4 373c c3f9 d13c 7797 1a3d b71d 543d
000002f0: a95a a63d 02e8 ed3d f060 243e 58ae 5e3e
00000300: 15a9 913e b250 b93e 7464 eb3e 243c 143f
00000310: 8aa3 383f 92ee 663f 3c8f 933f 48c9 c33f
00000320: 92ca 09bf 02cb 5cbe ac91 c2bd 141a f7bc
00000330: 7060 afbb 5915 f4ba 32e1 49b9 bf22 d339
00000340: ecf7 d3b7 c18e 9539 0720 ac39 4b34 ea38
00000350: 3fba 1237 e022 1ab6 f6c3 88b8 9f45 30b9
00000360: 2b8f 94b9 02fd 07b9 595d 72b9 5f10 9737
00000370: f0bc afb6 a24a 3336 1e8f a7b8 ee5f ac38
00000380: 01ff 0439 794d 2239 9196 e239 a351 a639
00000390: 567e 113a 124e 3c3a 7dcf 8b3a 7c46 2d3b
000003a0: 84b8 da3b be83 8b3c 6186 083d 4b10 623d
000003b0: 74c0 a73d 9372 e83d f3bc 183e 4720 443e
000003c0: 9709 773e 85cf 973e 3789 b83e ca57 e13e
000003d0: f5f5 083f 6f3a 263f bd59 4a3f 7b2f 773f
000003e0: d440 993f 4347 c33f 94bf 0abf 87e2 62be
000003f0: 9abe d4bd cfa2 39bd b48c 74bc 72e4 92bb
