figs2-3_rl/results/breakout-UADQN/network_posterior1.pth (torch_old, 683100 bytes, 6 tensors)

conv.weight f4 [16, 4, 3, 3]
0	0xbc1fae00	-0.009746075
1	0x3f0e16c1	0.5550347
2	0x3ea6fe33	0.32615814
3	0x3b5eca5f	0.0033995134
4	0x3bfcf699	0.0077198264
5	0x3de6f158	0.112765014
6	0xbf3d408e	-0.7392663
7	0x400eaa0e	2.2291293
8	0x3e51c7b5	0.20486338
9	0x3f7f396c	0.99696994
10	0x3f10bf3e	0.5654181
11	0x3f09e2e9	0.5386186
12	0xbe8e605a	-0.27807885
13	0xc0245fe1	-2.568352
14	0xbfdaa968	-1.7082949
15	0x3fa2155b	1.2662767
16	0x3dc631f9	0.096775
17	0xbfbf40eb	-1.4941686
18	0x40128bdd	2.2897866
19	0xbf4a3727	-0.78990406
20	0xbe979710	-0.2960744
21	0xbd6068ca	-0.054787435
22	0x3f9cee83	1.2260288
23	0xbf5046a7	-0.81357807
24	0x3fd58547	1.6681298
25	0x3fb97ce0	1.4491234
26	0xbf35fa20	-0.71084785
27	0xbf748e57	-0.95529693
28	0xbf1b79b3	-0.60732573
29	0x3fa469a1	1.2844735
30	0x3d3b005c	0.04565464
31	0x3f9de763	1.2336239
32	0xbc328f9f	-0.0108985
33	0xbfa5338f	-1.290636
34	0x3faa0df4	1.3285508
35	0xbd6f6fa7	-0.05845609
36	0x3efd1014	0.4942633
37	0x3f757b0e	0.9589089
38	0xbe5777d8	-0.2104181
39	0x3f7293fe	0.9475707
40	0xbe9603f2	-0.29299885
41	0xbe5016af	-0.20321153
42	0x3f935b09	1.1512157
43	0xbe0b40b0	-0.13598895
44	0x3facb60d	1.3493057
45	0x3c22ad74	0.00992905
46	0xbfa37415	-1.27698
47	0xbf52892a	-0.82240546
48	0x3fa0116a	1.2505314
49	0x3e168894	0.14700538
50	0xbf20c70b	-0.62803715
51	0x3f61d65b	0.88217705
52	0x3ea04bae	0.3130774
53	0x3eecdbcf	0.4626145
54	0xbf433a1f	-0.7626056
55	0xbf802737	-1.0011967
56	0xbe6d9517	-0.23201405
57	0xbf2489c3	-0.6427271
58	0xbfbbfa1d	-1.4685704
59	0x3f2a0607	0.66415447
60	0x3e6e0e63	0.23247676
61	0xbfefe48c	-1.8741622
62	0xbcf3adfd	-0.02974605
63	0xbf192793	-0.5982601
64	0x3f50a318	0.8149886
65	0xbf67c3ac	-0.90532947
66	0xbdf32b17	-0.11873453
67	0x3fdf809b	1.7461122
68	0x3feaca05	1.8342901
69	0xbfc95aad	-1.5730797
70	0xbfe550bf	-1.7915267
71	0xbd2922f1	-0.04129309
72	0xbcab5671	-0.020915242
73	0xbe01295d	-0.12613435
74	0xbd762ed6	-0.06010326
75	0x3f092ec9	0.53587013
76	0x3f307c64	0.68939805
77	0x3efcbc9e	0.49362653
78	0x3fc6b799	1.552478
79	0x3f3af796	0.73034036
80	0xbf9a35bc	-1.2047648
81	0x4002dbe6	2.0446715
82	0x3dbd98d8	0.09257668
83	0x3e9020ab	0.28149924
84	0x3fae71ff	1.3628539
85	0x403237cb	2.7846553
86	0xbf55b46e	-0.8347844
87	0xc002d9e9	-2.0445502
88	0x3ea6527c	0.32484806
89	0x3f954eaa	1.1664631
90	0x3f489df3	0.7836601
91	0xbfae558c	-1.3619857
92	0xc03133fe	-2.7687984
93	0x3f006f5c	0.5016992
94	0x4003a372	2.056851
95	0xbf8400f5	-1.0312792
96	0x3d19ec26	0.037578724
97	0x3f66e4e2	0.90193
98	0x3ed0042c	0.40628183
99	0xbd8b6c40	-0.068077564
100	0xbf6c6aef	-0.9235067
101	0x3f7ea844	0.994755
102	0xbf9c6a1d	-1.2219883
103	0xbf953b32	-1.165869
104	0x3f96aaa2	1.1770823
105	0xbfa036ed	-1.2516762
106	0x3fa42bd3	1.2825874
107	0x3f979107	1.1841134
108	0x3d6bb0e0	0.057541728
109	0x3eeae706	0.45879382
110	0x3f153c14	0.58294797
111	0x3db652aa	0.08902486
112	0x3f837152	1.0268958
113	0x3f2714ca	0.65266097
114	0xbff4c56c	-1.9122748
115	0x3f4531a8	0.77028894
116	0x3fb94e7d	1.4477078
117	0x3ebda8ff	0.37042996
118	0xbffbe977	-1.9680623
119	0xbf26b0af	-0.6511335
120	0x3f0fda48	0.56192446
121	0x3f458d39	0.77168614
122	0x3f521063	0.82056254
123	0xbdc98841	-0.098404415
124	0xbc9abcfb	-0.018888941
125	0x3f91117a	1.1333458
126	0xbefe7a67	-0.4970276
127	0x3f541577	0.8284525
128	0xbf08d87a	-0.5345532
129	0x40116123	2.2715538
130	0x3f806135	1.0029665
131	0xbeadc38e	-0.3393826
132	0xbe8b06d3	-0.27153644
133	0x3ec6e4a0	0.38846302
134	0x3f4f5ea4	0.81003785
135	0xbd87ecbd	-0.06636951
136	0x400b673c	2.178176
137	0xbf821ddd	-1.0165364
138	0x4011abb6	2.2761054
139	0xbf8658b3	-1.0495819
140	0xbdc9487c	-0.098282784
141	0xbf66ac0c	-0.9010627
142	0xbf8728fd	-1.0559384
143	0x3facf293	1.3511528
144	0x3ec62319	0.38698652
145	0x3ee0d3e8	0.43911672
146	0x3e56e3ba	0.20985308
147	0xbf1895a8	-0.5960336
148	0x3ee1f204	0.44129956
149	0xbf304209	-0.6885076
150	0xbf131faf	-0.5747022
151	0xbf1e89c3	-0.6192896
152	0x3f073c38	0.5282626
153	0x3fca346a	1.5797246
154	0xbe0a3347	-0.13496123
155	0xbfa4ad3e	-1.2865369
156	0x3e901115	0.28138033
157	0xc02106cc	-2.5160398
158	0x3fed503e	1.8540113
159	0x3faae3a7	1.3350724
160	0x3e386714	0.18008071
161	0xbf3a5d72	-0.72798836
162	0xbf3d7fc2	-0.7402307
163	0xbef0e668	-0.47050786
164	0xbee4de2b	-0.4470075
165	0xbd82bdb0	-0.06383836
166	0xc0133267	-2.2999513
167	0x3f9f8d14	1.2464929
168	0xbf317d67	-0.69331974
169	0x3d44cafb	0.04804514
170	0x3fe3fcab	1.7811483
171	0x3d8eb66e	0.069683895
172	0xbf65e7c5	-0.8980678
173	0x3f2e6fd2	0.68139374
174	0x3f6584ad	0.8965557
175	0xbf4c634d	-0.7983902
176	0xbfb548bc	-1.4162822
177	0x3f54f746	0.8318981
178	0x3f625f21	0.88426405
179	0xbe026319	-0.12733115
180	0xbf1a9bcf	-0.60393995
181	0xbd775326	-0.06038203
182	0x3e0fd76c	0.1404702
183	0x3ece58dc	0.4030217
184	0xbe867874	-0.26263773
185	0xbe2f05e8	-0.17092097
186	0x4016369d	2.3470833
187	0x3f48d08c	0.7844322
188	0x3f9a3f0c	1.205049
189	0xbf900b90	-1.1253529
190	0x40057330	2.0851555
191	0xbfb7742b	-1.4332327
192	0x3cb24e25	0.021765778
193	0xbfcc85d8	-1.5978346
194	0x3f9e3d24	1.2362409
195	0x3d62ecc9	0.055401597
196	0xbf6b46b1	-0.9190474
197	0x3f82abcd	1.020868
198	0x3b7e50ac	0.0038805408
199	0x3e8190d3	0.25305805
200	0x3d3e143f	0.046406027
201	0xc004286d	-2.0649674
202	0x3fbf7cf1	1.4960004
203	0x3fb946c4	1.4474721
204	0xbecff962	-0.4061995
205	0xbf983b03	-1.1893009
206	0x3fcd5880	1.6042633
207	0xbf30362d	-0.68832666
208	0x3f1f2a57	0.6217398
209	0x3f0a11e4	0.5393355
210	0xbf062e21	-0.5241414
211	0x3ebda8c5	0.37042823
212	0xbdea8794	-0.11451641
213	0x3f8a74dc	1.0816913
214	0xbf690e77	-0.91037697
215	0x3fe743b5	1.8067538
216	0x3edd5cc6	0.43234843
217	0xbe979a55	-0.29609933
218	0x3c9b692a	0.018971045
219	0x3f599617	0.84994644
220	0xbf0711d6	-0.5276159
221	0xbf4036de	-0.7508372
222	0xbf1f5986	-0.62245977
223	0x3faaa0af	1.3330287
224	0xbff9f634	-1.952826
225	0xbf46d728	-0.7767205
226	0x3ebfe1c7	0.37476942
227	0x3efb2fdc	0.4905995
228	0xc01c6d3b	-2.444167
229	0x3fd177e6	1.6364715
230	0x3fd578a7	1.6677445
231	0x3f2aaf92	0.6667415
232	0x3f77dd92	0.96822464
233	0xbeb8f7dd	-0.36126605
234	0xbfd2ea4d	-1.6477753
235	0xbf380d4a	-0.7189528
236	0x3e0ffee6	0.1406208
237	0x3f4e7d84	0.8066027
238	0x3ec11b4d	0.3771614
239	0x3fbe6b26	1.4876449
240	0x4008fd78	2.1404705
241	0x401d0898	2.4536495
242	0xbfae0646	-1.3595665
243	0xbeaa17b3	-0.33221206
244	0x3eb4e314	0.35329497
245	0xba9b865d	-0.0011865605
246	0x3f063ec8	0.52439547
247	0xbf043841	-0.51648337
248	0xbebd3d17	-0.3696067
249	0x3e2c429a	0.16822281
250	0x3d2de53f	0.042454954
251	0x3eff74b8	0.49893737
252	0xbc4c666f	-0.012475594
253	0x3e9b0d01	0.3028336
254	0x3f277eea	0.6542803
255	0xbd28b04d	-0.04118376

conv.bias f4 [16]
0	0x3e8d8825	0.27642933
1	0x3f2124b1	0.6294661
2	0xbc633c06	-0.013869291
3	0xbe99bf52	-0.30028778
4	0x3f3d2908	0.73890734
5	0xbc3c1e29	-0.0114818
6	0xbacdf9a6	-0.001571466
7	0xbaa69435	-0.0012708964
8	0x3f46114b	0.77370137
9	0x39332c3b	0.00017087247
10	0xba9c65f5	-0.0011932241
11	0x3e56788b	0.20944421
12	0x3ec11457	0.3771083
13	0x3bc605eb	0.006043186
14	0xbd6bedc3	-0.057599794
15	0xb9e32e19	-0.0004333116

fc_hidden.weight f4 [128, 1024]
0	0x3d253289	0.040331397
1	0xbcddb85d	-0.02706545
2	0xbd41e995	-0.0473419
3	0x3d267fe4	0.04064931
4	0xbd047ffb	-0.032348614
5	0xbdb29efb	-0.08721729
6	0xbc2c3a00	-0.010511875
7	0x3ddc04c1	0.10743094
8	0xbe337983	-0.17526822
9	0xbdbe32bf	-0.09287023
10	0xbdeef0ab	-0.116669975
11	0x3e8d7c43	0.27633867
12	0xbcf6be95	-0.030120173
13	0x3d2f8bdd	0.042857993
14	0x3ddb3bda	0.10704775
15	0xbdd2e126	-0.1029685
16	0x3c86bab3	0.016446447
17	0x3c9b8082	0.018982176
18	0x3cd23ecd	0.025664711
19	0xbd185146	-0.037186883
20	0xbd03d5fa	-0.032186486
21	0x3db5cd3e	0.088770375
22	0x3d7c949e	0.06166517
23	0xbe37b162	-0.1793876
24	0xbda61a6f	-0.081105106
25	0xbd6ef323	-0.058337342
26	0x3d407437	0.04698583
27	0xbd7b0a5d	-0.06128918
28	0x3c888574	0.016665198
29	0x3dfe9491	0.124306805
30	0x3c7a3c8b	0.015273224
31	0x3d94b95a	0.072619155
32	0xbdb24a90	-0.08705628
33	0x3bdc5b6d	0.006724766
34	0x3d15e73d	0.03659748
35	0xbdd77013	-0.10519423
36	0xbd49aff8	-0.049240083
37	0x3e263d46	0.16234311
38	0xbd800445	-0.06250814
39	0xbcad6d6e	-0.021170344
40	0xbe10b41a	-0.14131203
41	0xbe0feb38	-0.14054573
42	0x3df87102	0.121309295
43	0xbd5ee7cb	-0.054420274
44	0xbcd9ebb0	-0.026601642
45	0x3b3780ef	0.0028000434
46	0x3d23640c	0.039890334
47	0x3d2e93b6	0.042621337
48	0xbcbf37f7	-0.023342116
49	0xbbe45deb	-0.0069692037
50	0x3de81d27	0.11333685
51	0xbc040ddf	-0.008059948
52	0xbcbe0b08	-0.02319862
53	0xbe1aa0b1	-0.15100361
54	0xbe16e520	-0.14735842
55	0xbe20d570	-0.1570642
56	0xbe543234	-0.20722276
57	0x3d4408bf	0.047859903
58	0xbcff75f7	-0.03118418
59	0x3dc436ba	0.09580751
60	0x3dd34a02	0.1031685
61	0xbc9066e5	-0.017627189
62	0xbe47abb0	-0.19499087
63	0xbe0059e1	-0.12534286
64	0x3d00d009	0.031448398
65	0xbdbf21c0	-0.09332609
66	0xbdbe5660	-0.092938185
67	0xbdc275dc	-0.09495136
68	0x3dd6b431	0.104835875
69	0x3d0d635d	0.03451859
70	0x3d62906c	0.055313513
71	0xbe17bbf7	-0.14817797
72	0xbcaebd18	-0.021330401
73	0xbdbc0e1d	-0.091823794
74	0xbc41355b	-0.011792506
75	0x3d908e68	0.07058412
76	0xbbe25308	-0.0069068708
77	0x3d4171b9	0.047227595
78	0xbbfac59d	-0.007652952
79	0xbcd0ffb8	-0.025512561
80	0x3b6dd740	0.003629163
81	0x3d8f9529	0.07010872
82	0xbe09b5a7	-0.13448201
83	0xbc350e65	-0.011050795
84	0xbcd5c08a	-0.026092786
85	0x3e2e985c	0.17050308
86	0xbdeb4e1e	-0.11489509
87	0x3e0ed6fb	0.13949196
88	0x3daf1f4b	0.085508905
89	0x3ca59b93	0.020215785
90	0x3e2bcbd1	0.16776969
91	0x3ddde723	0.108351015
92	0xbd114134	-0.035462573
93	0xbd5a515f	-0.053300258
94	0x3c6fb82e	0.014631314
95	0xbdb860af	-0.09002816
96	0xbc801b65	-0.015638063
97	0xbdd6704f	-0.1047064
98	0x3da68a29	0.08131821
99	0xbdc85bfe	-0.09783171
100	0xbd2053aa	-0.03914229
101	0x3c355531	0.0110676745
102	0x3cfc6990	0.030812055
103	0xbd04db8b	-0.032435935
104	0x3d77c855	0.060493786
105	0xbd561a85	-0.052271385
106	0x3d2089bf	0.039193865
107	0x3dbab334	0.091162115
108	0x3d73d014	0.05952461
109	0xbe134d47	-0.14384948
110	0x3d86b050	0.06576598
111	0x3d630a54	0.05542977
112	0x3d14dae4	0.036341563
113	0xbd84d131	-0.064852126
114	0x3d81f5de	0.063457236
115	0x3cc43f5b	0.023955991
116	0xbd28c525	-0.041203637
117	0xbe098112	-0.13428143
118	0x3df0a09b	0.11749383
119	0x3da715a8	0.081584275
120	0xbccc94c7	-0.024973286
121	0x3cd4fb86	0.025998842
122	0x3dae5319	0.08511943
123	0x3d783e47	0.060606267
124	0x3d8daf75	0.069182314
125	0x3dc9fa59	0.09862203
126	0x3d947f84	0.07250884
127	0xbacdaf61	-0.0015692526
128	0x3d80d16c	0.06289944
129	0x3d887b5a	0.066641524
130	0xbd43251b	-0.04764281
131	0xbcada792	-0.021198068
132	0x3d880e43	0.06643345
133	0xbe457927	-0.19284497
134	0x3dd02f8c	0.10165319
135	0x3dd0784c	0.10179195
136	0xbe0a5bcf	-0.13511585
137	0xbd9e32a5	-0.077245034
138	0xbdcc6ca9	-0.09981663
139	0x3dc6c9e5	0.09706477
140	0xbc910376	-0.017701846
141	0x3d6ab5e2	0.057302363
142	0x3b8e7220	0.004347101
143	0xbd02c6e5	-0.03192796
144	0xbda03225	-0.07822064
145	0x3dc31427	0.09525328
146	0x3b5b45f0	0.0033458434
147	0xbd7ae28b	-0.061251204
148	0xbd54c931	-0.051949684
149	0xbc02c7d6	-0.007982215
150	0x3d73b861	0.05950201
151	0x3c4d0634	0.012513686
152	0xbe2ffed5	-0.17187054
153	0x3d219e3e	0.039457552
154	0xbe4d2223	-0.20032553
155	0x3d72ba46	0.059259675
156	0x3e187ff3	0.14892559
157	0xbb0c2d3b	-0.0021389264
158	0xbd90a93c	-0.07063529
159	0x3da492a2	0.080357805
160	0xbd945296	-0.072423145
161	0xbcf0a3fa	-0.029375065
162	0xbd227397	-0.039661016
163	0xbd60cd46	-0.054883264
164	0xbd547adc	-0.05187498
165	0x3dd25c4d	0.10271511
166	0x3d1f0350	0.03882152
167	0xbe1593fb	-0.14607231
168	0xbd7e4eb8	-0.06208679
169	0x3e454740	0.19265461
170	0x3c8362c7	0.016038312
171	0xbd69c7e2	-0.05707539
172	0x3e2b7102	0.16742328
173	0xbdff0d5b	-0.12453719
174	0x3d36f020	0.044662595
175	0x3d41270e	0.047156386
176	0xbc823849	-0.01589598
177	0x3df1fabc	0.11815402
178	0xbcefc907	-0.029270662
179	0x3d2794a4	0.04091324
180	0x3dd0b67c	0.10191056
181	0x3945219d	0.00018799906
182	0x3dc97ba9	0.098380394
183	0xbdca446c	-0.09876332
184	0x3b5392bc	0.0032283505
185	0xbce8a005	-0.028396616
186	0x3ac37378	0.0014911732
187	0xbcc1756b	-0.02361556
188	0x3dc4b11a	0.09604092
189	0xbc75c022	-0.014999421
190	0xbdd78af2	-0.105245486
191	0xbd03bd31	-0.03216285
192	0xbd85f0d9	-0.06540079
193	0xbdfda2be	-0.12384556
194	0xbbe2b901	-0.006919027
195	0xbe369789	-0.17831244
196	0xbd6e8fcd	-0.058242608
197	0xbe8e5cee	-0.27805275
198	0xbd3038b6	-0.043022834
199	0xbe098cef	-0.13432668
200	0xbd279a39	-0.040918563
201	0xbcce1c24	-0.025159903
202	0x3d07a01a	0.03311167
203	0xbcaeec09	-0.021352785
204	0xbdd354c2	-0.10318901
205	0xbd67bc66	-0.056576155
206	0x3dbbd1a5	0.09170846
207	0x3d3b6107	0.04574683
208	0x3dcbe99e	0.09956668
209	0x3e6a29f4	0.22867566
210	0x3e663616	0.2248157
211	0x3cdd1a8f	0.026990203
212	0xbdb679d7	-0.08909958
213	0xbd9c2cda	-0.07625742
214	0xbdf98c9d	-0.12185023
215	0xbdfb984c	-0.12284908
216	0xbcb447f0	-0.022006959
217	0x3af6c8fd	0.001882821
218	0x3d8a7a1d	0.067615725
219	0xbe0df016	-0.13861117
220	0x3d1a0f56	0.03761228
221	0xbd966d92	-0.07345118
222	0x3c8df0a4	0.01732666
223	0x3d382cbc	0.044964537
224	0xbdb0856d	-0.08619199
225	0xbd8eae9f	-0.069669
226	0xbd06d809	-0.03292087
227	0xbd9bd53f	-0.07609033
228	0xbd8f80a2	-0.07006957
229	0xbda7f46b	-0.08200916
230	0x3d21395f	0.039361354
231	0xbcc66abf	-0.024220822
232	0xbe3853a0	-0.1800065
233	0x3d48726c	0.048937246
234	0xbd7d7718	-0.061881155
235	0xbdbd8455	-0.09253756
236	0x3e413807	0.18869029
237	0xbce6a5dc	-0.02815526
238	0xbd8cd0d2	-0.06875767
239	0xbd8f887b	-0.070084535
240	0xbd80191f	-0.062547915
241	0x3dd68512	0.104746
242	0xbe667acb	-0.2250778
243	0x3d4d2b8a	0.05009035
244	0xbce4034d	-0.027833605
245	0x3d194e6f	0.037428316
246	0xbc3518ea	-0.011053303
247	0x3d8a16d0	0.067426324
248	0x3e32efc9	0.17474283
249	0x3e0e6c54	0.13908511
250	0xbdd240bd	-0.10266254
251	0xbcccc1f6	-0.024994832
252	0xbd582586	-0.05277016
253	0xbd4b21f5	-0.04959293
254	0xbdcdd4b8	-0.100503385
255	0xbd3cca71	-0.0460915

fc_hidden.bias f4 [128]
0	0xbc57d98a	-0.013174424
1	0xbc9f6a99	-0.01946001
2	0xbca2ae25	-0.01985843
3	0xbc3fab07	-0.011698491
4	0xbc37f2db	-0.011227335
5	0xbc4139b3	-0.011793542
6	0xbc5eb627	-0.013593233
7	0xbc0d6e13	-0.008632201
8	0xbd570a44	-0.052500024
9	0x3ce17bca	0.027524848
10	0xbc911708	-0.017711177
11	0xbc7f7751	-0.015592412
12	0xbc914fa3	-0.017738169
13	0xbca0536c	-0.019571029
14	0xbc956353	-0.018235838
15	0xbba8640d	-0.00513888
16	0xbc77ef07	-0.015132672
17	0xbc9dc9bd	-0.019261235
18	0xbb17e49d	-0.0023177036
19	0xbc4e4e90	-0.012591973
20	0xbc9ecd4c	-0.019385003
21	0xbbb15d24	-0.0054127146
22	0xbbbc16a4	-0.0057400037
23	0x3d59fff4	0.05322261
24	0xbc5ef403	-0.013607982
25	0xbc36aaf0	-0.011149153
26	0xbcbec087	-0.023285164
27	0xbc20c349	-0.009812185
28	0xbbcfeee0	-0.006345615
29	0xbc5bda9a	-0.013418818
30	0xbc83b714	-0.01607851
31	0x3d23681e	0.039894216
32	0x3d3038a9	0.043022785
33	0xbc6e3d6a	-0.014541009
34	0xbc679060	-0.014133543
35	0xbc5b44e9	-0.013383129
36	0xbcc1d31e	-0.023660239
37	0xbc810a38	-0.015751943
38	0xbc2b3165	-0.010448788
39	0x3bd1706f	0.006391577
40	0xbc6bebdf	-0.014399498
41	0xbc888d3a	-0.016668905
42	0xbc402cd8	-0.011729442
43	0xbc5d9960	-0.013525337
44	0xbc2c5bbb	-0.010519917
45	0xbc8e7c01	-0.017393114
46	0x3d3dac87	0.046307113
47	0xbcc85e13	-0.02445892
48	0xbcd95c11	-0.026533158
49	0xbbede6f6	-0.0072601987
50	0xbcbf9440	-0.02338612
51	0x3bbceae5	0.0057653063
52	0xbd11df44	-0.035613313
53	0xbcb02bdb	-0.021505287
54	0xbc6df349	-0.014523336
55	0xbcb7f0c7	-0.022453679
56	0xbbacd109	-0.0052739424
57	0x3e2cadc7	0.16863166
58	0xbc2c2d57	-0.010508857
59	0xbc2a843a	-0.010407502
60	0x3d538dec	0.05164902
61	0xbc36dcb9	-0.011161023
62	0xbc61d8d3	-0.013784605
63	0xbc37922e	-0.011204286
64	0xbc960cee	-0.018316712
65	0xbcbf09d3	-0.023320114
66	0xbc6b4747	-0.014360256
67	0xbc96633a	-0.018357862
68	0xbd02424a	-0.0318015
69	0xbcc7dd63	-0.024397558
70	0xbc8380f6	-0.016052704
71	0xbc0e6868	-0.008691885
72	0xbca1114c	-0.019661568
73	0xbc2afa9f	-0.010435729
74	0xbbfe3e35	-0.0077588805
75	0x3bbf3d89	0.005836193
76	0xbc232d2e	-0.009959502
77	0xbc991830	-0.018688291
78	0xbbeae48f	-0.0071683596
79	0xbca2a1ec	-0.019852601
80	0xbcaa160a	-0.020762462
81	0xbc80a345	-0.015702853
82	0xbcb12065	-0.021621892
83	0xbd479667	-0.04872742
84	0xbc5b71c6	-0.013393825
85	0xbc59d579	-0.013295525
86	0x3e041ae4	0.12900883
87	0xbc85633e	-0.016282674
88	0xbc318629	-0.010835209
89	0xbc8a283d	-0.01686489
90	0xbc71655f	-0.014733641
91	0xbc5d2ca5	-0.013499414
92	0xbc83970b	-0.016063234
93	0xbca11f8e	-0.019668367
94	0xbc3dffe0	-0.01159665
95	0xbbfb7e34	-0.0076749567
96	0xbcaf4f79	-0.0214002
97	0xbc82c8c2	-0.01596487
98	0xbc86d622	-0.016459528
99	0x3d4cfa16	0.050043188
100	0xbbc47ff1	-0.005996697
101	0x3caf23af	0.02137932
102	0xbc3e5837	-0.011617712
103	0xbcc6af7d	-0.024253601
104	0xbd84c987	-0.06483751
105	0xbc9b6964	-0.018971153
106	0xbc971b0d	-0.018445516
107	0xbc8f5dd2	-0.017500792
108	0xbc62662b	-0.013818304
109	0xbbf4b93b	-0.0074683703
110	0xbce60007	-0.028076185
111	0xbc74d9c5	-0.014944498
112	0xbc3840ea	-0.0112459455
113	0x3ca68664	0.020327754
114	0xbc453dc1	-0.012038649
115	0xbc841836	-0.016124826
116	0xbc51e5f2	-0.012811171
117	0x3d492584	0.049108043
118	0xbca7995a	-0.020458866
119	0xbc5caf55	-0.013469537
120	0xbc36bca6	-0.011153376
121	0xbd2ad97c	-0.041711316
122	0xbc2ba581	-0.010476471
123	0xbbd1613a	-0.006389764
124	0xbc9ff29b	-0.019524863
125	0xbc6c3503	-0.014416936
126	0xbc8d6064	-0.017257877
127	0xbc2eb72c	-0.010663789

output.weight f4 [300, 128]
0	0x3dd71f1d	0.10503981
1	0x3e12fb6d	0.14353724
2	0x3d3f87cc	0.046760365
3	0x3d8765b5	0.06611196
4	0x3e2dd3f6	0.16975388
5	0xbe908bc9	-0.28231648
6	0xbdbe4e15	-0.09292237
7	0x3dc8678f	0.09785377
8	0x3d18fbbf	0.03734946
9	0xbe6cb23d	-0.23114868
10	0x3e88cbb6	0.2671792
11	0x3d855e74	0.06512156
12	0x3debff99	0.11523361
13	0x3d9970c0	0.074922085
14	0x3db5d1b9	0.08877892
15	0xbdde34ec	-0.10849938
16	0x3d095b13	0.03353412
17	0x3e72c3cc	0.23707503
18	0x3da5ee90	0.08102143
19	0x3e195834	0.14975053
20	0x3ea1783d	0.31537047
21	0xbde20f21	-0.11038042
22	0xbe26615b	-0.16248076
23	0x3e0a9d48	0.1353656
24	0xbe0da193	-0.13831167
25	0xbdfa487f	-0.12220859
26	0xbe8863ee	-0.2663874
27	0xbe45004d	-0.19238396
28	0x3e42820b	0.1899492
29	0x3e53022e	0.206063
30	0xbe0d018e	-0.13770124
31	0x3e9c5b7f	0.30538556
32	0x3df0f9e6	0.11766414
33	0x3c0a141f	0.008427649
34	0x3dbba8fe	0.09163092
35	0xbe59f4ef	-0.21284841
36	0x3e32e563	0.17470317
37	0x3de582dd	0.11206601
38	0xbc9d404c	-0.019195698
39	0x3ec5a3f0	0.38601637
40	0x3e0f6eb1	0.14007069
41	0xbaaca8c5	-0.0013172856
42	0xbdd0eafa	-0.10201068
43	0xbd31d470	-0.043415487
44	0x3e1c90eb	0.15289657
45	0xbd282a50	-0.041055977
46	0x3e89923d	0.26869383
47	0xbe62a599	-0.22133483
48	0x3cc32a64	0.023823924
49	0x3df730b8	0.12069839
50	0xbdfa38ed	-0.12217889
51	0xbe374cb4	-0.17900354
52	0x3e9c8593	0.3057066
53	0xbddba8d4	-0.10725561
54	0xbdfd88f0	-0.123796344
55	0x3dac16a5	0.084027566
56	0xbe94c249	-0.29054478
57	0xbec02edc	-0.3753575
58	0xbdcdd475	-0.100502886
59	0x3e475328	0.19465315
60	0x3d3cd64c	0.046102807
61	0x3e855326	0.2604
62	0xbdaaf559	-0.083475776
63	0x3ea24ef9	0.31700876
64	0x3dde4648	0.10853249
65	0xbeb098f2	-0.34491688
66	0x3eb14071	0.34619477
67	0x3e58f551	0.21187331
68	0xbe6f09fa	-0.2334365
69	0x3dc63521	0.09678102
70	0x3d52181e	0.05129253
71	0xbe0176c0	-0.12642956
72	0xbe98abf8	-0.29818702
73	0xbe251d99	-0.16124572
74	0x3e31041f	0.17286728
75	0x3e8b03bf	0.27151296
76	0xbe37a318	-0.17933309
77	0x3d99e43f	0.075142376
78	0xbe068601	-0.13137056
79	0xbe8b7226	-0.27235526
80	0x3dd16d31	0.10225905
81	0x3dc3671b	0.0954115
82	0xbc01c585	-0.0079206275
83	0xbe6aad5f	-0.22917698
84	0xbd9ef6c8	-0.077619135
85	0xbe5b29b1	-0.21402623
86	0x3e4d0f68	0.20025408
87	0xbdbb3c69	-0.09142382
88	0xbd802b7e	-0.062582955
89	0xbd2259d1	-0.039636437
90	0x3e958286	0.29201144
91	0x3d416e40	0.047224283
92	0xbdfb5025	-0.12271146
93	0xbe6fcfa0	-0.23419046
94	0xbcac8654	-0.021060146
95	0xbe16626a	-0.1468598
96	0x3e03d682	0.12874797
97	0xbe2e2b74	-0.17008764
98	0xbe7aa8f7	-0.24478517
99	0x3e2729f9	0.16324605
100	0x3cadbfa8	0.021209553
101	0x3e4b2ea4	0.1984201
102	0xbe53fb85	-0.20701416
103	0x3c077e9f	0.008269935
104	0xbea510ba	-0.32239324
105	0xbc338db3	-0.010959077
106	0x37d3d641	2.525293e-05
107	0xbe6be568	-0.2303673
108	0xbda83b21	-0.08214403
109	0xbe1a3d03	-0.15062337
110	0xbe0f08a3	-0.13968138
111	0x3d36d5fc	0.044637665
112	0xbeb11bd6	-0.3459155
113	0x3e138412	0.1440585
114	0x3e0c33a2	0.13691571
115	0xbeab18bc	-0.33417308
116	0x3d8d5180	0.069003105
117	0xbdcde17c	-0.10052773
118	0x3c8dcdbb	0.017310014
119	0x3e1d3395	0.15351708
120	0xbe4265c7	-0.18984137
121	0xbd831a0a	-0.06401451
122	0xbdc50ac3	-0.09621193
123	0xbd9172e0	-0.07101989
124	0xbe2cb4ec	-0.16865891
125	0xbd48ab07	-0.04899123
126	0xbddd4b3f	-0.10805368
127	0x3e51cd72	0.20488527
128	0xbda709d5	-0.08156172
129	0x3dc0a65f	0.09406733
130	0xbe399117	-0.18121754
131	0xbd588639	-0.05286238
132	0x3e7c0d09	0.24614348
133	0xbea9196c	-0.33027208
134	0xbe081d98	-0.13292539
135	0x3dc77b12	0.09740271
136	0xbcd5ad73	-0.026083684
137	0xbe7374a0	-0.23774958
138	0x3e7752fa	0.24152747
139	0xbd3d28c4	-0.046181455
140	0xbe3418b8	-0.17587554
141	0xbdaa0a64	-0.08302763
142	0xbdce46e2	-0.100721136
143	0xbdd7c2ef	-0.105352275
144	0xbe2124db	-0.15736715
145	0x3e132ab1	0.14371754
146	0xbe40723e	-0.1879358
147	0xbc9a1930	-0.018810838
148	0x3e979e78	0.2961309
149	0x3e066f0c	0.13128299
150	0xbca8060a	-0.020510692
151	0x3e2641d7	0.16236053
152	0x3e0b9557	0.13631187
153	0x3e6611d0	0.22467732
154	0x3e474be5	0.19462545
155	0x3c4adf1b	0.012382294
156	0xbe97936a	-0.29604656
157	0xbc3f03f1	-0.011658655
158	0xbdbef699	-0.093243785
159	0x3e97452c	0.2954496
160	0x3d8a36dc	0.06748745
161	0xbe4723f9	-0.19447316
162	0xbdcfd8de	-0.10148786
163	0xbc734627	-0.014848269
164	0xbd306a3b	-0.04307006
165	0x3db7e10e	0.08978473
166	0xbdc2da60	-0.09514308
167	0x3eb6dcde	0.35715383
168	0x3ceb8bf5	0.02875326
169	0xbdc48fbb	-0.09597727
170	0xbebdf9f7	-0.3710477
171	0x3e2ed975	0.17075141
172	0xbd1698c6	-0.03676679
173	0x3c3b1454	0.011418421
174	0x3e8d3951	0.2758279
175	0x3c727c11	0.014800088
176	0x3cd7556b	0.026285848
177	0xbe5c6fd8	-0.2152704
178	0x3d456876	0.048195325
179	0xbdd8dd7c	-0.1058912
180	0x3e8da132	0.27662045
181	0xbdcb70d9	-0.09933633
182	0x3e331a91	0.17490603
183	0xbdf0bea9	-0.117551155
184	0x3de9c78e	0.11415015
185	0xbec188ed	-0.3779978
186	0x3e081c77	0.13292108
187	0x3b8a8f2a	0.0042284923
188	0x3ddb424b	0.10706004
189	0xbc997ea4	-0.018737145
190	0x3d0dae6d	0.034590174
191	0xbcb227c5	-0.02174748
192	0x3dc221da	0.09479113
193	0xbe84f21e	-0.2596597
194	0x3e96638e	0.2937283
195	0xbe306e08	-0.17229474
196	0xbe3183ca	-0.1733543
197	0x3e69bc0e	0.22825643
198	0x3e404f16	0.18780169
199	0xbe5ea9a3	-0.21744399
200	0x3eb46dec	0.35240114
201	0x3d263960	0.04058206
202	0x3e915664	0.28386223
203	0x3e8cf40a	0.27529937
204	0xbe8f0449	-0.27932957
205	0x3d1ecc68	0.038769156
206	0x3defd8a0	0.1171124
207	0xbd247e4f	-0.04015952
208	0x3ea0021b	0.31251606
209	0x3e394444	0.18092448
210	0x3e1e4be3	0.15458636
211	0xbe3c9797	-0.18417202
212	0x3df0772c	0.1174148
213	0x3e792cf6	0.24333557
214	0x3e7f5780	0.24935722
215	0xbd5b2b6f	-0.05350822
216	0xbb94e3be	-0.0045437505
217	0xbdacf41a	-0.08444996
218	0x3f013d39	0.50484043
219	0x3dfd0b56	0.12355678
220	0x3daa2847	0.083084635
221	0x3ccd374b	0.02505078
222	0xbcba9287	-0.022774948
223	0x3dc39395	0.095496334
224	0x3e51b7e7	0.2048031
225	0xbea973b3	-0.33096084
226	0xbdb7acc4	-0.08968499
227	0x3e674699	0.22585525
228	0x3d5e9da2	0.05434955
229	0x3e0a7334	0.13520509
230	0xbe35479e	-0.17703101
231	0xbe5bab9a	-0.2145218
232	0xbe78bf3a	-0.24291697
233	0xbdaf938e	-0.08573066
234	0xbe34c0e6	-0.1765171
235	0xbe1b550b	-0.1516916
236	0xbe44d04c	-0.19220084
237	0xbe816711	-0.25273946
238	0xbe2ec221	-0.17066242
239	0x3e4bd3b6	0.1990498
240	0x3d9fc93a	0.07802053
241	0x3e48625a	0.19568768
242	0xbb884356	-0.0041584177
243	0x3e3fe6c6	0.18740377
244	0xbdbe1252	-0.09280838
245	0x3d2a65bf	0.04160094
246	0x3d45ad7e	0.04826116
247	0xbc1c3a13	-0.00953533
248	0xbe467f75	-0.19384558
249	0xbd9ec1d8	-0.077518165
250	0xbdcc8751	-0.09986747
251	0x3d66e907	0.056374576
252	0xbe21c4eb	-0.15797774
253	0x3d5fb1c6	0.054612897
254	0x3e56a339	0.20960702
255	0x3e8ae49c	0.2712754

output.bias f4 [300]
0	0xbcc2ae5e	-0.023764785
1	0x3c97ca87	0.01852919
2	0x3ce10e06	0.027472507
3	0x3cd754ba	0.026285518
4	0x3c7a3d90	0.015273467
5	0x3ca44d95	0.020056525
6	0x3d41988a	0.047264613
7	0x3d54e5e2	0.051977046
8	0x3d19d326	0.037554882
9	0x3c87e087	0.016586555
10	0x3d45d682	0.048300274
11	0x3d4a5c3a	0.04940436
12	0x3d3a0784	0.045417324
13	0x3d278310	0.040896475
14	0x3d0378b5	0.032097537
15	0x3cc9bc42	0.024625901
16	0x3c66f519	0.014096522
17	0x3cd4fcbe	0.025999423
18	0x3c801b55	0.015638033
19	0x3cdbb96c	0.026821814
20	0x3c858918	0.016300723
21	0x3c6a84be	0.014313875
22	0x3ca82e56	0.020529907
23	0xbc03ce7a	-0.008044833
24	0xbcc94e8f	-0.024573592
25	0xbcf791ff	-0.030220984
26	0xbcc72f28	-0.024314478
27	0xbcc62b93	-0.0241907
28	0xbc894aed	-0.01675936
29	0xbcde4e98	-0.027137086
30	0xbd38f43c	-0.045154795
31	0xbd5149a6	-0.051095627
32	0xbd377287	-0.044786956
33	0xbcfec9f5	-0.03110216
34	0xbd5c4c2f	-0.05378359
35	0xbd34dad4	-0.044154003
36	0xbd56e5a2	-0.05246509
37	0xbd1dab5b	-0.038493495
38	0xbceec9c6	-0.029148947
39	0xbcd61f6b	-0.026138028
40	0xba6aade2	-0.0008952302
41	0x3c0eaf6a	0.008708814
42	0xbc5ec5a8	-0.01359693
43	0x3d0c3abd	0.034235705
44	0x3d36f2e9	0.04466525
45	0x3d6245e8	0.05524245
46	0x3d7ee552	0.062230416
47	0x3dc38983	0.09547713
48	0x3dad703f	0.08468675
49	0x3d775663	0.06038512
50	0xbcae253e	-0.021257993
51	0xbcad6279	-0.02116512
52	0xbcebad1c	-0.028769068
53	0x3caec9b1	0.021336408
54	0xbc65ecf5	-0.014033546
55	0x3cdc01be	0.0268563
56	0x3afa2f6e	0.0019087621
57	0x3c895949	0.016766207
58	0x3ba9a3ba	0.0051769884
59	0x3c8f8910	0.017521411
60	0x3d47385f	0.048637744
61	0x3cbd40ef	0.023102252
62	0x3d497dd7	0.049192276
63	0x3d21f054	0.039535835
64	0x3ca26f3a	0.019828428
65	0x3cc5df80	0.024154425
66	0x3c6b45f6	0.014359942
67	0x3cf6ade1	0.030112209
68	0x3d01fef7	0.031737294
69	0x3bb75550	0.005594887
70	0xbbd3f501	-0.0064684157
71	0xbbcd13e7	-0.006258476
72	0xbc97420d	-0.018464113
73	0xbcb154ec	-0.02164694
74	0xbcb681ce	-0.022278693
75	0xbd2a145c	-0.041523322
76	0xbcd5ffaa	-0.026122887
77	0xbce3e315	-0.027818242
78	0xbcca1121	-0.02466637
79	0xbc9cc880	-0.019138575
80	0xbcca1dbc	-0.024672382
81	0xbd33b956	-0.043877922
82	0xbce1cf3c	-0.027564637
83	0xbceaac10	-0.028646499
84	0xbcee8c03	-0.029119497
85	0xbd021552	-0.031758614
86	0xbc98c758	-0.018649742
87	0xbd0b5e44	-0.034025446
88	0xbcb7c59d	-0.022433097
89	0xbc59f453	-0.01330288
90	0xbb2df6e2	-0.0026544859
91	0x3cffbd38	0.031218156
92	0x3d2d7999	0.042352293
93	0x3d4b41a6	0.049623154
94	0x3d5837f3	0.052787732
95	0x3d00615a	0.03134284
96	0x3d90a4a9	0.070626564
97	0x3d79f240	0.061022043
98	0x3db2c95e	0.08729814
99	0x3da36e6a	0.07980044
100	0xbc9eda62	-0.019391242
101	0xbc7f527a	-0.015583629
102	0x37fd1221	3.0168392e-05
103	0xbb4ef59e	-0.0031579505
104	0x3cb51883	0.022106415
105	0x3c880bd8	0.01660721
106	0x3c00e911	0.007868067
107	0x3d618b85	0.055064697
108	0x3c0333f5	0.008007993
109	0x3d43c026	0.04779067
110	0x3d14baf7	0.036311116
111	0x3d3fa72c	0.046790287
112	0x3d23fb80	0.04003477
113	0x3d249d7d	0.040189255
114	0x3d1fcdc0	0.039014578
115	0x3b4a12f8	0.003083406
116	0x3cb7a4b0	0.022417396
117	0x3b92fbb9	0.004485574
118	0x3cb2f976	0.021847468
119	0x3c807e8f	0.015685348
120	0x3920ee1e	0.00015347495
121	0xbc0c15fa	-0.0085501615
122	0x3bb576b3	0.0055378317
123	0xbb1c581d	-0.002385623
124	0xbc0db732	-0.008649634
125	0xbc897a58	-0.01678197
126	0xbcec7f39	-0.028869258
127	0xbcc0ba7c	-0.023526423
128	0xbcbcbc8d	-0.023039127
129	0xbd28dca6	-0.04122605
130	0xbcedbf92	-0.029022012
131	0xbd0957bf	-0.033530947
132	0xbc8959f9	-0.016766535
133	0xbd116867	-0.035499956
134	0xbd245288	-0.04011777
135	0xbd192df3	-0.037397336
136	0xbca714c9	-0.020395653
137	0xbcbcfabd	-0.02306878
138	0xbc748e09	-0.014926442
139	0xbbbc7b3b	-0.005751995
140	0x3b556c2d	0.0032565698
141	0x3cc64fb0	0.02420792
142	0x3d014b13	0.031565737
143	0x3ccefba2	0.025266472
144	0x3d5071a8	0.05088964
145	0x3d3dd70e	0.04634767
146	0x3db226ac	0.08698782
147	0x3db4c529	0.08826668
148	0x3d908dba	0.07058282
149	0x3d706ad3	0.058695626
150	0xbc41c3c3	-0.011826458
151	0xbcf4d06a	-0.029884536
152	0xbd05df69	-0.032683764
153	0xb9d595d5	-0.0004073816
154	0x3bb3d85a	0.0054884376
155	0x3ca07c23	0.019590443
156	0x3b04c7df	0.0020260734
157	0xbb9b2f43	-0.0047358586
158	0x3d042d76	0.032269917
159	0x3cb6b9f5	0.022305468
160	0x3cce5077	0.025184853
161	0x3c9a0e53	0.018805658
162	0x3c7faf2b	0.015605728
163	0x3cd9cf25	0.026588032
164	0x3c9ae208	0.018906608
165	0x3d22645f	0.039646503
166	0x3c444fae	0.011981888
167	0x3bab5b4e	0.00522939
168	0x3c4de2c2	0.01256627
169	0xbc219efe	-0.009864567
170	0xbab1bfb3	-0.0013561159
171	0xbcc88532	-0.024477575
172	0xbbe89550	-0.0070978776
173	0x3a8624d4	0.0010234364
174	0xbb958fc7	-0.0045642587
175	0xbc8f23af	-0.01747307
176	0xbcc8e1a7	-0.024521662
177	0xbcd7d502	-0.026346687
178	0xbd222522	-0.039586194
179	0xbd40fde8	-0.047117144
180	0xbd118948	-0.035531312
181	0xbcdd468e	-0.027011182
182	0xbcc5c467	-0.024141503
183	0xbc6b95ff	-0.014379024
184	0xbd7cb9db	-0.061700683
185	0xbd4c5a30	-0.049890697
186	0xbc9b57f1	-0.018962832
187	0xbd041b9b	-0.03225289
188	0xbcb66d9b	-0.02226906
189	0xbb46786e	-0.0030284184
190	0xbce2f6fd	-0.027705664
191	0xbc06a565	-0.008218144
192	0x3cb2108b	0.021736404
193	0x3c2503dd	0.010071722
194	0x3cee86c5	0.029116997
195	0x3d7ba83a	0.06143973
196	0x3d7d9d71	0.061917726
197	0x3d89e16a	0.067324474
198	0x3d880982	0.066424385
199	0x3d8efa9d	0.069813944
200	0xbd0b7bf1	-0.034053747
201	0xbc6b372a	-0.014356414
202	0x3c3bd06c	0.011463266
203	0x3c920dd4	0.01782886
204	0x3cbcd41e	0.023050364
205	0x3d16c61f	0.036810037
206	0x3d35c74a	0.04437951
207	0x3d7c9c6e	0.06167262
208	0x3d157a90	0.036493838
209	0x3d516ea3	0.051130902
210	0x3d7dfa83	0.062006485
211	0x3d1c6d8c	0.03819041
212	0x3cf682fc	0.030091755
213	0x3d38f7b2	0.045158096
214	0x3d3a2a42	0.045450456
215	0x3d2419b3	0.04006357
216	0x3d051e51	0.032499615
217	0x3d2c44f6	0.042057954
218	0x3cbb49f6	0.022862416
219	0x3bf153b8	0.0073647164
220	0xbb2720d3	-0.0025501742
221	0x3be0d54f	0.006861366
222	0xbc17ff43	-0.009277168
223	0x3becaaba	0.0072225006
224	0xbc3d3229	-0.011547604
225	0xbc8a80ff	-0.016907213
226	0xbd471b84	-0.048610225
227	0xbd404d2c	-0.046948597
228	0xbd80c920	-0.062883615
229	0xbd53fedd	-0.05175673
230	0xbd7a0c61	-0.06104696
231	0xbd52ae0b	-0.05143551
232	0xbd48f15a	-0.049058296
233	0xbd5c8753	-0.053839993
234	0xbd2f9efd	-0.042876232
235	0xbd552382	-0.052035816
236	0xbd6ddfc9	-0.058074746
237	0xbd09a4d3	-0.033604454
238	0xbcddfd08	-0.027098194
239	0xbcc52138	-0.024063691
240	0xbc93f905	-0.018063078
241	0xbc9e2a18	-0.019307181
242	0x3c1659e0	0.009176701
243	0x3c9e004b	0.01928725
244	0x3d01e599	0.031713102
245	0x3d6a5d49	0.05721787
246	0x3d7b994c	0.061425492
247	0x3da3634e	0.07977925
248	0x3db648d2	0.08900608
249	0x3da07252	0.07834305
250	0xbd1de7ee	-0.038551264
251	0xbcdef05f	-0.027214227
252	0xbc5dadc2	-0.013530197
253	0xba0f4d9d	-0.00054665824
254	0x3c80b7a4	0.015712567
255	0x3d4399f4	0.047754243
