figs2-3_rl/results/breakout-UADQN/network_posterior2.pth (torch_old, 683100 bytes, 6 tensors)

conv.weight f4 [16, 4, 3, 3]
00000000: d25e 36bf bcba cc3e d04a f13e 7a1c ea3c
00000010: e44c f53e 3034 afbd e7e2 ff3f 455e 463f
00000020: 756e c1be 2e0b 3d3e d327 433f 87f8 be3f
00000030: 3fb9 0940 b012 973f 6c33 6fbf 7972 8f3c
00000040: d6ef 443f 3cfe bc3f 2c52 393a 8ce9 eebe
00000050: aa66 703f 7c0a 6fba 5ae7 babf 0863 41bf
00000060: 4c35 95bf 2a00 37bf 3153 723f 6959 af3f
00000070: 17f9 3b3f 8b99 cb3f fa73 23bf 7786 c1bf
00000080: 1a4d b23d 823e 223f 8fe9 853f 174c 973f
00000090: 24d7 abbe 0697 09be ed18 82be a6db acbe
000000a0: 05da 93be ec6f a5be f137 02c0 febc cc3e
000000b0: 76ce cc3e be55 8dbc c4e9 fb3e 0b2c 5ebc
000000c0: f73c 1c40 34ff babe e789 c9be 7dad 1bbf
000000d0: 76b5 0f3f 2d5d d33e b119 a4bf ed52 1bc0
000000e0: 9fda c83e d176 1640 31ca c9be 82c3 febe
000000f0: 63cd 013e 256f 893f 0269 88be 4668 b13e
00000100: 686e e13f a5e3 08c0 aeef a53e c3f1 05c0
00000110: 9ace 0240 fe10 e73f 81fc 03c0 e0ab 693c
00000120: 9602 f93e 9a37 523e 2e17 0b3e 9a3a cc3e
00000130: 4cba b13e b83d 933d 5d3f 1b3f 276c dcbe
00000140: 403f dabf c753 8cbf 5ba9 ddbf 8078 2640
00000150: c7f8 c53f 4280 923f e267 d3be f33a 123f
00000160: 422f 443f e7ae 3f3f 4829 c7bf baf1 cfbe
00000170: ea5d 1340 2de9 8fbf 2666 d73f a912 aa3f
00000180: 6bbc b23f 20d4 f2bf 21e5 5bbf 8dd7 ea3e
00000190: d095 b1be a348 16bf 6216 51bf 2e8a 943f
000001a0: c0c4 95bf 2aac 623f ae59 f03e ae4c c9be
000001b0: 7bde 10be 144e 373f a886 f43e a001 09bf
000001c0: cf82 91bd 7687 f73e b89b 4fbf 9089 913e
000001d0: 3fa5 1a3e 85ee 633f 7a9b c93e ea6b 673f
000001e0: e440 703f e7b1 813f a357 c8bf 5472 85bf
000001f0: 2666 45bf e0ff 9abe 0985 bdbf f812 0b3f
00000200: 0b92 84bf e239 8f3f dc0b fdbf 5905 7cbf
00000210: 2474 263e 9dc9 073f 1721 01bb 020b febf
00000220: 320d 83bf 1faf 1240 e516 0abf ddae 23bf
00000230: eaef cabe 1483 233f e41b 603e fbdd 1a3f
00000240: 015b 3ebe 85d4 db3e e4e3 33bf 9a2b 283e
00000250: 72c8 8d3f cece 55be 1726 bebf 5bd6 8f3f
00000260: d0be 0fbf 453f 823e 7fc6 a53f 50ef a03e
00000270: 9d51 453f 7876 aa3d f0eb 1ac0 f7bd 843f
00000280: 2e3e 603c 1e75 cabe fefd b13f 1c58 40bf
00000290: 2834 8abf 5afb 61bf db58 813f 84c0 f03e
000002a0: 4716 c5bc 1c3b 1c40 2b0f 583d 9f07 bb3c
000002b0: f2a1 c5bd 87e0 8ebf 7a8f 1e3d 68ef df3f
000002c0: 3e46 78bf 56c6 853f 2232 853f f221 d73e
000002d0: 9280 0a3e 5ad6 6b3e c6f7 80bd 3cb1 4e3e
000002e0: 077b 16be aff7 05bf f71b e33f 7858 c33f
000002f0: b98f 633f aca1 14bf 3f50 0840 c361 0abf
00000300: 1a9b 0d3f 09b9 a93f dcaf 13be 7921 bebe
00000310: e2b3 24bf d134 253f b7a9 aebf 155a d8be
00000320: fe36 96bf c385 983e 93ba 2bbf 5da9 263f
00000330: 77cf 1a3f b390 15bf 660a c03e 9ca6 aa3f
00000340: 2c32 bb3f be3d b8bf aa64 c13f b7b3 613e
00000350: 37fa dabd efa0 26c0 026f 973f 0239 a4bf
00000360: 8ad5 fc3e 9a9e d13d 0f41 c73e aee5 e4bd
00000370: 1450 c53e 8c4b a13f 5100 86bf 27ee 413f
00000380: 0285 b1bc 4ac6 a93e 0b5c 923e 2f32 fb3f
00000390: 2766 45bf ce72 e33f f0bd 0140 aea2 873e
000003a0: 2311 1e3f f57e aabf b6ac bebf 0961 dcbf
000003b0: c303 8d3e bfdb bcbe 82cf cf3f bd59 c53f
000003c0: 0742 0d3f 8dbe 863f 97a7 223f 8d36 f73f
000003d0: 1321 a73c ff5f 00be 0abb c03f 56d5 85bf
000003e0: cd6e a53e c2a8 373f 498b ae3e c005 66bf
000003f0: 7465 ff3e 52df eabe 019b 363f dc77 b33e
-0.71238434 0.39986217 0.4712739 0.028578032 0.47910225 -0.08554876 1.999112 0.77487594
-0.37779585 0.18461296 0.7623264 1.4919595 2.1519315 1.1802578 -0.9343784 0.01751064
0.7692846 1.4765086 0.00070694345 -0.46662557 0.9390665 -0.0009118689 -1.4601853 -0.75541735
-1.165689 -0.71484625 0.9465819 1.3699161 0.73426956 1.5906233 -0.6384884 -1.511916
0.08706112 0.6337663 1.0461901 1.1820096 -0.33562577 -0.13436517 -0.25409642 -0.33761328
-0.28877273 -0.32311952 -2.0346644 0.3998794 0.40001267 -0.0172528 0.49201787 -0.013560305
2.441221 -0.3652283 -0.39363024 -0.608116 0.5613626 0.41282025 -1.282034 -2.4269364
0.39229295 2.351002 -0.39412072 -0.49758536 0.12676005 1.0737044 -0.26642615 0.34649867
1.7611818 -2.1388943 0.32409424 -2.092881 2.04386 1.8052061 -2.0622866 0.01426217
0.48634785 0.20529023 0.13583061 0.3988846 0.34712446 0.07189506 0.6064356 -0.43051264
-1.7050552 -1.0963067 -1.7317308 2.6011047 1.5466546 1.1445391 -0.41290194 0.571212
0.7663461 0.74876255 -1.5559473 -0.4061411 2.302607 -1.1243035 1.6828048 1.3286945
1.3963751 -1.8970985 -0.858965 0.45867577 -0.3468461 -0.58704585 -0.8167478 1.1604669
-1.1700668 0.8854395 0.4694342 -0.39316314 -0.1414737 0.7160351 0.47758985 -0.53518105
-0.07105028 0.48345536 -0.8109698 0.28425264 0.15102099 0.89035827 0.39376432 0.9039904
0.93849015 1.0132416 -1.5651745 -1.0425515 -0.7710899 -0.30273342 -1.4806224 0.5432582
-1.0357069 1.118954 -1.9769244 -0.9844566 0.16255242 0.5304201 -0.001970356 -1.9847109
-1.0238402 2.2919385 -0.53941184 -0.63938695 -0.39636165 0.63871884 0.2188564 0.60494965
-0.18589403 0.42935577 -0.7026961 0.16422883 1.1076796 -0.20879671 -1.4855374 1.1237291
-0.5615053 0.25438896 1.2951201 0.3143258 0.77077657 0.08323377 -2.4206505 1.0370473
0.0136867 -0.39542478 1.3905637 -0.75134444 -1.0797167 -0.8827416 1.0105242 0.47021878
-0.024058474 2.4411077 0.05274884 0.022830782 -0.09650029 -1.116227 0.03871105 1.7494936
-0.9698218 1.0451152 1.0405924 0.42018086 0.13525608 0.23030987 -0.06297259 0.20184797
-0.14695369 -0.5233106 1.7742909 1.5261374 0.8889118 -0.5805919 2.1298978 -0.5405542
0.5531479 1.3259593 -0.14422554 -0.37134913 -0.6433698 0.64533716 -1.3645543 -0.42256227
-1.1735532 0.29789552 -0.67081565 0.6510218 0.60472816 -0.5842392 0.37507933 1.3332095
1.4624686 -1.4393842 1.5108845 0.22041212 -0.10692256 -2.6035726 1.1830752 -1.2829897
0.49381667 0.10235329 0.38916823 -0.111766204 0.38537657 1.260118 -1.0468847 0.75754017
-0.021669868 0.33159095 0.28585848 1.962469 -0.77109 1.7769411 2.0272179 0.26491302
0.617449 -1.3319994 -1.4896457 -1.7217113 0.27541932 -0.36886403 1.6235201 1.5418011
0.55178875 1.0526901 0.6353697 1.9313523 0.020401513 -0.1253662 1.505708 -1.045573
0.32311097 0.7174188 0.3409064 -0.89852524 0.4988209 -0.45873505 0.7133027 0.35052383

conv.bias f4 [16]
00000000: 44dd 06bc 2dbf 1eba 1cf1 d23e 48a0 843f
00000010: 7719 aabc dee5 1d3d e1b2 93be fdf8 bfbd
00000020: 8fa2 17ba f699 82b9 5506 873f 9151 e2b7
00000030: 35ac 20be 41fa c93c 583f 0c3d 5e42 453b
-0.008231465 -0.0006055709 0.41199577 1.0361414 -0.020764096 0.038549297 -0.2884741 -0.093736626
-0.0005784416 -0.00024910242 1.0548807 -2.6979282e-05 -0.15690692 0.024655463 0.034240097 0.0030099372

fc_hidden.weight f4 [128, 1024]
00000000: 5eba a13e bb3b d8bd 90ac 35bb dc5a d6bc
00000010: c4ed c6bd e066 85be afde 8c3c 11a6 b33e
00000020: 79e8 adbd 2a43 30bd 02ac 12be 861a 1d3e
00000030: 9a12 1dbc ddec 203e f547 953e 14d3 043e
00000040: 9a93 853e c90c bebe 57ce 1dbe 8805 7bbe
00000050: 1db9 dd3c 47bc 06be a5b0 38be fc16 9abe
00000060: 4d5e e43c ccbc 2c3e 6aed 653d 9b40 1c3e
00000070: ef6e 893d bfd8 173e 1f47 973e 2448 843e
00000080: de6f b33c ad58 e9bd 2ac2 713d a2fa db3c
00000090: d8df e13d 6cb8 1f3d ae09 c2bd 6796 403e
000000a0: 35bd f4bd 92a0 8c3d 9645 1bbe a7da 9c3b
000000b0: df53 2d3e f191 04bd 25c2 7a39 7272 48bc
000000c0: ddf0 6dbd 0c84 0e3e 2162 ca3b 6857 803d
000000d0: 3a4a 783e 8148 e6bc aaf8 373e 9039 f83d
000000e0: 62ee 1cbf 13f0 8ebe f6df 303d 417a 9b3d
000000f0: 8fdf 2ebe 70dc 8abd c7aa a43d e5e7 2ebd
00000100: d448 703e 9738 0cbf a344 383e 234f 0e3f
00000110: 3ba4 403e 2892 fabd 582b 153e 9966 dc3d
00000120: 1883 bc3d 6076 a13e 21bc 1a3e f4e0 e33d
00000130: c2a9 8dbd dabc 50be 59ed 0d3e d5ac 47be
00000140: c51a 63bc 18c6 f13b d1ad 503e 66c0 273d
00000150: ce7a 3bbe f782 8dbd 14ce 553d 75e7 d43d
00000160: c227 77be efa4 83bd a6a6 d4bd 8b07 8abe
00000170: 05c9 e9bd 15fb 36bc 5b51 8a3c eac8 9ebd
00000180: 67d8 843e 7fb2 80bb 3466 0ebb 1bca 823d
00000190: a389 60bb b0ad 02be 177b d13d 6ade 203d
000001a0: 33d9 653e 1302 873b a1f5 ae3d d2b1 90bd
000001b0: e24a 453d cd28 823d 942b b5bc 3e63 c63d
000001c0: 6fd2 153e 6d90 0e3e b350 733e 3908 d93d
000001d0: fb80 1f3e f43f f33d e109 bbbd 8121 d33d
000001e0: 427d 20be 1aad 933e 4661 753d b7e6 f23c
000001f0: 8aa9 d4bc 279d 80bd ab8c c93d a858 88bd
00000200: 4ec8 953e 337c 40be 6bea f23d 8e82 b83d
00000210: 359a 1e3d 457b 963c adc3 803e d289 98be
00000220: 03a3 9d3d 350b 37bc e02c 0a3e 8627 3dbd
00000230: c7d7 813d f174 3ebe 150e afbd b36a 0abe
00000240: 3b80 0bbe f5c3 7cbe c0a1 1f3e 15f6 103e
00000250: faf2 103d de94 bc3d 9234 c6bd d19d 6bbe
00000260: b358 1c3c df25 7fbd eea2 cabd 624b e9bd
00000270: a972 a4bd cf21 2d3d 19ea f2bd 7586 34be
00000280: 79b6 64be 6580 b5bd 048c ecbd adec a9be
00000290: b88a f9bd 01cd 32bd 7a58 fdbd c76b ed3e
000002a0: e02e 523d b51a 24bc ae79 82be f6a7 b5bd
000002b0: 5d71 a0bd 14eb 2e3d 0d2e 033e dcee a63e
000002c0: 40c4 71be 0b71 00bd b756 ddbc 3180 efbd
000002d0: ff81 59bc a975 db3d 407c 853d 9f16 53bd
000002e0: 0232 a0be 693d 8cbe b69f 36be 3fb6 f8bc
000002f0: 159a e13d 0344 ae3d ad11 4e3e a8e2 843e
00000300: f068 493e 8d28 bdbd ee2a 05be 2de1 6d3d
00000310: 4350 b33c 20b6 34be 23ae 283e 66e2 abbd
00000320: 03c4 44bd 9c30 ea3c 56fe 9ebd 1471 bbbd
00000330: 803e 1fbe 8fd2 273e c37a ea3d de6f 663e
00000340: dd61 c63e 9b7b 363e b611 4e3c 4129 e63d
00000350: 7413 bc3d 8050 4fbd c636 033e f2db 813c
00000360: 44ea 0fbe db10 18be b0d9 f6bd 368c 083d
00000370: bde3 1c3d d0f1 73be 426e 0e3c 42ee ebbd
00000380: 46e7 59bd 7d40 9e3c 5aca 4fbc 4a25 49bd
00000390: f07f fabc 052f 4cbd 5b28 20be 1a2a 81be
000003a0: 6d11 a33c cb96 87be 5d55 ea3b 84b1 edbc
000003b0: a9e5 47bd a445 b5bd 022b 54be fd3d 55bb
000003c0: 42e2 23be 87f7 a7bd b159 a83d a0cd b2bd
000003d0: f364 b5be 5a2b 823c 8a96 94bd 9009 a63b
000003e0: 9664 b9bd 1ccb bbbd 5bc6 67bd 7619 4cbe
000003f0: 403f 57be fc07 343d 2c2c 8bbc b430 1c3d
0.315875 -0.10558268 -0.0027721263 -0.026166372 -0.09713319 -0.2605505 0.017196028 0.35087636
-0.08491606 -0.043032803 -0.14323428 0.15342149 -0.0095869545 0.15715356 0.2915646 0.12971145
0.26089174 -0.3711913 -0.15410744 -0.24513829 0.027065808 -0.1315776 -0.18036135 -0.3009566
0.027876997 0.16868895 0.05613462 0.1525902 0.06710612 0.14828776 0.2954645 0.2583629
0.021903928 -0.11393867 0.05902306 0.02685291 0.11029023 0.038994238 -0.094745025 0.18807374
-0.11950151 0.06866564 -0.15163264 0.0047868076 0.16926526 -0.032365743 0.00023914182 -0.012234317
-0.058091033 0.1391756 0.0061762487 0.062666714 0.24247065 -0.028110744 0.17965952 0.12120354
-0.61301243 -0.27917537 0.043182336 0.075916775 -0.17077468 -0.06780326 0.08040386 -0.04270162
0.23465282 -0.5477385 0.17994933 0.55589503 0.18812649 -0.12234908 0.14567316 0.107617564
0.09204692 0.31535625 0.15110828 0.11126891 -0.06917144 -0.20384541 0.13860072 -0.19499524
-0.013861363 0.007378351 0.20378806 0.04095497 -0.18308565 -0.06909745 0.052198485 0.103957094
-0.2413626 -0.06427943 -0.10383348 -0.2695888 -0.114152946 -0.011168261 0.016884496 -0.07753165
0.25946352 -0.0039275284 -0.0021728398 0.06386205 -0.0034261725 -0.12761569 0.10228556 0.03927461
0.22446136 0.0041201203 0.08542944 -0.070651665 0.048167117 0.063554384 -0.022115506 0.09686898
0.14631055 0.13922282 0.23761253 0.105972715 0.15576546 0.118774325 -0.091327436 0.10309125
-0.15672782 0.28843004 0.05990722 0.029651029 -0.025959749 -0.062799744 0.098412834 -0.06657535
0.29254383 -0.18797378 0.11861118 0.09009276 0.038721282 0.018369326 0.2514929 -0.2979265
0.07697108 -0.011172106 0.13493681 -0.04618027 0.063399844 -0.18599297 -0.08547608 -0.13517265
-0.13623135 -0.24684127 0.15589046 0.14156373 0.03538797 0.09208082 -0.09677996 -0.23009421
0.009542632 -0.062291976 -0.098943576 -0.11391331 -0.08029682 0.04226857 -0.11861057 -0.17629416
-0.22335233 -0.0886238 -0.11550143 -0.33188382 -0.121846616 -0.04365254 -0.12370391 0.4637129
0.051314235 -0.010016133 -0.2548346 -0.08869927 -0.07834122 0.042704657 0.12810536 0.3260411
-0.2361002 -0.031357806 -0.027018888 -0.116943724 -0.013275622 0.10715801 0.065178394 -0.051535245
-0.31288153 -0.27390602 -0.17834362 -0.03036034 0.11015717 0.08509066 0.2012393 0.25954175
0.19668937 -0.0923625 -0.13004658 0.058076072 0.021888858 -0.176476 0.16472678 -0.083927915
-0.048038494 0.028587632 -0.077633545 -0.09152427 -0.15551186 0.16388915 0.11449196 0.22503611
0.3874654 0.17820589 0.012577465 0.11238337 0.09183398 -0.05061388 0.12813863 0.015851948
-0.14054209 -0.1485018 -0.12053239 0.03333684 0.038303126 -0.23822713 0.00869328 -0.115200534
-0.053199075 0.01931786 -0.012682522 -0.049107827 -0.030578583 -0.04984953 -0.15640394 -0.25227433
0.01990577 -0.26482233 0.0071512894 -0.02901531 -0.048803005 -0.088511735 -0.20719531 -0.0032538169
-0.1600428 -0.08201509 0.08220232 -0.08730626 -0.3542858 0.015889812 -0.072552755 0.005067058
-0.09052388 -0.091695994 -0.05658565 -0.19931588 -0.21020222 0.043952927 -0.016988836 0.038132384

fc_hidden.bias f4 [128]
00000000: e1f3 07bd 05ad 0abc 9e3d c7bc 8520 94bc
00000010: 2a0b 4cbc d4ae 8bbc 1c75 413d 9de9 663d
00000020: 047e 83bc 0a7b 173d 4f7a 8abc 6e06 263e
00000030: 056a b0bc 70d0 aebc 9bae 8abc b7d6 863b
00000040: 8e39 21bc 5cef 9cbc 20fb 8cbc 1194 29bc
00000050: 1f30 aabc cf8e 7cbc d0bc 7fbc 5298 bbbc
00000060: f2d3 43bc 404c 2cbd 4b17 23bc 6208 8dbc
00000070: da6d 92bc 6108 8bbc 5846 c8bc b570 b1bc
00000080: 20f8 30bc 3c49 16bd c7bb d1bc 012a 12bc
00000090: de45 89bc 7468 6dbc 6ba3 2ebd 02ee abbc
000000a0: ae48 41bc c83e d6bc d7c7 8ebc 6030 c1bc
000000b0: 50d1 9bbc 9cee 34bc 8ea8 babb a65c 87bc
000000c0: 0f06 5d3b d411 07bd faba acbc 055e 89bc
000000d0: 96ba b6bc 6288 8fbc 16ac b0bc 6c3a 6ebc
000000e0: 8e2c 36bc 62ae 6abc fdab e1bc d628 18bc
000000f0: 4be5 91bc ba66 78bb e6ab a9bc edfa 543c
00000100: b3aa 03bc 1241 aabc 3a5c dfbb c51f 4abc
00000110: a1c3 a3bc ee8a babc eedd 9bbc 9229 123c
00000120: e82a 85bc 468e b5bc 685d e43c 9a63 a8bb
00000130: c947 52bc 64b1 44bc 950d aabc 2091 40bc
00000140: 941f 1dbc d87b 75bc 6810 60bc aab9 52bc
00000150: cb89 0fbd 1100 dbbc 021d 61bc a156 bbbc
00000160: 95fb c0bc 849e 46bc e6c3 f1bb 8bcb 5f3d
00000170: 2781 ebbb 1295 b7bc b656 0fbc 463b 93bc
00000180: 56e4 4abc 2838 49bc d54a c0bc 16f9 82bc
00000190: 7e5e e2bb 4305 7abc 4920 abbc 9fa5 73bc
000001a0: b27e 8bbc 45a0 2abd 6d7b b5bc 5f87 833c
000001b0: e45a 15bc 2c4a 95bc 527c 20bc 9773 44bc
000001c0: bbe1 b7bb b8e4 52bc af0c 8ebc 606d 59bc
000001d0: 70e7 0fbc cfcd f3bb 5bcc 03bc 7f55 b0bc
000001e0: 5b7c 5abc b9ac 3cbc 4ca0 d1bc a6e3 65bc
000001f0: c5fa 303c 18de 0bbc 48c1 d2bc e6ea 89bc
-0.033191565 -0.008464103 -0.024321374 -0.018081913 -0.012453834 -0.017051138 0.047230825 0.056375135
-0.0160513 0.036982574 -0.016904024 0.1621339 -0.021534929 -0.021339625 -0.016928962 0.0041149515
-0.009840382 -0.019157104 -0.01720959 -0.010350243 -0.020774899 -0.015414908 -0.015608981 -0.02289978
-0.011952387 -0.042064905 -0.009954284 -0.017215911 -0.017874647 -0.016971769 -0.024447605 -0.021660188
-0.010801345 -0.036690935 -0.025602235 -0.008921147 -0.016756948 -0.014490236 -0.042636316 -0.020987514
-0.011797113 -0.026152983 -0.017429275 -0.023582637 -0.019020706 -0.011043217 -0.005696363 -0.01652367
0.0033725535 -0.032975987 -0.021085251 -0.016768465 -0.022305768 -0.017521087 -0.021566432 -0.014540296
-0.011119021 -0.014323803 -0.02754783 -0.00928708 -0.01780953 -0.0037903027 -0.02071185 0.0129992785
-0.008036303 -0.020782981 -0.006816414 -0.012336676 -0.019990744 -0.022771325 -0.019026723 0.008921044
-0.01625581 -0.022162568 0.02787657 -0.0051388266 -0.012834498 -0.012005184 -0.02075843 -0.0117533505
-0.009590048 -0.01498314 -0.013675787 -0.012861649 -0.03504352 -0.02673343 -0.013739826 -0.022868456
-0.023557464 -0.012122754 -0.0073780892 0.054637473 -0.007187027 -0.02240995 -0.008748701 -0.0179726
-0.012383541 -0.012281455 -0.023473183 -0.015987914 -0.006908237 -0.015260044 -0.020889418 -0.01487103
-0.017028186 -0.04165675 -0.02215358 0.01605576 -0.009115908 -0.018223844 -0.009795265 -0.011990449
-0.005611626 -0.012871914 -0.017340032 -0.013270706 -0.008783206 -0.007440306 -0.008044328 -0.021525143
-0.013335313 -0.01151579 -0.02558913 -0.014031326 0.010801976 -0.008536838 -0.02572693 -0.016835641

output.weight f4 [300, 128]
00000000: 77fa a23e 5b41 df3d 0fd8 b63c 4baf 603d
00000010: 61b5 efbd 6554 98be 5441 8c3e 1094 da3d
00000020: d5c4 eb3d 3f1d be3e db00 86be 6cfd a9be
00000030: c58e 6abc 98ce 023d c881 01bd 9928 ca3e
00000040: 7449 37bc 0b8c 56be 7fcb 0c3e a132 90bd
00000050: e297 9fbd 9f7c 503e 0097 583e c600 dabd
00000060: f17c babe effa 22be defd 9a3e 1576 f03c
00000070: bf3f 8f3b 14c0 e7bc 0e9c 0c3e 1ab9 93be
00000080: 8541 4cbe 1cac b23c fc55 583e b288 003a
00000090: 4f9e 3e3e 8f32 113d bfef 25be 2dbe b0bc
000000a0: 7457 07be bc1b f0be 5fc2 cc3e 2aad 4c3c
000000b0: eba2 26bd 3571 ddbc f3bd 183c 4ff8 a2bc
000000c0: daa8 54bd d074 10bc 3753 ad3e fa14 033d
000000d0: b222 d13d 73df 9e3d 23ba 423e d70f 883b
000000e0: 68b2 e33d a2de 3f3e 3f99 383d 3c48 bb3e
000000f0: 1a19 9dbc da70 d7bc f2cd 18be d567 c2bc
00000100: 8a77 943e 67a9 223d c6cb 103d 19bc 3e3e
00000110: f3be ef3c 5da7 2d3e ef71 9b3e f37a 433e
00000120: 9233 bb3e f868 7dbe 7058 7b3e d3e2 133e
00000130: 1372 0abe 4772 173d 986d 3e3e af58 cbbd
00000140: 6223 55bd 3554 85be 6b1e ca3d 48cb 70be
00000150: e1fd 063e 33b1 5fbe 52e8 323d e9f1 663e
00000160: adfd ad3e 5401 0fbe 9e5b 2f3e fcc4 2f3e
00000170: bb32 3ebe 4a71 bebd 1e8d 863e baff dabc
00000180: 1723 94bd fc2b 13bc 066f 06be 32dd 793b
00000190: 672c b8be e20b a13d e428 983d d907 a43e
000001a0: 0383 1c3e 611c 58be d785 d63d d5d8 923e
000001b0: 4691 93be e0b4 8f3e 1807 b9be 0bad 17be
000001c0: a5ec a0be a49d d6bc e394 b3bc 84ed fb3d
000001d0: f1b4 92bd 1805 2f3e 34d9 eb3d 128b bebb
000001e0: de16 00be 0fdf febd 38f8 163d 94c8 cebc
000001f0: 897e 343d cc9a a9be dce9 8a3e 61df c83d
00000200: 39ba 953e f5ed 413e 41b6 b33e 41b0 24bb
00000210: 677e 04be 5bdc 4abe 9eee 413e 6385 f63d
00000220: 7d8f b73d 8d7f b23e b5dd 9d3d 7b26 73be
00000230: 0d57 b3bd f091 d5bd 2e0a ee3d 6e8a cf3e
00000240: 239a 43be edc5 863d bb90 633e 5f61 dfbc
00000250: 151c 00be bf13 0a3e 135c 0cbe 24ed 06be
00000260: aecc b9bd c91a 3fbe 9fac 00be 3f10 793e
00000270: 8bfa 763d b07d 09bd 1cd8 123d a2cf 31bd
00000280: 9cf3 24be cbbb c13d e02d 663e 96fc 613a
00000290: 64f3 1ebe f6ab 783e f755 83be eeb9 8c3e
000002a0: 3d86 e13d 8774 74be e0d0 42bd 3b3f a7bd
000002b0: 3eb6 7b3e 2f36 423e ef58 88bc 6f79 a33e
000002c0: 52b7 08be 97c5 003e d3c7 9a3e 5d12 7ebd
000002d0: c6ea c03d 0fb5 5b3d 79ff ea3c 57fa 03bc
000002e0: c955 0f3d 3431 32be e1dd c73d 1c5b c53e
000002f0: c56d 683d a28b a73d 8011 af3c 0140 0d3d
00000300: 15dd 033e 01cc 343e 988c 5dbe dd74 a1be
00000310: 0c24 8abd 4190 afbd 52ee e03d a056 5a3e
00000320: 3f10 233e bf3a 773e 06d5 6c3e fef0 e4be
00000330: b7f5 9dbe 7943 a6bd eaf8 1a3e 6cd9 3e3c
00000340: 9fbd 4fbe 0891 59be fd3a 77bd 3cda 98be
00000350: 733f 323e 8708 f23d b549 75be 4402 953e
00000360: 4700 8d3e d295 4dbd 0a6c e43d eaf7 503e
00000370: 8b06 0cbe 66cd 063d 13da 353e 88ae 5e3c
00000380: 779f 4cbb 0ad2 503d b447 19bd 5571 303e
00000390: 6555 46be c4f8 153e f39e 263e c4a1 a63d
000003a0: 0a5e 31bd 098d 67be 3879 36be 95d3 833e
000003b0: 315c a23d 55a8 853d 06c1 43be 34e0 22be
000003c0: 540d 5ebe fe66 ce3d d6b7 f8bd 8280 4dbd
000003d0: 536c 023d 78f0 43bd c2f7 99bd ee8b 58be
000003e0: a2f5 373e 34ca 573d 5d0d 243e 2729 cebe
000003f0: fa1d abbe dac1 56bd 5ffe 9e3c 5517 603e
0.31831715 0.109011374 0.022319822 0.054854672 -0.11704517 -0.29751888 0.2739359 0.10672772
0.11512152 0.37131688 -0.26172528 -0.33201158 -0.0143162655 0.031935304 -0.03161791 0.394841
-0.011186946 -0.2095186 0.13749503 -0.07040907 -0.07792641 0.20360039 0.21151352 -0.10644679
-0.36423448 -0.15916036 0.3027181 0.02935318 0.004371613 -0.028289832 0.13731405 -0.2885216
-0.19946869 0.021810584 0.2112655 0.00049031817 0.18615077 0.035448607 -0.16204737 -0.021575058
-0.13216954 -0.4689616 0.39992043 0.012492457 -0.040682714 -0.02703152 0.009322631 -0.019893793
-0.051918842 -0.008816913 0.3385255 0.032002427 0.10211696 0.07757463 0.19016318 0.004152279
0.11118013 0.18737271 0.045068022 0.36578548 -0.019177008 -0.026298929 -0.14922312 -0.023731152
0.2899745 0.039712336 0.035350583 0.18626441 0.029265856 0.16958375 0.30360362 0.1908987
0.36562783 -0.24747074 0.24545455 0.14441995 -0.13520078 0.036974218 0.18596494 -0.099290244
-0.052035697 -0.26040807 0.09869083 -0.23515046 0.13182785 -0.2184494 0.04367859 0.22553219
0.33982602 -0.1396535 0.17124793 0.17164987 -0.1857404 -0.09298952 0.2627954 -0.026733268
-0.07233255 -0.008982655 -0.1312829 0.0038126227 -0.35971376 0.078635946 0.07429674 0.32037237
0.15284352 -0.21104576 0.10474747 0.28681055 -0.28821772 0.28067684 -0.36138225 -0.14812104
-0.31430545 -0.026198216 -0.02192158 0.12301162 -0.07163418 0.17091787 0.115160376 -0.0058149183
-0.12508723 -0.12444889 0.036857814 -0.025242127 0.044065986 -0.33125913 0.27131546 0.09808231
0.2924364 0.1893843 0.35099986 -0.002512947 -0.12938844 -0.19810621 0.18938681 0.1203716
0.08962915 0.3486294 0.07708303 -0.23745148 -0.08756838 -0.10428226 0.11623035 0.405353
-0.19101767 0.0658072 0.22223179 -0.02726811 -0.12510712 0.13484095 -0.13706999 -0.131764
-0.09072243 -0.18662561 -0.1256585 0.24322604 0.06029753 -0.03356713 0.03585063 -0.043410905
-0.16108555 0.09459647 0.22478437 0.0008620707 -0.15522534 0.24284348 -0.25651523 0.27485603
0.11011932 -0.23872577 -0.04756248 -0.08166357 0.24581239 0.18965982 -0.01664397 0.31928584
-0.13351181 0.12575375 0.3023058 -0.06202923 0.094197795 0.053639468 0.028686272 -0.008055291
0.03499392 -0.17401582 0.09759117 0.38546073 0.05674531 0.0818093 0.02137065 0.034484867
0.12877305 0.17655946 -0.21635664 -0.31534472 -0.06745157 -0.08572436 0.10982956 0.21322107
0.15924166 0.24143504 0.23128137 -0.44715112 -0.30851528 -0.08118338 0.15134016 0.011648517
-0.20287178 -0.21246731 -0.06035899 -0.29854 0.17407016 0.11818033 -0.23953898 0.2910329
0.27539274 -0.050191708 0.11153419 0.20407072 -0.13674371 0.032910727 0.1775897 0.013591416
-0.0031222978 0.05098156 -0.037421897 0.17230733 -0.19368513 0.14645678 0.16271572 0.08136323
-0.043302573 -0.22612394 -0.17819679 0.25747362 0.0792774 0.065262474 -0.19116601 -0.15905839
-0.21684772 0.10078238 -0.12144439 -0.050171383 0.031841587 -0.04783675 -0.07517959 -0.21147129
0.17964795 0.05268307 0.16020723 -0.40265772 -0.33421308 -0.052430965 0.019408403 0.218839

output.bias f4 [300]
00000000: 09dd b5ba ba03 493c 3251 1f3d 4526 7e3d
00000010: efd6 523d 0b79 703d af7b b93d 024f bc3d
00000020: 58f8 8e3d b7dc 9e3d 7e3e cf3d 0e2c af3d
00000030: 155d 233d 88a6 9d3d 4327 513d 1f96 223d
00000040: c96a e23c ce54 bc3c 19b9 ad3c a216 b73b
00000050: f21f 07bd f6dd 18bc 7a8a 52bc fcc4 47bd
00000060: 0ad0 26bd 7ab9 f3bc 7063 8cbd 4cf2 44bd
00000070: 4de8 5abd 8dd6 5fbd 8ade 35bd af68 8ebd
00000080: e658 82bd fb28 7fbd 86d1 75bd 1f21 57bd
00000090: 9f25 1cbd 6319 f7bc 1ff4 d9bc 427a 61bc
000000a0: 659b 6bbc 613d a03c af04 d23c 039b 5c3d
000000b0: 51ef 723d d6d2 953d 6f2e b53d 3276 df3d
000000c0: 0c63 db3d 546e a33d 0257 1bbc 6c26 eebb
000000d0: 55e3 173c 551b 42bc a33e 5e3c 9b9c 763c
000000e0: 81ec 7c3d cdab 3d3d 3ef7 873d ea19 4d3d
000000f0: bd43 383d 5364 193d e59f 103d 7d03 463d
00000100: a65a a93c 1065 483d 71b8 733c 964a 3c3b
00000110: a113 91bc 473c 163c bebd 983b f6d2 f2bc
00000120: 3705 3cbd a145 0fbd 1af4 27bd 417c 76bd
00000130: c038 60bd 1431 abbd 0fa7 a8bd ce1d 81bd
00000140: 9a8e bbbd 1523 a9bd 5fbe b7bd 5ebf 9dbd
00000150: eeb3 8dbd 45b9 a1bd 834a 65bd f040 53bd
00000160: f1cf 2abd 6f4b dcbc 09ea abbc 1e67 ddbb
00000170: e2e9 543c 61e8 19bc 5714 fe3c b72c 173d
00000180: 7958 903d 7eec 8d3d d00e ea3d 37c1 b53d
00000190: 91ee b8bc 2b9b 063c 6ed5 aa3c 2caf f13c
000001a0: 6c32 593d f17b bb3c 4268 883d 8dac 3e3d
000001b0: 0b5b 773d d4ed 853d 0b7d 783d 5b8a 5c3d
000001c0: f423 763d c303 563d c4f3 183d 74bb cf3c
000001d0: d9b7 923c 2ec2 973c 8b36 5c3c 6b12 6d3c
000001e0: b422 00bc 8c42 f63b acdc 15bd c163 64bc
000001f0: 4447 dfbc dd8c 08bd b266 fbbc 77e1 39bd
00000200: 0130 52bd db6d 59bd 4000 28bd 38af 6abd
00000210: 533a 52bd 29b8 71bd 185d 6fbd eb73 17bd
00000220: 68a7 7a3b 1543 2ebc 8115 f4bc 29be b3bc
00000230: 8cb4 f83b 3d79 453d 9e9a e43c 6f0f 543d
00000240: fa6a a63d 6ebf c33d 76ec c83d 87da cb3d
00000250: 2781 133e bc01 ae3d a1b8 e2bc 953c ffbb
00000260: 8820 eabb 8ba1 abbc 378d c63c 0a2c 76bc
00000270: 54a8 823c 9dac 133c 4873 87bb bc31 80bc
00000280: 21aa 74bc df17 72bc 1fc6 6dbc c4a5 d9bc
00000290: d371 c7bc b6b3 9ebc 9510 25bd d9b1 6dbd
000002a0: 70a4 2bbd 2e3d 52bd a926 a4bd bada 8cbd
000002b0: 375b 64bd 0acc 94bd f2a4 c9bd e7f4 bdbd
000002c0: 4445 e7bd 0d7c aabd a9d1 bcbd ad75 ecbd
000002d0: ce41 a0bd a536 c2bd a318 81bd 4d33 90bd
000002e0: abbf 50bd 9b5a 60bd bf95 c8bc 9f05 35bd
000002f0: 9056 a7bc c779 e1bb f316 533c 547f 1d3d
00000300: 0795 093d 80a3 803d 29f5 8d3d 2fe0 7d3d
00000310: e98b b93d abf8 d83d 44af 0c3e d90b c43d
00000320: b2db 723c 35fe 583c 2c55 3e3d 7267 7d3d
00000330: 4366 903d 8983 543d 656e 443d 5b05 7f3d
00000340: 1697 873d a6fe 2f3d f6ce 2e3d 7ad3 163d
00000350: b910 5e3d 3586 063d a62c 7a3c 0529 8c3c
00000360: ef9e f03a 2874 88ba bd28 bfbc e7b4 74bc
00000370: 3721 0abd 65da 51bd 00b6 edbc c6b0 aabc
00000380: cdf7 6bbd cb1a 54bd f0a0 87bd 839a 68bd
00000390: 1992 79bd 0214 acbd 9720 60bd d00c afbd
000003a0: 7dd5 62bd 7ac9 7cbd 26de 83bd 3ca6 67bd
000003b0: 91e3 33bd 7373 b1bc 0dc3 14bd feb7 94bb
000003c0: 125c 093d 8899 0e3d b7c5 d23c fde2 713d
000003d0: 2a86 833d 7124 e03d 8226 e93d 4a16 f93d
000003e0: 2d1b d13d f2c4 983d 4e3c 89ba f8ca 9b3b
000003f0: 3b71 e73c 61b5 2a3d 3fdd 4d3d d034 8a3d
-0.0013875078 0.012268955 0.038895793 0.062048215 0.051474508 0.058709186 0.09056794 0.09194757
0.069809616 0.07756942 0.10119341 0.08553325 0.03988369 0.07697779 0.051062834 0.039693948
0.02763881 0.022989657 0.021206426 0.005587415 -0.03298945 -0.009330263 -0.012850398 -0.048771843
-0.040725745 -0.029751528 -0.06854904 -0.048082635 -0.053444196 -0.05464797 -0.044401683 -0.069535606
-0.06364612 -0.06229494 -0.06001427 -0.05252182 -0.038121816 -0.030163473 -0.026605664 -0.013762059
-0.014380311 0.019560518 0.025636999 0.05385877 0.05931026 0.073156044 0.08846747 0.10911216
0.10712251 0.07980028 -0.0094811935 -0.007267764 0.009270509 -0.011847337 0.013564738 0.015051986
0.061748985 0.04630642 0.066389546 0.05007354 0.044986475 0.037449192 0.035308737 0.04834317
0.020673107 0.048924506 0.014875517 0.002873098 -0.017709555 0.009169645 0.004661291 -0.02964161
-0.04590341 -0.034978513 -0.041004278 -0.06017709 -0.05474162 -0.0835897 -0.08234989 -0.06304513
-0.091580585 -0.082586445 -0.08971857 -0.07702516 -0.069190845 -0.078966655 -0.055979263 -0.0515756
-0.041702215 -0.026891438 -0.02098562 -0.0067566773 0.012995215 -0.009393782 0.031015558 0.036907878
0.07048125 0.06929873 0.114286065 0.088747434 -0.022574695 0.008215706 0.020853724 0.029502474
0.0530266 0.022886248 0.066605106 0.046551276 0.06038956 0.06539503 0.060666125 0.053842884
0.06009288 0.05224968 0.037341848 0.02535794 0.017909931 0.01852521 0.013440738 0.014469723
-0.007820774 0.007515257 -0.036587402 -0.013939799 -0.027255662 -0.033337463 -0.030688617 -0.045381036
-0.05131531 -0.053083282 -0.041015863 -0.057296008 -0.051325154 -0.05901352 -0.05843839 -0.036975782
0.0038246755 -0.010636111 -0.02979541 -0.021941261 0.0075898822 0.048211325 0.027905758 0.05177253
0.08125873 0.09557997 0.09810726 0.0995379 0.14404736 0.084964246 -0.027675929 -0.0077892044
-0.0071449913 -0.020951053 0.024237258 -0.015025148 0.015949406 0.009013322 -0.0041336156 -0.015648715
-0.01493314 -0.014776199 -0.014512568 -0.026568301 -0.024346268 -0.019372802 -0.040299017 -0.058030937
-0.041904867 -0.051327877 -0.08015186 -0.06877656 -0.05575105 -0.0726548 -0.09845914 -0.09275227
-0.11292508 -0.08324442 -0.09219677 -0.115458824 -0.07825051 -0.09483079 -0.06303527 -0.07041035
-0.05096404 -0.054773908 -0.024485467 -0.044194814 -0.020427018 -0.006880972 0.0128838895 0.038451508
0.03358939 0.06281185 0.06931526 0.061981376 0.09059889 0.10594305 0.13738734 0.09572572
0.014822887 0.013244201 0.046467945 0.06186623 0.07050755 0.051883254 0.047956843 0.062260967
0.06620614 0.04296746 0.042677842 0.036822774 0.054215167 0.032842834 0.015269434 0.017109403
0.0018357913 -0.0010410594 -0.023334855 -0.014935709 -0.033723082 -0.051233668 -0.029017448 -0.020836245
-0.057609368 -0.051783364 -0.06622493 -0.05678798 -0.060930345 -0.08402254 -0.05471858 -0.08547366
-0.05537938 -0.06171558 -0.06438856 -0.056555018 -0.043918196 -0.021661496 -0.036318827 -0.004538535
0.03353507 0.034814388 0.025729043 0.059054364 0.06422074 0.10944451 0.11384298 0.121624544
0.102102615 0.07459439 -0.0010470243 0.0047544204 0.028252235 0.041676883 0.050259825 0.067483544
