figs2-3_rl/results/seaquest-DQN/network.pth (torch_old, 534849 bytes, 6 tensors)

conv.weight f4 [16, 10, 3, 3]
000000 eb b0 86 3f 8b 57 06 3e 60 f4 54 3e 6d d4 eb 3f
       1.0522741 0.13119332 0.20796347 1.8424202
000010 ac 46 17 3f 7e 8f e4 3e 47 b3 03 3d cd 27 7c 3d
       0.5909221 0.44640726 0.032153394 0.061561394
000020 9e 49 1c bd ea 91 13 3e 79 a8 11 be 89 6d 8b 3d
       -0.038156144 0.1441113 -0.14224423 0.068080015
000030 81 29 12 3f 8c 91 89 3c d0 ce 7f 3d ba c2 ef 3d
       0.5709458 0.016793035 0.06245309 0.11707063
000040 7b 52 1b bd 1a 3a 24 3c 8b cb 03 be 63 00 ff bd
       -0.037920456 0.010023618 -0.12870614 -0.12451246
000050 ef d5 cd bb 0f d6 69 3e 05 36 66 3b e8 a8 a8 bc
       -0.0062816064 0.22835563 0.0035127413 -0.020588353
000060 8d 16 b7 bd c8 f8 1d bd 9d 48 a4 bc 50 13 27 3c
       -0.08939848 -0.038567334 -0.020054156 0.010197476
000070 1d 90 b3 3d 70 18 d6 3c df 8b ff bc eb cc 58 3c
       0.08767722 0.0261347 -0.031194625 0.01323245
000080 19 6a 03 3c b5 27 fe 3c c6 75 ee bd 75 87 03 bc
       0.008020901 0.031024793 -0.11643557 -0.008027901
000090 93 57 08 3d 27 4a 81 bf e8 95 f3 be cb a4 7b bd
       0.033286642 -1.0100754 -0.47575307 -0.061436456
0000a0 88 a3 0b c0 f7 0f d0 bf 07 6a 93 3b a0 ff d3 3d
       -2.1818562 -1.6254872 0.0044987234 0.10351491
0000b0 78 13 d3 3c 14 f3 70 bf 0e 3f 72 bf 71 76 9e 3e
       0.02576612 -0.9412091 -0.94627464 0.3094974
0000c0 da 9b 0a be 13 f5 f5 bf 32 17 b4 be 61 b0 13 3e
       -0.13536015 -1.9215416 -0.35173947 0.14422752
0000d0 c8 d9 e4 3d 0f 49 ea 3d d2 06 8b bf 3e a7 93 bf
       0.11174351 0.11439716 -1.0861456 -1.1535413
0000e0 a7 fc 03 3e 08 30 2c be 08 e2 f9 bf 48 5f 1f 3e
       0.12889348 -0.16815197 -1.9522104 0.1556369
0000f0 76 c2 60 3e 06 0f 7d 3d e4 19 39 be 4f ce df bd
       0.21949181 0.061781906 -0.18076283 -0.10928022
000100 bd 1b d4 3d 21 29 14 3b f5 f0 61 be c2 5e 99 be
       0.10356853 0.0022607523 -0.22064574 -0.29955107
000110 86 08 1d 3e 49 c2 21 bd cf 6a 4d be 1c e1 a5 3d
       0.15335283 -0.039491925 -0.20060275 0.08099577
000120 57 f4 9b 3c b9 36 df bd fd f9 0c be a0 3f af bd
       0.019037409 -0.108991094 -0.13767238 -0.085570574
000130 a5 da 1b be 35 5b 9a 3e fa de 1f 3e 7e 59 04 3d
       -0.15220125 0.3014771 0.15612403 0.03231191
000140 78 ee f8 bd 23 b6 a4 bc 19 10 6a 3d e1 38 e6 3d
       -0.12154859 -0.02010638 0.05714426 0.112413175
000150 78 bb 52 bd 1f 88 e5 bc 71 9d 4e bc 73 ad ae 3d
       -0.051448315 -0.02801901 -0.012610779 0.085291766
000160 54 1c 0d bd 8c 53 62 bc ce 08 04 bf d6 74 ac be
       -0.034450844 -0.013813864 -0.51575935 -0.3368289
000170 d2 95 9c bf 2f 0e 46 3e bb c0 d3 3e 30 18 75 3e
       -1.2233222 0.19341348 0.4135798 0.23935008
000180 c1 e7 6c be 34 a8 ff bd af eb 84 be dd 52 ee be
       -0.23135282 -0.12483254 -0.25961062 -0.46547595
000190 d5 91 04 3e d9 60 1e bf 8d 23 a9 bd 65 71 b4 3d
       0.12946256 -0.6186653 -0.08258734 0.08810691
0001a0 47 9d 48 bd f4 7c fd be 05 bb f0 be ee 3b 2e bf
       -0.048978116 -0.49509394 -0.47017685 -0.68060195
0001b0 e2 36 d5 bb 62 cd 4e bc 8f 8d 7a bd 3d d5 2f c0
       -0.0065067867 -0.012622209 -0.061170157 -2.74739
0001c0 07 6d 3c c0 40 11 d2 bd 3c c2 0a bd ec 52 3a bd
       -2.9441545 -0.102571964 -0.033876643 -0.045489237
0001d0 d5 1b f8 3c 99 31 c7 bc 7e e3 3c be b6 0f 0b 3e
       0.030286709 -0.024315642 -0.18446156 0.13580212
0001e0 dc 40 64 3d cc a7 5a bf 13 fa eb bd b5 0a 45 3d
       0.055725917 -0.8541229 -0.11522307 0.048105914
0001f0 94 66 d2 bd 78 16 8e 3b d2 6c 54 bc b7 17 58 bd
       -0.102734715 0.0043361746 -0.012965398 -0.05275699
000200 a8 31 9a bc c8 e5 bc 3d 43 80 38 3e 00 47 bf 3d
       -0.018822506 0.09223515 0.18017678 0.09339714
000210 3a c6 3e bc 8a 2e 08 3e d5 49 8c 3d 2f 90 7a 3e
       -0.011643941 0.13299003 0.0685002 0.24469064
000220 eb 0e 10 be df 2a ab 3d 21 29 7a 3e b1 05 eb 3e
       -0.14068191 0.083577864 0.24429752 0.4590278
000230 df fe 08 40 2f e2 82 3e 53 4c 23 be c7 07 81 bb
       2.140556 0.2556319 -0.15947084 -0.0039376947
000240 f3 34 4f 3e a9 94 84 3d 67 81 d3 3d 0f 97 51 3e
       0.20235042 0.06473667 0.10327416 0.2046778
000250 39 7f 0e 3f e3 c6 1c 40 da 0d 5b 3e 7e 24 c1 bd
       0.55662876 2.449639 0.21392003 -0.094307885
000260 4c a8 24 3e 10 47 94 bc b5 2b 73 3e db a4 82 bc
       0.16079825 -0.018100291 0.23747142 -0.01594775
000270 bf cb 2a 3e 19 08 f5 bd 88 06 a2 3e 58 1b da 3d
       0.16679285 -0.11964435 0.31645608 0.10649747
000280 69 25 c6 be e4 24 9c 3e 05 37 13 be df ac b7 3d
       -0.38700417 0.30496895 -0.14376457 0.089685194
000290 3c 61 98 3e 1b 39 17 bd 32 21 0a 3e 6c 74 ca 3c
       0.29761684 -0.036919694 0.13489226 0.024713717
0002a0 5e 8a 82 3e c2 dc 68 3e 9e fe 50 bc 5f 8a 40 3c
       0.2549619 0.22740462 -0.012756018 0.01175174
0002b0 0d 19 06 be 0a b9 0d 3e 33 e7 a3 3c af 83 62 be
       -0.13095494 0.13840118 0.020007705 -0.22120546
0002c0 5d cb 92 3c c3 a1 a9 3d 51 11 a4 bd a7 71 d9 3c
       0.017919237 0.08282807 -0.08011115 0.026543451
0002d0 ad 3b 8a 3e 85 1c 9f be 50 6c 1b 3f 11 c5 7d 3e
       0.26998654 -0.31076446 0.60712147 0.24782206
0002e0 3f 67 1a 3d 61 4c dd 3d 36 7e 22 3f e8 1e 17 3e
       0.03769612 0.10805584 0.6347383 0.14757884
0002f0 d4 e9 b7 3e 57 b3 7b 3e f8 a5 78 be 15 7c a5 3e
       0.35920584 0.24580131 -0.24282062 0.3232123
000300 3d f5 09 3c 8d d7 38 be a0 84 66 bd 1a 14 3f 3d
       0.008420286 -0.18050976 -0.056278825 0.04665003
000310 a7 65 61 be 61 17 b2 3d 88 d2 38 3d 71 cf 94 3d
       -0.22011434 0.086958654 0.045122653 0.07266129
000320 3c 8b 01 bc b4 74 e4 3d 80 30 b4 3d 45 b1 6f 3d
       -0.007906731 0.11155072 0.08798313 0.058518667
000330 1b e3 b5 3e 19 14 bb bc e1 b1 05 3d d0 c0 77 3d
       0.3552483 -0.022836732 0.03264034 0.060486615
000340 7d 96 ae be cb 53 fa 3d 33 6e 21 bd 48 a2 c0 bc
       -0.34099188 0.122230135 -0.039411735 -0.023514882
000350 18 63 1e 3d a9 85 d4 bd be 5e 07 bf c9 85 9a bd
       0.038668722 -0.10377056 -0.5287894 -0.07545049
000360 1b e6 f6 3c 5b fd 2c bd 49 f8 14 bb e8 b6 fa 3d
       0.03013902 -0.042233806 -0.0022730997 0.12241918
000370 92 56 a0 3d 43 83 c2 3d fe 42 0b 3e ba 01 02 3c
       0.07829012 0.094976924 0.13599774 0.007934982
000380 dc 22 22 3d 9e 69 ff 3e 33 53 56 bc e5 c5 1a 3e
       0.039584026 0.49885267 -0.01308136 0.15114553
000390 b1 63 cd bb bf 52 dd bd 11 79 04 bd c9 cb ac bd
       -0.0062679877 -0.10806798 -0.03234202 -0.084373064
0003a0 cc f2 c8 be a8 0a 55 bf 69 db 16 3f 28 61 6d 3e
       -0.3924774 -0.83219385 0.58928543 0.23181593
0003b0 27 3d 64 3e 02 c7 48 3e e7 0e be 3b 4e 95 88 bd
       0.22288953 0.19607165 0.0058001163 -0.066691026
0003c0 1c f5 51 be 49 ac 09 bf 8d af aa bf 30 b6 e6 bd
       -0.20503658 -0.5377851 -1.3334824 -0.11265218
0003d0 e5 6e 3f bd e7 5b 00 3c f4 36 be 3c 6b c8 2c be
       -0.046736617 0.007834411 0.023219563 -0.16873328
0003e0 c2 91 88 be 77 e9 c7 3e 9f 14 68 3f 1c a8 95 bf
       -0.26673704 0.39045307 0.90656465 -1.1691928
0003f0 62 a6 5b be e5 0a 21 be e5 ea 59 3c ba 60 12 be
       -0.21450189 -0.15726812 0.013300632 -0.14294711

conv.bias f4 [16]
000000 5f b1 b5 3d 34 d0 64 be 19 aa 6c bd e8 ca fe bc
       0.088717215 -0.22345048 -0.057779405 -0.031102613
000010 94 07 9e bd da 7a e7 be 8f a4 c4 be bf bb 43 3e
       -0.07716289 -0.45210916 -0.38406798 0.19114588
000020 d4 f7 24 bd a1 bc 78 be 5e d7 34 3c 58 39 b9 bd
       -0.04027541 -0.24290706 0.011037676 -0.090441406
000030 f0 d0 f2 be af aa 85 bd 50 cd 74 be 19 bb 34 3d
       -0.47425032 -0.06526696 -0.23906446 0.044123743

fc_hidden.weight f4 [128, 1024]
000000 ed 7c ce bd e7 12 13 be 35 d0 4b be 02 7b 6d bd
       -0.100824215 -0.1436268 -0.19903643 -0.057978638
000010 84 df 89 3d 53 a1 f8 3d a9 4d a7 3d 36 a2 8a 3e
       0.06732085 0.12140145 0.081691094 0.27076882
000020 36 83 a2 3d 1b 4f cf 3d 4c 41 d7 bd 7b 41 85 be
       0.07935183 0.1012251 -0.10510501 -0.2602652
000030 39 2f 8e be 0e 81 8a be 4d 70 b2 3c d8 40 2e be
       -0.27770403 -0.27051586 0.021782065 -0.17016923
000040 d3 71 c9 bc 1a 0a b2 bd d8 42 a2 b8 0d 90 86 3e
       -0.024590408 -0.08693333 -7.7372126e-05 0.26281777
000050 16 d6 42 be 27 d0 28 bd c5 7d 29 bd ec 9c a5 be
       -0.1902698 -0.041214135 -0.04137971 -0.32346284
000060 78 15 37 3e af b8 18 3b d5 55 33 bc a6 72 34 3c
       0.17879283 0.002330344 -0.010945757 0.011013662
000070 e4 61 94 bd 68 b0 08 3d 11 1c 3b 3e 27 6f 63 3d
       -0.07245234 0.03337136 0.18272425 0.055525925
000080 41 88 ae bd cd a1 7d bd 8d a3 17 bd e8 f5 ff 3c
       -0.08522082 -0.061921883 -0.03702121 0.031245187
000090 6a b1 3c be f9 3b b3 3e 6d 27 15 3e 40 3e 3d 3e
       -0.18427053 0.35006693 0.14565821 0.18480778
0000a0 a8 eb 29 be 35 e2 84 bd 4d a7 12 be a7 6e 30 be
       -0.16593802 -0.06488458 -0.14321633 -0.1722971
0000b0 81 2f a5 be 8b 0b 65 be c9 f3 00 3d 58 88 ae bd
       -0.32262805 -0.22367685 0.03148249 -0.08522099
0000c0 a4 68 f4 bd 0b 01 46 bc 09 d5 08 3e 1c 35 8e bd
       -0.11934021 -0.01208521 0.13362516 -0.069437236
0000d0 52 8d 19 be 7f e9 00 3e d4 fd 0e 3e a3 31 00 3e
       -0.14995316 0.12589072 0.13964015 0.12518935
0000e0 11 91 38 be 35 be 87 bd a3 a7 18 3c fc 13 39 3e
       -0.18024088 -0.06628076 0.009317311 0.1807403
0000f0 5f fb 16 3f ed 7e 63 3e cc 9c 15 bd 9e 42 c4 be
       0.5897731 0.22216387 -0.036526486 -0.38332075
000100 9d c0 98 bd b1 87 80 be b4 31 55 be df 23 95 3e
       -0.07458613 -0.25103524 -0.20819741 0.2912893
000110 77 e6 c6 3e b7 78 b4 3e d6 23 aa 3e 95 54 f1 3d
       0.38847706 0.35248348 0.33230466 0.11783711
000120 70 26 3e 3d 9d c8 47 be a1 e4 d9 bc eb 71 27 bf
       0.046423376 -0.19510122 -0.026598277 -0.654082
000130 2b a4 d9 bd 7c 51 38 3e dd 3f 9d 3e 71 6a 5f 3e
       -0.10627016 0.17999834 0.30712786 0.21817948
000140 7d 61 85 be af 5f 55 3d 9d 41 bc be 8f 08 0a bf
       -0.2605094 0.052093204 -0.3676881 -0.5391931
000150 8f 1b 44 bd 31 1e 9f be f9 a3 08 be 05 08 03 be
       -0.047877844 -0.31077722 -0.133438 -0.12796028
000160 5d b9 ad bd 82 6c e7 3d 50 59 22 3d 8b 54 4d 3c
       -0.08482621 0.11299993 0.039635956 0.012532364
000170 6c f9 a1 bd 99 90 fc bd 3d 97 bc 3d c7 43 b9 ba
       -0.079089016 -0.12332267 0.09208534 -0.0014134579
000180 b5 4f bd bd d2 e8 3a 3e b2 c1 3b be d8 ac a1 3c
       -0.092437185 0.18252876 -0.18335608 0.019735739
000190 5b 6d bd 3e 18 38 c6 3d f4 fe 9a 3d ee d4 81 bd
       0.36997494 0.09678668 0.0756816 -0.06339441
0001a0 f5 d4 a8 3e e5 a7 77 be ba 83 e9 3d ed 1e 00 3e
       0.32974973 -0.2418514 0.11402078 0.12511797
0001b0 e1 78 1a 3e 24 a0 5d 3e 76 2e e6 be 96 2b 7e be
       0.15085174 0.2164312 -0.44957322 -0.24821314
0001c0 5f cf 25 3e b5 a5 1c 3e 1a 63 f0 bc 4d c8 33 3d
       0.16192387 0.15297587 -0.02934413 0.043892194
0001d0 ac be a3 3e 1a 5b 6b bd 8c 4d 45 be 67 f0 18 3e
       0.3198141 -0.057459928 -0.19267863 0.14935456
0001e0 8d 58 0b 3e 22 da c1 bc 01 47 ea 3d ce db b8 be
       0.13607998 -0.023663584 0.11439324 -0.36105198
0001f0 68 29 fd bd 91 d7 24 3e 4d f9 47 3d de 4d 93 3d
       -0.12361413 0.16097857 0.048821736 0.07192586
000200 99 7c c2 3d 30 95 e9 3c d1 0d 9f bd c6 66 13 bd
       0.09496421 0.028513521 -0.07766307 -0.035986684
000210 b5 15 38 3e c4 6b f5 bd 10 a6 6e be b0 2f 67 bd
       0.1797703 -0.11983445 -0.23305535 -0.056441963
000220 3e 00 25 3d 90 2a be 3d bd 0a b2 3a c8 9c e6 3d
       0.040283434 0.09285462 0.0013583523 0.112603724
000230 08 bd bf 3e 07 a4 b1 3d 27 2b 03 be 31 08 9b bd
       0.37448907 0.08673864 -0.1280943 -0.07569922
000240 60 78 0b 3d 93 59 4a be 9f cf d4 3d 48 97 0e 3d
       0.034050345 -0.19760732 0.10391163 0.03481224
000250 12 ba 70 3e 90 33 ea 3d 99 ad 5e bd 08 77 3f 3e
       0.2350848 0.11435616 -0.054364774 0.1869775
000260 19 99 e6 3d 38 6f 3b be 44 93 c6 3d d8 87 94 bd
       0.1125967 -0.18304145 0.096960574 -0.07252473
000270 68 a8 d1 3d 1c 47 6a 3e af 07 1b 3d 02 b8 48 be
       0.10237199 0.22878689 0.037849125 -0.19601443
000280 9d 38 dd 3d f9 e5 06 3d fb f7 2c be e2 f0 cb 3c
       0.10801814 0.032934163 -0.16891472 0.024895135
000290 b4 c7 37 3e 8b d0 f0 3e c9 d1 7f bd d7 e8 f8 3d
       0.17947274 0.47034106 -0.062455926 0.12153786
0002a0 3b 8e 86 3e 57 2a 63 3e 9a 93 07 3e bc 07 25 3e
       0.26280388 0.2218412 0.132399 0.16116232
0002b0 ce 30 d3 bd 44 7a 21 be fa 6f 18 be 9b 20 0d 3e
       -0.10312043 -0.15769297 -0.14886466 0.13781969
0002c0 68 71 85 bd 07 b2 e6 3d bb 18 0b 3c 95 c5 b3 3e
       -0.06515771 0.11264425 0.008489783 0.3511168
0002d0 4b d3 72 3e db 5a 3e 3e f8 1a 96 3e db 1d 27 3e
       0.23713414 0.18589346 0.2931745 0.16319983
0002e0 2b a2 0e bf 34 a3 a1 be b5 24 ed be f0 dc cd bb
       -0.557162 -0.31569827 -0.46317068 -0.0062824413
0002f0 97 7f 15 be bd 2c 3f be b1 23 91 be 99 19 56 3e
       -0.14599453 -0.1866941 -0.28347543 0.20908202
000300 ba ae 00 be 89 05 05 be cb 9c 47 bd 80 bb 9d 3d
       -0.12566653 -0.12990393 -0.048733514 0.077017784
000310 21 c8 5a be 36 20 00 3e 30 27 40 3e c5 1a 2a 3e
       -0.21365406 0.12512287 0.18764949 0.16611774
000320 78 b8 5b bd af db 93 bd c7 80 11 be 84 ae d4 bd
       -0.05364272 -0.07219636 -0.14209281 -0.10384849
000330 d5 9c f7 bd 30 30 b7 be 37 77 d8 be 6f 70 39 be
       -0.1209046 -0.35778952 -0.42278454 -0.18109296
000340 85 42 e4 3d 74 d2 90 3e 72 1b c8 bc 5f 4a ac bd
       0.111455 0.28285563 -0.02442715 -0.08412623
000350 03 d9 e8 bd 11 d0 43 be dc 56 41 be fb 3e 31 3d
       -0.11369517 -0.1912234 -0.1888079 0.043272953
000360 43 b1 8a 3e b0 ee cc 3e fe d2 d6 3d ac ef 27 3d
       0.27088365 0.40025854 0.10489462 0.041000053
000370 75 3a 15 be 8d 89 d2 be dc 4e 3a be 84 98 70 bd
       -0.14573081 -0.41120568 -0.18194145 -0.0587392
000380 38 21 85 be 7f a4 61 be 6a 1b b3 3e 64 07 42 3e
       -0.26001906 -0.22035407 0.34981853 0.18948132
000390 66 c1 37 bd eb cd a9 3d 77 a9 24 be cd 68 00 be
       -0.044862173 0.08291229 -0.1608027 -0.12539978
0003a0 13 d5 09 be 9c 6b 0f be 0a c5 9a be e5 b5 03 be
       -0.13460188 -0.14005893 -0.30228454 -0.12862356
0003b0 f4 4a d5 bd 0f f2 31 be 54 ad 63 be 54 70 38 be
       -0.10414687 -0.17377494 -0.22234088 -0.180116
0003c0 86 3a 90 3d ec 88 73 be 0d d1 a2 bd d0 ca 0b 3e
       0.070424125 -0.237827 -0.079500295 0.13651586
0003d0 5a c4 9d 3e 2b 68 29 3c b2 61 95 bd 5f 5f 22 be
       0.30813867 0.010339777 -0.072940245 -0.15856694
0003e0 a5 48 d6 be fd 76 84 be 9e 3d ff 3d f4 79 ed bb
       -0.41852298 -0.2587203 0.124629244 -0.007247204
0003f0 03 c0 41 3e 83 d5 d7 be 5c 14 95 be 7a 92 8e bd
       0.18920903 -0.42155084 -0.29117095 -0.06961532

fc_hidden.bias f4 [128]
000000 02 b7 60 3e e5 3f 66 3e f3 3b 0c 3e 60 5c a8 3e
       0.21944812 0.22485311 0.13694744 0.32882977
000010 68 da 4c 3d 4c 7b 65 be fe 64 d9 3e 1a 10 48 bd
       0.050012976 -0.22410315 0.42459863 -0.04884348
000020 95 2a b7 3e 77 0a 13 be db 59 fd bb 45 5f fc 3c
       0.35774675 -0.14359461 -0.007731659 0.030807147
000030 0e 3c 72 bd f7 8d 3e 3a 49 d3 e4 bc 36 d6 87 be
       -0.059139304 0.0007269079 -0.02793278 -0.26530617
000040 07 18 7c 3d 45 9f 10 3d 69 f9 a0 bc e1 f1 24 3c
       0.06154635 0.03530814 -0.019650178 0.010067434
000050 10 52 27 3d 98 87 30 bd be 0a 42 3d 37 20 19 3d
       0.040849745 -0.043098062 0.047373526 0.037384238
000060 26 5a e3 3c 5c bd d8 3d 4a 35 9f bd ea 29 75 3d
       0.027752947 0.105829924 -0.07773836 0.059854425
000070 5d f1 40 bd 61 57 b7 bd 03 01 2a 3c 79 5f 8a 3e
       -0.047105182 -0.08952213 0.010376218 0.27025965
000080 0b ac d6 3d 0a 2f 9e bd bd ad 57 be 97 49 8d 3d
       0.10482033 -0.07723816 -0.2106237 0.06898802
000090 6d 3b 0d 3e fa 49 52 be 2f a7 9b 3d e8 53 62 3e
       0.137922 -0.20536032 0.07600247 0.2210232
0000a0 ae 39 29 be 6a eb 40 3e 0f 65 0c 3d 7f 7d b1 3e
       -0.1652591 0.18839803 0.034276064 0.34666058
0000b0 51 b2 0a be 63 05 fc 3e 43 03 26 3e 52 0d c6 3d
       -0.13544585 0.4922286 0.16212182 0.096705094
0000c0 5b b5 ed bd b7 b0 a7 3e 69 73 38 3e fe a2 6f be
       -0.116068564 0.3275201 0.18012775 -0.2340202
0000d0 d7 3e 5a bc d4 f1 6a 3d 8e 65 48 be 26 ba 8a be
       -0.013320646 0.05735953 -0.1956999 -0.27095145
0000e0 7a 71 c0 bb ae 1d 0c 3e 91 ab 56 bc ab 0f bf 3c
       -0.0058729025 0.13683197 -0.013102428 0.0233229
0000f0 28 98 32 be 31 4e 0f 3e 5a 62 91 be de b5 ca 3e
       -0.17440856 0.13994671 -0.2839535 0.3959188
000100 c1 e0 3d 3d f2 9d 66 bd 69 9d 48 be e9 0b 03 be
       0.04635692 -0.056302972 -0.19591297 -0.12797512
000110 a2 b0 87 be da 38 cb 3d 9a 33 3e bb 98 e4 ac bd
       -0.26501948 0.09922953 -0.0029022456 -0.08442038
000120 38 88 f8 bd 8c 71 f7 bd 3d ce ad bd fd be c1 be
       -0.12135357 -0.12082204 -0.084866025 -0.37841025
000130 a1 9f f1 bd 6c 7a e9 3c 40 c7 a3 3e d4 90 0a be
       -0.11798025 0.028500758 0.31987953 -0.1353181
000140 d6 01 e2 bd ba 6f 27 3e 07 f9 f7 bd be 2c e4 3d
       -0.110355064 0.16351214 -0.12108045 0.111413464
000150 09 8b 34 be 70 f5 6b 3e c9 3b 1a 3d d0 e6 af 3d
       -0.17631163 0.23042846 0.03765467 0.08588946
000160 8c d1 09 be 93 87 55 3e a7 de f6 bc e6 ae 16 3e
       -0.13458842 0.20852499 -0.030135466 0.14715156
000170 16 1b 08 3e 9b 6f b9 3c c3 75 a5 be ee 06 7c bc
       0.13291582 0.022636225 -0.32316408 -0.015382512
000180 c1 23 54 3c ce 99 45 be e2 5a 7e 3e a8 84 f0 bd
       0.0129479775 -0.19296953 0.24839357 -0.11744052
000190 0e 13 9c 3d 25 d8 96 3d 7d 77 88 bd 48 42 5b bd
       0.07620822 0.07365445 -0.066634156 -0.053530008
0001a0 a8 a9 ff bd 8a 13 fc 3d 8c b6 0d 3e 43 99 98 3c
       -0.12483531 0.12308414 0.13839167 0.018627768
0001b0 63 d2 53 be 97 71 dd 3e bb 3c 0e bd e3 15 3e 3e
       -0.20685725 0.43250725 -0.034725886 0.18563037
0001c0 7b 2e 59 3c 1f e9 f5 3d ba 6b 15 3d 36 bb 51 3e
       0.013255711 0.12007355 0.03647969 0.20481572
0001d0 98 1d 2c 3e 79 7c d0 3e 9f 0b 39 be dd d2 30 3c
       0.16808164 0.40719965 -0.1807084 0.010792461
0001e0 a9 ac c9 3e 71 d5 89 bd 96 48 33 be 42 4f c2 3d
       0.39389542 -0.06730164 -0.17508158 0.094877735
0001f0 49 4e e9 3d bd 82 22 3d 84 79 45 3c 99 66 2b bd
       0.11391885 0.039675463 0.012052897 -0.04184589

output.weight f4 [6, 128]
000000 45 e1 fd 3d 58 93 8f 3d c5 a1 ae 3d e3 22 86 bc
       0.123964824 0.070105255 0.08526949 -0.016374057
000010 9b 43 06 bf f0 b9 8e 3e 85 b7 e3 3d b2 cf ab 3e
       -0.5244691 0.27876234 0.11118988 0.33556896
000020 72 0c a7 3d 79 73 bf 3e cf e7 34 3e c7 52 d8 be
       0.08156671 0.37392786 0.17666553 -0.42250654
000030 49 6e b5 be 4c 71 69 3e 18 92 00 3e 11 c3 09 3f
       -0.35435703 0.22797126 0.1255573 0.5381327
000040 c1 57 e4 be 84 69 cd 3d e2 ed 1a 3e 82 16 a2 3e
       -0.445982 0.10029891 0.15129808 0.31657797
000050 76 a5 d7 3d b6 2d 09 bf fc ac 1f bf 8c c7 02 bf
       0.10529606 -0.53585374 -0.6237333 -0.51085734
000060 e3 f9 01 3e a3 65 b7 3d 73 5c 15 3f 3c 95 a9 be
       0.1269298 0.089549325 0.5834419 -0.3312167
000070 3f af e1 3d 22 54 d6 3e c3 b9 d8 be b1 58 97 3d
       0.11019754 0.41861063 -0.42329225 0.073899634
000080 26 95 f9 be 80 22 cb 3e 70 e2 13 3f 23 dd bc 3d
       -0.48746604 0.3967476 0.5776739 0.09221866
000090 e7 d7 bb 3d a5 69 06 3f 7a 19 a8 3d 20 79 38 bf
       0.091720395 0.5250495 0.08207984 -0.7205982
0000a0 8d 54 51 3f 55 ee da bf 56 56 d5 be 40 b3 d7 3d
       0.8176964 -1.7103983 -0.41667432 0.10532236
0000b0 e7 71 02 3f 3d d9 16 3e 64 76 bc 3d e5 70 d2 3d
       0.5095505 0.14731307 0.09202269 0.10275439
0000c0 55 11 c5 3e 38 9c e1 bd 73 f4 f2 bc 8e ca 99 3e
       0.38489786 -0.110161245 -0.029657578 0.3003735
0000d0 09 c0 b6 3d b8 ca 15 bf e3 7b 6a 3e a6 c5 dc 3e
       0.089233465 -0.5851245 0.22898822 0.43119544
0000e0 38 e3 e7 3d fb 3c fd be 14 ea 87 be a9 bb 28 be
       0.113226354 -0.49460587 -0.26545775 -0.16477837
0000f0 37 6a f9 3e e3 78 e0 3d 9a 5a dc 3e 71 ba 40 3d
       0.48713848 0.10960557 0.43037874 0.047052804
000100 3b 82 71 be 93 60 cb 3d 26 b8 68 3e 71 2e e7 3e
       -0.23584835 0.099305294 0.22726497 0.4515262
000110 ee 17 b0 3e 7e 4c 1a 3e 46 8c f9 3d 86 12 75 3e
       0.34393257 0.15068242 0.12184958 0.23932847
000120 c4 0c 0a 3f 08 bd 0e 3f be 3c e5 3e 20 5e 8f 3e
       0.5392573 0.5575719 0.44772905 0.280015
000130 a5 8f d9 3e 62 54 4b bf 4a e3 14 3e 94 ca 0d 3f
       0.42492405 -0.7942563 0.14539829 0.55387235
000140 01 64 cd 3d 96 b3 56 be 04 9f f5 3e eb e1 de be
       0.1002884 -0.20966944 0.47972882 -0.43531737
000150 67 b9 07 3f 78 16 64 bf b7 84 3a 3e 77 fb 08 bf
       0.53017277 -0.89096785 0.18214689 -0.53508705
000160 6e db ea 3e 08 45 e0 3d f0 82 c1 be a0 1e 32 3e
       0.45870537 0.10950667 -0.3779521 0.17394495
000170 39 8b 78 bf 8c 9d 97 be 1d 8f 54 3e 61 16 07 bf
       -0.97087437 -0.29612386 0.20757718 -0.5276852
000180 40 6f e0 3d a4 ab 01 3f d3 87 8a 3d d5 ce 0c 3d
       0.10958719 0.5065253 0.06764188 0.034376938
000190 89 85 40 bf 29 37 6a bf 09 bc 21 3f 60 75 78 3e
       -0.7520376 -0.9149042 0.63177544 0.24263525
0001a0 cb 65 6c 3e 35 01 a3 be 81 b7 ce be 62 33 ce 3e
       0.23085706 -0.31836858 -0.40374377 0.40273577
0001b0 a9 bb b1 3e f5 92 32 3e a6 e0 90 3e 61 1d a3 3d
       0.34713486 0.17438872 0.28296393 0.07964588
0001c0 ea 52 b5 3d 74 b7 fa 3d 89 d9 e1 be da 4b e8 be
       0.08853705 0.12242022 -0.4411128 -0.4537037
0001d0 35 d0 ab 3c 55 0a 50 3e 4a 08 03 3f ce 08 d4 3e
       0.020973304 0.20316441 0.51184523 0.41412967
0001e0 81 e6 c8 be 4d f3 ea 3d 6a fd 59 3f 05 dc 9a 3d
       -0.3923836 0.11472187 0.85152304 0.07561497
0001f0 ff e5 9e 3d 17 05 2d 3e 2f 65 97 bd 2b e4 bc 3e
       0.07758712 0.16896473 -0.07392346 0.36892828
000200 b8 e4 23 3e 68 b7 83 3d 10 68 8c 3d ac 0a 44 bc
       0.16005218 0.06431466 0.06855786 -0.011965435
000210 c4 5e 1d bf 6a 7c c1 3e 44 ec c6 3c 57 c2 56 bf
       -0.61472726 0.37790233 0.024282582 -0.8389029
000220 8c e2 9a 3d 51 ab 27 bf 82 8a 8c bf db 98 fa be
       0.07562742 -0.65495783 -1.0979769 -0.48944744
000230 49 66 16 bf c0 df 88 3e 90 ca c1 3d f5 08 0f 3f
       -0.58749825 0.26733208 0.09462464 0.5587304
000240 17 d9 c2 be dd 66 d9 3d 0a a4 fd 3d 41 63 68 bf
       -0.3805625 0.10615323 0.123848036 -0.9077645
000250 db 36 d9 3d ef b6 01 bf e1 fa 18 bf 56 a1 e7 be
       0.10606166 -0.5066976 -0.5975781 -0.45240277
000260 04 f1 da 3d 65 13 99 3d 58 cb 15 3f 77 1b bb be
       0.10690501 0.07474402 0.585134 -0.36544392
000270 10 3f d4 3d 18 d1 fa 3e cf 2c d8 be 4b 9e 5f 3d
       0.10363591 0.4898765 -0.42221686 0.05459432
000280 75 02 2c bf b4 11 6a be bc 32 13 3f ac d6 c9 3d
       -0.6719125 -0.22858316 0.5749929 0.098553985
000290 d3 a9 ca 3d 65 71 31 3f b2 fc b2 3d 29 9d 52 bf
       0.09895673 0.6931365 0.08739604 -0.8227106
0002a0 c2 84 4a 3f 0d f9 89 bf ac ff ca be f1 dd 43 3e
       0.7910882 -1.0779129 -0.39648187 0.19127633
0002b0 57 cb b4 3e 6c 04 ee 3d cd 17 de 3d f2 4d e3 3d
       0.35311386 0.11621937 0.108443834 0.11098851
0002c0 e6 48 40 3f e0 c3 92 3e b9 d6 8d bd 7f fb c4 3e
       0.75111234 0.28665066 -0.06925721 0.38473126
0002d0 4f 3d 96 3d d1 a9 1c bf 72 db 7b 3e 7e cf 0f 3f
       0.073359124 -0.6119662 0.2459543 0.5617598
0002e0 f3 16 d9 3d 58 11 db be 4a c3 06 bf f0 60 a5 be
       0.1060008 -0.4278667 -0.5264174 -0.3230052
0002f0 e6 b3 bb 3e 13 b5 de 3d ba 72 07 3f 26 2e e6 3d
       0.3666069 0.10874381 0.52909434 0.11239271
000300 66 df 80 be 29 68 8a 3d be 4d 53 3e c0 ce db 3e
       -0.2517044 0.06758148 0.20635125 0.42931175
000310 96 1d 0d 3f 18 cd 3a 3e 53 3b fd 3d 35 13 7a 3e
       0.5512327 0.182423 0.12364831 0.2442139
000320 d6 61 08 3f 16 ea ec 3e ec f9 aa 3e da 3e 14 3e
       0.53274286 0.46272343 0.333938 0.14477101
000330 52 27 d4 3e c2 c8 3c bf d0 28 e0 3c bb 75 17 3f
       0.4143625 -0.7374383 0.02736321 0.5916402
000340 29 ac a8 3d 44 21 c6 be e2 aa 12 3f 20 ca 5b be
       0.08235962 -0.38697255 0.57291996 -0.21463823
000350 47 c4 de 3e 21 7b 39 3e 8e 8f 4c 3e 7a 9a 0c bf
       0.43509123 0.18113376 0.19976637 -0.5492321
000360 7f ec f0 be 49 e3 bf 3d c4 18 9f 3e aa da e5 be
       -0.47055432 0.09369523 0.31073582 -0.4489339
000370 ea 5b 48 bf f6 86 33 3f ec 19 85 3e 7e 75 2c bf
       -0.7826525 0.7012781 0.2599634 -0.6736678
000380 67 47 df 3d 0a d4 09 3f d1 65 86 3d 14 d5 85 3d
       0.10902291 0.5383917 0.06562389 0.06534782
000390 05 57 49 bf 7b 74 92 bf e6 cf 21 bf d8 87 65 bf
       -0.78648406 -1.1441797 -0.6320785 -0.89660406
0003a0 5d b3 78 3e 1b 89 e7 be 07 99 00 bf 4c 60 0f 3e
       0.24287172 -0.4522179 -0.502335 0.14001578
0003b0 03 8a 3d 3e bf 3f 2e 3e c5 dc 74 3e f0 49 97 3d
       0.18509679 0.17016505 0.23912342 0.07387149
0003c0 bc dc 15 3e 62 59 04 3e 4d 29 f4 be e9 f9 bc be
       0.14634985 0.12924722 -0.4768776 -0.36909416
0003d0 7a d2 41 3d 14 3b 89 3e 98 bc 12 3f af 3a 29 bf
       0.047319867 0.26802886 0.5731902 -0.6610517
0003e0 c3 96 ac bd 55 06 eb 3d 30 5b 86 3f d2 b5 bf 3d
       -0.08427193 0.11475817 1.0496578 0.09360851
0003f0 76 37 b6 3d 1f 85 28 3e 63 97 2a bd b7 d1 f5 3e
       0.08897297 0.16457032 -0.04164828 0.48011562

output.bias f4 [6]
000000 24 5c 0a 3f a8 d3 12 3f 57 41 a1 3e 7a 0c 6f bd
       0.54046845 0.5735421 0.31495163 -0.058361508
000010 e1 25 d7 3e f6 06 d1 3e
       0.42021087 0.40825623
