figs2-3_rl/results/breakout-QRDQN/network.pth (torch_old, 683100 bytes, 6 tensors)

conv.weight f4 [16, 4, 3, 3]
000000 e0 ff 7d 3e 0e 9a 48 3f 2a 6c 2a bf 0b ee f0 be
       0.2480464 0.7836007 -0.66571295 -0.47056612
000010 f9 43 42 bf a0 9e 19 bf 80 fb 70 3f 41 1e 80 3f
       -0.7588497 -0.6000767 0.9413376 1.0009233
000020 cf 35 6f bf 30 0b cb be 55 65 38 bf 4a 44 25 bf
       -0.9344148 -0.39656973 -0.7202962 -0.64557326
000030 e1 b7 3c bf 68 78 46 3d d2 91 9a 3e 7f 7b bb bb
       -0.73718077 0.048454672 0.30189377 -0.005721509
000040 64 a8 17 3f 04 6a cd be 7b 29 01 3f a1 98 8c 3d
       0.5924132 -0.40119946 0.5045392 0.06865049
000050 d8 c3 d1 bf b8 09 34 bc 75 2f cc 3e e5 54 f1 be
       -1.6387892 -0.010988645 0.39879957 -0.47135082
000060 43 36 9c be fc d2 78 3e f7 81 50 3e 41 b4 c1 be
       -0.30510148 0.24299234 0.20362078 -0.37832835
000070 03 a0 97 3e 93 d7 b2 be 20 5f 27 3e cd d0 82 be
       0.29614267 -0.34930095 0.16344881 -0.25549927
000080 4c 4b 11 3f ae 4a 0b 3f 9b 8d 06 3f e8 07 a1 bf
       0.5675552 0.5441083 0.5255982 -1.2580538
000090 90 8f 31 3d bf 77 96 be 1c b7 33 bf 8c e0 1e 3f
       0.043349802 -0.29388234 -0.7020128 0.6206138
0000a0 12 c7 6c 3f 2c 61 23 3e e3 f4 cb bf 5f 96 0f 3c
       0.9249126 0.15955037 -1.5934108 0.008763879
0000b0 2c 23 1c 3f 8c 41 b8 bf 7d cb 36 bf 4c 61 8e be
       0.6099117 -1.4395003 -0.7140425 -0.27808607
0000c0 d6 5e 47 3f f4 74 82 3d 17 29 4b 3f f1 1f 7b 3f
       0.77879083 0.06369963 0.79359573 0.98095614
0000d0 00 1e d7 3d 50 33 26 3e 88 ae 1a 3e a3 ab 19 3f
       0.10503769 0.16230512 0.15105641 0.6002752
0000e0 86 43 33 3f 3b d2 0e 3f 43 99 17 3f d1 74 86 3f
       0.7002491 0.55789536 0.59218234 1.05044
0000f0 a3 4d 85 3e 5c c8 f1 be ad be 08 be 53 c1 d3 3e
       0.26035795 -0.47223175 -0.13353987 0.41358432
000100 d3 10 50 3f be 2e a3 be c7 9c 88 bd 3b f7 fe bd
       0.8127567 -0.318716 -0.06670528 -0.12449499
000110 dd 27 20 be 1c 92 14 bd 75 6a 5c 3d 81 11 07 3d
       -0.15640207 -0.036272153 0.053812463 0.032975677
000120 ba 93 87 be a2 f3 36 be e4 1c 0d 3e 75 e2 1e be
       -0.26479894 -0.17866376 0.13780552 -0.15516074
000130 10 94 a8 3e 70 94 33 3f 7a ea d4 be d3 4a f4 bf
       0.32925463 0.7014837 -0.4158514 -1.9085335
000140 58 b9 e4 bf b4 4d af 3f cb b7 4f bf f0 05 63 3f
       -1.7869062 1.3695588 -0.8113982 0.88680935
000150 5d 6c 38 3f ea b0 70 3f 57 0d 8f 3f 00 b5 cf 3e
       0.7204035 0.9401995 1.1175946 0.4056778
000160 44 6f d3 3e 62 a7 00 3f 20 ad 8f 3e 18 06 65 be
       0.41295826 0.50255406 0.2806177 -0.22365606
000170 08 27 41 bf 88 67 65 3f 5f cd 4d 3f 69 55 bd 3f
       -0.7545018 0.896111 0.80391496 1.479169
000180 8e 47 5a 3d 44 c7 97 3f 83 cf 95 3f fa 75 f6 be
       0.053290896 1.1857686 1.1703953 -0.48136884
000190 0c 3f 39 bf 12 cf a9 3d 8d ca 1c bf bf 33 20 3f
       -0.72361827 0.08291449 -0.6124657 0.6257896
0001a0 c9 93 a3 3e 90 3d 0b 3e 4a eb a4 3e 9c 0f 04 bf
       0.3194869 0.13597703 0.3221076 -0.5158632
0001b0 62 e7 8a 3e c8 96 21 be 42 cc d1 be a0 c3 70 bf
       0.27129656 -0.15780175 -0.4097615 -0.940485
0001c0 ec fc ee be 80 6b d6 be 3f 9e d1 bf 12 3f 15 3f
       -0.4667734 -0.4187889 -1.6376418 0.5829936
0001d0 f6 32 68 3f ee 11 89 bf ef 09 f6 3e 05 4c c2 3f
       0.9070276 -1.0708597 0.48054454 1.5179449
0001e0 a8 95 9e 3f 19 75 0d 3f 6c b0 a2 bf 6c e7 24 bf
       1.2389421 0.552568 -1.271009 -0.6441562
0001f0 11 97 40 3f db ab a3 bd a4 17 00 3e cb dd ce bf
       0.7523051 -0.07991763 0.12509018 -1.6161436
000200 f9 38 d8 be 00 76 18 bf 4b 9d 1f c0 50 bd a6 be
       -0.42230967 -0.59555054 -2.4939754 -0.3256631
000210 1f 57 bc bd f3 53 9b 3e 0a 75 ea be 1c 35 88 3d
       -0.091963045 0.30337486 -0.4579242 0.06650755
000220 91 de a2 be 11 dd e5 3e d2 de 93 3e 42 91 d0 3c
       -0.3181043 0.44895223 0.28880936 0.02545989
000230 3d e7 e1 bc 06 9a 9c bf 13 5d 83 3c 72 5a f0 3e
       -0.027576083 -1.2234504 0.016035592 0.46944004
000240 76 6e 9e 3e 0f e4 0a bd 3a 8f d9 bd 48 3f bf 3e
       0.3094365 -0.0339089 -0.106230214 0.37352967
000250 ba 62 d3 3e 1d 77 1b bf 13 48 13 3f 6a 69 74 bf
       0.4128626 -0.6072863 0.5753185 -0.9547335
000260 2d 8e 6f 3f 33 d5 0f 3f 8c a3 77 bf 21 1f 6c be
       0.9357632 0.5618469 -0.9673393 -0.2305875
000270 ac 10 1b 3f 12 b3 3b 3f 18 df 1d 3f 45 b8 b6 3e
       0.60572314 0.73320115 0.6166854 0.35687461
000280 cf 4a db bf 64 b7 ac 3d 86 9e 39 bd 1a 02 bb bd
       -1.7132205 0.084334165 -0.045317195 -0.0913126
000290 98 de 0a be e5 a3 84 bf 2b 08 af bf 7b 15 d9 bf
       -0.13561475 -1.0362517 -1.3674368 -1.695968
0002a0 19 71 f6 bf 1f b7 e6 bf e4 0b 3d 3f 72 ad dc be
       -1.9253265 -1.8024634 0.7384627 -0.43101078
0002b0 b7 ab 83 be 79 e9 56 3f 48 0e af be d6 16 bc be
       -0.25716946 0.8395 -0.34190583 -0.36736172
0002c0 99 6e db 3e 90 c4 03 3e f8 0f 79 3e 62 2e db 3e
       0.42857817 0.12867951 0.24322498 0.42808825
0002d0 6c cf 89 bf 86 ea 01 3f 0b ee d2 be 53 f5 2a be
       -1.0766425 0.5074848 -0.41197237 -0.16695146
0002e0 e0 a0 ed bd 18 7b 47 3f ad 5a 5e 3f 6b 79 a4 3e
       -0.1160295 0.779222 0.8685711 0.32123885
0002f0 3c f3 41 bf 03 06 4f 3f b9 73 14 3f 01 e8 17 3f
       -0.7576177 0.8086855 0.5798908 0.59338385
000300 ba 24 d8 be 7a 95 90 bc 49 11 f5 3e c8 73 08 be
       -0.4221552 -0.017649401 0.4786475 -0.13325417
000310 a9 5f b9 3e 34 58 d0 3e 14 46 92 3e 98 53 08 c0
       0.36205795 0.40692294 0.2856909 -2.1301022
000320 ec 70 e0 3e 23 cb 7a 3e da 9a d3 bd ce 00 20 be
       0.43836153 0.24491553 -0.1033227 -0.15625307
000330 3b 43 02 be a5 06 14 3f 63 74 f3 3e 35 52 23 3e
       -0.12720959 0.5782264 0.47549734 0.15949328
000340 24 c5 de 3e dd d4 e1 3d 76 99 94 be f8 6b f9 bd
       0.4350978 0.110269286 -0.2902333 -0.121787965
000350 1c 24 09 3f 0d 20 c7 be 18 5c 06 bf 6d a2 01 3f
       0.53570724 -0.3889164 -0.52484274 0.5063847
000360 86 d8 4c be 3c 33 77 be 54 81 26 bf 11 66 21 3f
       -0.20004472 -0.24140638 -0.6504109 0.63046366
000370 6a 71 88 3e 08 88 48 3e a9 64 41 bf 25 6a 72 3f
       0.26649028 0.19583142 -0.7554422 0.94693214
000380 bc 1a 55 3f ea ef 8d 3e d3 ff 6d 3f 3f 40 8b bf
       0.8324392 0.27722102 0.9296848 -1.0878981
000390 b6 b2 8a bf 48 bb 4c bf b8 2d b2 bf a1 3b 87 bf
       -1.0835788 -0.7997327 -1.3920202 -1.0565072
0003a0 9c 51 cd bf 02 6a 99 bf b8 c6 20 3f f5 01 6e bd
       -1.604053 -1.1985476 0.6280322 -0.058107335
0003b0 ba f0 cf be 35 f8 90 3f 3e 60 0b 3f e8 00 fc bf
       -0.40613347 1.1325747 0.5444373 -1.9687777
0003c0 75 f5 9c 3d 6f a9 27 3c 62 ae 84 be 5b 39 7f 3e
       0.07664005 0.010233267 -0.25914294 0.24924223
0003d0 ec 0b 32 3e 1a 78 df be 38 b9 f7 be 5b ac d1 3e
       0.1738736 -0.43646318 -0.48383498 0.4095181
0003e0 e4 53 7b bf b3 fa e8 3e 72 98 4d 3f 9e 3f f5 3d
       -0.9817488 0.45503768 0.8031074 0.11975025
0003f0 e6 d9 47 bf 2d 80 62 bf 74 44 22 3f 16 5a 38 3f
       -0.7806686 -0.8847683 0.633857 0.7201246

conv.bias f4 [16]
000000 20 ce 96 be cb 02 2b bf 27 80 1d 3f fe 2a 0d bf
       -0.29454136 -0.66801137 0.6152367 -0.55143726
000010 42 38 35 bf 3f b8 1a bf 75 8b e4 3e fc ea 9e 3e
       -0.7078897 -0.6043739 0.44637647 0.31038654
000020 0b f7 dd be c3 c0 bb be ff 10 03 bf 1c 9d df be
       -0.4335254 -0.36670503 -0.5119781 -0.43674552
000030 b0 e8 d2 be 48 d5 1b be a2 fc ca be 58 1d b1 be
       -0.4119315 -0.15218079 -0.3964587 -0.345927

fc_hidden.weight f4 [128, 1024]
000000 50 a6 96 3c b6 4a 08 be 60 83 87 3f 50 f1 4b 3e
       0.01838985 -0.1330975 1.0586967 0.19916272
000010 d4 7d b3 3c b2 c6 01 3e 02 36 f2 3d 4f 2c 36 bd
       0.021910585 0.12673452 0.118267074 -0.04447585
000020 5f ce 4d be 37 80 66 3e 20 07 e8 be a7 08 12 bf
       -0.20098256 0.22509848 -0.45317936 -0.5704445
000030 bf 5f f4 bd d3 a0 80 3d f4 01 78 3d 2c 91 05 be
       -0.119323246 0.06280675 0.060548738 -0.1304366
000040 84 3e 7d be 0e 97 23 bf 92 d6 50 bf 84 fe 81 bf
       -0.24730879 -0.63902366 -0.8157741 -1.0155797
000050 5b 08 e3 be 5d da 94 3e 30 f3 6c 3e 3f 4d 23 bd
       -0.44342312 0.29072848 0.23139644 -0.03986859
000060 2d 5a 1e be c6 b9 db 3e f6 df 2f 3e 3d 65 12 bf
       -0.15464087 0.4291517 0.17175278 -0.5718573
000070 a3 5b 70 bd 5d 6f 17 be 7e 12 b7 be cd 5c e5 3f
       -0.05868114 -0.14788575 -0.35756296 1.7918946
000080 6d 40 e7 3e ea 28 01 bf 1c ae 8c 3e 04 97 e2 bd
       0.4516634 -0.50453055 0.27476585 -0.1106396
000090 5d 5c 2f be 8c 4c f2 bc d6 c5 be 3e 41 2f 95 3e
       -0.17125078 -0.029577516 0.37260312 0.29137614
0000a0 1a 27 eb 3e 71 2c b1 3c d9 77 b0 3e bc 80 5e bc
       0.4592827 0.021627637 0.34466437 -0.013580497
0000b0 69 bf b1 3d f0 bc 4c 3d e8 d2 d1 3e ec 04 44 3e
       0.08679087 0.049984872 0.4098122 0.19142503
0000c0 f7 0d 0c be e8 8e 77 3e ed ce a7 bd d4 51 97 bd
       -0.13677202 0.24175608 -0.08193765 -0.07388654
0000d0 64 77 3c 3c 46 7a ea 3e 55 aa 1b 3e 18 d6 33 3d
       0.011503074 0.45796412 0.15201695 0.043905348
0000e0 b1 5e 9a 3f 0b 60 4c 3f 94 8c d6 3d 88 1b b3 3e
       1.2060148 0.7983405 0.10476032 0.34981942
0000f0 29 57 e0 3e 36 c3 ac 3e 3e b2 71 3d 41 b1 ec 3e
       0.43816498 0.33742684 0.059007876 0.46228984
000100 a2 a4 f2 3d ea 0e 08 be b1 1b a7 3e 3e 13 16 bf
       0.118478075 -0.1328694 0.32638314 -0.5862311
000110 0a e7 d7 3e 8a 68 ce 3e 79 bd 83 3f 27 62 1d 3f
       0.42168456 0.40314132 1.0292197 0.61477894
000120 51 1d dc 3d 95 f4 9b bd dc f5 fb bd aa 1a 61 3f
       0.10747779 -0.0761501 -0.12302753 0.8793131
000130 ca 3a fa 3d 51 5a 57 3f 4a 53 11 3f 89 03 fe bd
       0.122182444 0.84122187 0.56767714 -0.12403018
000140 de e6 fb 3e 3d 4e 07 3e 14 8b b2 3d e4 fc 19 bf
       0.49199575 0.1321344 0.08717933 -0.60151505
000150 17 17 f8 be b3 93 c4 be ea 84 b1 3d a4 7c 62 bd
       -0.48455116 -0.38393936 0.086679295 -0.055294648
000160 0a 73 4c be 4f 63 30 3e f3 d1 d9 bd 39 6c 78 be
       -0.19965759 0.17225383 -0.10635748 -0.24260034
000170 e0 c6 8b 3c e0 72 4c bd c4 57 bf bd 78 a8 92 be
       0.017062604 -0.04991424 -0.09342912 -0.28644156
000180 94 d1 b1 3e 47 6b 2a bd 68 b2 7b 3e fd 07 b2 bd
       0.34730208 -0.041606214 0.24579775 -0.0869293
000190 8c f9 02 3f e4 73 a6 3e cc 99 d9 3c ed 10 34 be
       0.5116203 0.32510293 0.026562594 -0.17584582
0001a0 bc d5 ed be c7 d5 20 3e 7c 42 7e be d3 c9 26 3d
       -0.4645213 0.1570655 -0.2483005 0.04071982
0001b0 85 a2 76 3d d1 d9 18 3d ec c8 95 3e e0 9c f7 3d
       0.060213584 0.0373171 0.29254854 0.120904684
0001c0 2c 10 9b bf 3f 64 8e 3e 78 e6 5e be 13 82 0a 3e
       -1.211431 0.27810857 -0.21767604 0.13526182
0001d0 18 a0 b3 be a5 c2 84 3e c4 01 04 3e af f6 9d bd
       -0.3508308 0.25929752 0.12891299 -0.07713067
0001e0 b0 9f 4f 3e 10 dd de 3e 49 c8 f1 3e d4 82 48 3e
       0.2027576 0.43528032 0.47223118 0.19581157
0001f0 02 41 d2 3e d4 0b fe 3e 9b 09 dc 3e 77 43 16 3f
       0.41065222 0.496184 0.42976078 0.58696693
000200 de 2e 15 3e 57 ed 92 3d 92 6e 7c 3e ff cc 67 3e
       0.1456866 0.07174175 0.24651554 0.22636794
000210 86 2a 12 bd 2b ff 93 3e 7f 40 0f bd 09 4b 25 3e
       -0.035685085 0.28905615 -0.034973618 0.16141905
000220 11 0e b1 3d 5b 38 9a 3d 68 e1 f4 3b 68 d8 a6 bd
       0.08645261 0.0753028 0.0074731596 -0.08146745
000230 79 56 d3 be 5e 24 88 be d4 05 7e 3e c1 d7 4a bf
       -0.4127691 -0.26590246 0.24806911 -0.79235464
000240 09 b3 a7 3c 21 76 23 3e 1c d7 52 bf 4b eb 78 3e
       0.020471113 0.15963031 -0.8235948 0.24308507
000250 a5 38 1d 3e 46 9c 43 3e b4 23 7c be 8a 58 b6 bd
       0.1535364 0.19102582 -0.24622995 -0.08903606
000260 2d 57 da 3e 53 9e f8 be 82 fe 35 be 62 d6 3d be
       0.42644635 -0.48558292 -0.17772868 -0.18538812
000270 60 38 33 3f 79 9c cb bd 03 65 b7 3e f3 b3 41 bd
       0.70007896 -0.09941954 0.35819253 -0.047290754
000280 34 21 96 bd db c9 45 3e 85 87 45 bd e2 49 81 be
       -0.07330552 0.19315283 -0.048224945 -0.2525168
000290 90 01 57 be b5 a2 a6 be 67 57 10 be a8 7e b5 be
       -0.2099669 -0.3254601 -0.14095841 -0.35448194
0002a0 5f 50 88 3e bb 55 47 bf bc 1e d0 be 38 e1 5b be
       0.26623818 -0.7786519 -0.40648448 -0.21472633
0002b0 b0 08 32 3d 1d ef 2e be 56 2d 35 be 7c a6 33 be
       0.043465316 -0.17083402 -0.17693076 -0.17543977
0002c0 c8 80 a3 bd c9 30 64 3c c7 d5 01 be 80 07 49 be
       -0.079835474 0.013927647 -0.12679206 -0.19631767
0002d0 1e 17 10 bd 07 1a cd 3c e8 9e cc be 53 af b6 be
       -0.035178296 0.025036825 -0.39964986 -0.35680637
0002e0 09 7a 88 3e 99 b2 8c 3e 43 8b 7b be 85 65 75 3d
       0.26655605 0.2748001 -0.24564843 0.05991127
0002f0 7e 87 fc bd ad f2 21 3e 37 0c bb bd 22 7b eb 3c
       -0.123305306 0.1581523 -0.09133189 0.028745238
000300 35 53 9c bd 6f 50 ad 3e 18 fe c0 bd 4d 68 d7 3e
       -0.07633058 0.33850428 -0.094234645 0.42071763
000310 27 5a d2 3e 20 19 9d 3a 44 59 39 3f 22 d2 03 3f
       0.41084406 0.0011985637 0.72401834 0.5149251
000320 a7 13 31 3f a4 ae 29 3e 6e f1 10 c0 70 c8 6f bd
       0.6917061 0.16570526 -2.2647357 -0.05854076
000330 25 eb d2 be 38 ac 29 3f ef 6d 9d 3e 0d a8 12 3e
       -0.41195026 0.6627841 0.30747935 0.14321919
000340 f8 02 a6 3e be e9 d1 bf 1f 03 f6 be e1 8d 13 bf
       0.3242414 -1.6399457 -0.48049256 -0.57638365
000350 0a f4 70 be 92 39 12 bf 48 8f 31 bf 76 14 30 3f
       -0.23530594 -0.57119095 -0.69359255 0.6878122
000360 4c c7 89 3e dd 35 aa bd 3c 24 97 3d 61 48 0d bf
       0.26909864 -0.08311055 0.07379958 -0.55188566
000370 67 6b 89 bd c1 16 e4 be 67 90 36 3d d5 30 74 bc
       -0.067099385 -0.4454861 0.044571307 -0.014904221
000380 5a fe 66 3e 2e 0d 4b be c3 8e 3a be 01 73 bb 3d
       0.22557965 -0.19829246 -0.18218522 0.09152795
000390 4a 6d af 3d 8a 51 9c 3c a2 ff aa be a0 5d ba be
       0.08565767 0.01908185 -0.33398157 -0.36399555
0003a0 35 63 fe 3e 8c 50 05 be 8f dd 1d be 1e bd 63 be
       0.49685064 -0.13019007 -0.15416549 -0.22240111
0003b0 3e ab b9 3d fb 2d e2 bb d5 f0 8d be 60 ee ff 3d
       0.09065865 -0.006902454 -0.27722803 0.12496638
0003c0 65 1b 1d bd 2c 87 59 bd d6 19 c3 bd 6f 19 aa be
       -0.038356204 -0.053107426 -0.09526412 -0.3322253
0003d0 9c 1e 3e 3e 19 11 aa 3e e6 c5 0d 3e 34 f0 d0 be
       0.18566364 0.3321617 0.13845024 -0.4080826
0003e0 a4 54 dd 3e 3b 7a b2 3d ae b2 53 be 4e 6b b3 3e
       0.43228638 0.0871472 -0.2067363 0.35042804
0003f0 e3 85 0e 3f 72 b4 48 3f 88 aa 5b 3f 41 54 95 3f
       0.55673045 0.7840034 0.85807085 1.1666337

fc_hidden.bias f4 [128]
000000 1e 87 8a be f5 de 54 3e e5 dd 98 be 29 00 07 3e
       -0.2705621 0.20788176 -0.29856792 0.13183655
000010 c2 33 a0 3e 48 72 84 be 33 85 95 bd f2 03 63 be
       0.31289488 -0.2586844 -0.07300796 -0.22169474
000020 b9 86 7f be 04 5f 89 be 74 33 99 be 37 2e 28 3e
       -0.24953736 -0.26830304 -0.29922068 0.1642388
000030 7b 98 cb bd d4 f5 96 3d d6 39 8a be 89 ac 82 bd
       -0.09941193 0.07371107 -0.2699725 -0.06380565
000040 6a de 31 3d 3c 58 2c 3e fa f3 a0 be 8a 9d 6e be
       0.043425 0.16830534 -0.3143614 -0.23302284
000050 d1 3b 29 be 11 59 b0 3e 9d 00 e7 bd 65 39 19 bf
       -0.16526724 0.34442952 -0.11279414 -0.598532
000060 58 64 e8 be f5 8e 48 bd 68 7f db 3c 0b 4a 9d 3b
       -0.45389056 -0.04896446 0.02679415 0.0048000864
000070 26 96 d8 be 86 9c 6f bd 24 9f 9b be c5 f6 a6 be
       -0.42302054 -0.05849888 -0.30394852 -0.32610145
000080 a3 41 77 3e 7b 46 d2 3b e1 ad 91 be 90 32 65 be
       0.24146132 0.0064170933 -0.28452972 -0.2238257
000090 3c e6 96 be bf ec 27 be 2a 90 ca be b1 73 21 3e
       -0.2947253 -0.16398905 -0.39563113 0.15766789
0000a0 b5 5d 49 be d0 bc 11 be 71 f8 0b bf ef 53 94 be
       -0.19664653 -0.14232183 -0.54675967 -0.28970286
0000b0 e3 cd 0a 3c 21 4e 58 bd ff 95 21 be c8 ee ad be
       0.008471939 -0.052808885 -0.15779875 -0.33971238
0000c0 3a 40 6b 3d f2 16 c8 3c e4 80 e4 bd 23 08 3e be
       0.057434298 0.024425004 -0.111573964 -0.18557791
0000d0 bc 93 e8 be e6 da b3 bd c8 0b d3 be 86 2e 16 bf
       -0.45425212 -0.08781986 -0.41219926 -0.5866474
0000e0 e4 72 d1 bd 7d 6a a7 bd 0f 09 5e bf 5a 19 82 bd
       -0.10226992 -0.08174608 -0.8673257 -0.06352492
0000f0 d4 ee b8 be 20 e1 bb be 09 6b 92 be 8a d9 12 bd
       -0.3611971 -0.36695194 -0.28597286 -0.035851993
000100 67 6d 66 be b2 0d f1 be 7b b3 a5 be e6 2a dc 3e
       -0.22502671 -0.4708076 -0.32363495 0.4300148
000110 0b 80 fa be c2 ba 34 3e 31 84 7e be b5 b3 28 be
       -0.48925814 0.17649367 -0.24855115 -0.16474803
000120 00 a9 aa 3d 58 ee 65 3a bc 8b 83 be 27 e6 cb bd
       0.083330154 0.0008771173 -0.25692546 -0.099560075
000130 95 38 47 bd a0 16 fe bd ba 2f dc be b4 e4 8e 3d
       -0.048637945 -0.12406659 -0.43005162 0.069772154
000140 f6 39 ff be 89 de 5e be 08 07 70 bd 6f ff 0f bf
       -0.49848908 -0.21764578 -0.058600456 -0.56249136
000150 be 74 7c be dd 28 c5 bd 83 41 51 bd 35 10 44 3d
       -0.24653909 -0.09626935 -0.051087867 0.04786702
000160 3c 9e 2f 3f d4 6c 27 be 70 2c 34 bd 5e 99 12 be
       0.6860082 -0.16350108 -0.04398769 -0.14316317
000170 05 54 be be 94 a0 c4 be 2c 40 1f 3e 78 b9 a6 be
       -0.37173477 -0.3840376 0.15551823 -0.32563376
000180 69 ca 2d bd 58 e8 9e bd 43 65 6d be 9b 6d 7d be
       -0.04242936 -0.0775916 -0.2318316 -0.24748842
000190 1b a9 0b bf 93 92 64 be bf 16 02 bf e5 18 33 be
       -0.5455491 -0.22321539 -0.5081596 -0.17489965
0001a0 46 5d e9 3c 7b 3d 22 be 6e ad 83 be 3a d8 ca be
       0.028486859 -0.15843765 -0.25718254 -0.39618093
0001b0 e0 c1 16 be 54 25 1b bd 00 59 91 be 8e df d5 be
       -0.14722395 -0.037877396 -0.28388214 -0.4177212
0001c0 c3 8c 97 be a3 0d 57 be d2 b5 ff be bc 95 f2 be
       -0.2959958 -0.21001296 -0.49943405 -0.47379863
0001d0 39 64 35 bd bd 84 18 be f9 26 85 bd 60 99 29 be
       -0.044285033 -0.14894386 -0.06501574 -0.16562414
0001e0 e2 e4 1d 3a 18 47 06 bc 1f 41 6e be 7f 54 09 3d
       0.0006023181 -0.008195661 -0.23267029 0.033527847
0001f0 94 c9 af be db 8b 89 3e 4a 89 05 3d 0f 34 1f bd
       -0.3433348 0.26864514 0.032601632 -0.038868006

output.weight f4 [300, 128]
000000 16 d7 ba 3f 56 20 2b 3f 00 78 8f 3f 10 38 0b bf
       1.4596889 0.66846216 1.1208496 -0.5438242
000010 44 ac e6 be 39 75 bd 3e 38 43 0b be ca be 61 3f
       -0.45053303 0.37003496 -0.1359986 0.88181746
000020 f9 c4 b1 3f 15 0e 07 40 a0 5d 08 3f d8 c3 13 bf
       1.3888236 2.1102345 0.5326786 -0.5772071
000030 a8 5b d8 3f 38 e9 66 3f 00 42 23 40 25 4d 89 3f
       1.6902971 0.90199614 2.5509033 1.0726668
000040 b2 ac b0 be 0b df 8b 3f 84 d4 04 3f 32 17 47 3f
       -0.34506756 1.0927442 0.51886773 0.7776977
000050 76 52 12 bf 18 f2 ac be 3f 4b bb 3f ff 25 6f 40
       -0.57157075 -0.33778453 1.4632338 3.736694
000060 c1 06 81 3f 59 36 59 be 1e 02 96 bf 4a a3 37 bf
       1.0080186 -0.21212138 -1.1719396 -0.71733534
000070 2c 98 81 3f 74 ae 33 be 5b 30 bc 3f a4 10 b9 3f
       1.0124564 -0.17547017 1.4702257 1.4458203
000080 59 f0 99 3f f1 ec 0b be 95 cf 71 3f c4 4b 3a 3e
       1.2026473 -0.13664605 0.9445737 0.18192965
000090 0d fe 85 3f 1d 91 07 40 50 fc c9 3f 0f fe b6 bd
       1.0468155 2.118232 1.5780125 -0.089351766
0000a0 40 a8 8f 3f f0 81 92 3f 14 25 84 40 e2 b6 91 3f
       1.1223221 1.1445904 4.129526 1.1383936
0000b0 86 be 72 3f 2f 4d ee be de 3f 70 3f b7 49 9b 3f
       0.94821966 -0.4654326 0.93847454 1.2131871
0000c0 f9 25 33 3f 72 fe 77 3f db 66 13 bf 3b 47 79 3f
       0.69979817 0.9687263 -0.5757882 0.97374314
0000d0 36 1c 36 40 f1 52 85 3f d0 c9 c5 3f 4d d0 79 40
       2.8454719 1.0415937 1.5452213 3.9033387
0000e0 73 55 8b 3f 4d 13 95 3f 08 fc 6b 3f a8 13 51 3f
       1.0885452 1.1646515 0.92181444 0.8167062
0000f0 15 53 98 40 49 27 1f 3f 61 e5 e4 3f 55 3c da bd
       4.760142 0.6216932 1.7882501 -0.10656039
000100 41 68 c9 3f dc 7c 43 3f ce bb 0f 40 c1 6e 1a 3d
       1.5734941 0.76362395 2.2458377 0.03770328
000110 42 c4 32 40 43 1f a4 be 45 db 93 3f 5a d3 43 3f
       2.7932286 -0.320551 1.1551291 0.7649437
000120 b1 b3 d0 3e 6c 4d 82 3f 60 1f 61 3f bd e1 fe 3e
       0.40762094 1.0179877 0.879385 0.497816
000130 5a 77 e0 bc e5 af fe 3f 47 57 17 40 eb cc c2 3d
       -0.027400661 1.9897429 2.364702 0.09511741
000140 5e 81 b8 3f 88 00 5e 3f 02 14 e3 3e 88 ef 18 40
       1.441448 0.8671956 0.44351202 2.3896198
000150 59 1c 16 40 c1 48 cf bc 02 72 d1 3d 87 3c 33 3e
       2.3454802 -0.025303246 0.102268234 0.17503558
000160 11 bc 74 bf 98 91 e7 3f 2b 69 85 3e bc c1 88 3f
       -0.95599467 1.8091307 0.260568 1.0684123
000170 6b 23 7f 40 de 8e 91 3f 89 4d 89 be 19 92 78 40
       3.9865367 1.1371725 -0.26816967 3.883917
000180 f9 82 2e 3e 16 8a 8a be 52 5f ab 3f 46 b4 bd 3f
       0.1704215 -0.27058476 1.3388464 1.482064
000190 c8 62 a5 3e da 1b a3 3f e3 3c 3b 40 12 c2 0e 40
       0.32301927 1.2742875 2.9255912 2.230595
0001a0 03 4b 7c 3e 16 fc 29 3f 05 57 8e 3f 92 94 aa 3f
       0.2463799 0.6640028 1.1120306 1.332659
0001b0 3c ab d8 3f 28 31 1e 3e 14 d1 c2 3f f0 8e b7 3f
       1.6927257 0.15448439 1.5220056 1.4340496
0001c0 12 42 43 40 f3 ab 86 3f 79 73 ab 3f b4 88 cc 3f
       3.0509076 1.0521225 1.3394614 1.5979218
0001d0 86 18 61 3e 25 5f 9e 3f 95 26 b5 3f 3c 95 6b 3f
       0.21982011 1.2372786 1.4152399 0.9202459
0001e0 cf 17 48 3f d1 b5 8e 3e 9e 94 dd 3f c3 0f 01 bf
       0.7816133 0.2787309 1.7310979 -0.50414675
0001f0 2a c1 e8 3f 7c ef 3a be 45 7c d8 bd a6 0e 22 3f
       1.8183949 -0.18255419 -0.105705775 0.633036
000200 43 77 bb 3f f5 98 2f 3f a9 27 75 3f 40 a3 18 bf
       1.4645771 0.6859277 0.9576364 -0.596241
000210 89 05 c2 be de 87 08 3f ad 3c 17 be 7e d2 59 3f
       -0.37894848 0.53332317 -0.1476924 0.8508681
000220 12 4d a8 3f c0 13 fa 3f c1 d9 2f 3f 67 a1 23 bf
       1.314852 1.9537277 0.6869164 -0.63918155
000230 9d c5 d6 3f ac 3d 78 3f fe c7 10 40 93 8c 5a 3f
       1.6779057 0.96969104 2.2622066 0.8537075
000240 f2 14 cb be ff e0 85 3f 39 ef 0c 3f af 0d 41 3f
       -0.39664418 1.0459288 0.55052525 0.75411505
000250 22 b0 1a bf 48 be 88 be bd e1 b6 3f 5b 59 54 40
       -0.6042501 -0.26707673 1.428764 3.3179538
000260 97 78 84 3f aa 89 93 3d a5 0a 8a bf 4f 35 3c bf
       1.0349301 0.07203992 -1.0784498 -0.7351884
000270 ec 54 89 3f 2b 0f d8 bd 84 2e 87 3f 5d d2 b4 3f
       1.0729041 -0.10549768 1.056107 1.4126698
000280 86 23 8d 3f 66 95 21 be 7a 45 78 3f 81 3e 5a 3e
       1.1026466 -0.15779647 0.9698101 0.21312906
000290 79 d3 7a 3f d9 06 fc 3f 4a be d0 3f 37 4b 4b bc
       0.9797893 1.968959 1.6308072 -0.012408069
0002a0 79 49 97 3f ca 79 8d 3f 69 47 50 40 6f 3a b0 3f
       1.1819297 1.1052792 3.2543585 1.3767833
0002b0 3e 03 6c 3f 32 6a 0a be 3d 39 6b 3f f9 b9 a8 3f
       0.9219245 -0.13517073 0.91884214 1.3181754
0002c0 0b 85 e7 3e 8a 8f 7b 3f 0f 47 25 bf fd c1 5b 3f
       0.4521869 0.982659 -0.6456155 0.8584288
0002d0 09 0c 11 40 a1 10 80 3f 92 db cb 3f 46 fe 4c 40
       2.2663596 1.0005075 1.5926383 3.2030196
0002e0 cb 80 87 3f 17 65 aa 3f 0e 1c 5b 3f bd d7 5f 3f
       1.058618 1.33121 0.85589683 0.87438565
0002f0 85 c5 8d 40 21 70 27 3f b3 1f f7 3f 59 7a 66 be
       4.4303613 0.6540547 1.9306549 -0.2250761
000300 ac ae a7 3f 14 d8 42 3f c1 96 fb 3f 00 f6 a8 3d
       1.3100181 0.7611096 1.9655381 0.08250046
000310 21 10 de 3f 13 ac a8 be 80 39 99 3f d9 57 3d 3f
       1.7348672 -0.32943782 1.1970673 0.7396217
000320 59 dd 8c 3e a7 82 7b 3f 7f 41 73 3f 22 02 a5 3e
       0.27512625 0.98246235 0.95021814 0.3222819
000330 ba 1a 0f 3e f0 81 da 3f 1b f4 0a 40 37 a7 27 3d
       0.13975039 1.7070904 2.171149 0.040930953
000340 50 0d c5 3f 61 ba 58 3f 74 5a 60 3e e4 4e 0c 40
       1.5394688 0.8465939 0.21909505 2.192315
000350 9e 33 13 40 59 71 bb 3d 2c f5 f1 3d 1d 05 f2 3d
       2.3000255 0.09152479 0.11814341 0.118173815
000360 10 55 45 bf 99 2e e7 3f e5 ae 04 be c1 db 76 3f
       -0.7708292 1.8061095 -0.12957342 0.9642907
000370 53 e3 50 40 ed 6a 8a 3f 0f 11 63 be 21 a0 78 40
       3.2638748 1.0813881 -0.22174476 3.8847735
000380 e1 5c ca 3d 10 56 b0 be 25 eb ac 3f 5b eb 9e 3f
       0.098809965 -0.3444066 1.350926 1.2415575
000390 ea 14 b4 3e b7 17 94 3f ca b1 1b 40 6d 3d 0e 40
       0.35172206 1.1569737 2.4327264 2.2224991
0003a0 8e 22 4c 3e 6e 91 af 3e 31 02 a0 3f 47 8d 63 3f
       0.19935057 0.34290642 1.2500669 0.8888745
0003b0 78 d7 c7 3f af 9a 69 3c d9 fe b4 3f 31 36 a0 3f
       1.5612631 0.014258071 1.4140273 1.2516538
0003c0 e7 80 3e 40 9a 12 7d 3f 4f e2 5b 3f c9 09 bf 3f
       2.9766176 0.9885651 0.85892195 1.4924861
0003d0 f2 33 12 bc 89 49 9a 3f 59 dd b0 3f a8 f6 62 3f
       -0.008923518 1.2053691 1.381755 0.8865762
0003e0 5b e7 3f 3f 25 f3 e8 3d 85 79 c0 3f b9 ee f5 be
       0.74962395 0.11374501 1.5037085 -0.48033693
0003f0 f9 b1 f7 3f a7 70 49 be 1d 30 5d 3e 87 d8 05 3f
       1.9351188 -0.1967188 0.21600385 0.5228352

output.bias f4 [300]
000000 11 7f 6f c0 45 c5 3b c0 53 21 1c c0 60 01 07 c0
       -3.7421305 -2.9339154 -2.439534 -2.109459
000010 6a 54 ea bf a9 68 cc bf 0c 9e b4 bf da c1 a0 bf
       -1.8307011 -1.596944 -1.4110732 -1.2559159
000020 f3 93 8f bf 64 67 81 bf 6f e4 68 bf c8 17 52 bf
       -1.1217026 -1.0109677 -0.9097356 -0.8206754
000030 2d 5b 3c bf b1 cd 28 bf dc 5e 16 bf 80 7b 05 bf
       -0.73576623 -0.6593886 -0.58738494 -0.5214157
000040 3a c2 e9 be 11 0a c9 be b5 84 a9 be d6 15 8b be
       -0.45655996 -0.39265493 -0.3310906 -0.27165097
000050 f2 a7 5f be bc b6 2b be f2 15 f4 bd 0b b1 90 bd
       -0.2184141 -0.16768926 -0.11918248 -0.07065018
000060 57 04 d6 bc 25 c8 1e b9 15 51 01 3d 1d a0 a6 3d
       -0.026125116 -0.00015142614 0.031571466 0.08136008
000070 5c 2b 0d 3e 2a d5 4b 3e db 1c 87 3e ee e4 aa 3e
       0.13786072 0.19905534 0.26389202 0.33377784
000080 ad ca d1 3e ca 8b fa 3e 44 61 13 3f e9 c3 2b 3f
       0.40974942 0.48934776 0.5757029 0.6709581
000090 fb cb 45 3f 3d 9c 61 3f 86 0d 80 3f c9 c8 90 3f
       0.77264374 0.88129026 1.0004127 1.1311275
0000a0 c7 e9 a2 3f 4d 6f b6 3f ed ce cc 3f ce a5 e5 3f
       1.2727593 1.4252716 1.6000649 1.7941225
0000b0 a6 9e 00 40 e8 b6 10 40 73 a7 23 40 1e bf 3a 40
       2.0096831 2.2611637 2.5570953 2.9179149
0000c0 e4 ba 57 40 5b 8b 7e 40 27 b0 54 c0 c7 c2 26 c0
       3.370782 3.9772556 -3.3232515 -2.6056383
0000d0 63 da 08 c0 33 10 e8 bf 28 9e c7 bf c9 86 ad bf
       -2.1383293 -1.8129944 -1.559514 -1.3556758
0000e0 23 26 98 bf c3 47 86 bf 8f 17 6f bf a6 1b 55 bf
       -1.1886638 -1.049065 -0.9339532 -0.83245313
0000f0 10 48 3f bf 09 77 2c bf b1 b2 1b bf 75 ba 0c bf
       -0.74719334 -0.67369133 -0.60819536 -0.5497201
000100 e0 03 fd be 21 cb e2 be af 6d cb be 17 55 b5 be
       -0.4941702 -0.442956 -0.3973212 -0.3541648
000110 8d cf 9f be 02 66 8b be c1 95 70 be ce 32 4d be
       -0.31213036 -0.27226263 -0.23494627 -0.20038912
000120 8c ea 28 be 0c f8 04 be f3 60 c1 bd 05 92 69 bd
       -0.16495723 -0.12985247 -0.0944232 -0.05702402
000130 2b 98 8c bc 3c 24 c4 3c c5 f6 97 3d df a3 06 3e
       -0.017162403 0.02394306 0.074201144 0.1314845
000140 3f 95 46 3e b7 51 86 3e 6a 6e ac 3e 06 fd d4 3e
       0.1939287 0.26234218 0.3367799 0.41599292
000150 a4 e5 ff 3e a6 7d 17 3f 6a c7 30 3f 21 25 4c 3f
       0.4997989 0.591761 0.6905428 0.79744154
000160 41 73 6a 3f a3 93 85 3f 90 7f 97 3f 8c 98 ab 3f
       0.91582114 1.043568 1.1835804 1.3405929
000170 70 ad c1 3f 21 8f da 3f 87 a0 f6 3f 2b 59 0b 40
       1.5131054 1.707493 1.9267739 2.1773174
000180 19 61 1e 40 31 0c 35 40 c1 4c 51 40 33 fa 76 40
       2.4746764 2.828869 3.2703097 3.859021
000190 06 56 55 c0 64 7b 25 c0 59 29 08 c0 14 36 e8 bf
       -3.3333755 -2.5856562 -2.1275237 -1.8141503
0001a0 2d a8 ca bf 6d 78 b2 bf 6e 2f 9e bf 10 ba 8c bf
       -1.5832573 -1.3943001 -1.2358224 -1.0994282
0001b0 b3 c5 7b bf e6 07 61 bf 25 3f 4a bf 07 7b 36 bf
       -0.9834854 -0.8790268 -0.790026 -0.71281475
0001c0 ec 93 24 bf 58 d2 13 bf 05 22 04 bf 55 ff e9 be
       -0.6428821 -0.57742834 -0.5161441 -0.45702615
0001d0 51 84 cd be 44 92 b2 be cd 7f 9b be b7 b4 83 be
       -0.40140012 -0.34877217 -0.30370942 -0.25723812
0001e0 f5 50 5a be c2 5e 2d be 9e c9 00 be 1d 6a ab bd
       -0.21319945 -0.16930678 -0.12576911 -0.08369849
0001f0 86 19 3e bd 8d 45 63 bc 4d 1f ab 3c da bc 89 3d
       -0.04641106 -0.013871563 0.020888949 0.06725474
000200 17 a4 f3 3d de 03 35 3e 59 3f 72 3e d8 f3 9a 3e
       0.11896532 0.17677256 0.23656978 0.30264163
000210 7a 03 bf 3e 3f 17 e5 3e 22 fa 07 3f 11 96 1e 3f
       0.3730734 0.44744298 0.5311605 0.61947733
000220 0e be 36 3f 61 bf 51 3f 58 0d 6e 3f ac 9f 86 3f
       0.7138375 0.81932646 0.9298911 1.0517478
000230 a8 fe 97 3f bb 49 ab 3f 3e 7d c0 3f 0b 80 d8 3f
       1.187459 1.3381876 1.5038221 1.6914076
000240 cd ec f3 3f 8b b2 09 40 3b 7a 1c 40 4c f4 32 40
       1.9056641 2.1515224 2.4449604 2.7961607
000250 09 0a 50 40 8b 3c 78 40 a0 cd 2f c0 cf 8a f4 bf
       3.2506125 3.8786952 -2.7469254 -1.9104861
000260 ec 6f b7 bf 0d a5 8e bf 64 88 63 bf aa 68 3a bf
       -1.4331031 -1.114412 -0.8887999 -0.72815955
000270 85 c8 1b bf 43 7b 04 bf e5 9e e4 be 9b e1 c6 be
       -0.60852844 -0.5175058 -0.44652477 -0.38843998
000280 ff 8e ad be e7 0e 98 be eb 43 85 be 0c 65 67 be
       -0.3389816 -0.2969887 -0.2602838 -0.2259714
000290 2e 89 49 be 32 d4 2c be 66 99 12 be d2 56 f8 bd
       -0.19681236 -0.16877821 -0.1431633 -0.12125935
0002a0 28 a7 ce bd 7c 68 a5 bd bb f9 7d bd e2 99 34 bd
       -0.10090476 -0.080765694 -0.06200574 -0.044092067
0002b0 1f 05 d6 bc 8b 30 25 bc c8 a2 22 3a e0 23 a2 3b
       -0.026125489 -0.010082374 0.0006204066 0.0049481243
0002c0 7e 88 95 3c de 42 19 3d b7 a6 7d 3d c4 f9 b9 3d
       0.018253561 0.037417285 0.06192657 0.09080842
0002d0 fe aa 00 3e dc 1f 2a 3e 6f d3 59 3e d5 96 88 3e
       0.12565228 0.16613716 0.21272062 0.26677576
0002e0 19 74 a8 3e a8 42 cc 3e b7 4f f4 3e 3d dd 10 3f
       0.32901075 0.39894605 0.47717068 0.5658758
0002f0 44 c3 29 3f 3a ed 45 3f 5c 67 65 3f 52 de 84 3f
       0.66313577 0.77315104 0.8961084 1.0380347
000300 eb 6d 99 3f 29 2d b1 3f 25 c3 cc 3f fe b3 ec 3f
       1.1986669 1.3841907 1.5997053 1.8492429
000310 a6 71 09 40 59 c2 20 40 34 b4 3e 40 5e 33 68 40
       2.1475616 2.511862 2.9797487 3.6281352
000320 96 3f 4e c0 85 bc 20 c0 01 5d 02 c0 bd f8 db bf
       -3.222631 -2.5115063 -2.0369265 -1.7185284
000330 da 3f bd bf ee 2b a5 bf 55 61 91 bf 03 4f 81 bf
       -1.4785111 -1.2904031 -1.1357828 -1.0102237
000340 55 4b 67 bf c6 93 50 bf 84 e7 3c bf 99 46 2b bf
       -0.9034932 -0.81475484 -0.73790765 -0.669046
000350 99 74 1b bf 34 66 0d bf db 50 00 bf 09 b3 e9 be
       -0.6072479 -0.55234075 -0.50123376 -0.45644405
000360 5c 93 d2 be d2 a7 bd be e2 0c a9 be 52 1b 95 be
       -0.4112805 -0.370421 -0.3301764 -0.29122406
000370 19 1f 81 be 49 63 5b be da 85 34 be 4a 84 0d be
       -0.25219038 -0.21424593 -0.17629185 -0.13819996
000380 5b 8b c9 bd 99 c8 6c bd 70 c7 87 bc ce 03 f8 3c
       -0.09841033 -0.057808492 -0.016574591 0.030275252
000390 bc 5e a7 3d be 5f 0b 3e cd 65 48 3e 11 0c 85 3e
       0.08172366 0.13610741 0.19570084 0.25985768
0003a0 33 ab a7 3e f8 ac cd 3e 15 08 f7 3e f2 f4 11 3f
       0.32747802 0.40171027 0.48248354 0.5701438
0003b0 2c 70 2a 3f 90 0f 45 3f 53 50 62 3f 5b 4e 81 3f
       0.6657741 0.7697687 0.88403815 1.0102037
0003c0 89 df 92 3f d4 54 a6 3f 3e 19 bc 3f b7 c9 d4 3f
       1.1474468 1.2994637 1.4695203 1.6624058
0003d0 95 88 f0 3f e1 3d 08 40 44 09 1b 40 f9 e2 31 40
       1.8791682 2.1287768 2.4224405 2.7794783
0003e0 b0 c5 4e 40 d1 f8 75 40 cf a4 52 c0 26 69 26 c0
       3.230816 3.8433115 -3.291309 -2.6001678
0003f0 22 78 0b c0 8a 04 ef bf 81 f2 ce bf 00 d4 b3 bf
       -2.1792073 -1.867326 -1.6167756 -1.4049072
