figs2-3_rl/results/space_invaders-QRDQN/network.pth (torch_old, 684252 bytes, 6 tensors)

conv.weight f4 [16, 6, 3, 3]
000000 40 c6 15 bd 89 27 80 bc 7a 9f 80 3f 88 5a 31 3e
       -0.03656602 -0.015643852 1.0048668 0.17319691
000010 d6 d6 8d be 7e 97 52 bf a4 ea 81 3f b7 d9 bc 3e
       -0.2770297 -0.8226241 1.0149732 0.36884853
000020 d3 d2 bd be 9e 81 4d 3e 7e d4 b8 be 73 da f7 be
       -0.3707491 0.20068976 -0.3609962 -0.4840885
000030 28 a5 c7 3d 62 78 99 be ba 11 9f bd 78 41 02 bf
       0.09748298 -0.29974657 -0.07767053 -0.5088115
000040 49 5f 08 3e 07 61 00 bf 92 2a d0 3c eb c2 84 3e
       0.13317598 -0.5014805 0.025410924 0.2592996
000050 28 a9 a4 3e 16 b3 16 3e 9b 7c e3 3d 79 d1 5b 3e
       0.32160306 0.14716753 0.11107751 0.21466626
000060 cc 08 f0 3e e1 b8 6a bd 4f 10 15 3f c6 2b a8 3e
       0.4688171 -0.05730522 0.5822801 0.32845896
000070 be 2d 9c 3e ce 3c dc 3e e3 6a b6 bc 7a 4e 83 3e
       0.3050365 0.4301514 -0.022267764 0.2564581
000080 80 cf 10 3c 43 f2 95 3e 44 73 00 be 79 f4 f6 3e
       0.008838534 0.29286394 -0.1254397 0.48233393
000090 ad 09 d4 bb db 9d ea bc 24 f4 84 bc 64 85 14 bc
       -0.00647088 -0.028639724 -0.016229697 -0.009065006
0000a0 99 ae 41 be 54 e9 9d 3d 96 cf 13 3f 73 0f 7a bd
       -0.1891426 0.077105194 0.57738626 -0.06104989
0000b0 07 d4 12 be 0b 89 1e 3d 2b 5b c4 bd 04 3d 0b bd
       -0.14338695 0.038704913 -0.095877014 -0.033993736
0000c0 6a df 84 bc 09 f8 dc bf d4 1a 21 3c c0 99 eb 3c
       -0.016219813 -1.7263194 0.0098330565 0.028759837
0000d0 84 3d a8 3b 57 b4 86 3c 61 6b 1c 3e 4a 7c f0 3e
       0.0051342864 0.016443415 0.15275337 0.46969825
0000e0 3c 1e 8b 3e 18 8a d5 3d a0 74 b9 be 7c c6 11 3f
       0.27171504 0.1042673 -0.3622179 0.5694349
0000f0 93 4c 2a bf 93 0b 3d 3e cb 63 80 bf 7c 1e f7 be
       -0.66523093 0.18461446 -1.0030454 -0.48265445
000100 da 14 95 be a8 06 14 be 89 f4 27 be 9d d0 05 be
       -0.2911747 -0.14455664 -0.16401877 -0.13067861
000110 1c df 34 3d 15 05 0b bf c8 d7 f4 be 61 92 17 bf
       0.044158086 -0.5430463 -0.47820878 -0.5920773
000120 24 cc b4 3e c6 fb de bf 8f de 57 3d 5c 66 a0 3e
       0.35311997 -1.7420585 0.052702483 0.31328094
000130 2a 97 da 3e 35 d7 3e be ef 22 b7 3d 83 25 53 3e
       0.42693454 -0.18636782 0.0894221 0.20619778
000140 fa 75 3b 3f 9e a5 d1 3e 28 aa e0 3e ac ca 81 3e
       0.7322689 0.40946668 0.4387982 0.2534994
000150 50 08 74 3d f7 eb 3e 3e 3c 1a 60 bc fd 7a a9 3e
       0.05957824 0.18644701 -0.01367813 0.33101645
000160 95 d6 bb 3e ef 14 fd 3e d6 0e 44 bc 48 ab 9a bc
       0.3668715 0.49430034 -0.011966428 -0.018880501
000170 e7 7e 79 bb 83 22 6e be 0d 51 33 bd ec 7f 2d 3c
       -0.0038070024 -0.23255353 -0.043778468 0.010589581
000180 56 0d 2b be 52 30 aa bd cf 29 1a 3d d9 27 4c bd
       -0.16704306 -0.083099976 0.037637528 -0.04984269
000190 bb f1 a0 3d 9d ac 94 bc 08 0a 10 be cb c9 8a 3e
       0.078586064 -0.018148715 -0.14066327 0.2710708
0001a0 ab 61 01 be 40 45 49 3a 22 3b 03 3c 80 cf fc bb
       -0.12634914 0.00076778606 0.008009704 -0.0077151656
0001b0 42 ff 0a 3f 64 6e 21 bf ea ee 54 3f f4 f8 1b be
       0.5429574 -0.6305907 0.83177054 -0.15231687
0001c0 7e 33 dd 3d 7c 13 76 bd 52 6f 2a 3c 97 23 f4 3c
       0.10800837 -0.060077175 0.010402517 0.029802127
0001d0 23 c8 fa 3c 47 93 f9 be 11 d1 4c 3e cd ee 83 3d
       0.03061301 -0.48745176 0.20001628 0.06442032
0001e0 27 a6 2b 3e c6 84 af be ed 91 7d be 8b d9 00 3f
       0.16762601 -0.34280986 -0.24762698 0.50331944
0001f0 ab 2c 99 3d ee 1d 19 3d a8 63 e5 3e 07 32 71 be
       0.07479223 0.03738206 0.44802594 -0.2355424
000200 48 6b 70 bd 6b 93 be 3d 93 5b ab 3e c6 68 46 3e
       -0.05869606 0.093054615 0.33468303 0.19375905
000210 e5 9a a0 bd 4e 55 dc 3d 08 18 43 be 9a 64 ed 3e
       -0.07842044 0.10758458 -0.19052136 0.46365815
000220 59 8f 58 be 51 0e b4 bd 17 8c 6b be 97 3f 92 3e
       -0.21148433 -0.08791793 -0.23002659 0.2856414
000230 ee c4 68 3e 56 78 b3 bd a7 87 5e be d1 db 81 be
       0.22731373 -0.08763187 -0.21731435 -0.2536302
000240 3e e3 63 bb 67 fc b1 bc c9 65 a3 bc 08 9c 05 bd
       -0.0034772898 -0.0217268 -0.019945996 -0.032619506
000250 4e ad cd bb 4c 6b 2e bc 95 24 d8 bb 79 d8 98 bd
       -0.006276763 -0.010645699 -0.006596158 -0.07463164
000260 7f 79 a5 bc 7b a1 a4 bd 8d e4 d4 3d 88 36 55 3d
       -0.020199535 -0.080386125 0.10395155 0.05205396
000270 d9 41 8f 3d 34 da 96 3e 89 dc 5d 3d 09 68 1a bd
       0.06994981 0.2946335 0.054165397 -0.037696872
000280 c0 02 db 3c 67 83 bd 3c 07 10 21 3f e6 66 82 3e
       0.02673471 0.023133947 0.6291508 0.2546913
000290 78 4e a1 3e a8 b4 65 bd 2c 96 eb bd 8e 57 50 3e
       0.3150518 -0.05608049 -0.115032524 0.203459
0002a0 2e d9 84 3e 1a 41 78 3e 68 5f 74 3d 23 29 b6 be
       0.25946945 0.24243584 0.0596613 -0.3557826
0002b0 f5 6f df be c7 44 d8 be 20 ed 8f bf 1c 7b 89 be
       -0.43640104 -0.42239973 -1.124424 -0.26851737
0002c0 99 46 78 bf aa 68 d0 3e 5a b2 6f bf a9 22 43 3f
       -0.96982723 0.40704852 -0.9363152 0.7622476
0002d0 f5 cb 76 3e d0 b7 b1 3e de dc b5 bd 96 f1 23 bf
       0.24101241 0.3471055 -0.08880018 -0.64040506
0002e0 4f 89 0c 3f 89 a7 10 bf d1 6a 25 3f 75 28 8c 3e
       0.54897016 -0.5650564 0.64616114 0.27374616
0002f0 fa 1e 9a 3e da bf 08 3e 1a 9e d2 3e 52 0e bb 3e
       0.30101758 0.13354436 0.41136247 0.36534363
000300 ea 8e 79 3e 59 f1 b5 be 62 44 e8 3e be 22 45 3f
       0.24370924 -0.35535696 0.45364672 0.7700614
000310 d2 46 e0 3d 42 ae 9b 3d 60 41 f2 bc bb 05 72 bd
       0.10951008 0.076015964 -0.029572189 -0.059087496
000320 41 6e 76 bc 38 af a2 bd 9a e8 9e bd 80 28 87 bc
       -0.015040935 -0.079435766 -0.07759209 -0.016498804
000330 1c bd 5a be 9e 9e 2a bd f9 5f f5 bc 28 4f 33 bb
       -0.21361202 -0.041655175 -0.02995299 -0.0027360413
000340 e8 0d 41 bd ca dd af 3b f2 08 02 be f5 b1 c6 bc
       -0.047132403 0.0053670155 -0.12698725 -0.024254778
000350 66 03 f5 bc 9a d2 55 3b 0a 3e 4a 3c bd 85 ba bb
       -0.029908847 0.003262675 0.012343893 -0.0056922124
000360 34 97 3d be ec c4 ab 3e ac 66 11 bd ec 64 97 bf
       -0.1851471 0.33548677 -0.035498306 -1.1827674
000370 23 46 87 be a7 52 88 be 93 2e b3 3e 25 60 5a 3d
       -0.26420698 -0.2662556 0.3499647 0.053314347
000380 6e dd 29 bf 3e 33 ec be 9b de 2d bf 7e b3 c9 be
       -0.663535 -0.46132845 -0.67917794 -0.39394754
000390 2e 30 f6 be 39 22 44 bf a1 39 18 3e 13 8f 99 bd
       -0.48083633 -0.7661472 0.14865734 -0.07497992
0003a0 82 0a d4 3b b7 92 46 3e 7c 43 21 3f a0 56 02 3f
       0.006470979 0.19391905 0.629936 0.5091343
0003b0 d2 51 8c 3c fd e6 2e 3f ae bd 99 bd d2 16 d6 bf
       0.017128859 0.6832121 -0.07506882 -1.6725714
0003c0 43 4d 33 3e ba 13 36 be 64 23 26 be f6 47 c3 3e
       0.17509942 -0.17780963 -0.16224438 0.3814084
0003d0 dc 8c cb 3e 1a e1 d8 3e 82 80 a2 3e 6b 0d 60 3e
       0.39755905 0.4235924 0.3173867 0.21880119
0003e0 32 8a e6 3e 06 1e 44 3e d3 98 0b be 5c ad 20 bc
       0.4502731 0.19152078 -0.13632517 -0.009806957
0003f0 73 0e ac 3c 25 ec de 3c 43 27 7c 3c e7 c3 18 bd
       0.021002984 0.027212212 0.01539022 -0.037296202

conv.bias f4 [16]
000000 11 78 d1 be de d5 43 bd 01 9e 7a bd 4d f0 98 bd
       -0.40911916 -0.04781138 -0.06118584 -0.07467709
000010 45 cf 70 be f6 0c 91 3f 94 ae d3 3c 3e 0b d3 3c
       -0.23516567 1.133208 0.025840081 0.025762197
000020 49 c5 d7 be 24 24 40 bd c8 d2 07 3f 04 45 36 be
       -0.42142704 -0.046909466 0.53056 -0.17799765
000030 a4 5f 8f be ec 2c b7 3c 14 3e 5c be d7 2f 3c 3e
       -0.28002656 0.022360288 -0.21508056 0.18377624

fc_hidden.weight f4 [128, 1024]
000000 f4 56 93 be 3b 14 35 be d9 b1 0b 3d df ae 00 3e
       -0.28777277 -0.17683499 0.034105156 0.12566708
000010 49 ef ee be 8b cd 51 bc 2a a3 4d be 8c 1a 89 3d
       -0.46666935 -0.012805353 -0.20081773 0.066945165
000020 cb f4 64 bc 6a 9a f8 3e 38 62 4b 3d ea ea 89 3f
       -0.013974379 0.4855531 0.049654216 1.0774815
000030 ee 19 8c bd 69 41 4f 3f 9b 9f 77 3f 7c 69 ce 3e
       -0.06840883 0.8095918 0.96727914 0.40314853
000040 e2 a9 7f bb c0 c1 79 3e e9 24 e7 3e 20 02 cd 3e
       -0.003901117 0.24390316 0.45145348 0.40040684
000050 c1 5d 84 3e 55 de 81 3f da 58 51 3f a3 15 02 3f
       0.2585278 1.0145975 0.817762 0.50814265
000060 d2 08 dc 3e c3 3e 48 3f ed bf 58 3f e1 48 e5 3e
       0.4297548 0.78220767 0.84667856 0.44782165
000070 c0 1f 13 3f 01 87 57 3f f1 ba ef 3e 99 90 97 3e
       0.5747032 0.84190375 0.46822312 0.29602507
000080 42 f7 b4 3e b3 cb 6b 3f 80 3d 8a 3f ca 18 3f 3f
       0.35344893 0.92107695 1.0800018 0.746472
000090 a0 d2 3e 3f 32 03 1c 3f 7c 05 97 3e 2b cd 8b 3e
       0.7454014 0.60942376 0.29496372 0.27304968
0000a0 37 f6 c1 3e de ee 4f 3e 8c 6b 2b 3f aa 8b e0 3e
       0.3788316 0.20305964 0.6696098 0.43856555
0000b0 38 9c fe 3d 41 b8 09 3f 2b fd 52 3e a4 55 26 bc
       0.1243214 0.53796774 0.20604388 -0.010152254
0000c0 99 53 54 3f 62 b9 7e 3e 6d 3e 67 3b 11 f7 a5 3e
       0.8294006 0.24875405 0.0035285011 0.3241506
0000d0 6d 16 d2 3e 9d 62 e7 3e bf 3e bb bc fd 7d 81 bd
       0.41032735 0.45192423 -0.022857068 -0.063228585
0000e0 6c 09 50 3f ea ad a6 3e e4 c8 85 3f cf 45 4f be
       0.81264377 0.3255456 1.0451932 -0.20241474
0000f0 ce b5 97 3d 06 ff 7a be 61 66 e9 3d e4 da a0 bd
       0.07407723 -0.24511346 0.1139648 -0.0785425
000100 53 3a 1d 3e 94 44 66 3e e8 60 b2 be 5f 0b 55 3e
       0.1535428 0.22487098 -0.3483956 0.20805119
000110 09 bc 8d 3e b9 24 e0 3e 1c 98 e0 3d 4b 44 98 3d
       0.27682522 0.43778017 0.109665126 0.07434901
000120 8f f6 58 3f 52 4e c5 3e 3c 95 12 3f 5b 93 17 3f
       0.8475122 0.38536316 0.57258964 0.5920922
000130 5d 55 1d 3f af 9a 3e 3f 45 c3 9c 3e 9c ce 6f bc
       0.6145838 0.7445478 0.3061773 -0.014636662
000140 fd 5e 55 3f fe b9 46 3f 30 fb 58 3e 86 db 2c 3f
       0.83348066 0.7762755 0.2118957 0.67522466
000150 e1 51 d0 3e 5d 85 50 3f 53 d1 ee 3e 33 ea c9 bd
       0.4068747 0.81453496 0.46644077 -0.09859123
000160 7f db 16 3f 30 af 75 3f d8 e5 f1 3e de 4c 08 3f
       0.58928674 0.9597044 0.4724567 0.5324229
000170 03 94 13 3f 40 ab 16 3f b4 71 9a 3e 75 86 da bd
       0.5764772 0.58855057 0.30164874 -0.10670177
000180 18 06 58 3f fd 4b 7b 3e 14 18 80 3f 4f 3b 1e 3f
       0.843843 0.24540706 1.0007348 0.6180925
000190 27 12 46 3e 84 fa a7 3e fb f0 8e 3e e0 35 ca 3b
       0.19342862 0.32808316 0.27918229 0.006170973
0001a0 05 c7 c2 3e 45 7d 83 3e 80 62 1a 3e 95 be cf 3e
       0.38042465 0.2568151 0.15076637 0.4057509
0001b0 26 0c 51 3e ce 69 b6 3d aa 36 3c 3d 5d 52 13 be
       0.2041479 0.089068994 0.04595057 -0.14386888
0001c0 67 df 39 3e e8 a3 63 3e 0a bf 96 3d c3 75 ae 3d
       0.18151627 0.22230494 0.073606566 0.08518555
0001d0 b2 35 39 be f3 25 47 be 31 06 34 3e 17 99 5a 3e
       -0.1808689 -0.1944807 0.17580487 0.21347462
0001e0 bd fc a1 3e da 7f 2d 3f 55 14 b7 be 7d 2a 4f 3e
       0.31638137 0.6777321 -0.357577 0.20231052
0001f0 2f 40 0f be db a1 4e 3e 8d 10 87 be ef d6 7c 3e
       -0.13989328 0.2017893 -0.26379815 0.24691366
000200 ff 99 73 3e 57 3c 1c 3f dd b7 f4 3e 4b 68 2b 3f
       0.23789214 0.6102957 0.47796527 0.66956013
000210 70 83 0f 3f 8d f5 c4 3e d3 32 1f 3f ae 87 e3 3e
       0.5605993 0.3846859 0.62186927 0.44439453
000220 6d 20 77 bd 05 98 30 3f ab 79 1a 3f 73 ec 97 3e
       -0.060333658 0.68981963 0.603419 0.29672584
000230 64 47 c3 3d ce 13 10 3f ff a3 01 3f b3 27 8a 3e
       0.09535101 0.5628022 0.50640863 0.26983413
000240 0c 76 9e 3e b3 19 94 3e 72 b5 1b 3f 08 f6 35 3f
       0.30949438 0.28925857 0.6082374 0.7107854
000250 74 44 f7 3e b8 b3 c5 3e 4e c9 f4 3d aa 66 c1 bd
       0.48294413 0.38613677 0.11952458 -0.0944341
000260 bb be 97 3c 28 72 9a 3e 87 14 29 3e 12 ec ac 3e
       0.018523565 0.3016522 0.16511737 0.33773857
000270 46 73 6b bc dc be e4 3d 0d c4 7e 3e 03 64 47 3e
       -0.014370745 0.11169216 0.24879475 0.19471745
000280 48 e0 48 3f 3d 84 80 3e e0 c9 b5 3d b0 92 7c 3e
       0.78467226 0.2510089 0.08876395 0.24665332
000290 9d 01 6c 3d eb 4c 19 3e f7 97 f2 bd 53 ee 82 3e
       0.057618726 0.14970748 -0.11845391 0.25572452
0002a0 b2 07 bc 3e 1b 4c e6 be 47 9d 75 3e 40 68 79 3c
       0.3672462 -0.4497994 0.23985778 0.015222609
0002b0 1f 69 e0 bc ef 74 e3 3e 48 5a 33 3e 95 28 1d 3e
       -0.027393876 0.4442515 0.17514908 0.15347512
0002c0 dc 06 b9 3f 49 81 a8 3e 6d 34 c5 3e 4c ab 9d bd
       1.4455218 0.32911137 0.3851656 -0.07698688
0002d0 32 82 09 3d e1 41 96 bc ae f2 16 3e ca 8f 4c bd
       0.03357143 -0.01834196 0.14741012 -0.049941815
0002e0 2e 12 c2 3f f6 9d 41 3f 57 ef 10 3f 75 e0 cb be
       1.5161798 0.75631654 0.56615204 -0.39819685
0002f0 23 a9 68 be 88 55 7d be fb 44 c0 3d 1f d2 bc bd
       -0.2272077 -0.24739659 0.09388157 -0.09219765
000300 57 c7 aa 3e 54 0b e9 3e 01 54 4a 3e 93 3d d1 3e
       0.3335521 0.45516455 0.19758607 0.4086729
000310 99 fa b6 3e 12 2b 62 3e d8 f1 46 3e 5a 1e b9 3d
       0.35738066 0.22086743 0.19428194 0.09038992
000320 9a 53 c6 3e cf 98 ef 3e ac 71 eb 3e ef 05 9e 3e
       0.38735658 0.4679627 0.45985162 0.30863902
000330 82 d7 2c 3e 96 39 ba 3e b7 18 fe 3d 84 62 f2 bd
       0.16879085 0.3637206 0.12407058 -0.118351966
000340 93 55 27 3f f1 81 4c 3f 86 6c 1d 3f 96 58 2a 3e
       0.6536495 0.79885775 0.6149372 0.16635355
000350 92 66 44 3e 2c 03 05 3e b2 8a 4a 3e a0 6d 35 bd
       0.19179752 0.12989491 0.1977947 -0.044294
000360 3e 1f 8f 3e 6b 4b 91 3e 55 de fb 3e fc af 12 3e
       0.27953523 0.28377852 0.49193063 0.14324945
000370 00 3f 91 3d 99 d6 a4 3d d0 44 3a bb 3e 65 bf 3e
       0.070920944 0.08048744 -0.0028422363 0.3738193
000380 56 f1 b8 3d 67 31 04 3f 22 36 39 3e 04 71 1d 3e
       0.09030406 0.5163788 0.18087056 0.15375143
000390 71 56 36 3e c5 0b 72 3e 6e 2e 3f 3e 0c 67 00 be
       0.17806412 0.23637302 0.18670055 -0.1253931
0003a0 04 d3 98 3e 96 6f 99 3e 4c 51 90 3e 55 d5 f6 bb
       0.29848492 0.29967946 0.28187025 -0.0075327554
0003b0 99 47 98 3d ac 47 60 3e ab 31 61 be 93 56 d6 3e
       0.07435531 0.2190234 -0.21991603 0.41862926
0003c0 e9 9b d4 be 98 1f ae 3e 05 c7 60 bd 69 1a 98 bd
       -0.415252 0.3400848 -0.0548773 -0.07426912
0003d0 4d d5 5a 3e ce 6d fd 3d 38 bb af bd 56 15 c1 3c
       0.2137043 0.12374459 -0.08580631 0.023569744
0003e0 ea 2c d3 3e 40 76 1b 3f d9 54 01 3f b6 35 95 be
       0.41245204 0.6072731 0.5052009 -0.2914254
0003f0 b1 e7 a2 be a1 5a 00 be 41 40 20 3e 50 07 0a be
       -0.31817392 -0.12534572 0.15649511 -0.13479352

fc_hidden.bias f4 [128]
000000 bf d1 15 be ef a8 af 3d 3c 51 4e bd fa cb 0d bf
       -0.14630793 0.085771434 -0.05037044 -0.5538937
000010 22 ea b1 bc 5e 06 44 bd cf 97 46 3f 4c 46 08 3d
       -0.021718089 -0.047857635 0.7757539 0.033270165
000020 8e c5 1a 3f 79 40 04 3e aa 1e 0a bf 24 c2 6b bc
       0.60457695 0.1291522 -0.5395304 -0.014389548
000030 0c 53 36 bd 21 5a b8 bd ef 76 68 be 09 5d 5d be
       -0.044512793 -0.09001566 -0.2270162 -0.21617521
000040 83 27 64 bd ee dd f5 be ff 6f 4e 3e 8a 39 f7 bd
       -0.055701744 -0.4802088 0.2015991 -0.120715216
000050 42 2f 6f be bb 72 08 bd 3b 42 b0 3d f1 fb d2 be
       -0.23357871 -0.03331254 0.086063825 -0.4120784
000060 51 8a b3 be ec 19 6c bd f1 4d f3 bd ec 73 d4 3d
       -0.35066465 -0.05764191 -0.118801005 0.10373673
000070 2d fd 84 3d a0 4f ea bd 4d 49 1e 3d 47 4c 1b be
       0.06493602 -0.114409685 0.038644124 -0.15165816
000080 5c ee bc be 0a 9c 4d bd 7b a6 0b bf 2c e2 76 bd
       -0.36900604 -0.05019764 -0.54550904 -0.060274288
000090 b0 d1 75 bc b6 de 47 be 74 55 2e be 07 8b 10 3e
       -0.015003607 -0.19518551 -0.17024785 0.14115535
0000a0 6b 1b d8 bd d4 dc 16 be af c7 96 be f2 22 0b 3d
       -0.105521046 -0.14732677 -0.29449221 0.033968873
0000b0 b1 f3 1c bf 4d f7 33 3d c9 2f a8 bd 8a 91 38 be
       -0.61309344 0.043937016 -0.08212239 -0.18024269
0000c0 a3 3e d4 bc ee 88 a2 3d 36 a2 0a bd 67 83 16 3f
       -0.025908774 0.079362735 -0.033846103 0.58794254
0000d0 62 f2 e2 bd 57 5d cf be 85 f9 f2 bc 80 4a 28 bd
       -0.11081387 -0.405009 -0.029659996 -0.041086674
0000e0 91 e2 ad bc 52 a9 13 bd 83 76 62 3f 2a 73 1f bd
       -0.0212262 -0.03605015 0.88462085 -0.03892819
0000f0 c4 2a f8 be d9 9c 1b bc 40 29 3c bd 7a 23 7b be
       -0.48470128 -0.009497845 -0.045937777 -0.24525252
000100 cf 73 57 3c c4 fe 41 3e 3d 5a ec bd 72 f4 47 bd
       0.0131501695 0.18944842 -0.11540649 -0.048817106
000110 b9 71 3f be 23 52 34 3f c3 c7 89 be c9 dc 31 3f
       -0.18695726 0.7043783 -0.2691022 0.69477516
000120 08 ec 34 3e 19 a2 81 3e 27 0a a5 be d7 65 1b bd
       0.17668164 0.25318983 -0.32234308 -0.03793892
000130 73 8c 0c 3e ca d4 3c be 55 b4 b1 be 9e 0e b9 bb
       0.13725452 -0.18440548 -0.34707895 -0.0056474945
000140 98 5d b1 3e 47 dc 6f be ea bc 1e bd a3 06 d8 be
       0.3464172 -0.23423873 -0.03875438 -0.42192563
000150 fa fa 36 3f 35 a8 6e 3e ef 31 94 be ac b1 12 be
       0.7147671 0.23306353 -0.28944346 -0.14325589
000160 5f ac ea bd ff 5f f5 3c 46 16 83 3d 89 0a 1d 3d
       -0.114586584 0.029953001 0.06400733 0.038340125
000170 6c 47 3e be 90 69 24 be d8 16 d8 be 9f 99 58 3e
       -0.18581933 -0.16055894 -0.42204928 0.21152352
000180 ee a4 04 bf cf 6c 45 be f9 d4 31 bd f4 8a 13 bf
       -0.5181416 -0.19279788 -0.043415997 -0.576339
000190 85 11 29 bd a5 6e e0 bb 7a dd ee be 0b 33 a6 3d
       -0.041276474 -0.0068491274 -0.46653348 0.081152044
0001a0 f8 c6 c2 bd d6 3c 22 bd d2 35 04 bd 50 4c 09 bf
       -0.095106065 -0.0396088 -0.03227789 -0.5363207
0001b0 c2 d5 da be 15 58 4b be 56 92 30 be 2e 80 f9 be
       -0.4274121 -0.1985782 -0.17243323 -0.48730606
0001c0 4a 97 25 bd 3e b3 01 bd 2b 03 ca bc 6a ee 1e 3f
       -0.040427484 -0.03166508 -0.024659714 0.6208254
0001d0 bc 1b dc be d6 15 90 bd 93 38 26 bd 63 c3 0f bf
       -0.4298991 -0.07035415 -0.040581297 -0.5615751
0001e0 fb d7 8e bd 58 3c 2f 3f b2 05 14 bb 51 13 3e 3f
       -0.06974789 0.6845145 -0.0022586402 0.74248224
0001f0 3f 89 4c be 15 48 26 be 21 ab ea 3c 95 7a f9 bd
       -0.1997423 -0.16238435 0.028646054 -0.12181584

output.weight f4 [300, 128]
000000 fc 45 bf 3e 2e 38 2d bf 4a 2e fd 3e 72 f4 1e 3f
       0.3735808 -0.6766385 0.49449378 0.62091744
000010 84 64 aa 3d c6 8a 05 40 1a 29 e1 3e c0 d7 93 3f
       0.08319953 2.086595 0.4397667 1.1550217
000020 53 a9 29 bf 7c 22 c5 be 07 6f 83 3f ca 0e bd 3e
       -0.66273993 -0.38502872 1.0268258 0.36925346
000030 eb 67 1f 3f a7 01 f4 3f a6 13 9c 3f 53 25 9b 3e
       0.6226794 1.9063004 1.2193496 0.30301914
000040 89 9d 9b 3f b1 c0 6c 3f af 97 67 3e 88 b1 d1 3f
       1.2157451 0.92481524 0.22616456 1.6382303
000050 63 30 c2 3e 87 c2 ff 3f 8e 33 09 3f 7c 5f 08 3f
       0.3792754 1.998124 0.5359429 0.532707
000060 93 81 b8 3f d6 92 f6 3c de 94 38 3f 33 e5 a6 3e
       1.4414543 0.030099314 0.72102153 0.3259674
000070 1e d2 4e 3f 13 d1 0d 40 6d 0e 6a be 7d 61 2c 3f
       0.80789363 2.2158859 -0.22857065 0.67336255
000080 06 8d 81 3e 78 64 c6 40 a2 d1 72 3f da ab 94 3f
       0.25302905 6.1997643 0.94851124 1.1614945
000090 8f 10 a4 3e e6 83 d1 3f 3d 9e 89 3f ef 34 81 3f
       0.32043883 1.6368377 1.0751415 1.0094279
0000a0 db 88 85 3d f1 ac 89 3f b7 68 96 bc 6c 21 55 40
       0.06520244 1.0755903 -0.018360479 3.330165
0000b0 0d 43 f5 3e c4 23 79 3f 2f b0 e1 3f a3 94 9e 3f
       0.47902718 0.973202 1.7631892 1.238911
0000c0 26 c6 f0 3e 97 1b f8 be 87 31 54 40 eb cd dc be
       0.47026175 -0.4845855 3.315523 -0.43125853
0000d0 af 99 e3 3f 3e ac 84 3f 18 80 a6 3e 5c ae 5e 3e
       1.7781276 1.0365064 0.32519603 0.217462
0000e0 a6 16 40 40 00 fd 19 3f b0 2d 1e 3f f7 16 0b be
       3.0013824 0.6015167 0.61788464 -0.13582979
0000f0 e6 9c b3 3f ed 47 08 bd 74 b9 70 3f 11 e3 30 3f
       1.4032257 -0.03327172 0.9403298 0.69096476
000100 88 97 fa 3e 86 8f 9f 3f b7 14 85 3f 0f 00 32 40
       0.48943734 1.2465675 1.0396947 2.7812536
000110 0b 06 f9 3d 5e 07 ae 3e c0 b2 89 3f 0f b2 e5 be
       0.12159356 0.33989996 1.0757675 -0.4486241
000120 87 e6 0f be 16 d3 2b be 3a 47 d7 3e 33 02 63 3f
       -0.14052783 -0.16779742 0.4204653 0.8867523
000130 83 4b 18 bf 4e d8 92 3f fa b2 e3 3f a2 b9 b3 3f
       -0.5949022 1.1472261 1.7788994 1.4041026
000140 30 7a 52 be 7c 7d 5b 3f d0 ba 8d 3f 2c c4 ab 3e
       -0.20554423 0.8573835 1.1072636 0.33548105
000150 54 9b 8e 3e 7d a8 ea 3e c4 59 ac 3f 70 51 17 3f
       0.2785288 0.4583167 1.3464894 0.5910864
000160 a6 92 01 3f 13 e1 59 3f 12 e1 b7 3e 0f 39 3f 3f
       0.5061439 0.8510906 0.35913903 0.7469644
000170 8d b8 1d 3f 9f bc 86 3b 61 b0 cc 3f 72 30 72 bf
       0.6160973 0.004111841 1.5991327 -0.9460517
000180 68 05 cf 3f 83 a2 ae 3e 06 99 a3 3d 84 1b 29 3f
       1.6173525 0.34108362 0.07988171 0.6605761
000190 31 e9 f3 3f 3e a3 08 40 72 be 9c 3f c6 84 56 40
       1.9055539 2.1349635 1.2245619 3.3518538
0001a0 2a c0 d0 3f a3 21 a7 bd 8a 37 b1 3f 22 7c 95 3e
       1.6308644 -0.081607126 1.3845074 0.29196268
0001b0 64 06 d4 3f 89 6c 30 3f d7 8f f1 3e 56 93 a0 3f
       1.656445 0.6891561 0.47180054 1.2544963
0001c0 c9 6f 81 be da 39 28 be 59 44 38 40 2d 38 a3 be
       -0.25280598 -0.16428319 2.8791716 -0.31878796
0001d0 df 79 14 3f 71 67 16 3f 6f 3e ad 3e 73 88 f3 3e
       0.5799846 0.5875159 0.33836696 0.4756504
0001e0 91 4c 8a 3e 73 a0 f3 be 3c 99 f4 3f db a8 15 bf
       0.2701154 -0.4758335 1.9109263 -0.5846078
0001f0 ea 50 e4 bd 5a ed 8f 3f 16 c4 11 40 17 56 ee bc
       -0.11148246 1.1244309 2.2775931 -0.029093785
000200 5e 8b ca 3e ea d9 7d bf 2c 09 ee 3e e3 5f 15 3f
       0.39559454 -0.99160635 0.46491373 0.58349437
000210 b1 51 93 3d 8d 3c fe 3f d4 84 af 3e 3c 7f 9e 3f
       0.07193316 1.9862229 0.34281027 1.2382579
000220 87 37 01 bf 39 d9 a6 be 77 be 76 3f 6e 4d f0 3e
       -0.50475353 -0.32587603 0.96384376 0.46934074
000230 5a ec 27 3f c0 b9 f5 3f eb 27 a0 3f 55 fd 87 3e
       0.6559502 1.9197311 1.2512182 0.26560465
000240 bb 83 87 3f 18 5a 5e 3f 6d 11 73 3e 55 2d c2 3f
       1.0587076 0.8685622 0.23737116 1.5170084
000250 b3 07 b6 3e c0 c9 77 3f 4a 45 fa 3e 05 9a f6 3e
       0.3555275 0.9679222 0.48880988 0.48164383
000260 9f a5 a9 3f 4c cf 00 3e e8 10 2b 3f 76 0e a5 3e
       1.3253669 0.12579077 0.6682267 0.32237595
000270 5a 39 fb 3e fd 80 11 40 22 49 55 be 07 08 15 3f
       0.49067193 2.2734978 -0.20828679 0.58215374
000280 c1 c9 88 3e 43 28 90 40 42 81 60 3f 1c b7 86 3f
       0.26716426 4.5049148 0.8769723 1.052463
000290 d8 4f a5 3e eb 1c e4 3f f6 87 70 3f dc fc 8b 3f
       0.32287478 1.7821325 0.9395746 1.0936542
0002a0 93 da 7f 3d 8b 78 72 3f 94 c4 94 bc 34 ba 47 40
       0.062464308 0.94715184 -0.018160142 3.12074
0002b0 1c dc 06 3f 5a b6 2e 3f d6 f3 c5 3f e5 c4 8c 3f
       0.5267961 0.68246996 1.5465038 1.0997587
0002c0 eb 76 e2 3e 3f ea d7 be 04 44 29 40 ce 54 af be
       0.44231352 -0.42170903 2.6447763 -0.34244388
0002d0 46 a4 c6 3f 7b 04 af 3f 32 95 7f 3e b7 3f 5c 3e
       1.5518882 1.3673242 0.24959257 0.2150868
0002e0 f1 96 3d 40 d4 69 1b 3f 6e d0 02 3f 58 e1 80 3c
       2.9623377 0.60708356 0.5109929 0.015732452
0002f0 1a 50 bd 3f 96 94 0e bd b4 b8 66 3f c6 10 20 3f
       1.479007 -0.03480967 0.90125585 0.62525594
000300 45 73 ea 3e 6b 44 94 3f dd e9 64 3f e2 32 0d 40
       0.4579107 1.158338 0.8941935 2.2062306
000310 93 ce e9 3d 8f 6e aa 3e f6 2f 8e 3f 2d 96 ab be
       0.11416354 0.33287475 1.1108387 -0.33513013
000320 7b c6 c5 bd 6d 8d 38 be 2b b8 d5 3e b0 cc 4c 3f
       -0.09656998 -0.180227 0.41742072 0.7999983
000330 95 a1 ef be 71 56 95 3f 78 74 c5 3f 40 9d af 3f
       -0.46802965 1.1667005 1.5426168 1.3719864
000340 8f 4a c4 bd 54 c4 3d 3f dd 6b 83 3f 46 85 05 3e
       -0.095845334 0.741277 1.0267292 0.13039121
000350 ba 4b 8e 3e de 98 de 3e 4b f3 83 3f 30 48 0a 3f
       0.2779215 0.43476003 1.0308622 0.540164
000360 0c 23 e3 3e 91 f9 49 3f 58 f0 24 3f b9 0c 63 3f
       0.44362676 0.78896433 0.64429235 0.8869129
000370 ea 19 0f 3f 92 7e cc 3b 22 0d c4 3f 78 21 43 bf
       0.55898917 0.0062406743 1.5316508 -0.76222944
000380 b8 0a bc 3f 39 1c d4 3e fb c8 0e 3d dd 48 2a 3f
       1.4690771 0.41427782 0.03485964 0.6651743
000390 78 a7 dd 3f 76 a5 08 40 fe 38 a0 3f f2 89 51 40
       1.7316732 2.135099 1.2517393 3.2740445
0003a0 d4 13 c3 3f 14 c6 ff 3d 33 12 b1 3f c9 9f b2 3e
       1.5240426 0.12488952 1.3833679 0.3488753
0003b0 d1 a4 b5 3f 12 22 2c 3f 15 6a d2 3e d3 c6 91 3f
       1.4190923 0.6723949 0.4109656 1.1388801
0003c0 3e 7b 85 be 78 ee df bd 05 bd 21 40 e4 ad 8e be
       -0.2607059 -0.10934156 2.5271618 -0.27867043
0003d0 19 a8 24 3f ac 96 12 3f 4d 9c 99 3d cd 5b da 3e
       0.64318997 0.5726116 0.07500515 0.42648163
0003e0 c6 02 8f 3e 57 4e bb be ed 9c ce 3f de bb 0c bf
       0.27931803 -0.36583206 1.614164 -0.5497416
0003f0 84 08 c5 bd e1 5a 83 3f 1c 3a 27 40 78 2f 39 bc
       -0.09620765 1.0262109 2.6129217 -0.011302821

output.bias f4 [300]
000000 67 c4 05 bf 7f 9c f7 be 99 b0 e4 be 52 74 b7 be
       -0.5225281 -0.48361585 -0.44665983 -0.35830933
000010 93 7a 98 be b6 92 70 be 59 3b 3b be a0 73 14 be
       -0.29781017 -0.23493466 -0.18284358 -0.14497232
000020 70 14 e1 bd 4c c5 b8 bd 6b 3a a1 bd ac 5c 92 bd
       -0.10990226 -0.090220064 -0.078724705 -0.07146582
000030 60 a3 87 bd 60 f4 7e bd ed bd 64 bd e9 e6 69 bd
       -0.06622958 -0.062244773 -0.05584519 -0.05710498
000040 e7 04 7b bd 74 b5 8a bd 4d c4 95 bd 04 80 a9 bd
       -0.061283972 -0.06772891 -0.07312832 -0.0827637
000050 54 81 b7 bd 52 a1 c2 bd a5 d4 cf bd 1a e3 e4 bd
       -0.08960214 -0.09503426 -0.101479806 -0.11176129
000060 db 9d f2 bd 53 04 fc bd 20 b8 05 be ff b2 07 be
       -0.11846515 -0.12305512 -0.1305852 -0.13251875
000070 dd 12 0e be f0 79 0e be 81 12 10 be ae 3d 10 be
       -0.13874383 -0.13913703 -0.14069559 -0.14086029
000080 fa 42 0a be 95 9e 06 be a6 35 fc bd f4 a1 e1 bd
       -0.13502112 -0.13146432 -0.1231492 -0.11017218
000090 bf ed ca bd 6f 7b ac bd 9f b6 8b bd d1 27 2e bd
       -0.09908628 -0.084219806 -0.068219416 -0.04251844
0000a0 9e 5e 36 bc 04 b3 54 3c e5 b0 5d 3d 32 01 d9 3d
       -0.011130957 0.012982134 0.054123778 0.10595931
0000b0 b7 44 2d 3e e3 f7 7e 3e c1 93 b3 3e fb e1 f4 3e
       0.16920744 0.24899249 0.35073665 0.4782866
0000c0 b8 81 27 3f 1d 75 5d 3f 0b 99 04 c0 21 a7 b8 bf
       0.6543231 0.86506826 -2.071841 -1.4426004
0000d0 06 d6 89 bf 9d de 5d bf 33 b6 2c bf 74 d0 06 bf
       -1.076844 -0.86667806 -0.67465514 -0.52661824
0000e0 4e 4d ca be 00 0c 97 be 2f f3 58 be 89 b4 04 be
       -0.39512104 -0.29501343 -0.21186517 -0.12959494
0000f0 be 76 8b bd 3b 87 cc 3b 7b 0e 7e 3d bb 00 d8 3d
       -0.06809758 0.0062417067 0.06202553 0.10547014
000100 ee 18 17 3e 25 8b 46 3e f1 1a 73 3e 78 ea 8a 3e
       0.14755604 0.19389017 0.23740746 0.2713201
000110 1a f5 96 3e eb bf a2 3e 32 26 ac 3e 76 cd b6 3e
       0.29483873 0.31787047 0.3362289 0.3570363
000120 4d 72 be 3e 6e 77 c5 3e aa e9 cb 3e 2d 7d d2 3e
       0.3719658 0.3856768 0.3982671 0.41111127
000130 ab b8 d8 3e 7a 57 da 3e 60 ca de 3e 47 92 e2 3e
       0.4232839 0.42644864 0.43513775 0.44252226
000140 4e a8 e4 3e e6 56 e9 3e 26 d7 ec 3e a5 39 ef 3e
       0.44659656 0.4557411 0.46257895 0.46723667
000150 b1 8a f4 3e 98 e7 fa 3e f7 17 01 3f 2e 33 05 3f
       0.47762063 0.49004817 0.5042719 0.5203122
000160 08 ff 09 3f 08 54 10 3f 58 67 19 3f 8a 96 21 3f
       0.5390477 0.5637822 0.59923315 0.6312033
000170 a3 84 2c 3f a6 f7 3a 3f 99 b8 49 3f 64 98 5c 3f
       0.6738989 0.7303413 0.787973 0.8617003
000180 0d a2 75 3f 84 fa 8b 3f be 1b a2 3f bc 76 d3 3f
       0.95950395 1.0935826 1.2664716 1.652061
000190 d7 12 d4 be c0 56 9f be 7e 45 81 be 34 d3 30 be
       -0.41420624 -0.31120872 -0.2524833 -0.17268068
0001a0 87 97 6f bd 1f d8 30 3d 85 07 0b 3e f8 6d 3b 3e
       -0.058494117 0.04317486 0.13577087 0.18303668
0001b0 ee b8 51 3e 7e db 54 3e a4 ec 4f 3e 59 10 3a 3e
       0.20480701 0.20786855 0.20305115 0.18170299
0001c0 2d fa 2b 3e 6c 8d 1c 3e 82 29 0d 3e 30 15 f6 3d
       0.16794653 0.15288323 0.13785365 0.1201576
0001d0 00 34 e2 3d f4 86 c6 3d 6f 4c a9 3d 47 96 92 3d
       0.110450745 0.09693709 0.08266532 0.071575694
0001e0 0a 0c 4a 3d 6a 5a 0d 3d 7c 0f b6 3c d0 42 e1 3b
       0.049327888 0.034510054 0.02222418 0.0068744197
0001f0 c3 3d ed bb c0 0a 81 bc 04 4a da bc bd a2 27 bd
       -0.0072400286 -0.015752196 -0.026646622 -0.040926684
000200 d6 c7 3f bd 8b e4 55 bd 55 24 70 bd 3d e8 80 bd
       -0.046821438 -0.05221991 -0.0586284 -0.06294296
000210 78 57 84 bd 90 3f 8d bd 49 0a 8c bd 95 74 82 bd
       -0.06461996 -0.06896889 -0.06837899 -0.063698925
000220 c5 f6 83 bd d0 7d 4e bd f2 2b 1c bd 0d 13 91 bc
       -0.06443552 -0.050412953 -0.038127847 -0.01770928
000230 7f 3b 98 3b 60 7f 0f 3d 99 2a a9 3d cb c2 01 3e
       0.0046457644 0.035033584 0.08260078 0.12671964
000240 e7 3a 47 3e 0a e1 8c 3e 7a 23 c2 3e 5b e3 03 3f
       0.19456063 0.2751544 0.3791769 0.5151879
000250 ad 48 2e 3f db 27 68 3f 20 01 e7 bf 81 b9 93 bf
       0.68079644 0.90685815 -1.8047218 -1.1540986
000260 45 3e 5b bf 68 70 1f bf 5b fa fe be b1 e6 c7 be
       -0.8564189 -0.62280893 -0.4980038 -0.3904319
000270 12 8a 83 be ef c6 34 be 35 19 fd bd 2b 51 35 bd
       -0.25691277 -0.17654012 -0.123583235 -0.04426686
000280 61 00 2e bc 6f 05 1f 3d 1e 8b aa 3d af eb 05 3e
       -0.0106202075 0.03882354 0.08327316 0.13078187
000290 92 0b 28 3e 9b e1 50 3e 67 e8 72 3e 33 cf 87 3e
       0.16410664 0.20398562 0.23721467 0.26525268
0002a0 da e0 93 3e 43 d5 a1 3e bb e6 ab 3e 2f f7 b2 3e
       0.28882486 0.31608018 0.3357447 0.3495421
0002b0 cb 7e b8 3e 25 f3 bc 3e 0e d4 c3 3e 38 0f cb 3e
       0.36034235 0.36904255 0.38247722 0.39660048
0002c0 c7 f4 cd 3e 07 ee d1 3e 26 a8 d6 3e 8b 56 d9 3e
       0.40225813 0.41001913 0.41925162 0.4244884
0002d0 b5 c4 dd 3e e2 bd e1 3e 6e dc e9 3e cf 6a f0 3e
       0.43314138 0.44090182 0.45675987 0.46956488
0002e0 50 16 f5 3e 1e 91 fb 3e 8f 57 ff 3e b1 bb 04 3f
       0.47868586 0.49134153 0.4987149 0.51848894
0002f0 73 a3 0b 3f eb 01 11 3f 5c c5 19 3f fe 1f 22 3f
       0.5454628 0.5664355 0.6006677 0.63330066
000300 aa f7 2b 3f 17 fc 39 3f 27 44 4c 3f f4 8f 5f 3f
       0.6717478 0.72650284 0.7979149 0.8732903
000310 cf 66 78 3f e4 7e 8d 3f 66 ea a2 3f ee b0 ca 3f
       0.97031873 1.1054349 1.2727783 1.5835245
000320 f8 cb 74 bf 2d 53 2b bf e8 9a cf be 83 62 79 be
       -0.9562373 -0.6692379 -0.40547872 -0.24353985
000330 0e 99 1f be 42 84 d0 bd 52 94 9b bd cf dc 8c bd
       -0.1558573 -0.10181476 -0.07596649 -0.068780534
000340 94 62 8d bd 67 9b 89 bd 94 d7 83 bd 9d ce 7c bd
       -0.06903568 -0.06719094 -0.06437603 -0.06172048
000350 a1 72 70 bd c1 68 61 bd d6 de 4e bd 6e 92 2f bd
       -0.05870307 -0.05503154 -0.05050548 -0.042864256
000360 1c 05 08 bd 36 43 c5 bc 3a 23 68 bc 1d 42 98 bb
       -0.033207998 -0.0240799 -0.014168555 -0.004646553
000370 ac d1 89 3b d8 aa 51 3c a5 7e 95 3c 0d 7b ad 3c
       0.004205903 0.01279708 0.018248865 0.02117684
000380 ff c6 ba 3c bf e3 b5 3c 24 c5 b2 3c e2 e2 9b 3c
       0.022799967 0.022203324 0.02182252 0.019029085
000390 50 bb 5e 3c e1 b7 e7 3b f3 f6 17 39 8a 06 b7 bb
       0.0135944635 0.0070714806 0.00014492478 -0.0055854963
0003a0 73 14 7d bc 3e aa da bc 7c e1 24 bd 5f 78 5d bd
       -0.01544677 -0.026692506 -0.0402541 -0.054069873
0003b0 05 ec 87 bd 1a e0 9c bd 52 56 ad bd 6d e5 b7 bd
       -0.06636814 -0.076599315 -0.0846373 -0.08979306
0003c0 32 d0 b3 bd 19 36 94 bd ff 60 2d bd 5b e0 9c 3b
       -0.087799445 -0.07236881 -0.04232883 0.0047874874
0003d0 2b 87 94 3d 97 04 2e 3e 73 30 98 3e 82 a7 ef 3e
       0.07252344 0.16993938 0.29724464 0.46807486
0003e0 6f dc 2e 3f 5e 59 6c 3f b4 43 2b bf 61 d9 08 bf
       0.68305105 0.92323864 -0.6690018 -0.53456694
0003f0 40 92 d6 be e0 f3 97 be 41 56 42 be ca 8b d5 bd
       -0.41908455 -0.2967825 -0.18978216 -0.10427053
