figs2-3_rl/results/breakout-DQN/network.pth (torch_old, 531393 bytes, 6 tensors)

conv.weight f4 [16, 4, 3, 3]
0.016631652 0.029143563 -0.15843317 -0.14857328 -0.22784838 0.025646346 0.6922008 0.1919026
-0.3389352 0.009359753 -0.5851244 0.2630225 -0.059242494 0.9939376 0.005182988 -0.8821476
0.17154734 -0.21878053 -1.0103762 -1.201787 -0.9070034 -0.16982573 0.23471357 -0.09967018
0.049020525 0.17652042 0.025490902 -0.3056484 -0.010221152 -0.7381324 0.3412482 0.3259956
-0.82679677 0.4588614 0.07284896 -0.39244303 0.18890978 -0.48894605 0.11520032 0.45547107
0.15115173 -0.09003832 0.73460084 0.81238705 0.26401672 -0.3012527 0.20852108 0.22596022
0.47688758 0.6121939 0.35345864 0.45191854 0.27106202 0.45576406 -1.4541341 -0.2620847
-0.33605126 -0.02239077 -0.021998418 -0.2439814 -0.0017758121 -0.1482878 -0.050846886 0.4007811
-0.008187162 -0.28109014 -0.02522447 0.1228212 0.5466366 0.1918072 -0.5217925 -0.123696774
-0.051952112 0.08359422 -0.5051278 0.34511298 0.09040307 0.2097048 -1.3574268 1.1279484
1.0329975 0.2853206 0.06990249 -0.6388385 1.4258921 0.6495507 -1.1145287 1.9449178
1.110082 -0.52329856 0.035931088 -1.4175586 -0.60804737 -0.1849647 -2.4363296 -1.728827
-0.6135857 -1.3374267 -1.0302273 0.029688599 0.024370223 0.08843109 0.025898414 0.01385549
-0.10312479 0.1247008 0.121568225 -0.60164666 -0.1559447 -0.027696572 -0.046240725 0.22543614
-0.22366606 -0.0067088734 1.1092157 0.13576333 0.66103923 0.32465187 0.01592476 -0.295073
-0.76508516 -1.3178841 0.11646459 -0.2637913 0.024117123 1.1409509 0.019840945 0.344583
-0.0004594234 -0.0241466 -1.2032756 0.25572094 0.012774455 -0.09104237 0.035680383 -0.24621393
0.23384152 -0.025855267 0.31627595 0.29902312 -0.37898365 0.24219607 -0.5775704 -0.3735996
-0.13330689 0.26175907 0.25034633 0.2946076 -0.011163249 0.078886054 -0.032136824 -0.96736044
-1.7349637 0.7627299 -0.9002458 0.7385738 0.9125885 1.2197434 1.1358347 0.055530805
0.6845552 0.038345274 0.26730466 -0.45634437 0.22923344 0.42256993 -0.4496197 0.7384245
-1.1268992 -0.5617521 -1.35003 0.087495655 -0.11114467 -0.116075985 0.5954092 -0.03821602
-0.4342787 -0.17284237 0.1729334 0.1219307 -0.0020071617 -0.18623054 -0.1791449 0.44948554
-0.17576008 -0.37201896 -0.17125411 0.22058152 -0.70029503 0.5301623 1.1036917 0.9155512
-0.12262771 -1.2219222 0.69015354 0.63671565 -0.040076192 0.3822113 0.11025981 0.44203743
1.2399787 -0.60200214 0.10105246 0.6841812 0.667271 0.28604692 0.075674295 0.023741579
0.049131013 -0.10666724 0.13301344 0.35762677 -0.020631839 -0.034938462 -0.11885735 0.17164582
0.21764362 -0.31138554 0.1130335 -0.55222625 -0.019159954 0.0078914035 -0.70936006 -1.162332
-1.0288042 1.5237187 0.1313894 1.5052431 0.18521272 0.6634854 1.2217607 0.5211524
0.24641311 0.92876583 0.16985491 -0.95509917 0.23959908 0.1614757 -1.5743222 -1.183428
-0.14136168 -0.9816331 0.0561124 0.0020409902 -0.004054545 0.4182356 -0.031987168 0.1389314
-0.13300629 0.1938147 0.032532655 0.015575974 0.00012370592 0.3296977 0.39120746 0.08770541
00000000: 1a3f 883c 7bbe ee3c 4e3c 22be 9823 18be
00000010: 1651 69be 4918 d23c 1234 313f 1d82 443e
00000020: ea88 adbe a659 193c b6ca 15bf e3aa 863e
00000030: 42a8 72bd b272 7e3f 0ed6 a93b 6dd4 61bf
00000040: 1baa 2f3e 0108 60be 0254 81bf 28d4 99bf
00000050: 6031 68bf cce6 2dbe c158 703e e11f ccbd
00000060: bfc9 483d c5c1 343e 4cd2 d03c f27d 9cbe
00000070: 9e76 27bc 3ff6 3cbf 16b8 ae3e e5e8 a63e
00000080: f4a8 53bf e2ef ea3e d631 953d 4bee c8be
00000090: 9171 413e 2357 fabe 25ee eb3d 8133 e93e
000000a0: 85c7 1a3e 0366 b8bd cd0e 3c3f 99f8 4f3f
000000b0: 332d 873e cb3d 9abe 8d86 553e 1e62 673e
000000c0: 9c2a f43e bdb8 1c3f 88f8 b43e de61 e73e
000000d0: a4c8 8a3e e859 e93e 1121 babf f72f 86be
000000e0: e90e acbe d96c b7bc 0736 b4bc 43d6 79be
000000f0: 5ec2 e8ba c2d8 17be d344 50bd 2e33 cd3e
00000100: 7223 06bc 0ceb 8fbe 8ca3 cebc ae89 fb3d
00000110: 60f0 0b3f 1b69 443e 3194 05bf bc54 fdbd
00000120: bdcb 54bd 7233 ab3d 0e50 01bf a6b2 b03e
00000130: 3f25 b93d dbbc 563e 29c0 adbf 9d60 903f
00000140: 4339 843f 8b15 923e 0929 8f3d ec8a 23bf
00000150: a283 b63f f448 263f e0a8 8ebf 11f3 f83f
00000160: 2b17 8e3f e5f6 05bf 7a2c 133d 8f72 b5bf
00000170: fea8 1bbf 6367 3dbe d3ec 1bc0 344a ddbf
00000180: f413 1dbf cc30 abbf 7dde 83bf 8135 f33c
00000190: 10a4 c73c 5c1b b53d e928 d43c 2302 633c
000001a0: 1733 d3bd 2263 ff3d c3f8 f83d 8405 1abf
000001b0: f8af 1fbe ece3 e2bc ea66 3dbd bbd8 663e
000001c0: b708 65be 1cd6 dbbb c8fa 8d3f 8b05 0b3e
000001d0: de39 293f c538 a63e a474 823c cf13 97be
000001e0: 9fdc 43bf 6db0 a8bf fd84 ee3d a70f 87be
000001f0: 4691 c53c ae0a 923f 7a89 a23c 2f6d b03e
00000200: c4de f0b9 17cf c5bc ef04 9abf dbed 823e
00000210: f34b 513c 6c74 babd 9825 123d 811f 7cbe
00000220: 2774 6f3e 6dce d3bc ecee a13e 8f19 993e
00000230: 250a c2be 3f02 783e a7db 13bf 7248 bfbe
00000240: 9a81 08be 4905 863e 652d 803e cfd6 963e
00000250: 0fe6 36bc 038f a13d e7a1 03bd efa4 77bf
00000260: 4a13 debf 4442 433f 8276 66bf 2c13 3d3f
00000270: 669f 693f 8d20 9c3f 0863 913f 4574 633d
00000280: 023f 2f3f ef0f 1d3d 28dc 883e f8a5 e9be
00000290: 2cbc 6a3e 165b d83e 8e34 e6be 6309 3d3f
000002a0: 3c3e 90bf fcce 0fbf c8cd acbf ec30 b33d
000002b0: d19f e3bd 3fb9 edbd bd6c 183f 6788 1cbd
000002c0: c759 debe 97fd 30be 7415 313e ceb6 f93d
000002d0: 968a 03bb 38b3 3ebe c371 37be f822 e63e
000002e0: 73fa 33be 4579 bebe 3d5d 2fbe 1fe0 613e
000002f0: 8946 33bf b7b8 073f c545 8d3f 9061 6a3f
00000300: 3d24 fbbd f267 9cbf e7ad 303f ccff 223f
00000310: ef26 24bd 33b1 c33e e5cf e13d bb52 e23e
00000320: 9fb7 9e3f d01c 1abf 98f4 ce3d 8026 2f3f
00000330: 46d2 2a3f be74 923e 20fb 9a3d b37d c23c
00000340: 9a3d 493d 5b74 dabd ad34 083e db1a b73e
00000350: 1a04 a9bc a21b 0fbd 7b6b f3bd ecc3 2f3e
00000360: f8dd 5e3e ed6d 9fbe 1c7e e73d b35e 0dbf
00000370: 56f5 9cbc f24a 013c 9f98 35bf 4cc7 94bf
00000380: dbaf 83bf 3709 c33f f18a 063e ceab c03f
00000390: 67a8 3d3e 2eda 293f a862 9c3f 3e6a 053f
000003a0: b853 7c3e 99c3 6d3f 72ee 2d3e 6181 74bf
000003b0: 7659 753e e359 253e 6483 c9bf 927a 97bf
000003c0: 1ec1 10be 4f4c 7bbf 1ed6 653d 22c2 053b
000003d0: fddb 84bb fa22 d63e fa04 03bd 0844 0e3e
000003e0: cd32 08be 5c77 463e f640 053d 5f32 7f3c
000003f0: 0eb7 0139 23ce a83e 584c c83e e59e b33d

conv.bias f4 [16]
-0.020163313 -0.31763798 -0.08395327 -0.03921284 -0.32640988 -0.5294791 -0.52017605 -0.27020812
-0.26677918 -0.08535058 -0.0015523693 0.19695346 -0.105426714 -0.018738989 -0.21947283 -0.19800374
00000000: 882d a5bc 72a1 a2be b1ef abbd a59d 20bd
00000010: 321f a7be f18b 07bf 422a 05bf b858 8abe
00000020: 4897 88be 49cc aebd df78 cbba 2bae 493e
00000030: f6e9 d7bd 8282 99bc 7cbd 60be 7ec1 4abe

fc_hidden.weight f4 [128, 1024]
-0.11850024 -0.22540978 0.20690967 0.05834887 0.17601138 0.12809107 0.11311447 -0.04053792
-0.050543807 0.20714279 0.20366654 -0.11758067 0.0028729446 0.083986714 0.06640033 -0.050866645
0.119452804 0.16690932 -0.059572496 -0.696536 -0.19251326 -0.34908828 0.16759658 -0.060247984
-0.12616304 -0.14260975 -0.37547404 -0.08206346 0.074408576 0.04564468 0.22445838 -0.28730175
-0.096777156 -0.09578968 0.32746816 -0.07347493 -0.07918135 0.2893125 -0.3042248 0.29449558
0.0078332145 0.16411974 0.01689203 -0.26690125 0.39728034 -0.059518017 0.43081567 -0.011707663
0.1049628 -0.10035597 -0.17328729 -0.046513334 -0.10466751 0.1402758 0.31285945 0.14957322
0.14633796 0.1758886 0.08415926 0.24233253 0.0391606 0.23801021 -0.09832933 -0.001747225
0.027934369 0.030099766 -0.099109784 0.1206882 0.1612983 -0.2566159 0.15287647 0.33052546
-0.05230466 0.12700658 0.14138192 0.19552025 0.11188889 0.00052953867 0.087553054 0.0027273493
0.06978034 -0.06789288 0.053925004 0.2689584 0.08732477 -0.10324574 0.12595735 0.07273713
0.040529713 0.014583737 -0.5331645 -0.22494179 -0.014330335 -0.26587826 0.15954717 -0.14608349
-0.07069419 -0.08591867 0.20885263 -0.37957156 -0.2193753 -0.14603415 0.17124979 -0.45352307
0.48673305 0.21326758 0.09214849 -0.09431193 0.37121922 0.23608449 0.10909776 0.3767214
-0.1378104 -0.07757881 -0.36940616 -0.20462008 0.1745025 0.002580199 0.2744096 -0.3280068
0.38124147 -0.017150909 0.015190335 0.19798471 0.14704098 0.07967521 0.13854924 0.05243277
-0.08693995 0.015239705 0.14916286 0.23999636 0.119651616 -0.35989454 -0.2613844 0.09018209
-0.25984576 -0.008139362 0.124540575 -0.007061354 -0.3182448 -0.21093799 0.044452634 -0.047616985
-0.06004454 -0.118645065 -0.12099555 0.076555744 0.073653914 0.18099672 0.07353356 -0.055081576
0.10045264 -0.16230872 -0.022293482 0.16959965 -0.23273358 0.03580147 0.06285991 -0.5407672
0.3026351 0.24689406 0.22524777 0.25653785 0.08309343 0.16771832 0.067380354 0.094801106
-0.07890571 0.31372598 -0.0011346205 0.06208056 -0.03070227 -0.026708182 -0.044902664 0.07832337
0.16440287 0.26768064 0.151776 0.20407566 0.058770563 0.10523764 0.15829778 0.20374654
-0.015686544 0.067520484 0.048804004 0.17393368 -0.0041051507 -0.21370499 -0.27393106 -0.50058067
0.37862766 0.10875603 -0.074205115 -0.057519566 0.04447956 0.14770609 -0.011226341 -0.1291919
-0.0051791444 0.037700363 -0.08181838 -0.12954338 -0.15601474 -0.11796936 0.005807768 0.06009088
0.0929371 -0.08510479 0.16405231 0.1618899 0.06913779 0.11977336 0.032531884 0.016342511
0.055331603 0.024839979 0.06191682 0.3027808 0.026782341 -0.3124636 -0.029086271 -0.19458325
0.22095878 0.05857545 -0.18246019 -0.08905816 0.07279542 -0.032423563 0.025577072 0.16993657
0.22046658 -0.13157015 -0.013420083 -0.12022623 0.14047201 0.3590618 0.008335792 -0.028663319
-0.4096992 -0.13675864 0.01479227 -0.0630917 0.091062546 0.037843954 0.10837273 0.37710896
-0.06405842 0.15820129 0.116488375 0.06205167 -0.0069264118 0.15335183 0.076469906 -0.19974475
00000000: 41b0 f2bd d2d1 66be 21e0 533e 3aff 6e3d
00000010: 543c 343e 4e2a 033e 8fa8 e73d 170b 26bd
00000020: 0607 4fbd 3d1d 543e f68d 503e 22ce f0bd
00000030: 0348 3c3b 3a01 ac3d e5fc 873d 8b59 50bd
00000040: aca3 f43d 47ea 2a3e 4a02 74bd 2f50 32bf
00000050: 3222 45be b3bb b2be 709e 2b3e 97c6 76bd
00000060: e230 01be 4a08 12be 223e c0be e310 a8bd
00000070: 8663 983d eaf5 3a3d 6bd8 653e 3719 93be
00000080: 1a33 c6bd 612d c4bd e8a9 a73e 067a 96bd
00000090: d529 a2bd c520 943e 5ac3 9bbe 20c8 963e
000000a0: e256 003c 010f 283e 2861 8a3c 48a7 88be
000000b0: 5468 cb3e 2ac9 73bd df93 dc3e 7fd1 3fbc
000000c0: bdf6 d63d 6e87 cdbd 3972 31be c484 3ebd
000000d0: eb5b d6bd 76a4 0f3e 1d2f a03e b929 193e
000000e0: 9ed9 153e 241c 343e b15b ac3d 0526 783e
000000f0: de66 203d f3b8 733e e360 c9bd 2403 e5ba
00000100: 9ed6 e43c c993 f63c 12fa cabd 602b f73d
00000110: 622b 253e 2963 83be a68b 1c3e a23a a93e
00000120: 693d 56bd 030e 023e 6cc6 103e 7636 483e
00000130: 0126 e53d bdd0 0a3a 044f b33d 54bd 323b
00000140: ffe8 8e3d 6c0b 8bbd 77e0 5c3d eab4 893e
00000150: 54d7 b23d 8172 d3bd f7fa 003e 34f7 943d
00000160: 7c02 263d a0f0 6e3c 787d 08bf 2457 66be
00000170: c8c9 6abc 3221 88be 5560 233e e996 15be
00000180: 1ec8 90bd 21f6 afbd 77dd 553e 3457 c2be
00000190: eba3 60be fa89 15be 1b5c 2f3e 2d34 e8be
000001a0: 1335 f93e d162 5a3e 59b8 bc3d 9d26 c1bd
000001b0: 7210 be3e 22c0 713e a56e df3d a1e1 c03e
000001c0: 2b1e 0dbe a4e1 9ebd ce22 bdbe ed87 51be
000001d0: c9b0 323e 8e18 293b 6a7f 8c3e 82f0 a7be
000001e0: 1532 c33e 1080 8cbc e2e0 783c 81bc 4a3e
000001f0: e991 163e c22c a33d dadf 0d3e bfc3 563d
00000200: 930d b2bd f5af 793c 26be 183e 9bc1 753e
00000210: e80b f53d 1944 b8be 2dd4 85be 63b1 b83d
00000220: 810a 85be f55a 05bc 210f ff3d ee62 e7bb
00000230: fcf0 a2be 2100 58be f713 363d 070a 43bd
00000240: 43f1 75bd 2ffc f2bd 84cc f7bd 42c9 9c3d
00000250: ddd7 963d 3457 393e c398 963d 389d 61bd
00000260: 1dba cd3d 4234 26be d2a0 b6bc 88ab 2d3e
00000270: b651 6ebe 90a4 123d b2bc 803d b86f 0abf
00000280: fdf2 9a3e ccd1 7c3e 5aa7 663e ee58 833e
00000290: e32c aa3d 5abe 2b3e b6fe 893d 1527 c23d
000002a0: 5199 a1bd b1a0 a03e 8cb7 94ba 2f48 7e3d
000002b0: 5483 fbbc 1ecb dabc dbeb 37bd 0168 a03d
000002c0: 3a59 283e 700d 893e 2b6b 1b3e 36f9 503e
000002d0: 67b9 703d d586 d73d d018 223e efa2 503e
000002e0: 1181 80bc 2e48 8a3d b5e6 473d ac1b 323e
000002f0: 8084 86bb 7bd5 5abe b140 8cbe 0e26 00bf
00000300: 7cdb c13e 7bbb de3d daf8 97bd a399 6bbd
00000310: 3330 363d 4440 173e b0ee 37bc e24a 04be
00000320: d0b5 a9bb b26b 1a3d 6590 a7bd 05a7 04be
00000330: 54c2 1fbe eb99 f1bd 174f be3b db21 763d
00000340: ce55 be3d 6c4b aebd 54fd 273e 77c6 253e
00000350: 1d98 8d3d bc4b f53d 2740 053d bbe0 853c
00000360: 64a3 623d 367d cb3c 7e9c 7d3d 1606 9b3e
00000370: a466 db3c 3bfb 9fbe 5546 eebc d540 47be
00000380: 0543 623e d0ec 6f3d d8d6 3abe 2064 b6bd
00000390: c415 953d 92ce 04bd 0287 d13c da03 2e3e
000003a0: fec1 613e 53ba 06be e8df 5bbc 2b39 f6bd
000003b0: e5d7 0f3e f3d6 b73e d992 083c 56cf eabc
000003c0: 18c4 d1be 750a 0cbe 475b 723c 3936 81bd
000003d0: 007f ba3d 4302 1b3d 86f2 dd3d 6d14 c13e
000003e0: 1031 83bd 85ff 213e 7591 ee3d e429 7e3d
000003f0: f4f6 e2bb 4308 1d3e 419c 9c3d e389 4cbe

fc_hidden.bias f4 [128]
0.3598961 -0.05521071 -0.017756358 0.0009263944 -0.029918697 -0.05468794 -0.084355175 -0.16765185
-0.018322753 0.1637199 -0.1085066 -0.123400025 0.19736378 0.59797037 0.11880992 -0.015118617
-0.33102286 -0.14085156 0.27551824 -0.16971846 0.25813088 -0.20889296 -0.2099226 0.0314658
0.122435614 0.05763701 0.30818024 -0.08846519 0.1873755 0.19363374 0.01435906 -0.06867559
-0.190832 -0.21137242 -0.06820152 -0.15898128 -0.14048639 -0.10956274 -0.09298493 0.38611796
0.095164865 0.7237336 0.15563188 0.5762776 0.02655793 -0.07279348 0.12994678 -0.1955024
-0.09253133 0.5278269 -0.0803795 0.15081392 0.0002701397 -0.1415089 -0.22060472 0.05172869
0.273828 0.3135922 -0.2213108 0.45784223 -0.1006749 -0.34847987 -0.06758121 -0.1814215
0.23642296 0.33669168 -0.0931537 0.13274713 -0.19662629 -0.079676256 -0.15172008 -0.2488844
-0.13743056 -0.03616667 0.057850264 -0.15466304 -0.183598 -0.24594362 -0.1296741 -0.09934566
0.10746004 -0.14142123 -0.20133543 0.0640447 -0.12447117 -0.15042628 -0.18416858 0.09361821
-0.20049183 0.11531244 -0.20316362 -0.1873226 -0.04565629 -0.024050854 -0.19742322 0.011866709
-0.15567777 0.13684016 0.36500594 0.024400875 -0.20718218 -0.048913054 -0.07799016 0.06909968
-0.12471482 -0.020591075 -0.1645807 -0.11733716 -0.14496633 -0.13250765 0.015477252 -0.10516862
-0.015427648 0.2924958 -0.022421265 -0.049641043 -0.19185913 0.061874937 -0.3341158 0.077173635
0.095697805 0.036179367 0.072447285 0.16186668 -0.21695484 -0.14427876 -0.1995512 -0.12890977
00000000: 4d44 b83e a024 62bd c875 91bc 47d9 723a
00000010: 0e18 f5bc 7600 60bd 68c2 acbd edac 2bbe
00000020: 9919 96bc 31a6 273e b538 debd 27b9 fcbd
00000030: bb19 4a3e 9614 193f 9e52 f33d 13b4 77bc
00000040: d47b a9be 643b 10be ba10 8d3e adca 2dbe
00000050: bb29 843e 09e8 55be f3f5 56be 48e2 003d
00000060: 86bf fa3d c914 6c3d cdc9 9d3e 3d2d b5bd
00000070: 5ddf 3f3e ec47 463e 4342 6b3c caa5 8cbd
00000080: 7769 43be 0372 58be 3dad 8bbd fdcb 22be
00000090: aadb 0fbe 6e62 e0bd e26e bebd 41b1 c53e
000000a0: cce5 c23d 9b46 393f f75d 1f3e ee86 133f
000000b0: 0490 d93c bf14 95bd c510 053e c831 48be
000000c0: 1181 bdbd aa1f 073f 029e a4bd f76e 1a3e
000000d0: 89a1 8d39 b6e7 10be 34e6 61be 76e1 533d
000000e0: 2f33 8c3e 288f a03e 4c9f 62be 4c6a ea3e
000000f0: a42e cebd f46b b2be 0468 8abd 8fc6 39be
00000100: dc18 723e da62 ac3e 5ec7 bebd ddee 073e
00000110: 6758 49be 4e2d a3bd 825c 1bbe 8ddb 7ebe
00000120: 99ba 0cbe 8123 14bd 66f4 6c3d fd5f 1ebe
00000130: 1d01 3cbe a5d8 7bbe 4ac9 04be bd75 cbbd
00000140: 0214 dc3d bad0 10be e02a 4ebe de29 833d
00000150: beea febd 5909 1abe b096 3cbe e7ba bf3d
00000160: bb4d 4dbe ee28 ec3d 200a 50be 7fd1 3fbe
00000170: 1702 3bbd 4c06 c5bc 5029 4abe 966c 423c
00000180: fe69 1fbe d41f 0c3e 0fe2 ba3e 58e4 c73c
00000190: 9127 54be 0e59 48bd 4eb9 9fbd 2284 8d3d
000001a0: 7c6a ffbd 9dae a8bc d887 28be 774e f0bd
000001b0: 0e72 14be 16b0 07be 4d94 7d3c a562 d7bd
000001c0: 3fc4 7cbc 02c2 953e cdac b7bc 6854 4bbd
000001d0: b876 44be 9370 7d3d 3a11 abbe 360d 9e3d
000001e0: 36fd c33d d130 143d 3e5f 943d 61c0 253e
000001f0: 6929 5ebe d0bd 13be 2657 4cbe ec00 04be

output.weight f4 [6, 128]
-0.039732028 1.3411638 0.11122907 -0.013720319 0.10449199 -0.6986344 -0.37157303 -0.20458859
0.33875716 0.2698259 0.5731563 0.43455097 0.4991043 0.0530291 0.46623388 -0.21135145
-0.43115577 -0.2665755 0.22261061 -0.5370649 0.31821463 -0.98937404 -0.29604065 1.2364409
0.22488865 0.15950948 0.15580085 -0.18720584 0.32128027 0.3436069 0.59246457 0.28770316
-0.74192905 -0.4192903 0.42346674 -0.83426785 0.8539833 0.5339306 1.0243981 0.110605694
0.30192724 0.15399829 0.38538048 0.23756099 0.32120764 -0.2468397 0.2365575 -0.565592
0.58061063 0.08457155 -0.36469942 0.3174265 0.46593782 -0.37378502 -0.4057758 -0.3478491
0.18618089 0.38904634 -0.6680463 0.15541652 0.2972946 0.19409695 -0.2362114 -0.43794814
0.17408766 0.23660442 0.17977624 0.25786206 -0.29312545 -0.55411017 -0.5571364 0.71275306
-0.6456689 0.3900908 0.23488894 -0.800014 -0.41634798 -0.43283546 0.7312933 0.24484065
0.20593947 0.5187792 -0.2898923 -0.012479198 -0.3578875 -1.1510109 -1.1163857 0.24288827
-0.33965132 0.3580356 -0.25855058 -0.2416935 -0.4749587 0.36748403 -0.268467 0.1950029
-0.20465855 0.654151 0.5913381 0.40277258 -0.43539512 0.61180043 -0.13411422 -2.0275252
-0.41819304 0.45707566 -0.30534804 0.51013184 0.76121825 -0.7009719 0.1868673 -0.3619892
1.1075846 0.114469744 -0.3580261 0.37635812 0.6679058 0.31411794 -0.19427688 1.7203081
1.018438 0.32163426 0.23193064 0.42674312 0.57845587 0.1579327 -0.37516892 -0.7906769
0.104087226 1.2916416 -0.22880095 0.51093394 -0.3990841 0.13546129 0.21341455 -0.13645545
0.00313207 -0.26706812 0.45489448 -0.7210552 0.5141457 0.15652366 0.4299531 0.47417083
0.7282521 -0.26832402 0.21321948 -0.7429511 0.36013922 -1.0487492 -0.33403516 1.2761252
0.023166137 0.4179746 0.1446515 -0.14390738 0.43957758 0.056214873 0.68404657 -0.4824592
-1.880323 -0.33927155 0.4728469 -1.6751763 0.752311 -0.190231 1.1397926 0.09105798
0.33071476 0.29850203 0.30093622 0.1954412 -0.42647037 -0.46890318 0.22446965 -0.29099715
0.37834692 0.10247386 -0.22186758 0.29898435 0.44379714 -0.34560025 -0.5620454 0.41613752
0.17621726 0.5559844 -0.6712169 0.0446617 -0.20016989 0.64415705 0.4432849 -0.34406808
0.20571524 0.28399885 -0.48229066 0.2829066 0.16211371 -0.59072244 -0.75892085 0.890016
-0.35343698 0.5096269 0.25392538 -0.76171714 -0.33616403 -0.45117941 -0.68505716 -0.25503528
0.24532193 -0.33320564 -0.32688507 0.19397712 -0.34817734 -1.4879638 -1.1171376 0.202707
-0.44047692 0.13294458 -0.21347666 -0.23402311 0.59875834 -0.07692443 -0.26466325 -0.41553667
0.16172919 0.6657946 0.4914039 0.4663794 -0.16826746 0.63226855 -0.4374514 -0.5808634
-0.44278744 0.43507433 -0.21375424 -0.12441475 0.80332637 -0.6682975 -0.4401738 -0.4414593
1.1345663 0.06725829 0.25496805 0.4300242 0.64772713 0.3778322 -0.17750674 1.7530519
1.045459 0.20319307 -0.1658771 0.4383819 -1.788179 -0.3350411 -0.18866345 -0.71766776
00000000: 0dbe 22bd 41ab ab3f 11cc e33d 30cb 60bc
00000010: e5ff d53d b4d9 32bf d23e bebe ac7f 51be
00000020: 9471 ad3e 9f26 8a3e 5fba 123f 777d de3e
00000030: 998a ff3e 0b35 593d 35b6 ee3e 846c 58be
00000040: 73c0 dcbe 957c 88be 09f4 633e 167d 09bf
00000050: 07ed a23e 9e47 7dbf a492 97be b243 9e3f
00000060: 3649 663e 7456 233e 428a 1f3e e3b2 3fbe
00000070: d97e a43e 3eed af3e c2ab 173f d44d 933e
00000080: 10ef 3dbf 38ad d6be a2d0 d83e 9492 55bf
00000090: a69e 5a3f adaf 083f 7a1f 833f 3d85 e23d
000000a0: 3596 9a3e bab1 1d3e 9750 c53e 3043 733e
000000b0: 5475 a43e 8cc3 7cbe 213c 723e a3ca 10bf
000000c0: e6a2 143f d933 ad3d e2b9 babe ba85 a23e
000000d0: 678f ee3e c060 bfbe d8c1 cfbe 4719 b2be
000000e0: 34a6 3e3e 1531 c73e 1505 2bbf 8225 1f3e
000000f0: ff36 983e 5ac1 463e 67e1 71be bd3a e0be
00000100: 0944 323e 6e48 723e 4317 383e 7f06 843e
00000110: 8a14 96be 2ada 0dbf 7ea0 0ebf fc76 363f
00000120: 8f4a 25bf fbb9 c73e ba86 703e b8cd 4cbf
00000130: 902b d5be 9c9c ddbe 0a36 3b3f 82b7 7a3e
00000140: cce1 523e b7ce 043f c36c 94be 8d75 4cbc
00000150: 083d b7be 5354 93bf bae5 8ebf b4b7 783e
00000160: c7e6 adbe 7150 b73e be60 84be 807e 77be
00000170: c92d f3be de26 bc3e 8274 89be d7ae 473e
00000180: 0392 51be 7176 273f ef61 173f 3538 ce3e
00000190: 1cec debe f49e 1c3f 3d55 09be f9c2 01c0
000001a0: 661d d6be d205 ea3e 9456 9cbe 0098 023f
000001b0: 33df 423f e572 33bf 245a 3f3e a656 b9be
000001c0: 55c5 8d3f 1d6f ea3d 324f b7be 03b2 c03e
000001d0: e0fb 2a3f 11d4 a03e 85f0 46be 0e33 dc3f
000001e0: 2d5c 823f 3fad a43e 3a7f 6d3e 137e da3e
000001f0: af15 143f 1cb9 213e 2416 c0be cd69 4abf
00000200: af2b d53d 8354 a53f cc4a 6abe 91cc 023f
00000210: c054 ccbe 5db6 0a3e 5889 5a3e faba 0bbe
00000220: 6a43 4d3b 27bd 88be eee7 e83e 1397 38bf
00000230: 0d9f 033f bd47 203e d022 dc3e 85c6 f23e
00000240: bb6e 3a3f c461 89be 3556 5a3e 0b32 3ebf
00000250: 2b64 b83e 6a3d 86bf a806 abbe 1258 a33f
00000260: e9c6 bd3c c400 d63e 861f 143e 755c 13be
00000270: 5010 e13e 9141 663d ad1d 2f3f e404 f7be
00000280: 6dae f0bf 00b5 adbe fd18 f23e 2d6c d6bf
00000290: 7497 403f eacb 42be b9e4 913f 9b7c ba3d
000002a0: 7253 a93e 42d5 983e 5014 9a3e bd21 483e
000002b0: 535a dabe 1414 f0be 5fdb 653e 94fd 94be
000002c0: b0b6 c13e d1dd d13d 4131 63be 7a14 993e
000002d0: 6139 e33e 84f2 b0be 35e2 0fbf fa0f d53e
000002e0: 4c72 343e fe54 0e3f dfd4 2bbf 30ef 363d
000002f0: 56f9 4cbe 7ae7 243f 3df6 e23e b129 b0be
00000300: 04a7 523e 4c68 913e cdee f6be 22d9 903e
00000310: 2301 263e 9639 17bf a348 42bf 17d8 633f
00000320: b1f5 b4be e976 023f 8202 823e e5ff 42bf
00000330: b11d acbe fd00 e7be e85f 2fbf fc93 82be
00000340: ac35 7b3e ee99 aabe 7b5d a7be f0a1 463e
00000350: 4d44 b2be 9975 bebf 5dfe 8ebf 6c92 4f3e
00000360: 3186 e1be a022 083e a099 5abe c1a3 6fbe
00000370: 3a48 193f 8e8a 9dbd f181 87be 39c1 d4be
00000380: 569c 253e 8471 2a3f 4b99 fb3e 48c9 ee3e
00000390: 4e4e 2cbe 5adc 213f a1f9 dfbe 77b3 14bf
000003a0: 09b5 e2be 10c2 de3e 64e2 5abe 29cd febd
000003b0: cca6 4d3f 8c15 2bbf 765e e1be f406 e2be
000003c0: 7839 913f b7be 893d 2c8b 823e 222c dc3e
000003d0: 72d1 253f 3973 c13e 54c4 35be 0164 e03f
000003e0: 9ad1 853f d811 503e b0db 29be 9873 e03e
000003f0: 0de3 e4bf 828a abbe fe30 41be 13b9 37bf

output.bias f4 [6]
0.24148777 0.5848263 0.23414703 0.5644584 0.35945597 0.25685406
00000000: 9248 773e 2db7 153f 3dc4 6f3e 5880 103f
00000010: 9d0a b83e 6082 833e
