figs2-3_rl/results/freeway-UADQN/network.pth (torch_old, 684828 bytes, 6 tensors)

conv.weight f4 [16, 7, 3, 3]
00000000: 976a d7bd 9dd3 7ebb 35d2 1dbe 23f3 fabd
00000010: 1863 a6bd cabf 013e d96f 7a3c 1ad9 e3be
00000020: ecfe 213d 7197 873c 41bc c7bb 1bf8 20bc
00000030: c88a bd3b 15c1 343e c682 9a3d 6a63 9c3c
00000040: 7e13 e83c 6048 513d df4f 2d3d 427b c83c
00000050: c35c 013d 9647 8fbe be0b a7be e1d7 e8be
00000060: 6d13 e13c fc85 e13c ca2c 413c 5980 6c3d
00000070: afa1 b73c 31ca a3bc beed 69be 809b bebd
00000080: 6e65 04be 4458 89bc 07ec b8bd 2406 8fbc
00000090: 4690 8e3c f217 443d 97bd 8c3d 6e52 7dbe
000000a0: e449 37be d9e6 42be 39a2 1e3d 0554 0a3d
000000b0: 9ffc a63d 0c14 25bd fad2 4c3d 2ad7 483d
000000c0: 7bf1 1a3c a58f babe 2590 29be ef85 3c3e
000000d0: ca57 233e e5e5 e8bb c993 2d3d 6664 413d
000000e0: 4c65 6ebb a3a2 013e ccc9 25be fd84 3cbd
000000f0: 5aa0 30bc 2821 df3b 85d7 9e3d 1180 b5be
00000100: e376 103f da34 c4bd 8316 4bbd f16d 1c3f
00000110: 9d59 bdbd 7ed2 c2be 9a8e 353f 658c 31be
00000120: 2b4d a23c b4db 0b3d 61e5 7d3b 6bb0 a9bc
00000130: c6b7 1e3d 03c9 073d 7319 f9bc be0a 9a3c
00000140: 1737 823c b6ea 9f3d 7350 b83b b5bd 8ebd
00000150: 9cd0 f5bc 4cc5 243d f3a4 74bd c693 fdbc
00000160: 1951 9a3d aeba 123e 4f28 7f3d 69f1 74bc
00000170: f7ec 3cbd fb89 253c 25b4 683d fdb5 433c
00000180: 2a73 e5bc 3fd6 8d3d 01a8 ef3d a075 c93b
00000190: fc17 5abc c732 f7bd c2a9 f93a 3b7a 1d3d
000001a0: bddb 013e b692 10bd 1326 853d 8a81 6f3d
000001b0: 9769 6c3b de54 043d 95a7 403c 213d d13b
000001c0: 9ed5 7b3d bfbd 1f3d 18b3 3b3c c463 3f3d
000001d0: b2d0 073d 11e7 e8bc 84df 4e3d 9e34 f13d
000001e0: 337c 6abb b25b 1c3d ff08 0abd 386f e4b9
000001f0: 003c 2c3d 30f6 4dbc d285 ed3d a9e6 993f
00000200: 3930 e1be 9a95 c03e 8808 05be 0f21 8c3c
00000210: 61a8 56be 6c65 13be 4ba9 cb3d 2739 91bf
00000220: 896c 9d3b 7c09 92bf a262 bf3d a584 753c
00000230: 24e9 c43d cc8c b43c 390e 5039 3bf0 3e3c
00000240: 89a2 a93c 8642 8f3f 9e0d 20bc 7476 b93c
00000250: 95d1 76bd 3079 a03c 3ce0 6bba fa81 fd3b
00000260: 4af1 853c d464 433c e7aa 8f3f 0b56 323a
00000270: dee3 9c3b 3e9c e8bd 2e68 a5bb 2fd6 323c
00000280: 6d6f 54bb 7b01 27bb ef1b 4a3c f4c9 8d3f
00000290: af2e 0ebc 20e6 503c 9199 45bd a962 bc3c
000002a0: e97b a63c ea07 9e3a 89da c23c 6b2d 32bc
000002b0: 650d 8b3f 88b4 b8bc efce 81bc ed5e e1bd
000002c0: 9c17 ddbb 5a69 bebb 3cd5 3fbc abc8 7ebc
000002d0: d362 103c e384 8f3f 079c 96bc 604b 0d3c
000002e0: cc58 62bd d306 593a 886b 69bc 3d19 16bd
000002f0: 32f1 c63c 473c 913e 3a82 183e 01f8 5f3e
00000300: d43a c33e 6c4a 293e 3ae3 4e3e 38e3 423d
00000310: e664 88be 03ac 663e 7635 e1bd cb0a 323e
00000320: a771 4b3e e271 94bc a758 99bc c467 51bc
00000330: 47d7 b03c 6f3e 3d3c 23a9 bd3c 0ce6 c23e
00000340: 1535 803e a8c4 d4be 528e 89bc 16d2 1bbd
00000350: 5fa0 aa3c 94ae 313d 6323 6bba 0d20 7b3c
00000360: 2e63 133e 67fa 093d 3990 ac3d 4acf 1b3d
00000370: 216f b13c c8ab 8bbc 5520 aeba 68b1 ef3c
00000380: 64f8 75bb a0df 4dbd 15d8 46bd 30e3 283d
00000390: 8e52 93bc f836 873d 3f39 313d bc05 dc3c
000003a0: 80a3 a4bc 3b5d f6bc 20fc 90bd b54f 7a3b
000003b0: 9bb9 583d 72ca 963b 1963 0c3d 9565 aebc
000003c0: e7e9 a3bc b37d 233b c98c 003d 9e5b d3be
000003d0: 18f8 c6bd ba3b e63d 5e66 28bd ec1a 403d
000003e0: 7b6a c13c 863f b53c efa2 893c 3e60 ea3b
000003f0: 2774 953b 65a9 3a3d 5619 e33c e244 243c
-0.10518377 -0.0038883456 -0.15412219 -0.12253406 -0.081243694 0.12670818 0.015285456 -0.44501573
0.039549753 0.016551705 -0.0060954397 -0.009824778 0.0057843663 0.1765178 0.07544474 0.019090373
0.028329607 0.051094413 0.0423125 0.024472836 0.031582605 -0.27984303 -0.32626146 -0.45477203
0.027475083 0.027529709 0.011790464 0.05773959 0.022415964 -0.019993873 -0.22844598 -0.09307003
-0.12929317 -0.016765721 -0.09029394 -0.017458983 0.01740278 0.0478744 0.06872099 -0.24738476
-0.17899281 -0.19033374 0.038728926 0.033771534 0.081536524 -0.04030232 0.05000589 0.04903332
0.0094569875 -0.36437717 -0.16558893 0.18410467 0.15951458 -0.0071074837 0.042377267 0.047214888
-0.0036376296 0.12659697 -0.1619026 -0.046025265 -0.010780418 0.0068093725 0.07755951 -0.3544927
0.56431407 -0.09580393 -0.049582016 0.6110526 -0.09245608 -0.38051218 0.7092072 -0.17338713
0.019812187 0.034145072 0.0038741457 -0.020714005 0.03874948 0.033150684 -0.030407643 0.01880395
0.01589541 0.078084394 0.0056248247 -0.069697775 -0.0300067 0.04022722 -0.05972762 -0.030954253
0.075349994 0.14329025 0.0622943 -0.014950135 -0.046124425 0.010103698 0.056812424 0.011945245
-0.028009016 0.0692563 0.11701966 0.006148055 -0.013311382 -0.12070232 0.0019047784 0.038446646
0.1268148 -0.035296164 0.06501403 0.058473147 0.0036073679 0.0323075 0.011758705 0.006385461
0.061483018 0.038999315 0.0114562735 0.046726003 0.03315801 -0.028430494 0.05050613 0.11777614
-0.0035779595 0.038173385 -0.033699986 -0.00043570413 0.042049408 -0.012570903 0.1159779 1.2023517
-0.43982103 0.37614137 -0.12991536 0.017105607 -0.20962669 -0.14394158 0.099443994 -1.1345567
0.004804198 -1.1409144 0.093449846 0.014985238 0.096147805 0.022039793 0.00019841724 0.011653955
0.020707386 1.1192176 -0.009768872 0.02263949 -0.060258467 0.019589037 -0.0008997952 0.0077364417
0.016350407 0.011925895 1.122403 0.00068029825 0.004787906 -0.11357926 -0.0050478196 0.010915323
-0.0032415048 -0.002548306 0.012335761 1.1077256 -0.008678122 0.012750179 -0.048242155 0.022996264
0.020322757 0.0012056802 0.023785846 -0.010875086 1.0863463 -0.022547022 -0.015845744 -0.11004434
-0.006747199 -0.0058108987 -0.011708554 -0.015550773 0.008812624 1.1212429 -0.018384947 0.008623928
-0.055260465 0.000827891 -0.014246829 -0.036645163 0.024284933 0.283663 0.14893427 0.2187195
0.3813082 0.16532296 0.20203868 0.047579974 -0.2663948 0.22526555 -0.10996525 0.1738693
0.19867574 -0.01812071 -0.01871903 -0.012781087 0.021587027 0.01155053 0.02315194 0.38066137
0.25040498 -0.41556287 -0.016791496 -0.03804215 0.020828424 0.04337938 -0.00089698116 0.015327466
0.14393303 0.033686068 0.08425946 0.038039483 0.021659436 -0.017049685 -0.0013284782 0.029259399
-0.0037532086 -0.050262094 -0.048545916 0.041232288 -0.017983701 0.06602281 0.043267485 0.026858203
-0.020097494 -0.030073753 -0.07079339 0.0038194482 0.052911382 0.00460177 0.034274194 -0.021288672
-0.020008994 0.0024946749 0.031384263 -0.41280836 -0.09715289 0.11241861 -0.04111325 0.046900675
0.023610344 0.022125017 0.016801326 0.0071525862 0.0045609656 0.045571703 0.027722042 0.010026189

conv.bias f4 [16]
00000000: f630 f1bd 143e 633e 280f acbd a8e4 9abe
00000010: e853 4fbd 0ff6 82be 6fbd 07be 9bcd efbb
00000020: 98da 85be d6f2 f3bc b92c 8dbe 3ba7 d0bd
00000030: e09e 193c e1c2 14be e4a4 b6bd d462 9cbd
-0.11776917 0.2219165 -0.08401328 -0.30252576 -0.05061713 -0.25578353 -0.13255857 -0.0073182113
-0.26143336 -0.02977888 -0.27573183 -0.10188147 0.009376258 -0.14527465 -0.08918169 -0.076360375

fc_hidden.weight f4 [128, 1024]
00000000: 5dd9 abbd aa3f bdbc 4a37 b8bb 159a 953c
00000010: 5fdf d1bc f4b1 ed3b ce35 0abd f581 313d
00000020: 6de5 8bbc 1cbf 77bb 16c2 09bd 5cf3 c0bd
00000030: 10e5 733d 232e 573d 5561 34bd 36ac a23d
00000040: 8d55 0ebc 21c0 01bd d4c7 febd 56e6 febc
00000050: 9226 0abd f6c0 b7bc 8392 a6bd a069 9e3b
00000060: a35e 4ebc a271 6abd 32dd ebbc f26c 643d
00000070: 0b65 81bc 8920 27bc 659f 3c3d 4cb5 8a3d
00000080: 9ca5 103d d2c2 49bc 8de4 1a3d ca46 d03b
00000090: 4c38 64bd 5233 0fbc 1c49 1fbc d961 383d
000000a0: 9a42 32bd 1ddb b6bd bbbc 11bd 76fb c93c
000000b0: 07da 433d 232c c73c 6cf4 4b3d 6314 47bd
000000c0: 9b5d e1bd 4b37 043d ed92 2dbd eb50 4cbb
000000d0: f696 a03b 004d 53bb 8aed 8bbd d6d1 4f3c
000000e0: 65a3 99bd 4bb7 903c 356b 91bb cdd6 b33c
000000f0: 6052 b73a 4edc ee3c 74a1 223b 36b8 a93d
00000100: ba7f 73bc fa8c 663c 43a4 69bd b4ef bfbc
00000110: 057f 2c3d b799 183c 0d63 853c 6160 84bc
00000120: e667 423d 5480 d7bd e7b4 92bd 8daf 9abd
00000130: e5a1 a33c 1b78 fcbc 0372 52bd 3809 8c3d
00000140: 9b40 3dbc a5f5 c83c 1b23 0b3b 39e6 f9bb
00000150: 7e4e b9bd b1da 9fbc 7ae4 90bd e39c 07bd
00000160: b98f 3c39 4a34 9bbc cb2d c7bc a7ec 81bc
00000170: d054 e73c 7223 21bd c357 f13c 6644 153d
00000180: 1cb6 1e3d 33eb 5c3d 3934 99bd 99e2 fa3c
00000190: 7fb8 873d 08fd 15bd c0e9 89bc 37db e3bd
000001a0: a59b 74bd 4791 113d 7a9c 82bd 58b9 88bd
000001b0: 2936 2abd 1007 25bd c4e2 373c d0c6 723c
000001c0: 8ef1 98b9 9e51 49bd 508b 493c c992 2c3c
000001d0: b19a c1bd 6a2b 3f3d d819 98bd 54c4 c43d
000001e0: 8152 74bd 5bf0 12bd 433a e6bc 1b09 87bd
000001f0: c338 a03d b7e0 d3bc a2dd 39bc ffd4 95bb
00000200: 8e84 31bd 284e 4abd fd48 15bd 4630 04bd
00000210: 24d5 9bbd 2941 473d c769 01bd c79f ccbc
00000220: c326 563d fcf6 693d 2abc 39bb 54cf cdbd
00000230: 7d89 4dbd 931d b0bd 3aa2 ad3c d12a 75bd
00000240: 4a79 5cbd 3902 c4bb 1ed5 333d bc94 963d
00000250: b627 033c 964a a5bd 5eed 90bd 8720 803d
00000260: e6a5 35bb 829a c0bd 6e90 89bd a49f 2cbd
00000270: 11ad 70bd 7149 a0bb f4ff 3a3d f48e df3b
00000280: d4ae 2d3d 61c0 63ba c2c7 063d 421e 163d
00000290: 14ce 0a3b 21ea 9dbd ab26 a63d f5c8 7a3c
000002a0: 0d58 9fbc 3724 883d dd25 70bd 465c 3b3d
000002b0: 7b2c 283d 95e2 d8bc 167b 59bd e910 ffbb
000002c0: 3a85 543d 3ca0 abbb eb3e 7fbc c569 2f3d
000002d0: 1ff7 f43a 27c7 a8bd 7761 babc 064d 85bc
000002e0: 3a37 31bc 775e 8cbb d709 d53c f92a c9bc
000002f0: 8e37 eebc a211 3f3d 03de 45bd fa11 b03d
00000300: e7d7 76bb 8fd1 2c3c b304 273d 8a28 413b
00000310: 8dba 973c 1958 6f3d fbf8 82bd 023b 0d3c
00000320: fd21 0fbd 9666 e63c e2a7 e63b 7f82 823b
00000330: f2a2 79bd 1b04 493d 5c2e 383d 3046 fd3c
00000340: bd25 5bbd ad1c 87bb 0518 013d 0397 9cbc
00000350: f2db 0bbd 5744 e7bc 0a5b d6b9 6e1f f0bb
00000360: 8d05 98bd afd8 47bd 7637 f8bc 84f8 44bd
00000370: 5412 7fbd 3fca 1bbd d532 b4bb 3a3d 0ebc
00000380: 36cd ce3c 1c6a 0b3d 7ecb 8cbc ca3a 31bd
00000390: de82 c1bc 26a2 453b 10ee 22be 02a3 97bd
000003a0: 5858 7abc 6285 133d 16c3 b43b bfb9 41bd
000003b0: e8a9 4ebd 531e 04bd 3e46 2dbd c42c a13c
000003c0: e9bc 7dbc de6a cabb 98be 613b 2384 12bd
000003d0: 70dd 8bbd a71f 393a 981b f83c 185f a43d
000003e0: bc63 26bd d0d7 9abb 58ad 6a3c badc 6bbd
000003f0: 4eef c4bc 8ecd 8a3a 9ce4 50bc cc2d 203b
-0.08391068 -0.023101646 -0.0056218253 0.018261949 -0.025619207 0.0072538797 -0.03374272 0.043336827
-0.017077172 -0.003780312 -0.03363236 -0.09421417 0.059544623 0.052534234 -0.044038136 0.07943003
-0.008687389 -0.03167737 -0.12440458 -0.031115692 -0.03372819 -0.022430878 -0.08133414 0.004834369
-0.012595805 -0.057237275 -0.028791998 0.05576796 -0.015795251 -0.010200628 0.046050448 0.06772861
0.035314187 -0.012314515 0.03781562 0.006356095 -0.05571775 -0.008740263 -0.0097220205 0.04501519
-0.043520547 -0.08928511 -0.035580378 0.024656039 0.04781535 0.024313038 0.049793646 -0.048603427
-0.11004182 0.032279294 -0.042376447 -0.003117616 0.0049008084 -0.003224194 -0.06832416 0.012684306
-0.07501868 0.017665526 -0.004437829 0.021953011 0.0013986342 0.029157784 0.0024815472 0.082870886
-0.014861995 0.014071697 -0.057041418 -0.023429729 0.042113323 0.009313992 0.016282583 -0.016159238
0.047462367 -0.105225235 -0.07163411 -0.07553015 0.019974658 -0.03081899 -0.05137826 0.06837696
-0.011551048 0.024531195 0.0021230641 -0.0076263216 -0.09048174 -0.01951346 -0.070748284 -0.033108603
0.00017982618 -0.018945832 -0.024313828 -0.015859915 0.028238684 -0.039340444 0.029460793 0.036442183
0.03874789 0.05393524 -0.07480664 0.030625628 0.06626987 -0.036618263 -0.016835093 -0.11125796
-0.059718747 0.035538938 -0.06377502 -0.066759765 -0.041555557 -0.04028994 0.011223499 0.014817908
-0.00029171671 -0.0491501 0.012301281 0.010533043 -0.09453333 0.046672262 -0.07426804 0.09607759
-0.059648994 -0.035873752 -0.028103953 -0.065935336 0.078233264 -0.025863988 -0.011344345 -0.0045725103
-0.043339305 -0.04939094 -0.03644656 -0.0322726 -0.07609013 0.048646126 -0.031595018 -0.024978532
0.05228306 0.05712031 -0.0028340914 -0.1004931 -0.050179947 -0.08599391 0.02119552 -0.059855286
-0.053826608 -0.0059817103 0.043904416 0.073525876 0.008005073 -0.08070867 -0.07076524 0.06256204
-0.0027717291 -0.0940447 -0.06717001 -0.042144433 -0.0587588 -0.0048915674 0.045654252 0.0068224613
0.042403057 -0.00086880295 0.032905348 0.03664995 0.002117996 -0.07710672 0.08112844 0.015306701
-0.019451166 0.066475324 -0.05862986 0.045742296 0.041058045 -0.02647523 -0.0530959 -0.0077839983
0.051884867 -0.0052376073 -0.015578966 0.04282548 0.001868937 -0.0824111 -0.022751553 -0.01627208
-0.01081639 -0.004283722 0.026005669 -0.024556624 -0.029079225 0.046647675 -0.04830743 0.08597179
-0.003766531 0.01054801 0.040775966 0.0029473626 0.018521572 0.058433626 -0.063951455 0.008620026
-0.034944523 0.028125089 0.007039056 0.0039828415 -0.060946412 0.04907618 0.044966087 0.030917257
-0.053502787 -0.0041232915 0.031517047 -0.019114977 -0.034145303 -0.02823083 -0.0004088509 -0.0073279655
-0.07422934 -0.04879063 -0.030299883 -0.048088565 -0.06227334 -0.038034674 -0.0054992237 -0.00868159
0.025244337 0.03403674 -0.017186876 -0.043268956 -0.023621973 0.0030156462 -0.15911126 -0.07404138
-0.015279852 0.036015876 0.00551642 -0.047296282 -0.050455004 -0.032255482 -0.042303316 0.019674666
-0.015486934 -0.0061772903 0.0034445878 -0.035770547 -0.06829345 0.00070619065 0.030286595 0.0802595
-0.040622458 -0.004725434 0.014323555 -0.057583548 -0.02403989 0.0010589825 -0.012749817 0.002444136

fc_hidden.bias f4 [128]
00000000: d0af a1bc 08be babc e65a 98bc 060d e6bc
00000010: 3a28 75bc 4403 a5bc 071c 18bc ff3f f8bc
00000020: daac 8bbc 549f c6bc 648d 7ebc ee1c cfbc
00000030: 4238 68bc 643b a2bc beb6 7abc 297b c33d
00000040: cd0f 9fbc 3b2e a3bc 55af 0c3f 0773 e6bd
00000050: 04b7 acbb 0f13 95bc b554 c7bc ff91 ad3d
00000060: 936b 9bbc 9d20 0fbd 7270 98bc dbc8 c0bc
00000070: f60b 89be 4a1a a3bc b1a9 a5bc a2d5 9bbc
00000080: dd8f 833d 1215 b8bc f7ae d0bc c4f8 a9bc
00000090: 9277 91bc bac1 183f f106 a4bc b996 eb3d
000000a0: be76 a7bc 3e08 acbc 777b b7bc 1642 a2bc
000000b0: 100c 633b 62aa 84bc 374d 673b d2e7 90bc
000000c0: 0085 8ebc 7e65 813e 36ea a7bc 1056 b3bc
000000d0: 813f 02bf c396 6ebd 3b09 653e d453 83bc
000000e0: a1f4 bbbc 8108 9bbc 5012 9fbc 762d c5bc
000000f0: 842f 9bbc 9974 c1bc 4b68 1b3f 215d a03e
00000100: 8937 bcbc e766 87bc a87c 86bc 95e9 9cbc
00000110: b52e aebc 1f99 8ebc 502c acbc b275 c1bc
00000120: 8e54 dcbc 82f1 6ebc 20b1 3b3d 51f1 7cbc
00000130: e0fb 44bc 524e 87bc 782f 88bc d83d 10be
00000140: 6a88 33be 4a41 cfbc 93bc e8bc 522a 083e
00000150: 2e18 e4bc 1a86 82bc c002 79bc a3b6 9fbc
00000160: f801 9cbc 2b04 85bc c44c a2bc 7d32 c5bc
00000170: 040c 86bc 3f63 b4bc ebf8 a3bc aec4 d2bc
00000180: 7e7b babe 191e bdbc 1f20 a1bc 4ab3 9ebc
00000190: 2fa0 d5bc 73c3 7dbc e8e6 9cbc ee57 a8bc
000001a0: a655 94bc 7773 c7bc 40a2 f1bc 8643 b1bc
000001b0: 5a1b 51be 896d b9bc 0a1b 243e 0546 8dbc
000001c0: 16b8 9fbc 21fe d3bc 8b02 80bc 3214 0b3f
000001d0: 3372 73bc 85db dabc 0bd4 9abc a6bc 79be
000001e0: 7cbf adbc 6379 9dbc 8c7b babc b59e adbc
000001f0: 28f5 eebc 448b 9dbc e063 ef3d 7a17 9dbc
-0.019737154 -0.022795692 -0.018598031 -0.028082382 -0.014963204 -0.020143159 -0.009284026 -0.030303953
-0.017050195 -0.024245895 -0.01553664 -0.02528235 -0.014173569 -0.01980371 -0.015302358 0.09544975
-0.019416714 -0.019919505 0.54955035 -0.112524085 -0.0052708406 -0.018197564 -0.024332384 0.08475112
-0.018972194 -0.03494321 -0.018608306 -0.023533275 -0.26766938 -0.019909997 -0.020222517 -0.019022767
0.06423924 -0.022470985 -0.025474055 -0.020748504 -0.01775721 0.59670603 -0.020022841 0.115033574
-0.020442363 -0.021000024 -0.02239774 -0.019806903 0.003464464 -0.016194526 0.0035293826 -0.017688666
-0.017397404 0.25272745 -0.020497423 -0.021891624 -0.5087815 -0.058249246 0.22366802 -0.016031183
-0.022943797 -0.018924953 -0.019417912 -0.024069529 -0.018943556 -0.023615168 0.60706013 0.31321052
-0.0229757 -0.01652856 -0.016416863 -0.01915435 -0.021262506 -0.017406998 -0.021017224 -0.023615692
-0.026895788 -0.014583947 0.045823216 -0.015438394 -0.012022942 -0.016516838 -0.016624197 -0.14086092
-0.17532507 -0.025299687 -0.028410232 0.13297394 -0.027843561 -0.015933085 -0.01519841 -0.019496268
-0.019043908 -0.016237339 -0.019811995 -0.024071926 -0.016363151 -0.02201998 -0.020016154 -0.02572855
-0.36422342 -0.02308564 -0.019668637 -0.019372601 -0.026077358 -0.015488493 -0.019153073 -0.02054974
-0.018107247 -0.02434705 -0.029496312 -0.021638643 -0.2042059 -0.022635238 0.1602594 -0.017245302
-0.019496959 -0.025878014 -0.015626213 0.5432769 -0.01485877 -0.026716003 -0.018899938 -0.2438837
-0.02120947 -0.01922292 -0.02276399 -0.021193841 -0.029169634 -0.019231446 0.116889715 -0.019176234

output.weight f4 [300, 128]
00000000: 9a82 9a3d 795a a43d 1979 39bd 3e95 483e
00000010: cecd f13d 3401 9dbd a473 873d 3667 713d
00000020: f8d2 e13c f15c a93d 0559 753d 4644 9abd
00000030: cda1 13be 6a44 a9bd 220d 6c3c 3059 5a3e
00000040: bbc7 9ebc ea39 043c 74e6 9d3d 55dc b7bd
00000050: 1b95 e7be 6cd7 c5bd 975d 2bbd 2db0 193e
00000060: 4ca0 6ebd e51e 6cbf 49cf 4a3d fe2d b93b
00000070: 429c 173f 1b20 37bd f099 85bd 21f6 92bc
00000080: dfd5 123e ccc5 013d 08bd d93d ccc2 453a
00000090: 03e2 8f3b db2d febc 65ea 3a3d e4c0 293e
000000a0: 937a 61bd c3f0 e8bd 5e49 bebc 185c e3bc
000000b0: f664 61bd 03c3 2f3d 21b4 333e 0ab9 283e
000000c0: 7497 6c3c ddda b93d 196c 6d3c 621b 23be
000000d0: 1fab 05be a678 fdbe 4dd5 0a3d de16 e83c
000000e0: 9f49 03bd b673 9f3d 72bb 323e 2b28 a03d
000000f0: d339 79be 3dac 59bd 6cb7 e6bd 3298 39bd
00000100: dc27 eabc 9357 da3b 8439 0c3e 12de 37be
00000110: e689 8e3e e858 1dbe 502b ecbc c1cf 18be
00000120: ed38 bfbc d6ba 933c f392 68bf 750e 93bc
00000130: 3bd9 82bc f333 b8bb de85 91bd ae44 1c3f
00000140: 9f10 e13d 71a1 a13d bbb0 b0bd 1494 1e3e
00000150: e954 42bd 75d9 be3d 3bc3 993b 6a37 f13d
00000160: 74af 6f3d f5e4 36bd f877 0cbc e58c a8bc
00000170: 4513 99bd 69e2 3c3c 2853 403d 2b9b d1bd
00000180: ea14 d43e b409 6dbd 84c2 0e3d 7ac5 e4bd
00000190: ab4b e4bd c283 9cbd 13f5 5d3c 4372 6dbd
000001a0: 6340 073d bb27 313d 1087 6c3d fe85 9b3d
000001b0: d084 1c3f 2f08 a9bd 6fd1 4a3e e2c6 b5bd
000001c0: ae4e 8e3d 9a48 563d e364 fcbb b55a 6e3e
000001d0: 8293 863c 6172 b8bc 23b3 d0bd c373 9fbd
000001e0: 4201 f0bd 8acf 433d f07b 00be faca e4ba
000001f0: cd9d b73d 2e03 73bd 1d3c 0c3e c733 6e3c
00000200: 870f c3bd a967 b03b 1256 c3bd 4b50 503e
00000210: 0c8d 4bbe 7e0f 2e3e 149c 453d 9a37 133e
00000220: 8b6b e13c 5907 3c3d 473c 973c db86 bb3b
00000230: 67c3 453d 6fb1 6b3e 2c99 52be b464 4c3e
00000240: 1bd8 973c ac11 18bd f6ea 853d 17e8 b3bd
00000250: d0f8 25bf af3b 37bd 9fbb d83d 8fe9 093e
00000260: 56b8 e5bd 78b2 77bf 611a 9bbd d73a 12bd
00000270: afed 103f 1d32 3dbd 0dae f4bd 8cc6 3abb
00000280: 354f 0d3e 65d0 7f3c 522c 983c efe5 15bb
00000290: eaf3 9d3d 3976 373c e6d0 ab3d 8092 253e
000002a0: 9ff4 c23c 78b6 913d a140 04bd 94d3 a93d
000002b0: 79f0 3dbd 09af 923d b0e1 2f3e ec6c 3cbe
000002c0: 3590 0ebe f0e0 733d 87bf ee3d c99e c73d
000002d0: 6d8b 03be 376e 15bf 54fa ef3c 7d4d 31bd
000002e0: 579e 50bc 0b2f b03d 56bd 0abd 6deb 76bd
000002f0: 71e1 7f3d 1fe5 613d b331 66bd 1dcb 2cbd
00000300: 3d3d 50bd 36bc b83d aa57 393d 2384 c8bc
00000310: 1f8c 573c a70b 9fbd 3447 a33d ed32 503d
00000320: bcdc 513d 2bd3 693d 4e13 7dbf 4b07 693c
00000330: b609 3bbe 2903 473c 96e4 41bc e91c 163f
00000340: 5883 b23d e8cc b33d 84f6 3e3d db4d 1c3e
00000350: 833c bebd 5256 20bd 850e f5ba faeb 373d
00000360: 1d4c 4ebd a14a 133d fe2d b3bc c406 4fbd
00000370: 8c36 073e 8962 493c c9cf 1f3d cff0 15bc
00000380: 20d1 c13e 76df 30bc 4792 6abd d0ff 86bb
00000390: 29fb e0bc 715b 1c3e ae12 7dbd 8d92 cebd
000003a0: b0c4 be3d 5a66 e93d 221b 6f3d 1790 333d
000003b0: 044d 133f 9b0a d9bd 9ff3 473e a459 1c3d
000003c0: 89f5 22be fa98 ca3c 4f24 97bd 920a 733e
000003d0: 18ef 2e3c 3eeb 883c 18df 903d 4aae acbd
000003e0: 1e43 f03d 8fd9 9cbc 198b 1e3c 5869 533d
000003f0: 1607 2cbb 38e2 44be b11b 023e b63a 103d
0.075444415 0.08025069 -0.045281503 0.19588181 0.11806832 -0.07666245 0.066138536 0.05893632
0.027566418 0.0826968 0.05989935 -0.075325534 -0.14417191 -0.08265002 0.014407428 0.21323085
-0.019382348 0.008070448 0.07709971 -0.08977572 -0.45230946 -0.09660229 -0.0418373 0.15008612
-0.05825834 -0.9223464 0.04951409 0.0056512346 0.59222806 -0.044708353 -0.06523502 -0.017939629
0.14339398 0.031682774 0.10631758 0.00075439806 0.0043909564 -0.031027725 0.045633692 0.16577488
-0.055048537 -0.11374047 -0.023228344 -0.027753875 -0.055027924 0.042910587 0.17549182 0.16476837
0.014440406 0.09074948 0.0144911045 -0.15928414 -0.13053559 -0.4950611 0.033894826 0.028331216
-0.032052632 0.07785742 0.17454317 0.078201614 -0.24338464 -0.053142775 -0.11265454 -0.04531116
-0.02858346 0.0066632717 0.13693815 -0.17955807 0.27839583 -0.15365946 -0.028829247 -0.14923002
-0.023342574 0.018033426 -0.90849227 -0.01795123 -0.015972724 -0.005621427 -0.07105611 0.61042297
0.10989498 0.07892121 -0.08627459 0.15486175 -0.047444258 0.093188204 0.0046924627 0.117781475
0.058516935 -0.044651944 -0.008573525 -0.020574996 -0.074743785 0.01152859 0.046954304 -0.10234674
0.41422206 -0.05787058 0.034853473 -0.11170478 -0.11147245 -0.07642318 0.0135472 -0.057970297
0.03302039 0.04325078 0.057745993 0.07593916 0.61140156 -0.08253514 0.19806455 -0.088758245
0.06948601 0.052315332 -0.0077024563 0.2327679 0.01642776 -0.022515478 -0.101904176 -0.07785752
-0.1171899 0.047805347 -0.12547278 -0.0017455511 0.08965645 -0.059329204 0.13694806 0.014538712
-0.09524446 0.005383451 -0.09537901 0.2034313 -0.19878024 0.16998097 0.04824455 0.14376679
0.0275171 0.045905445 0.01846136 0.005722863 0.048282053 0.23016904 -0.20566243 0.1996029
0.018535664 -0.03712623 0.06538956 -0.08784502 -0.6483278 -0.044734653 0.10582661 0.13468002
-0.112168 -0.96756697 -0.07573391 -0.035700645 0.56612676 -0.04619037 -0.1194726 -0.002849969
0.13799746 0.01561365 0.018575821 -0.0022872647 0.077125385 0.01119762 0.083894536 0.16169167
0.023798285 0.07114881 -0.032288197 0.082923084 -0.04637191 0.071622916 0.17175937 -0.18400925
-0.13922198 0.05954069 0.11657625 0.09747083 -0.12846155 -0.583713 0.02929417 -0.04328679
-0.012733064 0.08602723 -0.03387197 -0.060283113 0.062470857 0.055150148 -0.05619974 -0.04218589
-0.05083965 0.090202734 0.04524962 -0.02447707 0.013155966 -0.077658944 0.07972565 0.050829817
0.0512359 0.05708615 -0.9885758 0.01422293 -0.18265423 0.0121467495 -0.011834284 0.58637863
0.08716458 0.08779317 0.046621814 0.15264075 -0.092888854 -0.03914482 -0.0018696344 0.04490278
-0.050365556 0.035959844 -0.021872517 -0.05054356 0.13204402 0.012291559 0.03901652 -0.0091516515
0.37854862 -0.010795465 -0.057268407 -0.0041198507 -0.027463512 0.15269257 -0.061785392 -0.10086546
0.09314859 0.11396475 0.058375485 0.043838587 0.5753939 -0.10597726 0.19526528 0.038171425
-0.15913977 0.024731148 -0.07379972 0.23734501 0.010677122 0.016713735 0.07073802 -0.084316805
0.117315516 -0.019146709 0.009676718 0.051614136 -0.002624934 -0.1922692 0.12705876 0.03521224

output.bias f4 [300]
00000000: cbbc 47be 45fa 91be 348d 99be 9135 8abe
00000010: 02be 81be 43d4 56be a487 24be 9288 d7bd
00000020: 3ff4 49bd 78b0 6db8 0bea 443d 8839 b63d
00000030: 819e 013e bf8b 223e 069e 413e 50c2 5a3e
00000040: 379c 703e 04e7 813e adc5 8a3e 6526 933e
00000050: 1bff 9a3e 1341 a23e 48ca a93e cd9b b13e
00000060: 9bc7 b83e 9356 c03e 053e c83e d5c6 cf3e
00000070: 76aa d73e 29e7 df3e 7c1f e83e d69b f03e
00000080: b36f f93e 1d46 013f 07d7 053f fabe 0a3f
00000090: 0a59 0f3f 4c55 143f 4e94 193f 1eba 1e3f
000000a0: ee2a 243f a2a0 293f 583a 2f3f 6ef7 343f
000000b0: 7975 3a3f 03fe 403f 0fd4 473f 147c 503f
000000c0: b91a 5b3f 4c98 6b3f fb38 44be b986 93be
000000d0: 33c5 9cbe 59a8 8fbe 2a83 85be 9eab 5bbe
000000e0: 132e 2dbe 7dca e1bd 48a3 5ebd e6e9 09bc
000000f0: 7ecc 2d3d 10eb ab3d 063f f73d 85b4 1d3e
00000100: 06d4 3a3e c587 533e 4706 6a3e 95f3 7d3e
00000110: 80d1 873e cb6b 903e 7ffd 973e c67f 9f3e
00000120: 843e a73e 0183 ae3e 4a07 b63e 2768 bd3e
00000130: d3fe c43e eed2 cc3e 41d6 d43e e60c dd3e
00000140: ceb3 e43e 8402 ed3e 91b1 f53e 90b9 fe3e
00000150: 271c 043f 36b9 083f 8e6f 0d3f a564 123f
00000160: 2193 173f 78b0 1c3f 6df3 213f 9c41 273f
00000170: bfb5 2c3f 9160 323f 021a 383f 80f7 3d3f
00000180: 82e0 443f ec28 4d3f 3080 573f 8630 683f
00000190: b0de 30be e95e 82be f515 81be 5b9b 53be
000001a0: 5091 21be c76b c1bd b619 e7bc 6d93 2c3d
000001b0: 443b de3d 32b9 2a3e a2db 5e3e d051 853e
000001c0: 2b9f 983e ae57 a93e b1ff b73e 3460 c53e
000001d0: bb42 d13e 25ed db3e c87c e53e 6d4e ee3e
000001e0: 75b2 f63e 1ec2 fe3e d757 033f bc40 073f
000001f0: a42d 0b3f 8220 0f3f 911c 133f fe20 173f
00000200: 4931 1b3f 2c50 1f3f 6c8b 233f 10e3 273f
00000210: 2d60 2c3f ebf9 303f f1bc 353f a496 3a3f
00000220: 8590 3f3f f0a4 443f f6d6 493f 2a10 4f3f
00000230: 6240 543f 1d69 593f f771 5e3f da89 633f
00000240: 4edd 683f a1a7 6e3f b96e 753f d283 7e3f
00000250: 215f 853f 46f7 8d3f 108d 4ebe e39b 99be
00000260: 71a8 a1be b219 95be 13a0 8dbe 0754 6cbe
00000270: 9f77 41be fda3 0abe 4113 a7bd 18b5 19bd
00000280: 140a 0e3c 2117 5e3d 44bb b33d 0e10 f73d
00000290: fb1d 193e f9e4 313e 5a89 493e 3f25 5d3e
000002a0: ec6b 6e3e f089 7f3e 1464 873e 6448 8f3e
000002b0: aa17 973e 2094 9e3e 7274 a63e 2e47 ae3e
000002c0: cfbc b53e 0479 bd3e 3833 c53e 7fb7 cd3e
000002d0: 18bc d53e 57e7 dd3e 56bb e63e 87fd ef3e
000002e0: 437d f93e 0249 013f d377 063f ed58 0b3f
000002f0: eb63 103f 1db0 153f 61e9 1a3f 160d 203f
00000300: 2ca2 253f 314b 2b3f 211c 313f af0c 373f
00000310: d46d 3e3f f70f 473f d45d 523f 1ba8 633f
00000320: e10b a9be 6d58 b8be e87f abbe 4d35 94be
00000330: 984e 94be 7387 74be c7d8 64be 6f20 27be
00000340: d42a fbbd 8073 cfbd 6e90 87bd 0b8d f3bc
00000350: 9354 643c cd68 253d 98d6 5d3d a058 943d
00000360: 22a2 bb3d 1a41 e53d 2fd4 f93d 9d58 063e
00000370: 4706 173e ca6c 223e a232 393e 278f 433e
00000380: 64c4 4d3e 890a 5e3e 97d0 633e b5c1 7d3e
00000390: 7777 853e 2052 8d3e dfff 943e 186b 993e
000003a0: 4e7f 9d3e ea4d ac3e e482 b13e afd8 bd3e
000003b0: 98f2 c53e 5383 cf3e b88d d23e b59c e53e
000003c0: 6a04 f03e 4e0c fc3e 72bb 043f dd0b 093f
000003d0: 3d35 0d3f 6cd9 173f 0f32 1c3f 557d 283f
000003e0: b868 2f3f e6cc 363f 3829 46be 5bc8 90be
000003f0: ee38 9abe bf85 8bbe 2770 82be ec9e 55be
-0.19505613 -0.28511253 -0.29990542 -0.26993993 -0.25340277 -0.20979409 -0.16067368 -0.105240956
-0.049305197 -5.6669553e-05 0.048074763 0.08897692 0.1265812 0.15873621 0.18907937 0.21363187
0.23497091 0.25371563 0.2710394 0.2874023 0.30272755 0.31690273 0.3316214 0.3468918
0.36089787 0.3756605 0.39109817 0.40581384 0.4212224 0.4373105 0.4533652 0.46993893
0.48718032 0.5049761 0.5228123 0.5419766 0.5599524 0.5794265 0.5999192 0.6200274
0.64128006 0.6626073 0.684484 0.7069005 0.728355 0.7538759 0.7805795 0.8143933
0.8558765 0.9202926 -0.19162361 -0.28813723 -0.306192 -0.28058127 -0.26076633 -0.21452186
-0.16912107 -0.1102495 -0.054354936 -0.008417582 0.042431347 0.08394444 0.12072568 0.15400894
0.18244943 0.2065726 0.22853957 0.2479995 0.26527023 0.2820724 0.2968559 0.3115217
0.32664883 0.34084323 0.35552436 0.36993524 0.38475665 0.40004677 0.41569713 0.43173903
0.4466843 0.46290982 0.47987035 0.49750948 0.5160546 0.5340761 0.55248344 0.5718482
0.59208876 0.6120677 0.63262063 0.65334487 0.6746482 0.696786 0.71914685 0.7420578
0.7690507 0.80140567 0.84179974 0.9069904 -0.17272449 -0.25463036 -0.25212064 -0.20664732
-0.15778089 -0.09444385 -0.028210502 0.042132784 0.10851148 0.16672209 0.21763471 0.2603898
0.29808936 0.33074707 0.35937265 0.3854996 0.40871224 0.42954364 0.44821763 0.4654421
0.48183027 0.49757475 0.5130591 0.5283315 0.5436652 0.5590898 0.57465464 0.5903472
0.6062208 0.6223171 0.63884616 0.65580845 0.6733425 0.69131345 0.70991427 0.7288611
0.74829894 0.76814175 0.7884363 0.8088404 0.8291074 0.84926015 0.86892647 0.8888222
0.90962684 0.9322453 0.95872074 0.9941989 1.0419656 1.1091087 -0.20170999 -0.30001745
-0.31573823 -0.29121166 -0.2766119 -0.23078929 -0.18893288 -0.13539119 -0.08157969 -0.03752622
0.008669395 0.054221276 0.087759525 0.12063609 0.14952843 0.17372502 0.19681302 0.2159624
0.23283356 0.24954963 0.2644354 0.27984917 0.29510242 0.30972385 0.32510716 0.3403868
0.35495612 0.3700639 0.3851564 0.4017906 0.41745067 0.4334056 0.450648 0.46873114
0.4872838 0.50502026 0.5252659 0.54432565 0.5640246 0.5847185 0.6051236 0.6251997
0.6470058 0.6691161 0.69183546 0.7150373 0.74386334 0.77758735 0.8217442 0.88928384
-0.33016875 -0.36004964 -0.33496022 -0.28946915 -0.28966212 -0.23879795 -0.22348319 -0.16320966
-0.12264028 -0.10129452 -0.06619345 -0.02973034 0.01393618 0.04038315 0.05415973 0.072434664
0.09161784 0.11194058 0.12198674 0.13119741 0.14748488 0.15861812 0.18085721 0.19097577
0.20094448 0.21683706 0.2224754 0.24780925 0.26067707 0.2760172 0.29101464 0.2996452
0.30761188 0.33653194 0.34670174 0.3707938 0.38661647 0.4052988 0.41123748 0.4484612
0.46878368 0.49228138 0.5184852 0.53533727 0.5515936 0.59316134 0.61013883 0.6581624
0.68519163 0.714064 -0.19351661 -0.2827786 -0.3012156 -0.27250478 -0.2547619 -0.20861405
