figs2-3_rl/results/freeway-UADQN/network_posterior2.pth (torch_old, 684828 bytes, 6 tensors)

conv.weight f4 [16, 7, 3, 3]
0.67609036 0.94684166 0.60300344 0.42006412 1.0694427 -0.045968626 0.6867806 -0.25006688
0.32225356 -0.38864043 -0.105115846 -0.18131654 0.018583125 -0.060574528 -0.048392657 -0.34714887
-0.34494606 -0.38432422 -0.3459267 0.17173749 -0.31749395 -0.010283072 -0.22708863 0.7767555
-0.11356398 0.0072863307 0.51918083 0.110322796 -0.16666493 -0.41258088 -0.021115744 0.42621782
0.107880674 0.1270286 0.29063958 0.5950923 0.49550012 -0.15753856 0.16017757 -0.043112278
-0.13130698 0.09758005 -0.11220884 0.26522833 0.019398894 0.31698072 -0.12085031 -0.026816208
0.07075407 -0.5115094 0.48282725 0.4488767 0.26560578 0.4618493 0.1722966 -0.32089904
0.43140236 -0.22179733 0.4082727 0.3257385 -0.22797173 0.41204393 0.10141888 0.16096824
-0.20315614 0.23824933 -0.0824547 -0.07419588 0.5455542 -0.4791305 -0.24597481 0.93237513
0.48656207 -0.1738311 0.08854614 -0.6436951 0.019453749 -0.3014242 -0.1132403 -0.00046927447
-0.35404658 -0.22004946 -0.0682616 0.19962184 0.192235 -0.33566144 0.17293443 0.04777786
0.42938933 0.26361045 0.23305224 0.031473782 0.00062794704 0.21527225 -0.37133232 0.024429811
0.3039761 -0.014612084 -0.470383 -1.0477691 -0.15426934 -0.32064432 0.28871143 -0.023675738
0.33901688 -0.22259767 -0.086015865 -0.049710557 -0.5828392 -1.2330227 -0.21966225 0.54714954
-0.13553216 -0.038105205 -0.26231474 0.016075715 -0.08429953 0.40367934 -0.67583925 0.09575344
0.38326555 0.029445926 0.07317235 0.09762392 -0.6940055 -0.07042587 -0.25263458 0.37893495
-0.04544073 -0.2916996 0.40696666 -0.02496639 1.1962159 -0.19111699 0.4498446 -0.20403177
0.14679936 -0.11788561 0.124669075 -0.15673934 0.11562789 -0.5892782 -0.16575225 0.3783698
0.5061974 -0.5475142 0.118374005 0.057409152 0.15488717 -0.32123283 0.04422801 0.62664676
-0.42413747 -0.67706263 0.09737192 -0.19443655 0.14625838 0.0962642 0.2784216 0.42928806
0.03689457 0.13599269 -0.69474095 -0.35405874 0.008257832 0.05880869 0.2024563 -0.09209414
-0.03636223 -0.08328304 0.3501249 0.28828552 -0.08832429 -0.73632026 -0.23077095 0.16356169
0.028412089 0.59493953 -0.17335816 -0.96938586 -0.15670231 -0.11674926 0.170931 0.21364972
-0.19847542 0.5168484 0.4879242 -0.25114748 0.493805 0.06475353 0.5933102 0.17753069
0.75365466 0.12022615 -0.0651622 0.47944894 0.3711517 -0.48847833 -0.08004926 0.6123067
-0.015324153 -0.21185066 -0.17540066 0.37716594 0.75614387 0.3017956 0.38102114 -0.5054758
-0.24875696 0.23325336 0.06283412 0.42639646 -0.039852045 0.22860052 -0.44454288 0.126714
0.023355141 -0.59802645 0.043507945 0.04792726 0.21583602 0.5697048 0.2587554 0.23193917
-0.48458177 -0.1699902 0.5463756 -0.5854863 0.28665558 0.24866797 0.14940509 -0.2995253
-0.09423361 -0.051484827 -0.26525816 -0.5187066 -0.74194384 0.1620599 0.24013765 0.17415303
0.383299 -0.24098606 0.04302994 -0.15291043 -0.2947165 0.09636895 -0.29321957 0.005572525
-0.7823982 -0.244842 0.75695693 0.3131 -0.08596559 0.23530847 0.46830413 -0.8762599
00000000: 4214 2d3f 3764 723f 6f5e 1a3f a512 d73e
00000010: 80e3 883f 9949 3cbd dad0 2f3f c408 80be
00000020: 6bfe a43e e1fb c6be fa46 d7bd 0bab 39be
00000030: a33b 983c ff1c 78bd 6137 46bd 7fbd b1be
00000040: c59c b0be 25c6 c4be 4e1d b1be f4db 2f3e
00000050: 918e a2be 547a 28bc ec89 68be 73d9 463f
00000060: 3b94 e8bd 2cc2 ee3b 09e9 043f ebf0 e13d
00000070: 36aa 2abe cd3d d3be edfa acbc 3939 da3e
00000080: 8bf0 dc3d c913 023e b6ce 943e f857 183f
00000090: 31b2 fd3e ca51 21be 9705 243e 8096 30bd
000000a0: 5675 06be 0dd8 c73d c0cd e5bd 02cc 873e
000000b0: 6eea 9e3c 4c4b a23e 5e80 f7bd aaad dbbc
000000c0: 83e7 903d 48f2 02bf 2235 f73e 2bd3 e53e
000000d0: 7bfd 873e 8377 ec3e 856e 303e e14c a4be
000000e0: c5e0 dc3e d71e 63be 1f09 d13e 32c7 a63e
000000f0: 6c71 69be 6cf7 d23e b4b4 cf3d dcd4 243e
00000100: 2a08 50be a2f7 733e 02de a8bd 02f4 97bd
00000110: 71a9 0b3f 9850 f5be d2e0 7bbe 23b0 6e3f
00000120: aa1e f93e c800 32be ae57 b53d 34c9 24bf
00000130: 785d 9f3c 4654 9abe 88ea e7bd f408 f6b9
00000140: 9845 b5be a554 61be bdcc 8bbd ab69 4c3e
00000150: 40d9 443e d1db abbe b915 313e b8b2 433d
00000160: ebd8 db3e f3f7 863e 3fa5 6e3e a7ea 003d
00000170: d09c 243a 5470 5c3e 451f bebe 0721 c83c
00000180: c1a2 9b3e 8667 6fbc 0ad6 f0be 4c1d 86bf
00000190: c8f8 1dbe 7e2b a4be fcd1 933e 9ff3 c1bc
000001a0: 9f93 ad3e a5f0 63be 1629 b0bd 4c9d 4bbd
000001b0: f334 15bf b0d3 9dbf 24ef 60be fe11 0c3f
000001c0: f1c8 0abe 3414 1cbd 1e4e 86be 38b1 833c
000001d0: 3ba5 acbd 0faf ce3e cd03 2dbf 611a c43d
000001e0: 623b c43e 9538 f13c 63db 953d 0def c73d
000001f0: 58aa 31bf 703b 90bd 5259 81be c303 c23e
00000200: 0f20 3abd a659 95be ef5d d03e 5186 ccbc
00000210: 9a1d 993f 2cb4 43be 0852 e63e b4ed 50be
00000220: 9252 163e 036e f1bd 8052 ff3d 4780 20be
00000230: 51ce ec3d f0da 16bf f5ba 29be b0b9 c13e
00000240: 2796 013f e429 0cbf 126e f23d dc25 6b3d
00000250: be9a 1e3e a178 a4be 6e28 353d ec6b 203f
00000260: 8c28 d9be fa53 2dbf ee6a c73d 601a 47be
00000270: c2c4 153e 2a26 c53d 478d 8e3e a5cb db3e
00000280: c31e 173d ab41 0b3e 8bda 31bf 3047 b5be
00000290: dc4b 073c 62e1 703d b450 4f3e da9b bcbd
000002a0: 90f0 14bd 4c90 aabd 9243 b33e 299a 933e
000002b0: 5ee3 b4bd 7c7f 3cbf 384f 6cbe b77c 273e
000002c0: 78c0 e83c f54d 183f cd84 31be ac29 78bf
000002d0: 9276 20be 3c1a efbd 8908 2f3e fec6 5a3e
000002e0: 243d 4bbe 2d50 043f 33d1 f93e 6796 80be
000002f0: 02d4 fc3e 809d 843d 2de3 173f 9bca 353e
00000300: 83ef 403f 2139 f63d c273 85bd 557a f53e
00000310: 9807 be3e d519 fabe def0 a3bd 22c0 1c3f
00000320: 2812 7bbc 61ef 58be 3b9c 33be e51b c13e
00000330: a592 413f f484 9a3e 3415 c33e dd66 01bf
00000340: 25ba 7ebe f8d9 6e3e 2daf 803d a350 da3e
00000350: e63b 23bd 4116 6a3e 209b e3be 51c1 013e
00000360: 4853 bf3c 4318 19bf 6335 323d 604f 443d
00000370: 1e04 5d3e 2cd8 113f 967b 843e 7681 6d3e
00000380: 1a1b f8be e911 2ebe 45df 0b3f 6ee2 15bf
00000390: 85c4 923e d1a2 7e3e a6fd 183e 615b 99be
000003a0: 8dfd c0bd c1e1 52bd ebcf 87be f5c9 04bf
000003b0: 08f0 3dbf 08f3 253e a5e6 753e 2c55 323e
000003c0: c43f c43e 0dc5 76be 2a40 303d 8d94 1cbe
000003d0: 15e5 96be 165d c53d e020 96be ba99 b63b
000003e0: 404b 48bf dcb7 7abe eec7 413f a54e a03e
000003f0: ba0e b0bd b4f4 703e 8fc5 ef3e 9252 60bf

conv.bias f4 [16]
0.9401762 0.06952954 -0.118075274 0.8904447 0.12224107 -0.15361296 -0.23456135 -0.09649846
0.2282734 0.28322217 -0.1668036 1.497966 0.640504 -0.162774 -0.12830767 -0.18660796
00000000: 63af 703f 8165 8e3d 73d1 f1bd 2ff4 633f
00000010: 8759 fa3d b74c 1dbe da30 70be fca0 c5bd
00000020: 81c0 693e 7f02 913e 90ce 2abe 5abd bf3f
00000030: 12f8 233f 3aae 26be 1663 03be 2816 3fbe

fc_hidden.weight f4 [128, 1024]
0.056873128 -0.013316533 0.07392382 -0.026696714 0.009736012 -0.10705698 0.084927335 -0.026882663
0.05824197 0.047594637 -0.077081144 0.09577114 -0.057810783 0.19160257 0.065191686 -0.14780597
-0.030648813 0.01318684 -0.08288707 0.09148127 0.13174292 0.07444691 0.091222696 -0.070565745
-0.050468735 0.0068696565 0.06557331 0.11349377 -0.052672368 -0.007686041 -0.09814617 -0.02397751
-0.02303424 -0.12679334 0.022612046 0.00148962 0.054143652 -0.0367967 0.12303731 0.083195165
-0.015652345 -0.058941767 0.06501461 0.05963933 0.123234816 -0.04762358 0.16928712 -0.02095827
0.079991624 -0.10054917 -0.028610174 -0.1404204 -0.10806722 0.048240792 0.09790801 -0.101443894
0.14580028 -0.013910894 -0.002878105 -0.0051585264 0.0023522906 0.1467644 0.018864093 -0.06824551
0.049946968 -0.09544868 -0.051779922 0.11719034 0.026966259 0.09019323 0.07780035 0.112913
-0.014223671 -0.03899379 -0.08382298 0.12766494 -0.08255666 0.006812507 -0.030457638 -0.020672485
0.11233957 0.042977177 -0.08988835 0.1723937 0.10173739 -0.04615747 -0.11021677 -0.06179953
-0.1683124 -0.07224177 0.019810116 -0.013965321 -0.060232952 0.04578985 0.036463816 0.028342629
0.092024714 0.008743246 -0.037586864 0.114844814 0.043193977 0.06660267 0.19730636 0.02261917
-0.20467205 -0.06564527 -0.1989926 -0.1595899 0.1040406 -0.14980344 0.1601903 -0.22891444
0.013675053 -0.10217773 -0.03240303 0.22322142 0.124171026 0.06536493 -0.023417631 -0.029280618
0.16803508 -0.0021452433 -0.021866003 -0.1141735 0.12270058 -0.03173304 0.041017793 0.063017406
-0.07655007 -0.054722678 0.07907334 0.0271226 -0.14034905 0.0054911645 -0.1432763 -0.07955789
0.005888836 -0.13298756 0.013082436 -0.039265305 0.040417697 -0.085326046 0.035814244 -0.035251826
0.09336459 -0.005122254 -0.015168612 -0.050493896 -0.10908949 0.046897046 0.055957176 0.016100703
-0.13368389 -0.07725028 0.015581923 -0.22488831 -0.3048442 0.115430966 0.08917567 0.12521194
-0.03522019 -0.21905914 0.048286967 -0.021760276 0.048836455 0.032822143 0.18473487 -0.027742162
0.008430637 0.17544062 0.050668966 0.2033162 -0.13940832 -0.028039629 -0.13844709 -0.042049453
-0.11063229 -0.03881773 -0.13212627 -0.09840551 0.059275616 -0.021025984 0.016381767 -0.059307434
-0.044728786 0.08375618 0.12723565 -0.05219987 0.010014035 -0.11862806 -0.04108276 -0.046230096
0.073106445 -0.04149331 0.06905057 -0.036505345 0.029321577 -0.03464905 -0.13887267 0.2955916
-0.122907795 -0.030360214 -0.021991298 -0.108032525 0.08359738 0.02022693 0.027729526 -0.1962402
-0.07445151 0.10274279 0.02993082 0.0030383698 -0.038172632 -0.06270043 0.08687205 -0.09799282
-0.09306387 -0.013106608 -0.09008757 -0.03451286 0.009268025 -0.0014226189 0.19965346 0.004982734
-0.06214657 -0.017567942 0.03737842 0.06778119 -0.07399668 -0.044867393 0.06820598 -0.06497972
0.06115033 0.028180456 -0.0840477 -0.0005037736 -0.034009807 0.11734296 0.025343597 0.089963436
-0.011839449 0.049028836 -0.0871696 0.06286293 -0.045257982 0.07979468 -0.08649285 0.022920113
-0.121647276 -0.039069872 0.0025047679 -0.072892696 0.02156036 -0.26803815 -0.18418506 -0.07464612
00000000: ccf3 683d 962d 5abc 5f65 973d 11b3 dabc
00000010: cb83 1f3c b140 dbbd 62ee ad3d 0839 dcbc
00000020: 228f 6e3d 98f2 423d b8dc 9dbd a923 c43d
00000030: 00cb 6cbd 7733 443e 3883 853d 735a 17be
00000040: 3813 fbbc 9e0d 583c b2c0 a9bd 885a bb3d
00000050: 9ee7 063e 9f77 983d f7d2 ba3d c684 90bd
00000060: 4eb8 4ebd db1a e13b 4d4b 863d 6c6f e83d
00000070: fbbe 57bd 2fdb fbbb dc00 c9bd 7c6c c4bc
00000080: 4db2 bcbc 1dd6 01be e63c b93c 5a3f c33a
00000090: bcc5 5d3d 23b8 16bd fcfa fb3d 3a62 aa3d
000000a0: 5939 80bc ec6c 71bd 6126 853d 5f48 743d
000000b0: 8962 fc3d f110 43bd 9a59 2d3e aeb0 abbc
000000c0: a6d2 a33d b9ec cdbd e25f eabc 5eca 0fbe
000000d0: 5952 ddbd 2398 453d ff83 c83d d1c1 cfbd
000000e0: ab4c 153e 85ea 63bc 979e 3cbb db08 a9bb
000000f0: e328 1a3b 6849 163e df88 9a3c 4dc4 8bbd
00000100: 3195 4c3d 997a c3bd 2f17 54bd 7d01 f03d
00000110: 58e8 dc3c 3ab7 b83d ca55 9f3d ee3e e73d
00000120: 660a 69bc f4b7 1fbd 62ab abbd 99ba 023e
00000130: 7713 a9bd 733b df3b 4c82 f9bc 5859 a9bc
00000140: 4a12 e63d d608 303d 6217 b8bd f987 303e
00000150: b15b d03d 9e0f 3dbd 54b9 e1bd 8121 7dbd
00000160: 165a 2cbe 7ef3 93bd d348 a23c cdce 64bc
00000170: d4b6 76bd 238e 3b3d 155b 153d cd2e e83c
00000180: 7477 bc3d d53f 0f3c aff4 19bd c233 eb3d
00000190: 2bec 303d fb66 883d ae0a 4a3e d64b b93c
000001a0: 8d95 51be 0771 86bd b7c4 4bbe 896b 23be
000001b0: 3d13 d53d 1366 19be ed08 243e 8c68 6abe
000001c0: 540d 603c 8f42 d1bd 0ab9 04bd 2894 643e
000001d0: 614d fe3d 0cde 853d 55d6 bfbc e8dd efbc
000001e0: 6311 2c3e 3697 0cbb 5520 b3bc ccd3 e9bd
000001f0: 714a fb3d 81fa 01bd 4602 283d 450f 813d
00000200: 48c6 9cbd e324 60bd 34f1 a13d 3730 de3c
00000210: a9b7 0fbe 3aef b33b 06b7 12be 3fef a2bd
00000220: 23f7 c03b e42d 08be b757 563c a8d4 20bd
00000230: 078d 253d 6cbf aebd f5b1 123d 3864 10bd
00000240: ef35 bf3d 95d8 a7bb c585 78bc b0d2 4ebd
00000250: 4f6a dfbd 1e17 403d 5a33 653d 9fe5 833c
00000260: 6ee4 08be 6535 9ebd 524b 7f3c 1f49 66be
00000270: 8a14 9cbe 1267 ec3d bca1 b63d 8f37 003e
00000280: 0c43 10bd 0a51 60be 8ec8 453d 9b42 b2bc
00000290: bc08 483d 8370 063d 232b 3d3e 8843 e3bc
000002a0: a820 0a3c b5a6 333e 438a 4f3d 1f32 503e
000002b0: 0ec1 0ebe 5db3 e5bc 13c5 0dbe 0c3c 2cbd
000002c0: 2f93 e2bd 57ff 1ebd 1c4c 07be d488 c9bd
000002d0: fdca 723d af3e acbc 0e33 863c 5aec 72bd
000002e0: 8835 37bd 5c88 ab3d 104a 023e 88cf 55bd
000002f0: e811 243c 45f3 f2bd 6546 28bd c55b 3dbd
00000300: d5b8 953d e4f4 29bd 636a 8d3d a186 15bd
00000310: ce33 f03c 2aec 0dbd a334 0ebe c857 973e
00000320: 15b7 fbbd fcb5 f8bc 1827 b4bc 2840 ddbd
00000330: 1a35 ab3d f2b2 a53c 0829 e33c 31f3 48be
00000340: 097a 98bd d06a d23d 7b31 f53c 631f 473b
00000350: e85a 1cbd 1569 80bd f9e9 b13d 76b0 c8bd
00000360: 4598 bebd 19bd 56bc d57f b8bd 5b5d 0dbd
00000370: ead8 173c 2b77 baba f571 4c3e 3446 a33b
00000380: 678d 7ebd a5ea 8fbc 1d1a 193d ddd0 8a3d
00000390: 928b 97bd dfc6 37bd 94af 8b3d 1614 85bd
000003a0: c578 7a3d b3da e63c 3321 acbd ad0f 04ba
000003b0: de4d 0bbd 8151 f03d 609d cf3c c03e b83d
000003c0: 40fa 41bc 76d2 483d fa85 b2bd 48be 803d
000003d0: 6f60 39bd 656b a33d 2a23 b1bd f6c2 bb3c
000003e0: 3522 f9bd bb07 20bd 0827 243b c448 95bd
000003f0: 5a9f b03c 4c3c 89be 029b 3cbe 11e0 98bd

fc_hidden.bias f4 [128]
-0.00968439 0.07102712 -0.013216758 -0.0113423 -0.01463315 -0.0030071363 -0.0120178675 -0.008081278
-0.005311942 -0.0060876403 -5.6291665e-05 -0.012699414 -0.007097954 -0.007882169 -0.0085893255 -0.009095483
-0.005613116 -0.01283281 -0.009188888 -0.0012802209 -0.007750874 -0.0024548965 -0.014191122 -0.011942658
-0.0072741755 -0.011868458 1.651e-42 -0.005241856 -0.00731686 -0.007222502 -0.014672136 -0.00937269
-0.004302691 -0.0031601135 -0.01215802 -0.0017166781 -0.0021673176 -1.4939354e-26 -0.008015152 -0.005148966
-0.017487343 -0.01023894 -0.008237911 -0.006400027 -0.0114560155 -0.018228197 -0.003143484 -0.0048516346
-0.0067768428 -0.004099493 -0.003668285 -0.0156464 7.119e-42 -0.009563628 -0.011505913 -0.0062931282
-0.003395473 -0.0106590465 -0.0098258285 -0.008155949 -0.005570414 -0.0034911179 -0.0096773105 -0.0025863964
-0.015544896 -0.015658073 -0.006671084 -0.008555796 -0.009368098 -0.0062054154 -0.008438936 -0.005722932
-0.009906061 -0.009481986 -0.012934293 -0.0059309225 -0.012330069 -0.010053168 -0.008163344 -0.0033496784
-0.0044134944 -0.013302359 -0.0013188146 -0.0076827477 -0.00837525 -0.020768125 -0.008827095 -0.008206258
-0.011140276 -0.0031005424 -0.0038521045 -0.0075259577 -0.003330604 -0.01507581 -0.01211376 -0.00736471
-0.00912738 -0.017185738 -0.01312947 -0.0044775205 -0.007570367 -0.010916205 -0.011280059 -0.013734574
-0.0045192107 -0.01189767 -0.00658592 -0.009280551 -0.0050915615 -0.013138173 -0.0023476146 -0.014363035
-0.011408025 -0.0042117145 -0.00740865 -0.00866427 -0.0075548436 -0.0088033425 -0.0067079794 -0.0076390626
-0.0105742095 -0.007757017 -0.0007750885 -0.013114087 -0.006828267 -0.015494365 -0.005839227 -0.003995621
00000000: 47ab 1ebc ab76 913d 1a8b 58bc 0ed5 39bc
00000010: e1bf 6fbc 6013 45bb 97e6 44bc 5667 04bc
00000020: cd0f aebb d47a c7bb b71a 6cb8 3411 50bc
00000030: f495 e8bb 3724 01bc 3eba 0cbc 3905 15bc
00000040: 3bee b7bb b540 52bc fd8c 16bc 16cd a7ba
00000050: 0bfb fdbb 54e2 20bb e181 68bc 23ab 43bc
00000060: 355c eebb ec73 42bc 9a04 0000 e0c3 abbb
00000070: 45c2 efbb bdaa ecbb 6663 70bc e98f 19bc
00000080: 97fd 8cbb e819 4fbb 6f32 47bc 2902 e1ba
00000090: 8e09 0ebb c3f3 9394 fc51 03bc a8b8 a8bb
000000a0: 9e41 8fbc 3ac1 27bc 4ef8 06bc 51b7 d1bb
000000b0: 03b2 3bbc 4d53 95bc e902 4ebb 76fa 9ebb
000000c0: 4710 debb 0a55 86bb 9c67 70bb e12c 80bc
000000d0: d813 0000 c3b0 1cbc 4c83 3cbc 9636 cebb
000000e0: 9586 5ebb 48a3 2ebc 83fc 20bc 88a0 05bc
000000f0: 0588 b6bb 3dcb 64bb 958d 1ebc 8880 29bb
00000100: 05b0 7ebc 5c45 80bc 1c99 dabb 9c2d 0cbc
00000110: a77c 19bc cc56 cbbb 7743 0abc 6f87 bbbb
00000120: 084d 22bc 555a 1bbc 5bea 53bc 2f58 c2bb
00000130: 0f04 4abc 0bb6 24bc 8cbf 05bc 4786 5bbb
00000140: 139f 90bb 23f2 59bc 13dc acba 8fbf fbbb
00000150: 5838 09bc ea21 aabc 859f 10bc 8a73 06bc
00000160: b485 36bc 7832 4bbb 9773 7cbb 4f9c f6bb
00000170: 4346 5abb 8800 77bc cb78 46bc aa53 f1bb
00000180: 028b 15bc 1bc9 8cbc fd1c 57bc 2ab8 92bb
00000190: d710 f8bb e2d9 32bc ffcf 38bc fb06 61bc
000001a0: e315 94bb 72ee 42bc b4ce d7bb 740d 18bc
000001b0: 1dd7 a6bb 7e41 57bc 70da 19bb ef52 6bbc
000001c0: bae8 3abc 6c02 8abb 43c4 f2bb 95f4 0dbc
000001d0: 9f8e f7bb e53b 10bc 9cce dbbb 1a51 fabb
000001e0: 733f 2dbc 932e febb 4f2f 4bba 78dc 56bc
000001f0: a8bf dfbb 14dc 7dbc fc56 bfbb b3ed 82bb

output.weight f4 [300, 128]
-0.46329334 0.047052603 0.2353884 0.054989453 0.14632383 0.33140665 0.22104485 0.009192746
0.027835317 0.11632343 -0.09575133 0.14886819 -0.18095307 0.033556614 -0.19982526 -0.09219852
0.016240148 -0.3085334 0.25937846 0.23420034 0.1310806 -0.16716184 0.11379567 -0.27542555
0.09222367 0.12463568 -0.19265677 -0.15867643 0.019248571 0.09974241 -0.05446024 0.3118105
0.3037162 -0.147554 0.4696561 0.14928073 0.35882565 -0.015720328 -0.09868961 -0.0759588
0.045065124 0.38730377 -0.06612407 -0.24684212 -0.04556583 0.00064390973 0.03330418 0.5634932
0.24401584 0.10480748 -0.11121447 0.25894073 -0.11943172 -0.21709524 0.26350665 -0.31144294
0.112641424 -0.03544294 0.12622134 0.06340722 -0.0665619 0.23260362 0.105680935 -0.2062327
0.1715016 -0.13704284 -0.1529137 0.27884278 -0.10170826 0.02079238 0.057712637 0.3480636
-0.2403975 0.14064907 0.14198804 0.08345252 0.047964126 -0.18321827 -0.095229916 0.10003319
0.18323375 0.2627493 0.11039357 -0.10670861 0.07794887 0.078243636 0.033004183 -0.047046974
0.01371154 -0.23112853 0.035157427 -0.050207347 -0.04506564 -0.0050103697 0.26860788 0.30944997
0.17487532 -0.02102256 0.15288293 0.11316483 0.13752829 -0.08880139 0.09738829 -0.10079538
-0.05119569 0.13903362 -0.24623336 -0.115541264 -0.088589616 0.09282814 -0.062870726 -0.13694572
-0.13212861 0.08490101 0.08115293 -0.058661673 0.01331169 -0.124880806 -0.12677725 0.22923322
0.08399705 0.124187455 -0.046545587 -0.038755573 0.37047812 -0.14913455 -0.073771454 -0.046658482
0.20304582 0.055185605 0.07366846 -0.24748313 0.056531716 -0.26426822 -0.27201113 0.3443368
0.35322052 -0.21401435 -0.11552393 -0.050968483 0.20617884 0.36716852 -0.09714624 0.13486266
-0.2699317 0.0997041 0.04691817 -0.2113601 -0.04830891 -0.02984813 -0.24945012 0.06314269
-0.10817197 -0.38663012 0.18455578 -0.26392275 0.05670378 0.29032275 -0.05431845 -0.011635101
0.29364312 -0.261442 -0.23003353 0.12992314 -0.17665118 -0.1935603 0.06934841 -0.20335433
0.062298495 0.14423302 -0.13449968 0.20195659 -0.45906687 0.006095126 -0.017056227 0.012196857
0.01398285 0.110205136 -0.17281757 0.23809849 0.15347525 0.36924052 -0.07104564 -0.031712845
0.12710924 -0.3299917 0.059460994 -0.074232385 -0.2687997 -0.08905644 -0.0048150215 0.09320437
0.09965676 0.0381458 0.06418475 -0.0055836737 -0.12670986 -0.03429619 0.33703744 -0.14571008
0.2219678 0.07666717 -0.2215116 -0.2804679 -0.047665194 0.06804696 -0.1825329 -0.1579175
-0.028624479 0.24361141 -0.1388284 0.13656823 -0.14908426 0.07896317 -0.11212382 -0.1441811
0.27138525 -0.08537397 -0.4526617 0.20109448 -0.06985739 -0.069361016 -0.11089547 0.25917542
-0.027633037 -0.08461517 0.07023917 -0.1855792 -0.0582563 0.47831833 -0.23363972 -0.08870442
-0.13545758 0.09603239 0.018763999 -0.12053606 0.3190065 -0.13200897 0.20890993 0.1056281
0.1585013 0.19150597 0.3293479 0.035807483 0.06598559 -0.36733276 0.021575527 -0.13241866
0.049672432 -0.02329293 0.011364842 -0.20678884 -0.10089816 0.013305905 0.21265677 0.12225529
00000000: c934 edbe 3bba 403d a809 713e 9f3c 613d
00000010: ead5 153e 22ae a93e 9559 623e 2c9d 163c
00000020: e406 e43c fa3a ee3d 4619 c4bd e770 183e
00000030: c34b 39be a972 093d fe9e 4cbe 94d2 bcbd
00000040: 0f0a 853c 17f8 9dbe 41cd 843e 37d2 6f3e
00000050: fe39 063e 792c 2bbe b40d e93d 9404 8dbe
00000060: c3df bc3d fe40 ff3d d147 45be 137c 22be
00000070: 2eaf 9d3c c045 cc3d b311 5fbd a0a5 9f3e
00000080: b180 9b3e 6518 17be c476 f03e 0cdd 183e
00000090: ffb7 b73e ebc7 80bc c71d cabd 4a90 9bbd
000000a0: 3596 383d ae4c c63e 0e6c 87bd 2ec4 7cbe
000000b0: 3ca3 3abd 0dcc 283a f769 083d 1741 103f
000000c0: 4adf 793e 4ea5 d63d 69c4 e3bd e193 843e
000000d0: 9e98 f4bd 374e 5ebe 58ea 863e 7375 9fbe
000000e0: 8cb0 e63d 9e2c 11bd 2b40 013e a5db 813d
000000f0: 9b51 88bd a52f 6e3e 3f6f d83d aa2e 53be
00000100: 1e9e 2f3e f554 0cbe 6995 1cbe 7bc4 8e3e
00000110: 6c4c d0bd c854 aa3c 1664 6c3d 6435 b23e
00000120: c32a 76be 4f06 103e 5065 113e 28e9 aa3d
00000130: 0876 443d 929d 3bbe e707 c3bd 33de cc3d
00000140: a1a1 3b3e 1487 863e 0616 e23d 0b8a dabd
00000150: a8a3 9f3d 333e a03d 652f 073d 54b4 40bd
00000160: 5ea6 603c f5ac 6cbe 3c01 103d 38a6 4dbd
00000170: c096 38bd 072e a4bb f986 893e 3a70 9e3e
00000180: 8412 333e 8137 acbc 588d 1c3e f6c2 e73d
00000190: 37d4 0c3e 81dd b5bd 8373 c73d cf6d cebd
000001a0: 92b2 51bd d45e 0e3e 9924 7cbe e6a0 ecbd
000001b0: 796e b5bd ae1c be3d 5ec2 80bd 803b 0cbe
000001c0: b94c 07be 95e0 ad3d 8233 a63d 3947 70bd
000001d0: 4619 5a3c 82c1 ffbd e5d1 01be 1dbc 6a3e
000001e0: a506 ac3d fe55 fe3d 96a6 3ebd 2abe 1ebd
000001f0: 4faf bd3e bab6 18be 7d15 97bd f71c 3fbd
00000200: 3eeb 4f3e 4d0a 623d 7ddf 963d 386c 7dbe
00000210: cd8d 673d 2a4e 87be 0b45 8bbe ea4c b03e
00000220: 52d9 b43e 9426 5bbe cf97 ecbd 54c4 50bd
00000230: 8c20 533e 83fd bb3e 9cf4 c6bd 7019 0a3e
00000240: 7d34 8abe aa31 cc3d 442d 403d c86e 58be
00000250: 90df 45bd 1184 f4bc da6f 7fbe f450 813d
00000260: 4489 ddbd 62f4 c5be 31fc 3c3e e220 87be
00000270: 3942 683d 2fa5 943e 067d 5ebd 27a1 3ebc
00000280: 6458 963e badb 85be e98d 6bbe 920a 053e
00000290: 0ce4 34be ac34 46be 8a06 8e3d 1e3c 50be
000002a0: b52c 7f3d d2b1 133e 49ba 09be b5cd 4e3e
000002b0: d00a ebbe 9fb9 c73b 80b9 8bbc 53d5 473c
000002c0: 5318 653c 3bb3 e13d 17f7 30be 17d0 733e
000002d0: 9e28 1d3e 180d bd3e 6080 91bd 54e5 01bd
000002e0: ed28 023e acf4 a8be 5f8d 733d 2607 98bd
000002f0: 1da0 89be 3963 b6bd 54c7 9dbb efe1 be3d
00000300: d818 cc3d c53e 1c3d 4b73 833d 40f7 b6bb
00000310: 3bc0 01be 297a 0cbd 2c90 ac3e 0635 15be
00000320: 874b 633e ad03 9d3d f0d3 62be 7d99 8fbe
00000330: 943c 43bd 345c 8b3d e8e9 3abe 20b5 21be
00000340: e27d eabc 4575 793e 0829 0ebe 8bd8 0b3e
00000350: 8ba9 18be 71b7 a13d 2ca1 e5bd 36a4 13be
00000360: 02f3 8a3e 8cd8 aebd 46c3 e7be b6eb 4d3e
00000370: 6411 8fbd 260d 8ebd 2a1d e3bd a4b2 843e
00000380: ae5e e2bc b84a adbd 8ed9 8f3d 7908 3ebe
00000390: 289e 6ebd 24e6 f43e 403f 6fbe aaaa b5bd
000003a0: 64b5 0abe a1ac c43d f5b6 993c 9cdb f6bd
000003b0: d254 a33e 5c2d 07be 7cec 553e 8c53 d83d
000003c0: 2a4e 223e 241a 443e 4aa0 a83e deaa 123d
000003d0: 7423 873d 0a13 bcbe 29bf b03c c298 07be
000003e0: 5275 4b3d d1d0 bebc 9a33 3a3c 74c0 53be
000003f0: b2a3 cebd 0301 5a3c b2c2 593e fb60 fa3d

output.bias f4 [300]
-0.025295714 -0.025987905 -0.023600742 -0.009995352 0.005693556 -0.0069909645 -0.0009947759 -0.0045923986
-0.0076878774 -0.015434632 0.013277737 -0.01503787 -0.027269214 -0.014625722 -0.005981948 -0.014084537
0.00207173 -0.0066503645 -0.0033514502 -0.013469594 -0.012470518 0.00013112622 0.004917457 -0.01961076
0.010277909 0.003298835 -0.0057921344 0.0038869483 0.027550476 -0.0005098588 0.014113884 0.007624108
0.0063602934 0.017102204 0.019969795 0.022582894 0.019215796 -0.00668705 0.017645355 0.0047137616
0.010109835 0.020534717 0.01492497 0.0206771 0.010468286 0.0053319647 0.009587598 0.010975276
0.014924465 0.0071976683 -0.01650439 0.0051004556 -0.01556973 -0.00909833 -0.022015298 0.00093090243
0.012083798 -0.003870517 0.011644526 -0.016130308 -0.018944109 -0.014747368 -0.013076791 -0.0041113114
-0.017848922 0.0011959675 -0.0062641245 -0.013261216 0.0064512626 -0.016426684 -0.0053970744 -0.010910967
0.010229088 0.0034896303 0.008105381 0.008193557 -0.0016491695 0.017349422 0.0064039933 0.00012356459
-0.0006894486 0.006983728 0.008005115 0.004109185 0.0040719234 0.020725891 0.00033741363 -0.0014835795
0.017588783 0.009552017 -0.0028458314 0.0137426015 -0.0068603735 0.010993338 0.032693785 0.007231459
0.019375538 0.02066748 0.0037235573 0.007976646 -0.036718577 -0.06836472 -0.06639514 -0.073763475
-0.07289479 -0.06914332 -0.07606165 -0.05766689 -0.052505672 -0.060549654 -0.055547465 -0.06864598
-0.06122889 -0.042672973 -0.049968824 -0.03256047 -0.048694137 -0.049388256 -0.050116282 -0.057867635
-0.04107397 -0.023890205 -0.022250166 -0.030336862 -0.029283242 -0.012640273 -0.012533497 -0.004084829
0.0016328355 -0.0029616365 0.0022862095 0.0050430116 0.010514102 0.016630024 0.03242075 0.032947693
0.027901018 0.039206907 0.050709758 0.052037455 0.05197273 0.05582926 0.0823314 0.0721009
0.056176677 0.07381076 0.06001642 0.05424062 0.06398847 0.05068789 0.0009503827 -0.014999369
-0.0066252057 -0.0036118147 0.0061052735 -0.0015362491 -0.023019176 -0.020460857 -0.012309567 -0.01611009
-0.015518863 -0.0033413514 -0.006240343 0.014727295 -0.005142698 0.008842374 -0.008495622 0.0018669677
0.0040597897 -0.0070327427 -0.004890812 -0.006714148 0.009149103 0.011637331 -0.0037672692 0.0019554151
-0.00285048 0.007760602 0.0041625206 0.0163529 0.0046033664 0.007300845 -0.000750242 -0.0059163794
0.00520668 -0.016186275 0.007851336 0.004093801 -0.0072862078 0.01253856 -0.0059012016 0.0068540466
0.0036256127 0.02330747 0.015483325 0.032110505 0.0058115195 0.00056354416 0.012216181 0.009586727
-0.0064514834 -0.01115159 -0.0087907305 -0.009010157 0.0038774938 0.0052733747 0.004916809 -0.0046299268
0.012876803 -0.0024682235 0.0024861833 -0.009441995 0.0068728575 0.005748109 -0.010959049 0.018496687
-0.011480526 0.0006750114 -0.00991593 0.010842321 -0.0036822453 0.007276948 -0.011873308 0.017985336
0.009540579 0.011302062 0.010480227 0.011108474 0.018073855 -0.005615887 0.007553615 -0.0039435006
-0.00108409 -0.0010405413 0.014697918 -0.0073000193 -0.0023068206 0.005053936 0.005463442 0.001997829
0.008549498 0.020407965 0.010966169 0.0118080275 -0.002104556 0.00012719935 0.00021694288 0.009139107
0.00707206 0.010659493 0.0048153787 -0.025535354 -0.017317997 0.0072443504 -0.008199148 -0.0055447463
00000000: f538 cfbc 96e4 d4bc 5856 c1bc 8bc3 23bc
00000010: 0291 ba3b 7614 e5bb 2463 82ba d57b 96bb
00000020: 97ea fbbb 8ae1 7cbc de8a 593c 6661 76bc
00000030: b063 dfbc b9a0 6fbc 3804 c4bb d4c2 66bc
00000040: ddc5 073b 4deb d9bb 01a4 5bbb 92af 5cbc
00000050: 2551 4cbc ed7e 0939 9e22 a13b bfa6 a0bc
00000060: ad64 283c 4431 583b f2cb bdbb 2cbc 7e3b
00000070: 89b1 e13c 0ba8 05ba ec3d 673c a7d3 f93b
00000080: 026a d03b ec19 8c3c b297 a33c c3ff b83c
00000090: 726a 9d3c 0b1f dbbb fe8c 903c e675 9a3b
000000a0: b9a3 253c 6c38 a83c dd87 743c 0663 a93c
000000b0: 2d83 2b3c c3b7 ae3b 4d15 1d3c a5d1 333c
000000c0: be85 743c 6bda eb3b 3734 87bc b921 a73b
000000d0: 2e18 7fbc 2911 15bc 6d59 b4bc ce07 743a
000000e0: 1ffb 453c 80a8 7dbb afc8 3e3c b523 84bc
000000f0: ad30 9bbc f29e 71bc 0940 56bc 2eb8 86bb
00000100: e737 92bc 03c2 9c3a 4943 cdbb 9245 59bc
00000110: 1d65 d33b 4191 86bc f1d9 b0bb eac3 32bc
00000120: e897 273c 48b2 643b 6fcc 043c 453e 063c
00000130: f228 d8ba 6020 8e3c 97d8 d13b 1e91 0139
00000140: 1dbc 34ba c2d7 e43b e327 033c 58a6 863b
00000150: c56d 853b 58c9 a93c e4e6 b039 ab74 c2ba
00000160: 5a16 903c 1080 1c3c 2181 3abb a628 613c
00000170: fccc e0bb 671d 343c ebe9 053d e0f5 ec3b
00000180: 73b9 9e3c d94e a93c ed06 743b 7ab0 023c
00000190: 3866 16bd cd02 8cbd 2dfa 87bd 4e11 97bd
000001a0: dd49 95bd 039b 8dbd 36c6 9bbd 1e34 6cbd
000001b0: 3010 57bd ea02 78bd bd85 63bd 4396 8cbd
000001c0: 25cb 7abd dbc9 2ebd 1cac 4cbd 215e 05bd
000001d0: 8173 47bd 574b 4abd bb46 4dbd 9d06 6dbd
000001e0: 2e3d 28bd 64b5 c3bc fb45 b6bc 0385 f8bc
000001f0: 69e3 efbc 2619 4fbc 4c59 4dbc 07da 85bb
00000200: de04 d63a 0418 42bb 3bd4 153b d93f a53b
00000210: 5743 2c3c b03b 883c 9fcb 043d 29f4 063d
00000220: ad90 e43c 6c97 203d 09b5 4f3d 3a25 553d
00000230: 5be1 543d 39ad 643d 5d9d a83d a3a9 933d
00000240: 8419 663d 192a 973d c7d3 753d 6a2b 5e3d
00000250: 630c 833d 1b9e 4f3d 1a23 793a eabf 75bc
00000260: 4118 d9bb 32b4 6cbb bf0e c83b f75b c9ba
00000270: b692 bcbc 879d a7bc 11ae 49bc 4ff9 83bc
00000280: d442 7ebc 93fa 5abb cb7b ccbb c14a 713c
00000290: 1484 a8bb 9bdf 103c 3931 0bbc 0ab5 f43a
000002a0: fc07 853b ec72 e6bb 1b43 a0bb 5b02 dcbb
000002b0: 1fe6 153c 81aa 3e3c 4ae4 76bb 6c26 003b
000002c0: 1ecf 3abb a64c fe3b c165 883b 84f6 853c
000002d0: d6d7 963b ed3b ef3b e3ab 44ba 30de c1bb
000002e0: cc9c aa3b 1499 84bc e4a2 003c 4b25 863b
000002f0: 24c1 eebb 886e 4d3c de5e c1bb e997 e03b
00000300: b09b 6d3b 4fef be3c c6ad 7d3c 4e86 033d
00000310: 8f6e be3b cfba 133a 6026 483c a611 1d3c
00000320: f766 d3bb 29b5 36bc ff06 10bc 569f 13bc
00000330: 8d1d 7e3b 46cc ac3b 2f1d a13b a4b6 97bb
00000340: 3af9 523c ebc1 21bb 3cef 223b 99b2 1abc
00000350: b535 e13b a25a bc3b 958d 33bc 5d86 973c
00000360: d118 3cbc 40f3 303a 6d76 22bc fea3 313c
00000370: d351 71bb 7773 ee3b 4388 42bc fc55 933c
00000380: 1750 1c3c 492c 393c 42b5 2b3c 5100 363c
00000390: 9f0f 943c 7a05 b8bb 5184 f73b 7b38 81bb
000003a0: 0618 8eba c662 88ba 89cf 703c 0035 efbb
000003b0: 072e 17bb 7d9b a53b ac06 b33b 02ee 023b
000003c0: 3213 0c3c 9b2e a73c 72ab 333c 7576 413c
000003d0: 97ec 09bb d160 0539 297b 6339 31bc 153c
000003e0: bdbc e73b 27a5 2e3c 53ca 9d3b 852f d1bc
000003f0: 79de 8dbc 0462 ed3b b855 06bc b4b0 b5bb
