figs2-3_rl/results/freeway-UADQN/network_posterior1.pth (torch_old, 684828 bytes, 6 tensors)

conv.weight f4 [16, 7, 3, 3]
0	0xbdc7ca14	-0.0975534
1	0x3dd7809d	0.10522578
2	0xbda768f7	-0.08174317
3	0xbc98bd4b	-0.01864495
4	0x3eeda1a0	0.46412373
5	0x3ea94035	0.330568
6	0x3d2e5b57	0.042567577
7	0xbe34fe07	-0.17675029
8	0x3e8b221e	0.27174467
9	0x3cb8dc2b	0.022565922
10	0x3df292b2	0.11844386
11	0x3d930459	0.071785636
12	0x3c963912	0.01833776
13	0xbebecbae	-0.3726477
14	0x3d8ccdf6	0.068752214
15	0xbee6f4b0	-0.45108557
16	0x3ea777c0	0.3270855
17	0xbead522d	-0.33851758
18	0x3ec0393a	0.3754366
19	0x3d9dcf16	0.07705514
20	0xbea8b6de	-0.32952017
21	0x3ddb2da9	0.10702068
22	0x3e4554e8	0.1927067
23	0x3ecc067b	0.39848694
24	0x3ae96e2e	0.0017809325
25	0xbe54b497	-0.20772015
26	0xbf777ac8	-0.96671724
27	0x3e087f0b	0.13329713
28	0x3e8f5b0b	0.27999148
29	0x3e8e08a5	0.2774097
30	0x3e3479b8	0.17624557
31	0x3e058cd6	0.13042006
32	0x3f0c4d16	0.54805124
33	0xbec741de	-0.3891744
34	0x3d1e8a19	0.03870592
35	0x3ca010ba	0.019539226
36	0xbd716403	-0.05893327
37	0xbdea0744	-0.11427167
38	0x3e71b92e	0.23605797
39	0x3ea97bd9	0.331023
40	0x3c8bd080	0.017067194
41	0x3e34de88	0.17663014
42	0x3f0bcee0	0.5461254
43	0xbea3130a	-0.31850463
44	0xbe507956	-0.20358786
45	0xbe34c37c	-0.17652696
46	0xbe985c6a	-0.29758006
47	0xbed4835b	-0.41506466
48	0x3d34f976	0.044183217
49	0x3f5d01b3	0.8633072
50	0x3f0aa98c	0.5416496
51	0xbd9e42d3	-0.077275895
52	0x3f80ed0c	1.0072341
53	0x3d5582f1	0.05212683
54	0x3e6597ce	0.2242119
55	0x3e95bf43	0.29247484
56	0xbdea0e0d	-0.11428461
57	0x3fa59f17	1.2939175
58	0xbef82907	-0.484688
59	0xbe1259e7	-0.14292108
60	0x3eaa64c2	0.33279997
61	0xbc5a8e84	-0.013339642
62	0xbe52d49a	-0.20588914
63	0x3f21344b	0.6297042
64	0x3cd6824e	0.026185181
65	0x3ea4916d	0.321422
66	0xbf1dd13d	-0.616474
67	0x3ec128e8	0.37726521
68	0xbecdf77b	-0.40227875
69	0xbf2af6ba	-0.66782725
70	0xbf38d2bd	-0.7219656
71	0x3f41c44f	0.7569017
72	0x3db3dd89	0.08782489
73	0xbdc1576b	-0.09440502
74	0xbd12fe0f	-0.03588682
75	0x3ea3232f	0.3186278
76	0x3ea10985	0.31452575
77	0x3e89dd5e	0.26926702
78	0x3da196be	0.0789008
79	0x3da879a5	0.08226327
80	0xbcd0ad0b	-0.025473138
81	0xbef05769	-0.4694169
82	0xbdfbc4de	-0.12293409
83	0xbe67cc84	-0.2263661
84	0xbf138d5e	-0.57637584
85	0xbe73329a	-0.23749772
86	0xbd4053a4	-0.046954766
87	0xbea927d0	-0.33038187
88	0x3e3839aa	0.17990747
89	0xbe509690	-0.20369935
90	0x3e2bd860	0.1678176
91	0xbdf44db8	-0.11928886
92	0x3f081b80	0.5316696
93	0xbf8d7eae	-1.1054285
94	0xbdc08fb4	-0.09402409
95	0x3d3b5e1e	0.045744054
96	0x3e842d87	0.25815985
97	0x3e3560be	0.17712685
98	0x3ccb1bf6	0.024793606
99	0xbed00a5a	-0.40632898
100	0xbe85f1e2	-0.26161104
101	0xbec9795c	-0.39350402
102	0x3ed1998f	0.40937468
103	0xbe91d57a	-0.28483182
104	0x3f0a27d7	0.5396704
105	0xbf243a36	-0.6415132
106	0x3e2428bf	0.16031168
107	0xbf149910	-0.58046055
108	0xbe4d5c72	-0.20054796
109	0xbe918d92	-0.28428322
110	0xbe2e1f6a	-0.17004171
111	0x3e6969c2	0.2279425
112	0x3f00a26a	0.50247824
113	0xbe4ac8df	-0.19803189
114	0x3e0614c7	0.13093863
115	0x3b5ec598	0.0033992287
116	0xbe474606	-0.19460306
117	0xbe10e37d	-0.1414928
118	0xbd32a936	-0.043618403
119	0x3eee845b	0.46585354
120	0xbd73e330	-0.059542835
121	0xbdf44af2	-0.11928357
122	0xbdadff22	-0.08495928
123	0xbe32363e	-0.17403504
124	0xbf069196	-0.52565897
125	0x3e1bd88b	0.15219323
126	0xbe5cc72a	-0.2156035
127	0x3f366ee8	0.7126298
128	0x3ebb40bb	0.36572823
129	0xbcd5364b	-0.026026865
130	0xbebcc8ff	-0.36872098
131	0xbf1ad18e	-0.60476005
132	0x3eb9b6a8	0.36272168
133	0xbd9e6c41	-0.077354915
134	0x3edca30e	0.4309315
135	0xbe759a8b	-0.23984735
136	0x3ea67e2a	0.3251813
137	0x3ed10605	0.40824905
138	0xbe3e1fab	-0.18566768
139	0x3de89724	0.11356953
140	0xbf18168b	-0.594094
141	0xbf067476	-0.52521455
142	0x3f447d80	0.76754
143	0xbece0ff0	-0.40246534
144	0xbddd5e88	-0.10809046
145	0xbe25d471	-0.16194321
146	0xbe904b85	-0.28182617
147	0xbec3d4bb	-0.38248238
148	0xbcb89a1c	-0.022534423
149	0xbe87efaa	-0.26550037
150	0xbec9d707	-0.39421865
151	0x3f778daf	0.96700567
152	0xbe80d7f8	-0.2516477
153	0x3e60912e	0.21930382
154	0x3ea7ce55	0.32774606
155	0xbe4478b4	-0.1918667
156	0xbebb3537	-0.36564037
157	0xbe0ba637	-0.13637625
158	0x3e6346ec	0.22195023
159	0xbe85237a	-0.2600363
160	0xbf31d31e	-0.69462764
161	0xbec52595	-0.38505235
162	0x3d3d5a3b	0.04622863
163	0xbd9a1828	-0.07524139
164	0x3d596efa	0.05308435
165	0xba1c044f	-0.000595157
166	0x3ec6cce5	0.38828197
167	0xbe47e057	-0.19519173
168	0x3e835ec2	0.25658232
169	0xbeee61df	-0.46559045
170	0xbe2de96e	-0.16983578
171	0x3ef77a27	0.48335382
172	0x3ea93c58	0.3305385
173	0xbf00149a	-0.50031435
174	0xbed06401	-0.40701297
175	0x3e1c8492	0.15284947
176	0x3ea2338a	0.31679946
177	0x3dcecc42	0.10097553
178	0xbe2f3781	-0.17111017
179	0xbd809873	-0.062790774
180	0x3edbac9a	0.42905122
181	0xbe46c02a	-0.19409242
182	0x3e249af6	0.16074738
183	0xbef552b7	-0.4791467
184	0x3ec8785a	0.3915432
185	0x3e27016a	0.16309133
186	0x3ce57ca9	0.028013544
187	0x3ef87807	0.48529074
188	0x3ed1a420	0.4094553
189	0x3f64f57b	0.89437073
190	0x3f560a78	0.83609724
191	0x3e061af5	0.13096221
192	0x3f145e2c	0.57956195
193	0x3f640f4a	0.8908583
194	0xbf02eb74	-0.5114052
195	0x3f36ea99	0.7145172
196	0x3eff4aec	0.49861848
197	0xbf19ba6f	-0.600501
198	0xbf11e5ad	-0.5699108
199	0xbeb0d22d	-0.3453535
200	0xbedce815	-0.43145815
201	0xbe3e2268	-0.18567812
202	0xbd63ba48	-0.055597574
203	0xbe0b5b67	-0.13609086
204	0x3cdf5ade	0.027265009
205	0x3e35a624	0.17739159
206	0xbc33aa5b	-0.010965909
207	0x3ecabe27	0.395982
208	0x3eeaff96	0.45898122
209	0x3eae3db1	0.34031442
210	0x3e7c8e08	0.24663556
211	0xbc47c8f7	-0.01219391
212	0x3c9f39ff	0.019436834
213	0xbe7c352d	-0.2462966
214	0x3e6e5428	0.2327429
215	0xbe25d863	-0.16195826
216	0x3e62b285	0.22138412
217	0x3ef56061	0.47925094
218	0x3e73fd31	0.23827054
219	0xbce916c0	-0.02845323
220	0x3e45445a	0.19264355
221	0xbe048f84	-0.12945372
222	0xbe8e51e5	-0.27796856
223	0xbc337588	-0.010953315
224	0xbe579460	-0.21052694
225	0x3ef21836	0.47284096
226	0x3e99d0b7	0.3004205
227	0x3de7702f	0.11300694
228	0xbe7e3114	-0.2482341
229	0x3e88a7cb	0.26690516
230	0xbd158428	-0.036502987
231	0x3c1657f9	0.009176248
232	0xbe1c7783	-0.15279965
233	0xbe0044ba	-0.12526217
234	0x3eb869da	0.36018258
235	0x3e9b9e61	0.3039427
236	0xbc1be1ab	-0.009514253
237	0xbe11be5b	-0.14232771
238	0x3e2370fc	0.15961069
239	0xbe0749fa	-0.13211814
240	0xbcde0c44	-0.027105458
241	0xbda266dc	-0.07929775
242	0xbe36c448	-0.17848313
243	0x3be2ba49	0.0069191796
244	0x3f0ae962	0.54262364
245	0x3e081222	0.13288167
246	0xbd012ed1	-0.03153879
247	0xbdbd6afc	-0.09248921
248	0xbe094c92	-0.13408116
249	0xbde534a1	-0.11191679
250	0xbe8ebe7c	-0.27879703
251	0xbd885c11	-0.06658185
252	0xbe251a7d	-0.16123386
253	0xbc82d42a	-0.015970308
254	0x3e20541b	0.15657084
255	0xbe043bfd	-0.12913509

conv.bias f4 [16]
0	0xbdff2e0f	-0.12459957
1	0x3ece5e43	0.4030629
2	0xbe27664f	-0.16347621
3	0xbe07d53f	-0.1326494
4	0xbe3cfd6a	-0.18456045
5	0xbdb5b3e1	-0.088722
6	0x3f077201	0.5290833
7	0xbe209b1e	-0.15684173
8	0xbe323c86	-0.174059
9	0xbe5680ba	-0.20947543
10	0x3f91ff15	1.140597
11	0xbd574aa2	-0.05256141
12	0x3f8f2482	1.1183016
13	0xbdd6e056	-0.104920074
14	0x3f603fcd	0.8759735
15	0xbe5d13dd	-0.21589608

fc_hidden.weight f4 [128, 1024]
0	0x3dbe4ab0	0.09291589
1	0x3dee8a55	0.116474785
2	0xbd236004	-0.03988649
3	0xbdb56a6a	-0.088581875
4	0xbc5567f9	-0.013025277
5	0x3e4e2996	0.20133051
6	0xbd4291b0	-0.04750222
7	0xbe1ae64b	-0.15126912
8	0xbcf8deec	-0.030379735
9	0xbd16b5f5	-0.03679462
10	0x3d887c89	0.06664378
11	0xbdde6a6b	-0.10860141
12	0xbdb7f7e8	-0.08982831
13	0xbe01a2bf	-0.12659739
14	0x3df52b5d	0.119711615
15	0xbd0428d2	-0.03226549
16	0x3d9655fe	0.073406205
17	0x3d954a2b	0.07289537
18	0xbd2c4cab	-0.042065304
19	0xbe1ad878	-0.15121639
20	0xbd1f3287	-0.038866546
21	0x3dff3181	0.12460614
22	0x3d7f6628	0.062353283
23	0xbe084055	-0.1330579
24	0x3c20114b	0.009769748
25	0xbdf3dfc4	-0.11907914
26	0x3d545d5f	0.051846858
27	0xbc3c418b	-0.011490236
28	0xbd0913af	-0.033466037
29	0x3db9066f	0.0903443
30	0xbe0e1ab9	-0.13877381
31	0x3d2f4e7a	0.04279945
32	0xbd3f3167	-0.046677973
33	0x3de9d403	0.11417391
34	0xbd97a0e9	-0.07403738
35	0x3d7d8ce4	0.061901942
36	0xbdc1c3b8	-0.094611585
37	0x3c9e9dce	0.019362357
38	0x3e084a9c	0.13309711
39	0x3d2dab0f	0.042399462
40	0xbdd267e2	-0.1027372
41	0x3d8de347	0.06928115
42	0x3da3031f	0.0795958
43	0xbcd840be	-0.026398059
44	0x3cb1d874	0.021709658
45	0xbd465fea	-0.048431315
46	0x3dc54534	0.0963234
47	0xbdc008eb	-0.09376701
48	0x3db6caa2	0.08925368
49	0x3d7b2668	0.061315924
50	0xbdee45e9	-0.11634428
51	0xbce7933f	-0.028268455
52	0x3d84346a	0.0645531
53	0x3db2b76d	0.08726392
54	0x3e497250	0.19672513
55	0xbc73fc95	-0.014891763
56	0x3dab6e64	0.08370665
57	0x3d8707af	0.065932624
58	0x3d65d0b8	0.056107253
59	0xbd7860ac	-0.06063907
60	0x3d365de9	0.044523153
61	0x3dc1cc9d	0.09462855
62	0x3d346726	0.044043683
63	0xbd772ba4	-0.060344353
64	0xbd321991	-0.043481413
65	0xbe0786e4	-0.1323505
66	0xbe241cc8	-0.16026604
67	0xbba451fc	-0.005014656
68	0xbd8d0159	-0.06885023
69	0x3c6ec769	0.01457391
70	0xbe488ac4	-0.19584185
71	0x3b615059	0.0034380166
72	0x3e32c4ed	0.17457934
73	0x3d2b4f47	0.04182365
74	0x3d1133f9	0.035449956
75	0x3db53f94	0.08850017
76	0x3c1fd08d	0.009754312
77	0x3dc57e85	0.09643272
78	0xbdc508d7	-0.09620827
79	0x3e0913c6	0.13386449
80	0xbd3ec6fc	-0.046576485
81	0xbe03a1cc	-0.1285469
82	0xbde9e0bf	-0.1141982
83	0x3dedd04e	0.116119966
84	0xbd7b240c	-0.061313674
85	0xbdc9b9e9	-0.09849913
86	0xbe1ac10c	-0.15112704
87	0x3d0d04eb	0.03442852
88	0xbd431e38	-0.04763624
89	0xbd834e13	-0.06411376
90	0x3e04d8e6	0.12973365
91	0x3ddbba83	0.10728934
92	0x3dc29469	0.09500963
93	0x3dd47170	0.10373199
94	0x3cede556	0.02904002
95	0xbd1a7401	-0.037708286
96	0x3cd8f28f	0.026482848
97	0xbdac0c20	-0.0840075
98	0x3c65891a	0.014009738
99	0xbd7a7568	-0.061147124
100	0x3c65f93c	0.014036473
101	0x3c469063	0.012119385
102	0xbcaaea46	-0.020863663
103	0xbe12e5b7	-0.14345442
104	0xbe43ddf8	-0.19127643
105	0x3c447b08	0.011992224
106	0xbd9053e7	-0.07047253
107	0x3cff9b6e	0.031202044
108	0xbd84825e	-0.06470178
109	0x3e402464	0.18763882
110	0x3d19e2de	0.037569873
111	0xbe457388	-0.19282353
112	0x3aec1bef	0.0018013696
113	0x3d59f8e6	0.053215884
114	0xbdd67d26	-0.10473089
115	0xbce5d218	-0.028054282
116	0xbd55460e	-0.052068762
117	0x3e407a05	0.18796547
118	0x3d4abb0d	0.04949479
119	0x3d532b4c	0.051554963
120	0xbd8525d8	-0.06501359
121	0xbdaa6d06	-0.08321576
122	0xbe2a5cb8	-0.16636932
123	0xbb653739	-0.0034975542
124	0x3c76eaee	0.01507066
125	0xbc84fd17	-0.016233964
126	0xbde6dd77	-0.1127271
127	0xbdaeaca3	-0.085290216
128	0x3e30e182	0.17273524
129	0xbe8d88d6	-0.2764346
130	0xbd78150a	-0.06056694
131	0x3dc588ee	0.09645258
132	0x3d62a1b7	0.055330005
133	0xbe06d9dc	-0.13169044
134	0xbd9efcc4	-0.07763055
135	0xbe1bbbb6	-0.15208325
136	0x3da11796	0.07865827
137	0x3cefd0f2	0.029274438
138	0xbccd52a9	-0.02506383
139	0x3d2892d3	0.041155647
140	0xbdc70edf	-0.09719633
141	0x3d89b4f5	0.06723968
142	0x3def035b	0.11670562
143	0xbc00fcb7	-0.007872752
144	0x3d2201bd	0.03955244
145	0xbded17d6	-0.11576812
146	0xbdfaddc5	-0.122493304
147	0xbc31adc8	-0.010844655
148	0x3cdc363f	0.026881335
149	0xbcb6e57a	-0.02232622
150	0xbe1a5d69	-0.15074696
151	0x3da87ae4	0.082265645
152	0x3e45fe8a	0.1933538
153	0x3cd60b47	0.026128424
154	0x3c25740e	0.01009847
155	0x3d695106	0.056962036
156	0x3dfe35eb	0.12412628
157	0x3e1e3e46	0.15453443
158	0xbe01c841	-0.12674047
159	0xbc4cadcf	-0.012492611
160	0xbe44d773	-0.19222812
161	0xbd9924ad	-0.074776985
162	0xbd9daca3	-0.076989435
163	0xbe0e1dbf	-0.13878535
164	0xbd794524	-0.060856953
165	0xbd1784ba	-0.036991812
166	0xbe06228e	-0.13099119
167	0xbc3e8404	-0.011628155
168	0xbe646bd3	-0.22306757
169	0xbe00f692	-0.12594059
170	0x3cfd814c	0.030945443
171	0xbd7b3341	-0.061328176
172	0xbdbafa73	-0.09129801
173	0xbdcbed1c	-0.099573344
174	0xbc9b876f	-0.018985478
175	0xbdec55fa	-0.11539836
176	0x3deac320	0.114629984
177	0x3ceb41f0	0.028717965
178	0xbbc4524c	-0.005991256
179	0xbe2ef3ff	-0.17085265
180	0x3e1cc5e7	0.15309869
181	0x3d09fcd2	0.033688374
182	0xbd8a1a56	-0.067433044
183	0x3e12acbb	0.14323704
184	0xbce33a0d	-0.027737642
185	0x3cc5130c	0.024056934
186	0xbe1d1929	-0.15341629
187	0xbe37f28c	-0.17963618
188	0xbe106045	-0.14099224
189	0xbe7bfee1	-0.24608947
190	0x3d9f5132	0.07779159
191	0x3d1d736e	0.03844016
192	0x3da57d37	0.080805235
193	0x3cc9c43b	0.024629703
194	0x3c6fd068	0.01463709
195	0x3d12606f	0.035736497
196	0x3db30eb8	0.08743042
197	0x3db397b6	0.08769171
198	0xbcd18c10	-0.025579482
199	0x3da142f1	0.07874096
200	0x3e3ad163	0.18243937
201	0x3caebefc	0.021331303
202	0x3d2e14cd	0.042500306
203	0xbdf2d70d	-0.11857424
204	0x3e4ebec2	0.20189956
205	0xbe101f39	-0.1407441
206	0x3d586f9b	0.05284081
207	0x3d39a724	0.045325413
208	0x3de5c083	0.11218359
209	0xbcce9346	-0.02521671
210	0xbd26e897	-0.04074916
211	0x3dde27ec	0.10847458
212	0xbe40fe16	-0.18846926
213	0xbdcf3ffa	-0.101196244
214	0x3b39c199	0.0028344153
215	0xbddc9b76	-0.10771839
216	0xbd9adf43	-0.07562115
217	0xbd046c17	-0.032329645
218	0x3e8af346	0.27138728
219	0xbcfbdc0b	-0.030744573
220	0x39771340	0.00023562927
221	0xbded95cf	-0.11600839
222	0xbd02c513	-0.031926226
223	0xbe109042	-0.1411753
224	0xbd2d3d12	-0.04229457
225	0x3d246457	0.040134754
226	0x3d3568fd	0.044289578
227	0x3cab294d	0.020893717
228	0x3dd5b3d3	0.104346894
229	0x3d3bd4f9	0.045857403
230	0xbdbbd42e	-0.091713294
231	0xbd9b74d8	-0.075906456
232	0xbcd5624e	-0.026047852
233	0x3dbec3c7	0.09314685
234	0x3e10d1ef	0.14142583
235	0xbd3a4b39	-0.045481894
236	0x3c155091	0.009113447
237	0x3bf9274e	0.0076035624
238	0xbd1b5231	-0.03792018
239	0xbdac3b69	-0.08409769
240	0x3dd2218e	0.10260306
241	0x3de37aea	0.11107428
242	0x3e16e6f0	0.14736533
243	0x3d0972bb	0.03355668
244	0xbd9e491b	-0.077287875
245	0xbe0a2d1f	-0.13493775
246	0x3c5ee0f7	0.0136034405
247	0x3e0f1475	0.13972647
248	0xbd6d0c0e	-0.057872824
249	0xbc4dd3f2	-0.012562739
250	0x3cdb4296	0.02676515
251	0x3d907ec2	0.07055427
252	0xbd149130	-0.036271274
253	0x3d1e9b1b	0.03872214
254	0x3cdb9b1b	0.026807358
255	0xbdfaa128	-0.12237769

fc_hidden.bias f4 [128]
0	0xbc4c2042	-0.012458863
1	0xbb15272e	-0.0022758949
2	0xbaedb0e1	-0.0018134379
3	0xbbad236b	-0.005283763
4	0xbc2cdcde	-0.010550706
5	0xbc38ce9c	-0.011279728
6	0xbad1a2bc	-0.0015993933
7	0xbc0ff68b	-0.008786808
8	0xbc6e7997	-0.014555356
9	0xbc1be50c	-0.009515058
10	0xbc7bcfea	-0.015369395
11	0xbb924602	-0.004463912
12	0xbb8b7ebf	-0.0042570527
13	0xbc7435ee	-0.014905436
14	0xbb8beea4	-0.0042703915
15	0xbba64a95	-0.005074809
16	0xbbf3752b	-0.007429739
17	0xbc0afd19	-0.008483195
18	0xbb9a95ed	-0.0047175796
19	0xbb70e5d1	-0.0036758075
20	0xbc436ee1	-0.011928291
21	0xbbf7323e	-0.007543831
22	0xbba506d7	-0.0050362158
23	0xbc51cb46	-0.012804812
24	0xbc2df721	-0.010618002
25	0xbc3ec078	-0.011642568
26	0xbc54dbf6	-0.012991896
27	0xbbe592b1	-0.0070060124
28	0xbbe6e463	-0.007046269
29	0xbb987e1c	-0.0046537053
30	0xbc10b920	-0.0088332
31	0x800007f6	-2.856e-42
32	0xbc66e48b	-0.014092575
33	0xbc20ce40	-0.009814799
34	0xbb5f64e2	-0.003408723
35	0xbc738ed8	-0.0148656
36	0xbc0cce3d	-0.008594093
37	0xbcad9994	-0.021191396
38	0xbc80c0c5	-0.01571692
39	0xbbc36500	-0.005962968
40	0xbc01cf57	-0.007922969
41	0xbc0e1412	-0.008671777
42	0xbc3901ae	-0.011291904
43	0xbc0a8d92	-0.008456605
44	0xbc427d13	-0.01187064
45	0xbbf7e28d	-0.0075648488
46	0xbc3b7767	-0.011442042
47	0xbc10a83d	-0.008829174
48	0xbbc1a2bd	-0.0059092925
49	0xbba7f4a7	-0.0051256004
50	0xbc17c6a0	-0.0092636645
51	0xbc555858	-0.013021551
52	0xbbec92ce	-0.007219649
53	0xbbc54aef	-0.0060208957
54	0xba42d9ce	-0.0007432968
55	0xbc5b0bba	-0.013369495
56	0xbc09c3be	-0.008408485
57	0xbbda2ff0	-0.0066585466
58	0xbbb4d9af	-0.005519114
59	0xbbbfa022	-0.0058479467
60	0xbc6b5876	-0.014364352
61	0xbc1bb5f9	-0.009503835
62	0xbc1a44ef	-0.009415849
63	0xbc4885fc	-0.012238976
64	0xbc3a3133	-0.011364269
65	0xbbf81b80	-0.0075716376
66	0xbb7f98d1	-0.0039000998
67	0xbc7a5510	-0.01527907
68	0xbc5a3fea	-0.013320902
69	0xbc435037	-0.01192098
70	0xbba4947c	-0.0050225835
71	0xbc954def	-0.018225638
72	0xbb7c114d	-0.003846246
73	0xbb5c5fae	-0.0033626365
74	0xbc349539	-0.011021906
75	0xbcad2e16	-0.02114014
76	0xbb8bd696	-0.004267524
77	0xbc76ec10	-0.01507093
78	0xbc5aa6a1	-0.0133453915
79	0xbc2f383c	-0.01069456
80	0xb9032418	-0.0001250658
81	0xbc15c37c	-0.009140845
82	0xbc8de4fd	-0.017321104
83	0xbba3f83a	-0.005003956
84	0xbb7c14de	-0.0038464586
85	0x3d972ede	0.07381986
86	0xbb91d1bb	-0.0044500506
87	0xbc10d6c0	-0.008840263
88	0xbc313a9f	-0.010817199
89	0xbb734699	-0.0037120937
90	0x0000247f	1.3092e-41
91	0xbbd29312	-0.0064262236
92	0xbb44f08b	-0.0030050601
93	0xbc6bb10e	-0.014385475
94	0xbbf69ef4	-0.007526273
95	0xbc1c8d52	-0.009555178
96	0xbc6b68a2	-0.014368208
97	0xbb5f6901	-0.0034089687
98	0xbc72805a	-0.014801109
99	0xbb1c13d3	-0.0023815527
100	0xbc4ccbfb	-0.012499805
101	0xb9ba4288	-0.00035526254
102	0xbbe8325c	-0.0070860814
103	0x0000268e	1.3831e-41
104	0xbc1d0aff	-0.009585141
105	0xbc81b82a	-0.015834887
106	0xbc31c8e2	-0.010851117
107	0xbba39ec5	-0.004993292
108	0xbb5672b0	-0.0032722168
109	0xbc27c1b2	-0.010239052
110	0xbc8de88e	-0.017322805
111	0xbbf350c6	-0.0074254004
112	0xbbe04f7b	-0.0068454123
113	0xbc9391b0	-0.018013805
114	0xbc82ac2f	-0.015951244
115	0xbbbf4d51	-0.0058380743
116	0xbb56a57b	-0.0032752443
117	0xbc80f1e1	-0.015740337
118	0xbc6aeb50	-0.014338329
119	0xbbcd0011	-0.0062561114
120	0xbc2a819b	-0.010406877
121	0xbc877e63	-0.016539758
122	0xbc4a557f	-0.012349485
123	0xbb11ccd4	-0.0022247331
124	0xbc0a0fd2	-0.008426623
125	0xbbae40b3	-0.0053177713
126	0xbc0c8010	-0.008575454
127	0xbb5febc2	-0.0034167622

output.weight f4 [300, 128]
0	0xbe338098	-0.17529523
1	0xbd0aae51	-0.033857647
2	0x3e61d74c	0.22054785
3	0x3c588730	0.013215825
4	0xbce2d384	-0.02768875
5	0x3c6584c6	0.014008706
6	0x3e5b2c93	0.21403722
7	0xbee22f76	-0.44176835
8	0xbeb2cddb	-0.3492268
9	0xbd176fc4	-0.036971822
10	0xbde61eee	-0.11236368
11	0xbde1063f	-0.109875195
12	0xbd950060	-0.07275462
13	0x3e3207db	0.17385809
14	0xbe380f06	-0.17974481
15	0x3adb72c1	0.0016742573
16	0xbd397f06	-0.045287155
17	0x3e6f93ca	0.23396221
18	0xbd9db094	-0.07699695
19	0x3dc51fff	0.096252434
20	0x3db7e1e7	0.08978634
21	0x3e095fb0	0.13415408
22	0xbe330700	-0.17483139
23	0x3e6aa4f9	0.22914495
24	0xbe83eeb0	-0.25768042
25	0xbda92c7b	-0.08260437
26	0xbc84a1bc	-0.016190402
27	0xbe0506d0	-0.1299088
28	0xbe053000	-0.13006592
29	0xbe7329fa	-0.23746482
30	0xbe069343	-0.13142113
31	0x3e03813a	0.12842265
32	0x3d24f753	0.04027493
33	0x3dfbab89	0.12288577
34	0xbd85e49b	-0.06537744
35	0xbe5b7f54	-0.2143529
36	0xbd33a261	-0.04385603
37	0xbc778644	-0.015107695
38	0xbeeb1d18	-0.45920634
39	0x3e6d75a5	0.23189409
40	0xbe56599c	-0.20932621
41	0x3dbcc05c	0.09216377
42	0x3d5aed93	0.053449225
43	0xbe0f27d9	-0.13980044
44	0xbe09acce	-0.13444826
45	0xbe54339c	-0.20722812
46	0xbe341b17	-0.17588459
47	0x3d568081	0.052368645
48	0x3c003369	0.007824757
49	0x3e5c134b	0.21491735
50	0x3d4c1978	0.049828976
51	0xbe3ded99	-0.18547668
52	0xbd9cad70	-0.07650268
53	0x3e456108	0.19275296
54	0x3dc387e0	0.095474005
55	0xbe3972fb	-0.18110268
56	0xbdf4391c	-0.11924955
57	0xbd143339	-0.036181662
58	0xbce8d87d	-0.028423542
59	0x3eb574c8	0.3544066
60	0x3d8b9f17	0.06817453
61	0xbada1652	-0.0016638732
62	0x3d7826ba	0.060583808
63	0xbd30ea4e	-0.0431922
64	0x3d8d0aaa	0.068868
65	0x3e80fe9d	0.25194255
66	0xbe5fe6b4	-0.2186535
67	0x3b8d64ea	0.0043150084
68	0xbe0c8bfc	-0.13725275
69	0xbea1dd63	-0.31614217
70	0xbda055cf	-0.07828867
71	0x3c5148ba	0.012773687
72	0x3e49d644	0.19710642
73	0x3e37af0b	0.17937867
74	0xbe20e145	-0.15710934
75	0x3db7a172	0.0896634
76	0xbe10edc1	-0.14153196
77	0x3e3cc41f	0.1843419
78	0xbdf4220f	-0.11920559
79	0xbe712d1c	-0.23552364
80	0xbd36b61d	-0.04460727
81	0x3e88a5ee	0.26689094
82	0x3d85ed6d	0.06539426
83	0xbdaca780	-0.084303856
84	0x3e0eb9f9	0.1393813
85	0x3d8328ca	0.06404264
86	0x3e0bb069	0.13641514
87	0x3e7e2c38	0.24821556
88	0x3dd6bd7c	0.1048536
89	0x3da03e6e	0.078244075
90	0xbc6d1a42	-0.014471592
91	0xbb6dc21a	-0.0036279024
92	0x3e83fcea	0.25778896
93	0xbd4ced77	-0.05003115
94	0x3d6570fa	0.056015946
95	0x3e773ba3	0.24143843
96	0x3d211c71	0.039333764
97	0x3e521baf	0.20518373
98	0xbe3a4802	-0.18191531
99	0x3e07d45e	0.13264605
100	0xbead6167	-0.33863375
101	0xbd513dee	-0.05108445
102	0xbd37764a	-0.044790544
103	0x3dfa6ef9	0.122281976
104	0x3e126bff	0.1429901
105	0x3e4beb50	0.19913983
106	0xbe05b230	-0.13056254
107	0xbe543ee9	-0.20727123
108	0xbe4fc159	-0.202886
109	0xbdfee696	-0.124463245
110	0x3d8ef6a0	0.06980634
111	0x3d853703	0.06504633
112	0xbdb4dbf8	-0.08831018
113	0x3ea4f9d2	0.32221848
114	0xbda22f7f	-0.079192154
115	0x3dac873d	0.08424232
116	0xbe96517f	-0.29359052
117	0xbd8754ec	-0.066079944
118	0x3e55b307	0.20869075
119	0x3e14dc1d	0.14537092
120	0x3d8dd14f	0.06924688
121	0xbd4ab6a4	-0.049490586
122	0x3e4f2bc3	0.20231538
123	0xbd0824f5	-0.03323837
124	0xbd4b5e51	-0.049650494
125	0x3ba07bc8	0.0048975684
126	0x3d779d9d	0.060453046
127	0x3cb8808e	0.022522237
128	0xbdc8a892	-0.09797777
129	0xbdc873f0	-0.09787738
130	0xbc64c459	-0.013962829
131	0x3d9bbe92	0.07604708
132	0xbdc08c17	-0.0940172
133	0xbc2bf574	-0.010495532
134	0xbe50fe80	-0.20409584
135	0x3d2148e7	0.039376166
136	0x3e6de014	0.2323001
137	0x3e6e67f7	0.23281847
138	0xbd38b850	-0.04509765
139	0xbdd6c622	-0.104870096
140	0xbe4b9fb6	-0.19885144
141	0x3cd8868b	0.026431343
142	0xbea69b6e	-0.32540458
143	0xbd9c2544	-0.07624295
144	0xbea3e230	-0.32008505
145	0x3e1cd389	0.1531507
146	0xbe9177ed	-0.2841181
147	0xbd1a1611	-0.0376187
148	0xbda1f9c0	-0.07908964
149	0xbcf3f55e	-0.029780086
150	0x3e30b871	0.17257859
151	0xbdbaf439	-0.09128613
152	0x3d6be99e	0.05759584
153	0xbdc590af	-0.09646737
154	0xbe486f4e	-0.1957371
155	0x3e52fda8	0.20604575
156	0x3d02acb5	0.031902988
157	0x3db9a287	0.09064203
158	0xbd9a712f	-0.07541119
159	0xbee90836	-0.45514077
160	0xbdb80d30	-0.0898689
161	0x3e0fcd26	0.14043102
162	0xbd0f1f6b	-0.034942072
163	0xbe0ce521	-0.1375928
164	0x3e4c6f19	0.19964255
165	0xbdab1c23	-0.08354976
166	0x3dc12a41	0.094318874
167	0x3cb31536	0.0218607
168	0x3ced53f2	0.028970692
169	0x3d172d76	0.03690859
170	0xbe64b050	-0.22332883
171	0xbe471865	-0.194429
172	0xbe57b5de	-0.2106547
173	0x3dbd4ef8	0.09243578
174	0xbe088100	-0.1333046
175	0x3e5b7740	0.21432209
176	0xbdbf15df	-0.093303435
177	0xbdcd0eb2	-0.100125685
178	0xbe66f12a	-0.22552934
179	0x3e4ae423	0.1981359
180	0xbc8548a8	-0.016269997
181	0x3e7831e1	0.24237777
182	0x3e06b80a	0.13156143
183	0x3e919730	0.2843566
184	0xbdfeb138	-0.124361455
185	0x3dca7018	0.098846614
186	0x3e0c6760	0.1371131
187	0xbd8de1df	-0.06927847
188	0x3dd14ae6	0.10219364
189	0xbdf2e236	-0.118595526
190	0xbd34b8df	-0.04412162
191	0x3e9911c9	0.29896381
192	0xbe187fc1	-0.14892484
193	0x3dd92120	0.10602021
194	0x3bc03c10	0.005866535
195	0x3de1c999	0.1102478
196	0x3cf50199	0.029907988
197	0x3c44b0e3	0.012005064
198	0x3dfd40ca	0.12365873
199	0xbecb9ca3	-0.39767942
200	0xbe0ff134	-0.14056855
201	0xbcc2d921	-0.023785176
202	0xbe413f7f	-0.18871878
203	0xbe7197da	-0.23593083
204	0x3e249fa3	0.16076522
205	0xbec923ad	-0.3928503
206	0x3d398fd6	0.04530319
207	0x3cfeeb62	0.031118099
208	0xbe0e3049	-0.13885607
209	0xbd0d1bce	-0.034450345
210	0xbe3524f6	-0.1768988
211	0xbd430649	-0.047613416
212	0x3cb5a483	0.022173172
213	0x3da122cc	0.07867965
214	0xbd896fcc	-0.06710777
215	0xbe20c014	-0.15698272
216	0xbbdb8202	-0.0066988477
217	0x3e405fb4	0.18786508
218	0xbd8f5ca0	-0.07000089
219	0xbb63db1c	-0.003476805
220	0x3df6b32f	0.12045895
221	0xbdfc6379	-0.123236604
222	0xbdf7e55b	-0.12104293
223	0xbcd80517	-0.026369615
224	0xbe3f7ae9	-0.1869923
225	0x3e55fa1b	0.20896189
226	0xbeb21472	-0.34781224
227	0x3c1ed8f7	0.009695283
228	0xbdd23ba7	-0.10265284
229	0x3dc413be	0.09574078
230	0x3d42185b	0.04738651
231	0xbe65cb46	-0.22440824
232	0x3e7b9205	0.24567421
233	0xbdee9234	-0.1164898
234	0xbe9cbe47	-0.3061392
235	0xbe229fea	-0.15881315
236	0xbea79e06	-0.3273775
237	0xbdf57c4a	-0.11986597
238	0x3ce86fb0	0.02837357
239	0xbcfe005d	-0.031006033
240	0xbe97dc98	-0.29660487
241	0xbe1df11a	-0.15424004
242	0xbe494cf3	-0.1965826
243	0x3e14da4f	0.14536403
244	0xbecca304	-0.3996812
245	0xbe303148	-0.172063
246	0xbdc1c0d5	-0.09460608
247	0xbeada160	-0.33912182
248	0xbe583399	-0.21113433
249	0xbce96251	-0.028489264
250	0xbe146607	-0.14492045
251	0xbc16e94e	-0.009210898
252	0xbdef497a	-0.116839364
253	0xbe1bbb25	-0.15208109
254	0xbd744235	-0.059633452
255	0xbe211796	-0.15731654

output.bias f4 [300]
0	0xbd10466d	-0.035223413
1	0xbd8e6cb2	-0.06954326
2	0xbdb74516	-0.08948724
3	0xbd78eb8d	-0.060771514
4	0xbd89fc16	-0.06737535
5	0xbdaa22ac	-0.083073944
6	0xbd8ea53a	-0.06965108
7	0xbd7a2744	-0.061072603
8	0xbd95bff8	-0.07312006
9	0xbd7e4e6f	-0.06208652
10	0xbd7ca89c	-0.061684236
11	0xbd8edeb6	-0.069760725
12	0xbd77d064	-0.06050147
13	0xbd7306cc	-0.059332654
14	0xbd7b6985	-0.06137993
15	0xbd761755	-0.060080845
16	0xbd71b0b6	-0.059006415
17	0xbd84d5a2	-0.0648606
18	0xbd84b56f	-0.06479918
19	0xbd4ba00c	-0.04971318
20	0xbd2d7920	-0.042351842
21	0xbd0470ca	-0.032334127
22	0xbcd85a62	-0.026410285
23	0xbcb99808	-0.022655502
24	0xbbfa6efa	-0.007642624
25	0xbb0cd4a1	-0.0021489041
26	0xbabc33d8	-0.0014358712
27	0x3be4c6bb	0.0069816983
28	0x3c962244	0.018326886
29	0x3c631cb7	0.013861827
30	0x3ccb90a3	0.024849242
31	0x3d0311b2	0.031999297
32	0x3d0cff76	0.034423314
33	0x3d4fa17e	0.05069112
34	0x3d4851f1	0.04890627
35	0x3d663cdc	0.056210384
36	0x3d6d14cd	0.057881165
37	0x3d8d229b	0.06891366
38	0x3d98ec00	0.074668884
39	0x3d8334b8	0.0640654
40	0x3daa602c	0.083191246
41	0x3d9e2fa9	0.07723934
42	0x3db4229e	0.08795665
43	0x3db65dbd	0.08904598
44	0x3dcc879b	0.09986802
45	0x3de1ab42	0.11018993
46	0x3dc79ead	0.09747062
47	0x3dbd6d50	0.09249365
48	0x3db56ff7	0.08859246
49	0x3d37c219	0.04486284
50	0xbc802398	-0.015641972
51	0xbd99143d	-0.07474563
52	0xbd78219e	-0.060578935
53	0xbdb19cc6	-0.0867248
54	0xbd9f7cc5	-0.0778747
55	0xbda69023	-0.08132961
56	0xbd8c2272	-0.068425074
57	0xbd90e124	-0.07074192
58	0xbd8c7166	-0.068575665
59	0xbd5d6ebb	-0.05406068
60	0xbd8af564	-0.06785086
61	0xbd940668	-0.072277844
62	0xbd8075cc	-0.06272468
63	0xbd88ee01	-0.06686021
64	0xbd7f827c	-0.0623803
65	0xbd594049	-0.053039823
66	0xbd5067fb	-0.050880414
67	0xbd51a92f	-0.051186737
68	0xbd57b9d3	-0.05266745
69	0xbd3b5bfc	-0.04574202
70	0xbd397c9d	-0.045284856
71	0xbcec54b5	-0.028848985
72	0xbd00aadc	-0.031412944
73	0xbcdfbf9c	-0.027313046
74	0xbcae10ad	-0.021248186
75	0xba44afc4	-0.0007502998
76	0x3b084937	0.0020795593
77	0xba95594d	-0.0011394412
78	0xbbb43a6a	-0.0055001276
79	0x3c0bca72	0.008532153
80	0x3c9e3745	0.019313464
81	0x3c78ce19	0.015185856
82	0x3cd839a3	0.02639467
83	0x3cf9c920	0.030491412
84	0x3d4524fe	0.04813098
85	0x3d6e9d36	0.058255397
86	0x3d85a7b1	0.06526125
87	0x3d905ba5	0.0704873
88	0x3d91a461	0.07111431
89	0x3d9baaac	0.076009125
90	0x3db63422	0.08896662
91	0x3db35904	0.08757213
92	0x3db26f92	0.087126866
93	0x3dc2e270	0.09515846
94	0x3db76a20	0.089557886
95	0x3da69b4c	0.08135089
96	0x3da873b5	0.08225194
97	0x3dea1a78	0.1143083
98	0x3d867f96	0.06567304
99	0x3d1041f8	0.035219163
100	0xbea2134c	-0.31655347
101	0xbefdce02	-0.49571234
102	0xbf0176c7	-0.50571865
103	0xbef96106	-0.48706836
104	0xbee4fa5f	-0.44722268
105	0xbedaf852	-0.42767578
106	0xbece7518	-0.4032371
107	0xbebf3993	-0.37348613
108	0xbeb4a1b4	-0.3527962
109	0xbea7f787	-0.32806036
110	0xbea179f0	-0.31538343
111	0xbe9b3844	-0.30316365
112	0xbe9073b8	-0.28213286
113	0xbe889665	-0.26677242
114	0xbe8022ce	-0.25026554
115	0xbe68ab5e	-0.22721621
116	0xbe57638d	-0.2103407
117	0xbe4188c2	-0.18899825
118	0xbe334398	-0.17506254
119	0xbe1f95cd	-0.15584488
120	0xbe0d917d	-0.1382503
121	0xbded9f01	-0.11602593
122	0xbdce6dde	-0.10079549
123	0xbdac6d50	-0.08419287
124	0xbd918e8a	-0.07107265
125	0xbd40a323	-0.04703058
126	0xbd08fc67	-0.033443835
127	0xbc54bd46	-0.012984579
128	0x3bb9aecb	0.005666589
129	0x3cc2b777	0.023769123
130	0x3d205617	0.0391446
131	0x3d822404	0.06354526
132	0x3da3cf20	0.0799849
133	0x3dc655f8	0.09684366
134	0x3ded59c9	0.11589391
135	0x3e01b989	0.12668432
136	0x3e19b43a	0.15010157
137	0x3e304a35	0.17215808
138	0x3e3fe289	0.1873876
139	0x3e58cbde	0.21171519
140	0x3e6a8ec2	0.2290602
141	0x3e7d97ee	0.24764988
142	0x3e88032f	0.2656493
143	0x3e905457	0.28189346
144	0x3e9afbe3	0.302703
145	0x3ea5829c	0.3232621
146	0x3eab1da4	0.33421052
147	0x3eb44cbd	0.35214797
148	0x3eb1e283	0.34743127
149	0x3e6f40d4	0.23364574
150	0xbd36907a	-0.044571377
151	0xbd6419db	-0.05568872
152	0xbd98229c	-0.07428476
153	0xbd23fe40	-0.040037394
154	0xbd89111d	-0.06692717
155	0xbd4ce076	-0.05001875
156	0xbd64b46f	-0.055836137
157	0xbd8ac866	-0.06776504
158	0xbd26f3b4	-0.040759757
159	0xbd7e1dec	-0.062040254
160	0xbd5ff15f	-0.05467355
161	0xbd295f56	-0.041350685
162	0xbd653b8d	-0.055964995
163	0xbd5c17f6	-0.05373379
164	0xbd71b2f7	-0.059008565
165	0xbd3101db	-0.04321466
166	0xbd4657cb	-0.04842357
167	0xbd52f8ba	-0.051506735
168	0xbd1c2f91	-0.0381313
169	0xbd43746b	-0.047718447
170	0xbcf7b127	-0.03023584
171	0xbcb6c3d4	-0.022310175
172	0xbcac68f0	-0.021046132
173	0xbc767926	-0.0150435325
174	0xbc733f41	-0.014846624
175	0x3aa676f7	0.0012700249
176	0x3b7b0217	0.0038300806
177	0x3bff0ec9	0.007783745
178	0x3cbd4003	0.023101812
179	0x3ca68d44	0.020331033
180	0x3cd8b961	0.026455583
181	0x3cfe8c24	0.031072684
182	0x3cd8d6a5	0.026469538
183	0x3d26c187	0.040711906
184	0x3d5d32a8	0.054003388
185	0x3d641e02	0.05569268
186	0x3d6d75ab	0.057973545
187	0x3d5d86f5	0.054083783
188	0x3d974a90	0.073872685
189	0x3d5527ab	0.052039783
190	0x3da424b4	0.08014813
191	0x3d9ef14b	0.07760867
192	0x3d99def1	0.07513226
193	0x3db3a8f9	0.08772463
194	0x3dae7955	0.08519236
195	0x3dbd50dd	0.09243939
196	0x3db53080	0.08847141
197	0x3dab7106	0.08371167
198	0x3d7f0bc6	0.062267087
199	0x3d60b6e5	0.05486192
200	0x3b960a5f	0.004578873
201	0xb7b91bc7	-2.2066653e-05
202	0xbc317b7b	-0.010832663
203	0x3aae0827	0.0013277576
204	0x3c65232c	0.013985436
205	0xba6e96ed	-0.0009101469
206	0xbc15773b	-0.009122665
207	0xbb0a9e16	-0.0021151355
208	0x3c232ae8	0.00995896
209	0x3aae53ff	0.0013300179
210	0x3bb68784	0.005570354
211	0x3b81f6d6	0.0039661927
212	0x3c6796e7	0.014135099
213	0xbaad078b	-0.00132011
214	0x3bb59da8	0.0055424757
215	0x3cae575c	0.02128189
216	0x3b911f01	0.004428745
217	0x3bddef65	0.006772923
218	0x3c3c3772	0.011487829
219	0xb9be06fe	-0.00036244834
220	0x3c0d7d09	0.008635768
221	0x3c20340e	0.009778036
222	0xbc202bf8	-0.009776108
223	0x3bd9f9d7	0.0066520977
224	0x3c9b1730	0.018931955
225	0xba56a2dc	-0.000818772
226	0x3c81a207	0.015824331
227	0x3ce569a9	0.028004484
228	0x3bd3a3a4	0.0064587165
229	0x3cb93657	0.02260892
230	0x3c464f2f	0.01210384
231	0x3b856cde	0.004071816
232	0x3c49b9c3	0.012312355
233	0x3c5d2e83	0.013499859
234	0x3cbf10a9	0.023323374
235	0x3c48bfa5	0.012252723
236	0x3c1db785	0.009626274
237	0x3d09d515	0.033650476
238	0x3c3e969d	0.011632589
239	0x3d070925	0.032967705
240	0x3d070953	0.032967877
241	0x3cbce3e6	0.02305789
242	0x3d061e64	0.032743827
243	0x3bff1f8a	0.007785742
244	0x3c11166d	0.008855444
245	0x3ce443f1	0.027864428
246	0x3c1f65ef	0.009728893
247	0x3c039a77	0.008032433
248	0x3cfc3fed	0.030792201
249	0x3c297dfc	0.010344978
250	0xbd867fed	-0.06567369
251	0xbd8b37e5	-0.067977704
252	0xbdafbbdf	-0.085807554
253	0xbd915870	-0.07096946
254	0xbdb15a0c	-0.08659753
255	0xbd93f42c	-0.072243065
