figs2-3_rl/results/space_invaders-DQN/network.pth (torch_old, 532545 bytes, 6 tensors)

conv.weight f4 [16, 6, 3, 3]
000000 b6 d8 49 3d 9e 45 c6 3d fb f5 d0 bd 2b 9b bc 3a
       0.049278937 0.09681247 -0.10203167 0.0014389505
000010 f8 a8 97 3d 9e 29 a8 3b 97 af f8 3e 38 1f 1a 3f
       0.07405275 0.0051319143 0.48571464 0.60203886
000020 4a 98 4c 3f 97 0c c2 3d c5 f9 46 3e 52 50 fa bb
       0.79919875 0.094750576 0.19431217 -0.0076389695
000030 f8 2c e0 3e a6 f5 92 be ed 86 20 be 4d cd 84 be
       0.43784308 -0.2870304 -0.1567647 -0.25937882
000040 a1 0f d4 3c eb ba 02 3d f8 f6 f3 3d ed 7f e7 3d
       0.025886359 0.03191654 0.1191234 0.11303697
000050 e0 0f de 3e 8e 6e e9 be 41 8c bb 3e d8 13 63 bf
       0.43371487 -0.4559216 0.36630443 -0.88702154
000060 d7 3b 2c be f4 e1 83 be c8 c2 03 3f fd e2 da 3d
       -0.16819702 -0.25758326 0.5146909 0.10687826
000070 f9 cf e4 bc 87 43 18 be f6 7c d1 3e 2b 36 01 bf
       -0.0279312 -0.1486951 0.4091565 -0.5047328
000080 be c4 07 3e 92 ea 2e bf 80 70 69 bd 7f 2c 9b bd
       0.13258645 -0.68326676 -0.056992054 -0.07576846
000090 61 74 7b 3d df 60 36 bc 72 a5 81 bc f1 60 99 bd
       0.061390284 -0.011131494 -0.01582596 -0.07489193
0000a0 48 d4 54 3d d4 2d d9 bd 8b c4 bd 3e ae ed 95 3c
       0.05196026 -0.10604444 0.37064013 0.018301811
0000b0 e1 04 41 bf 4d 77 e5 bd ba 36 87 be db 53 86 bd
       -0.7539807 -0.112043954 -0.2640894 -0.06558963
0000c0 ed 55 e9 bd ea 2f cf be 54 2a 53 be a1 53 df bd
       -0.11393342 -0.40466243 -0.20621616 -0.10904623
0000d0 4b 92 98 bd 12 ff 41 bd d2 61 63 3e c6 f4 cc 3e
       -0.07449778 -0.047362395 0.22205284 0.40030497
0000e0 62 ef b3 3d 4c d8 37 be 2a 47 ab bd e8 43 79 3e
       0.08785893 -0.17953604 -0.08363183 0.2434231
0000f0 5c f4 4b bf 36 95 95 3f 36 f8 e9 be d4 ed c9 be
       -0.7966974 1.168616 -0.45697182 -0.3943926
000100 1e f8 5e bf 5a 59 6b be ca cc 8d be 06 8d 87 bb
       -0.87097347 -0.22983304 -0.27695304 -0.0041366844
000110 10 df e9 bd 3c 25 95 bf 50 a4 2d 3f 83 b1 30 3e
       -0.11419499 -1.1651988 0.67828846 0.17255215
000120 b7 f8 49 3e 8f 9a 24 bf e0 27 9d bf c7 3e ad 3e
       0.19723783 -0.6429834 -1.2277794 0.33836958
000130 ba 04 ad 3e d7 33 e0 3e ce a7 a5 be dd d5 4d bf
       0.3379267 0.4378955 -0.32354587 -0.80404454
000140 14 cd 29 bf d5 28 e1 bf c3 76 a6 bf 1a a6 71 3e
       -0.6632855 -1.7590586 -1.3004993 0.23598519
000150 95 2f d3 be 6d b6 22 c0 27 57 ed bf 49 be 19 bf
       -0.4124724 -2.5423844 -1.8542222 -0.6005598
000160 ac be a9 3f 46 24 80 3f e0 0f 9d 3c 26 ea 01 3e
       1.3261313 1.001107 0.019172609 0.12686977
000170 c6 e0 16 3d f8 6e 96 3c 77 07 af bd 49 62 7a 3d
       0.036835454 0.01836346 -0.08546346 0.06112889
000180 a8 85 fc 3c 21 59 4a be d6 75 2c 3b 91 40 fa bd
       0.030825451 -0.19760562 0.0026315353 -0.12219346
000190 1b 7e c9 3c 99 f9 a6 be f5 79 8b bf 8e 13 1f 3e
       0.024596265 -0.32612303 -1.0896593 0.15534803
0001a0 9c 6e 89 bf e5 98 b0 bd 54 01 43 3d e5 ee c7 bb
       -1.073688 -0.08622912 0.04760869 -0.0061014765
0001b0 54 ca 50 be 6f 3f de 3d 07 14 ff bd 81 9b 34 bc
       -0.20389682 0.10851943 -0.12454992 -0.011023403
0001c0 ff d1 e5 3a 6c 9b 39 bb 66 4e c1 bf 14 4f 12 3d
       0.0017533897 -0.0028321398 -1.510205 0.035719946
0001d0 5c e7 69 3e c6 3a 87 3e 45 b0 10 3e a1 df cb 3e
       0.22842163 0.26412028 0.14129741 0.39819053
0001e0 5f f5 86 3e fd b4 4e 3d b2 46 c0 3d 48 06 92 be
       0.26359078 0.050465573 0.09388484 -0.28520417
0001f0 cd 3d 51 3e 58 4c e6 bd 55 9b 83 3e 39 51 f5 3d
       0.20433731 -0.1124503 0.25704446 0.119783826
000200 4c aa 86 be f1 a8 29 bc 28 36 5c be 34 bc ca 3d
       -0.263018 -0.01035522 -0.21505034 0.09899178
000210 84 98 17 be 82 52 81 3b 02 f3 a6 3c 05 51 e9 3d
       -0.14804274 0.0039466033 0.020379547 0.113924064
000220 1d 66 bb 3d 08 ae 71 bd f1 ee 11 3d 43 01 9d bd
       0.09150336 -0.05900386 0.035628263 -0.07666256
000230 e4 94 70 3e 67 2f 93 bd bf 37 56 be 87 ef 69 be
       0.23494297 -0.07186776 -0.20919703 -0.22845279
000240 bc 67 e1 3d 4a 03 8e bd 0b 86 7d 3d 54 6d 99 3e
       0.11006114 -0.06934221 0.06189541 0.29966223
000250 ba 77 19 bd c6 57 ce 3a 65 3b 32 3f 90 2d 67 3f
       -0.037467696 0.0015742711 0.6962188 0.903039
000260 8f c2 83 3f f2 59 86 bd 63 ad 8d 3d 40 dd 80 bd
       1.029375 -0.065601245 0.069178365 -0.062922
000270 80 65 c6 bd bf 15 ab 3e 81 81 66 bc 0a d4 aa 3c
       -0.09687328 0.33415028 -0.014068962 0.020853061
000280 f2 d1 42 bd 87 7d f7 bb 3d f2 ed 3d 91 4c 77 3d
       -0.0475635 -0.007552806 0.11618469 0.060375754
000290 be 86 89 be 72 2c be 3d 54 de 36 3d 2a 26 81 3d
       -0.26860613 0.09285821 0.044645622 0.06306107
0002a0 c8 16 72 bd 6f 49 54 be b7 04 81 3f c8 a2 46 3d
       -0.059103757 -0.20731138 1.0079564 0.048495084
0002b0 f8 d6 3b bf 79 f0 00 3e ea 39 8d 3d d3 73 9b bf
       -0.7337489 0.12591733 0.06895812 -1.2144722
0002c0 82 a7 73 3e b9 55 23 3f 17 12 a7 3e 2d a6 13 3f
       0.23794368 0.6380268 0.3263099 0.5767544
0002d0 af c1 33 bf dd ac f2 bf 53 9d e7 bd 3e c8 64 3c
       -0.7021741 -1.8959004 -0.11309304 0.013963757
0002e0 44 62 01 bf 12 3f 57 3d 57 ea af be a1 61 e6 3d
       -0.50540566 0.052550383 -0.34358475 0.1124909
0002f0 15 1a a4 3f ca 10 f8 3c 60 55 4c 3e 9d 4b b3 bc
       1.282046 0.030281443 0.19954443 -0.021886641
000300 63 64 76 3e 90 ad a7 bf 21 e4 b7 bd 24 6e 8b 3f
       0.24061732 -1.3099842 -0.08979059 1.0892987
000310 c6 29 7c 3a 2f 9d fe be 6b e7 43 3d b5 f8 22 bd
       0.0009619262 -0.49729297 0.04782812 -0.039787967
000320 68 63 f4 3d d7 bf 01 bd 8d 43 c2 3c f4 b8 3a 3c
       0.11933023 -0.031677093 0.023713851 0.011396635
000330 5c 4e a6 be 0f ea 49 bf f8 b8 a2 be 48 6c ac 3c
       -0.32481658 -0.7887277 -0.31781745 0.021047726
000340 c6 96 3e be 81 04 c4 ba 97 91 cd 3d a7 57 83 bf
       -0.18612203 -0.0014954956 0.10037535 -1.0261124
000350 0a a6 37 3b 3e 1a e7 bc 0e 63 46 bd 63 4b b1 3c
       0.002802255 -0.028210755 -0.04843431 0.021642393
000360 7e c5 76 3d be 60 62 3e 88 9d 63 3d 57 53 69 be
       0.060246937 0.22107217 0.055570155 -0.22785698
000370 d1 c6 c2 3e 01 0a 58 be 39 b0 29 be c0 26 1c 3e
       0.3804231 -0.21097566 -0.1657113 0.15249157
000380 bb e7 1d 3d 85 72 ca bd e1 ba 9c bd f1 cc 33 be
       0.038551074 -0.09885124 -0.07652832 -0.17558648
000390 43 cb 86 be f4 a3 ce 3e a9 89 50 3f 48 65 b4 bc
       -0.2632695 0.4035946 0.8146005 -0.02202095
0003a0 b9 c0 af bc 28 36 2c bf aa 67 62 3d cd 81 d3 bd
       -0.021454202 -0.67270136 0.055274643 -0.10327492
0003b0 69 70 0b 3e 37 df 74 bd 88 c4 44 bf 26 e8 46 3f
       0.136171 -0.059783187 -0.7686238 0.7769798
0003c0 01 72 65 be d1 e6 b5 3d d3 37 8e 3e 6f d4 57 be
       -0.2240677 0.08881915 0.27776965 -0.2107713
0003d0 50 bc 57 3d f4 df 6e 3d 4f d1 17 bd fd 51 47 3f
       0.052669823 0.058319047 -0.037064847 0.7785948
0003e0 be 33 83 3f f2 3f 86 3e 8c 51 00 bf 32 fd 8f bf
       1.0250165 0.2622066 -0.5012443 -1.1249144
0003f0 ed a0 ea 3d 9d 56 9c bc 19 43 82 bc 9e 31 11 3e
       0.114564754 -0.01908427 -0.015901135 0.14179084

conv.bias f4 [16]
000000 fd 22 e4 3d a9 a7 28 bd e7 28 93 bb ed 7e f1 bc
       0.11139486 -0.04117552 -0.00449096 -0.029479468
000010 4f a0 8b bd d1 49 b9 bd b4 4b 86 bd 22 42 d4 bc
       -0.06817686 -0.090472825 -0.06557408 -0.02591044
000020 19 21 79 be 5a 59 2d 3d 03 5a 53 3e 47 b4 4a 3c
       -0.24329032 0.04232154 0.20639805 0.012372083
000030 07 1b 98 3c c8 a7 72 3e ba 68 61 bd ad b2 77 3d
       0.018567575 0.23696816 -0.055031516 0.060473133

fc_hidden.weight f4 [128, 1024]
000000 d9 09 01 3e a4 62 22 3d 08 de 48 be 1d 01 16 3e
       0.12601413 0.039644852 -0.19615948 0.14648862
000010 fd 71 47 3e 02 81 d2 3b 57 f4 83 3d 7a e0 47 be
       0.19477077 0.0064240703 0.064430885 -0.19519225
000020 5f bc cb bc fb 99 14 be 06 71 80 3d 6d 99 ec 3d
       -0.024870096 -0.14511864 0.062715575 0.11552701
000030 f2 87 8b 3c f9 11 61 bd 2b f2 7e 3c f9 34 e7 bd
       0.017032597 -0.05494878 0.015560667 -0.112894006
000040 44 97 6e 3d e5 a5 8e be b6 b6 1d 3d e0 bb 4b 3d
       0.058249727 -0.27860942 0.038504325 0.04973972
000050 1f f8 68 3d f8 39 da 3c 7e bc 07 be ef 27 02 3d
       0.05687725 0.02663897 -0.13255498 0.031776365
000060 6b 29 70 3e 84 d4 e9 3d 63 ab d0 3d d0 35 fc 3d
       0.234533 0.11417487 0.101889394 0.123149514
000070 0e d7 86 bd 64 35 42 3d a6 15 a4 3d 15 f3 17 be
       -0.06583987 0.0474142 0.080119416 -0.14838822
000080 c6 8e 1f 3e c3 9f b2 3d da bf b3 3d e7 81 71 be
       0.15581807 0.087218784 0.08776827 -0.2358471
000090 8c 03 e6 bc 69 94 51 3e 46 12 1f 3e 47 9c 71 bd
       -0.028077863 0.2046677 0.15534315 -0.05898693
0000a0 d1 f1 07 be 50 b3 2e 3e b5 f6 ec 3d f8 77 95 3e
       -0.1327584 0.1706059 0.11570493 0.2919309
0000b0 89 8b 21 3e 78 8f d2 bc 89 d8 a4 bd a8 b6 28 3e
       0.15775885 -0.025703177 -0.08049113 0.16475928
0000c0 6e 0c 28 be e1 37 04 3d e5 a8 d9 3d f4 9a d3 bd
       -0.16410992 0.032279853 0.10627917 -0.10332289
0000d0 a5 a6 af be 7d 10 4e 3e 96 d4 e8 3d 01 58 9f 3d
       -0.34306827 0.20123477 0.113686725 0.07780457
0000e0 82 67 36 bf ed 55 6a bd 48 2b cc be ba d8 d3 be
       -0.7125169 -0.05721085 -0.3987677 -0.41376287
0000f0 df e0 9d be 7b d2 00 bf 9d 81 17 bf df 24 3d bf
       -0.30835626 -0.5032117 -0.5918215 -0.73884386
000100 da f1 a4 bd 9c 90 96 bd 92 d3 63 be 55 43 07 3e
       -0.08053942 -0.07351801 -0.22248676 0.13209279
000110 9e 94 04 3d 0c 16 1f bd 1e e1 b4 be 29 ff 44 3e
       0.032368295 -0.038839385 -0.35328 0.19237961
000120 e1 85 70 be ec 4a b5 3c f9 9c 00 3e c4 e0 12 3e
       -0.23488571 0.022130452 0.1255988 0.14343554
000130 f7 b8 11 3e 99 d7 4d 3e 31 5a d1 be 79 bd 89 be
       0.14230715 0.20101775 -0.40889123 -0.2690237
000140 d8 fd bc bd fd 16 4a 3e 7b 0c 15 be f9 b3 b3 bd
       -0.09228104 0.19735332 -0.14555542 -0.087745614
000150 0c 3b 59 bc ea 24 04 3e a8 23 64 3c c4 8e 68 3e
       -0.013258707 0.12904707 0.013924517 0.22710711
000160 67 1e e8 3e 6d d0 1b 3d 4a 86 40 3e 34 8b 36 3d
       0.45335695 0.038040567 0.18801227 0.04456635
000170 38 bb 19 3e 5b de 10 3f 48 f9 1c 3d 98 2f bb 3c
       0.15012825 0.5658929 0.03832367 0.022849843
000180 cb bf 8c 3e 04 b5 94 be 2d 0b 15 3d 95 9d cb bd
       0.27490076 -0.29044354 0.03638761 -0.09942166
000190 f1 c7 d4 be 69 f6 e1 be 60 1f 1f bf 7a 6a dd be
       -0.41558793 -0.4413331 -0.6215725 -0.43245298
0001a0 42 fa 54 be a3 ec 40 3e a1 a1 90 be a2 e9 b2 3c
       -0.20798591 0.1884027 -0.28248313 0.02183992
0001b0 e7 44 91 bd cf 3b ca bb 6f 98 57 be 5b 87 ff 3d
       -0.0709322 -0.0061716805 -0.21054243 0.12476989
0001c0 38 4d c7 3d 0f 9a ad be 95 6a 11 be f7 2f 83 be
       0.09731525 -0.339066 -0.14200814 -0.25622532
0001d0 18 82 45 3d 83 9a 02 be 95 1d 67 bf 2e 43 35 bf
       0.04821977 -0.12754254 -0.90279514 -0.70805633
0001e0 b8 94 30 be 16 70 58 3e 92 e9 71 3e ed 1c 0a 3f
       -0.17244232 0.21136507 0.23624256 0.5395039
0001f0 0c fd ee 3e 47 53 b0 3e 65 0e 23 3f 3b 44 2f 3f
       0.46677434 0.34438536 0.6369384 0.68463486
000200 6c 49 9f 3d 14 a8 8b 3d b0 d0 0c be fc 80 90 3d
       0.07777676 0.06819168 -0.13751483 0.07055852
000210 70 7f 82 3d 5f e6 80 3e 29 aa 73 3d b2 0d 74 3e
       0.06371963 0.2517576 0.05948845 0.2383335
000220 1f ac 05 3e 80 dd 8c 3d 0a 70 4b 3d a9 f0 bd 3d
       0.1305394 0.06878185 0.049667396 0.09274418
000230 2b 16 f3 bd 15 f1 9a 3c 36 42 76 3e 61 ac 10 3e
       -0.118694626 0.018913785 0.24048695 0.14128257
000240 0f 2f a1 3d b7 7c 62 bd e7 53 b4 bd fc 95 94 bd
       0.07870304 -0.05529472 -0.088050656 -0.0725517
000250 97 1e af bd 4b 7d 7e 3c 79 fb 36 3d d4 0a 93 3d
       -0.085507564 0.015532802 0.044673417 0.071798
000260 cc f1 19 3e ee 04 c2 3d a3 6f bd 3d d7 f7 1b 3e
       0.15033644 0.094735965 0.09249809 0.15231262
000270 e7 c3 f6 bc e3 02 e7 bd 40 f0 8c bd 0f 68 bc bb
       -0.03012271 -0.112798475 -0.068817616 -0.0057497094
000280 ae bb e4 bc c2 57 ba bd a3 f4 43 be 61 07 e3 bd
       -0.027921524 -0.0909877 -0.1913629 -0.11085392
000290 b5 13 12 bd 35 7a 02 bd 49 4c 78 bd 86 3e 14 3e
       -0.035663325 -0.031854827 -0.060619626 0.14476976
0002a0 59 39 de bd 75 ac 00 be 2e ae da bd 0e a1 d6 be
       -0.10850782 -0.12565787 -0.106777534 -0.4191975
0002b0 e5 a2 8a bd 9d 55 c6 3b 52 f7 52 bd 3f de ec 3c
       -0.06769351 0.0060526864 -0.051505394 0.028914569
0002c0 44 e5 f4 3d 84 55 ed 3d 98 c6 65 3e 14 84 bf 3d
       0.119577914 0.115885764 0.22439039 0.09351364
0002d0 9c 3d e1 bc ae 50 51 3c 78 59 da bd cf b8 53 bd
       -0.027495198 0.012775583 -0.10661596 -0.05168992
0002e0 46 6c 11 3f 04 17 c2 3e cf e4 92 bd 16 ff c7 3e
       0.5680584 0.37908185 -0.07172548 0.39061803
0002f0 de 0d 11 3f 14 4b d0 3e 3b 87 1a 3e d1 49 7d 3e
       0.56661785 0.4068228 0.15090649 0.2473519
000300 e8 10 5b be fe 2c aa 3a 39 2c 9c 3d 4f 97 cf 3a
       -0.21393168 0.001298338 0.07625622 0.001583794
000310 bc a8 8c bd a1 3e a8 3c b3 b6 17 3c dd 08 a5 be
       -0.06868121 0.020537676 0.0092598675 -0.32233325
000320 de 53 20 be 1e 62 32 3d 09 2c aa be d0 d9 37 3d
       -0.15656993 0.043550603 -0.3323672 0.044885457
000330 7b 8b 00 bd b2 df 40 3e e9 27 7f bd 20 03 ce 3d
       -0.03138302 0.18835333 -0.06229392 0.1005919
000340 86 60 b7 bd 67 5f fd bd bb 8d 5f be 37 19 4f 3e
       -0.08953957 -0.12371712 -0.2183141 0.20224462
000350 0f 23 c9 3d b9 41 5a 3e 4d 2d d7 3d 25 b9 e8 3c
       0.0982114 0.21314134 0.10506687 0.028408596
000360 9d 18 ee 3d 3d 95 a6 3e f4 48 0d 3e 97 ba 06 3e
       0.11625788 0.32535735 0.1379736 0.13157116
000370 12 11 e7 ba 62 3a 23 be 35 39 8f 3e 61 9b 32 bd
       -0.0017628989 -0.1594024 0.27973333 -0.043605212
000380 83 44 4f be 07 79 e4 bc 81 96 29 3e c2 09 ef bd
       -0.20240979 -0.027889742 0.16561319 -0.11671783
000390 fa 6f 5b bc 0b 6e 9f bd e5 ba f6 3c 0d 94 fc 3d
       -0.0133933965 -0.07784661 0.030118415 0.12332926
0003a0 ed d7 b0 3d ef a6 42 be ab b3 4f 3e 32 69 a1 3e
       0.086349346 -0.19008993 0.20283382 0.3152557
0003b0 9a 12 24 3e 54 26 c1 3e e6 3e 73 3d eb f3 d7 bd
       0.16022721 0.37724555 0.059386156 -0.105445705
0003c0 c1 e9 f2 3c 84 4d a5 3d f1 da 0f 3f dd 3d 73 3d
       0.029652478 0.080714256 0.56193453 0.05938517
0003d0 d1 ff a8 be f2 9a 41 bf cd 11 9e 3e 99 82 0d 3f
       -0.33007672 -0.7562705 0.30872956 0.552774
0003e0 ca 18 06 3f 87 2e 18 bd eb 9b a9 3e ad ae 88 3e
       0.52381575 -0.037153747 0.33126768 0.26695767
0003f0 0b bb 03 3e a2 fe b6 3e 2d c0 d5 bd 77 00 c7 bd
       0.1286432 0.35741144 -0.10437045 -0.097168855

fc_hidden.bias f4 [128]
000000 61 e2 a5 3d e0 25 67 be b7 92 d6 bc e8 f5 67 3d
       0.08099819 -0.22573042 -0.026193006 0.056631
000010 af 4b 23 be c8 31 ff bd d3 1b ab bd 96 c8 f7 bb
       -0.1594684 -0.12460667 -0.083549164 -0.0075617535
000020 f7 8b d2 3e ab be 47 3e b0 d0 29 be 0c 91 b2 3e
       0.4112241 0.19506328 -0.16583514 0.34876287
000030 2d 39 b9 3e 12 6b 09 3e ff 7c 0f be c5 5b a7 3e
       0.36176434 0.1341975 -0.14012526 0.32687202
000040 01 ed 89 3e 44 e8 e0 bd e8 8f fc bc 3f a8 42 3e
       0.26938632 -0.10981801 -0.030830339 0.19009493
000050 e7 44 73 3c 2e 99 b9 bd 4c 05 ae 3e 05 15 88 3e
       0.014847971 -0.0906242 0.33988416 0.26578537
000060 c7 c9 a1 bd 85 82 ce 3e d5 70 c8 3c b5 7a 3b 3e
       -0.07899814 0.40333953 0.024467865 0.18308528
000070 d7 50 42 be 6e 2b db 3e 07 29 ef bd 36 6b b7 3d
       -0.1897615 0.42806572 -0.11677747 0.08955996
000080 69 6c ca 3d a3 55 6e 3d 3a 0b b0 3e d4 78 9f 3e
       0.09883959 0.05818714 0.34383565 0.31146872
000090 71 6e 17 3d 68 cf 31 be 4e 86 c0 3d 03 03 fc 3e
       0.03697056 -0.17364275 0.094006166 0.49221048
0000a0 56 4f d6 3d 0f 8d f4 bd 1d 6f b3 3c 09 36 d7 3c
       0.10464351 -0.11940967 0.021903569 0.026270883
0000b0 2d e8 a6 bd 3a a4 92 3c 2e 26 d2 bd af a1 f9 ba
       -0.08149753 0.017900575 -0.102611884 -0.0019045378
0000c0 f1 61 57 3e 84 47 1e be 68 a7 91 3c 29 1b 0e be
       0.21033455 -0.15456969 0.01778002 -0.13877548
0000d0 27 d7 6c 3e 7b 61 b9 bd b5 6a ac bd 16 be d3 bd
       0.23128949 -0.09051796 -0.0841879 -0.103389904
0000e0 7d a1 8a 3e 8a e5 08 be d6 46 e3 3d e0 28 b2 3e
       0.2707633 -0.13368812 0.11097495 0.3479681
0000f0 89 fa b9 bd bd 28 c5 bd df f4 d5 bc e5 b7 34 3e
       -0.09080989 -0.09626911 -0.02611774 0.17648275
000100 9a e2 87 3e 51 7a 77 3c e0 ae 52 bd 24 ba ae 3e
       0.2654007 0.015104846 -0.051436305 0.3412639
000110 e0 a5 ea 3e bc 1b 08 be 3e 01 e9 bd 50 a5 fa bd
       0.45829678 -0.1329183 -0.1137719 -0.12238562
000120 4c 87 5d bc a4 9f 27 be 67 68 2e bd c6 a9 c8 3c
       -0.013521027 -0.16369492 -0.042580035 0.024495017
000130 64 52 8a bd 28 ec 72 bc 5d 9e 38 be 91 94 f9 3e
       -0.06753996 -0.014826812 -0.18029161 0.4874616
000140 74 c4 45 be fe 06 3d be eb b0 22 3e 35 73 2c bd
       -0.19313222 -0.18459699 0.15887801 -0.042102057
000150 5a cf b2 3e 46 6f b3 3e b0 6f 05 be b8 42 78 3e
       0.34923822 0.35045832 -0.13030887 0.24244201
000160 92 16 e8 bd a9 b0 56 be 6e 15 0a bd 11 8a b0 3e
       -0.1133243 -0.20965828 -0.033711843 0.34480336
000170 88 45 c0 3d 22 5a 8e bc 11 58 55 3d 24 f3 3c 3e
       0.09388262 -0.017376963 0.05208594 0.18452126
000180 9b 57 aa 3d 71 e1 1a 3e c6 66 ce bc c4 fc f9 bd
       0.08317491 0.15125062 -0.02519549 -0.12206414
000190 5a 3a b0 3e a3 fe 43 bd a9 a6 92 be e1 69 3b be
       0.3441952 -0.047850262 -0.28642777 -0.18302108
0001a0 db ac e4 3e b9 20 e6 3e f1 71 94 bd 1b 9c d9 3e
       0.44663128 0.4494684 -0.07248295 0.42501912
0001b0 b6 79 6e 3e 25 de 7b be 0a f2 48 3d 5b 1a 90 bd
       0.23288617 -0.2459646 0.04905895 -0.07036277
0001c0 d1 17 b3 3e 62 0a 02 3d 10 b5 a6 3e c6 02 45 3c
       0.34979108 0.031748183 0.32560015 0.012024587
0001d0 16 3e 9a 3e fb 29 a8 3a be bf ae 3e df f0 83 3e
       0.30125493 0.0012829894 0.34130663 0.25769708
0001e0 07 00 89 3e cd 0e 06 be 18 38 95 3d b1 a2 e6 3e
       0.26757833 -0.13091584 0.0728609 0.45046
0001f0 83 fa ab 3d 3d 3f 8a bd c3 8b 85 be cb b6 b6 bd
       0.08397391 -0.06750343 -0.26083192 -0.08921584

output.weight f4 [6, 128]
000000 1c 54 ba bf c6 54 53 3f 5f eb 01 be ac 03 d5 3e
       -1.4556918 0.8255123 -0.12687443 0.41604364
000010 4a 96 fb 3e 25 eb f0 be da 2b 84 3f 6c 09 3e bf
       0.491381 -0.470544 1.0325882 -0.74233127
000020 9c 8d bc 3d 9e 35 da 3e bb e1 49 bf 8f cf dc 3d
       0.09206697 0.42619032 -0.7886006 0.10781776
000030 71 10 f9 3d 5b ea b4 3d de 27 3f bf 92 29 b1 3d
       0.12161339 0.08833762 -0.7467021 0.08650507
000040 a4 72 00 3e 54 2a 48 3f aa 8d 09 3f f0 81 80 3d
       0.12543732 0.7818959 0.5373179 0.062747836
000050 8c d5 40 3f 62 b5 0d 3f 1b 90 9b 3d b0 d8 85 3e
       0.75325847 0.55354893 0.07595845 0.26141882
000060 0f 60 b5 3e 85 8b b4 3d a0 20 e9 3e 07 16 90 3e
       0.3542485 0.08815674 0.45532703 0.28141806
000070 1a 77 98 3f d1 02 bd 3d ef d0 22 bf ec fb da bf
       1.1911347 0.09229053 -0.6360006 -1.710813
000080 d8 a2 e2 3e e2 51 ee 3d 9e 25 cc 3d b6 19 4f 3e
       0.44264865 0.11636712 0.099681124 0.20224652
000090 8a 44 d2 3e 4d 2f d3 3d 1a 31 d5 3d cd 96 1b 3e
       0.41067916 0.10311756 0.10409756 0.15194245
0000a0 41 44 d5 3e dd 4a cd 3e 4b 1f 02 3f 8d ae 0b 3c
       0.41653636 0.4009618 0.50829 0.008525503
0000b0 d8 24 58 3f 92 b6 48 bf fa 7b 15 bf e4 67 1e 3f
       0.8443122 -0.7840358 -0.583923 0.61877275
0000c0 44 3f 80 3d 39 59 26 bf 57 4d 93 3c f8 e8 1f bf
       0.06262067 -0.6497989 0.017981214 -0.6246486
0000d0 bc 1a e2 3d f2 b7 f0 be 04 30 8c 3f 95 29 1e bf
       0.110402554 -0.4701534 1.0952153 -0.617822
0000e0 68 11 49 3e da ca a7 3e 2f 99 57 3e 9d 82 17 3e
       0.19635546 0.3277195 0.21054529 0.14795919
0000f0 33 41 01 bf fd 4a 02 3f cd cd 4b 3f 2d 98 34 3d
       -0.5049011 0.50895673 0.796109 0.04409044
000100 38 81 06 3e c3 d5 00 3e cf 7c 45 be c4 81 1b 3e
       0.1313523 0.12581544 -0.19285892 0.1518622
000110 83 4c 0f 3d 25 12 4a 3f a7 75 33 3e 3d 42 63 bf
       0.034985077 0.78933936 0.1752535 -0.88772947
000120 4a f5 ee bd 22 e4 31 bf 2a 9b a2 be 16 11 d9 be
       -0.11667879 -0.6948873 -0.31759006 -0.42395848
000130 80 b4 23 bf f2 d2 c3 3c ed c7 20 bf f0 86 33 3e
       -0.63947296 0.023904298 -0.6280506 0.17531943
000140 d7 cb 04 3f 12 64 40 3f 37 ae 02 3e ad f4 36 bf
       0.51873535 0.75152695 0.1276177 -0.71467096
000150 af 49 d9 3d 2b ed 0c 3d 84 dd ae 3e 16 0c 15 3e
       0.10609757 0.03440587 0.34153378 0.14555392
000160 37 a3 2b 3f 68 4a 6d 3f f3 e2 18 bf 25 2c dd 3d
       0.6704592 0.9269166 -0.597213 0.107994355
000170 b9 cc 46 3f 67 71 31 3d 12 38 1a 3f 8b 2b 5a 3e
       0.7765613 0.04332104 0.60241807 0.21305673
000180 cf 79 06 3f 72 c1 9e 3c 5e d8 f7 be 4b a9 c9 be
       0.52529615 0.019379351 -0.48407263 -0.39386973
000190 45 d7 8e 3d ca 90 ad bf 38 98 16 3f 11 fc 0c 3f
       0.06974653 -1.3559811 0.5882602 0.5507212
0001a0 df a6 9c 3d bd f2 08 3e 99 33 49 bf 1c 08 af 3d
       0.07649016 0.13373847 -0.78594357 0.085464686
0001b0 67 67 12 3e 0e 0b ba be de af 1b 3d 95 1d 25 bf
       0.14297257 -0.3633656 0.038009517 -0.64498264
0001c0 4b 60 39 3d f1 5c 05 bf 18 ed 90 3d f6 28 6d 3f
       0.045257848 -0.5209494 0.07076472 0.92640626
0001d0 49 b1 b7 3d a6 6b 3a bf bd bf b0 3d 1d 96 cc 3d
       0.08969361 -0.7282051 0.08630321 0.09989569
0001e0 9f c6 55 3d 7e eb 57 3e 72 cb 91 3e 2f e0 66 3e
       0.052191373 0.21085927 0.2847553 0.22546457
0001f0 82 1c 75 3e ba 6e 97 be 55 75 c0 3e 1a b1 a3 bf
       0.23936656 -0.29576665 0.37589517 -1.2788422
000200 ae 29 62 3e f9 de 03 3f e2 0d 47 be e8 ed d7 3e
       0.22086212 0.51512104 -0.1943889 0.42173696
000210 ae eb 6b bf 7a 5d 08 bf ca ef 36 3e df e9 2b bf
       -0.92156494 -0.53267634 0.1786491 -0.67153734
000220 26 18 99 3d bb 14 e6 3e 2d 93 5c bf 21 40 e0 3d
       0.07475309 0.4493769 -0.8616207 0.109497316
000230 14 e5 0f 3e e4 f5 b3 3d b5 c6 49 bf a2 14 9f 3d
       0.1405223 0.08787134 -0.7881883 0.07767607
000240 55 50 4c 3c d2 f8 4d 3f b2 17 dc bf 5b ff d7 3d
       0.0124703245 0.80457795 -1.7194731 0.10546752
000250 32 67 3c 3f 08 51 fc 3e b7 f0 f4 3d f9 a8 6c 3e
       0.73594964 0.49280572 0.11959975 0.23111333
000260 07 a0 b6 bf 11 56 9b 3d d6 29 ea 3e 38 e6 b6 3e
       -1.4267586 0.07584775 0.45735043 0.35722518
000270 20 76 a0 3f 7c ae a1 3d 3f 61 00 bf 9b b5 4e 3e
       1.2536049 0.078946084 -0.50148386 0.20186464
000280 1a 85 f2 3e ff 8b dc 3d 02 02 e1 3d 0f ac 3b 3e
       0.47367173 0.1076889 0.10986711 0.18327354
000290 4a e3 d5 3e d3 ab 46 c0 77 2f dd 3d 87 4c 93 3e
       0.4177497 -3.1042373 0.10800069 0.28769323
0002a0 97 a1 d8 3e 0d 37 e6 bf 65 03 3c bf 54 2f ce 3c
       0.42310783 -1.798555 -0.7344268 0.025169052
0002b0 57 a5 bc 3f b9 5c 11 bf bd 36 26 3f 97 1d 19 3f
       1.4737958 -0.5678211 0.64927274 0.59810776
0002c0 b7 9d 00 bd f6 79 a0 3f 90 f2 50 c0 ca 55 5c bf
       -0.03140041 1.253722 -3.2648048 -0.86068404
0002d0 f8 21 dc 3d f4 71 22 3f 83 d6 3e bf 99 6e 92 bf
       0.107486665 0.6345513 -0.7454607 -1.1440002
0002e0 59 a8 2e 3e 72 38 25 c0 e5 5e 49 3e 8d f3 15 3e
       0.17056407 -2.5815701 0.19665106 0.14643688
0002f0 af 6a 05 bf 69 df b0 bf ab 2f 41 3f bc 40 90 bd
       -0.5211591 -1.3818179 0.7546336 -0.07043597
000300 77 78 19 3e 62 16 ef bf 4d 79 27 c0 91 db 22 3e
       0.1498736 -1.8678706 -2.6167786 0.1590407
000310 95 13 3f 3d 42 02 b0 bf ee 73 80 3f 0b 8f a9 be
       0.046649534 -1.3750689 1.0035379 -0.33116946
000320 da 4f 31 3e 84 57 31 bf 5d 42 a3 be d9 9a c6 be
       0.17315617 -0.69274163 -0.3188657 -0.38790014
000330 c8 99 a5 bf 2d ae 9d bd e5 87 1f bf dc 12 10 3e
       -1.2937555 -0.07699237 -0.62316734 0.14069694
000340 b5 87 44 3f 71 44 20 3f 85 79 25 3d 76 90 62 be
       0.7676957 0.62604433 0.040399093 -0.2212542
000350 a2 ec e4 3d fd 18 1c 3d 36 c9 22 3f 82 4b 2e 3e
       0.111779466 0.03810977 0.63588274 0.17020991
000360 80 78 1f c0 51 ac 91 3f d0 8b 4b bf 7a ec 04 3e
       -2.4917297 1.1380712 -0.7951021 0.12980834
000370 9a a7 5a 3f 96 b0 58 3d d0 77 2a 3f e1 a8 7e 3e
       0.8541199 0.05290278 0.6658907 0.2486911
000380 8c 08 16 3f 07 23 6b c0 c0 39 3e 3f 8f 6b 18 3f
       0.5860679 -3.674013 0.7430687 0.5953912
000390 27 e6 b3 3d 3c 8c ca 3e 89 cb 01 bf d3 50 14 3f
       0.087841325 0.39560115 -0.50701195 0.5793583
0003a0 61 52 dd 3d ec 9f 11 3e dd 35 41 bf 6d ce 06 3e
       0.10806728 0.14221162 -0.75472814 0.13164683
0003b0 c0 83 eb 3d cb c3 8c 3e 73 85 3a c0 c1 f7 09 bf
       0.11499739 0.27493128 -2.914395 -0.5389367
0003c0 61 f8 63 3d 1c c5 8a bf 49 b1 cf 3d 39 34 df bf
       0.055656794 -1.0841403 0.10141236 -1.7437812
0003d0 83 15 9e 3d 30 2f 5a bf 60 a3 e8 3d 72 fb a0 3d
       0.07718947 -0.8522825 0.11359286 0.078604594
0003e0 48 60 d8 3d 2c 76 93 bf b2 b0 84 3e 9e ff 0a 3e
       0.10565239 -1.1520438 0.25916058 0.13574073
0003f0 6b 43 86 3e 62 80 93 bf 65 73 2d 3f 9c e1 59 3f
       0.2622331 -1.1523554 0.67754203 0.8510988

output.bias f4 [6]
000000 41 ce 88 3e 82 4f c0 3e 5f 1a 84 3e 88 c7 f2 3e
       0.2671986 0.3756066 0.2580137 0.47417855
000010 b6 b2 91 3e df 91 06 3f
       0.28456658 0.5256633
